code/python/spin_model/10_128_2_5_10_4950_350_use_train_spin_model.npz (npz, 499187 bytes, 7 tensors)

xh/b f4 [128]
00000000: 2586 403e 34ff 863f 2676 c0bf 83f6 5d3f
00000010: 16ef 9d3e 8a6c 26bf b579 993e 9654 973e
00000020: 7e9b 9fbf 90da 853f b5c5 d53f adf4 05bf
00000030: d3ab 2c3d c46b 3cbf 2e62 1b3e bf19 b83d
00000040: 4d60 14bf 3d03 2b3f fb33 b33e b040 043f
00000050: 25a3 e5be 7f4e e43c 1413 d93e 38d4 233f
00000060: 5b01 38bf 5799 903d f037 e0be db3f 193f
00000070: 1717 9abe 58d9 b73e 64b1 03be c715 b13e
00000080: d6e5 9dbf 04b2 89bf 3ca2 bdbf 3735 d53e
00000090: e5f6 e6be e3da 643e ff32 713f 7aa3 9e3e
000000a0: 72de c13e cfd8 8e3e f048 24be 7c5f 713f
000000b0: 0fcc 503f c5ab 13be 7845 9dbd 1774 1bbe
000000c0: 2328 10bd 2fe3 2c3f a264 2b3e 8482 8c3f
000000d0: d260 553e cc06 ae3d 4691 1a3d 4042 063f
000000e0: 96b0 22be 56f5 d4be c1a6 38be 2b38 113e
000000f0: c7b5 3dbe 987c 4d3e a6fc 1b3d 7786 e1bd
00000100: c27c d2bf ceb6 13bf 45d5 123d 1846 b83e
00000110: 84b6 a4be bc5d 2abd d15f 2d3f c3f5 cbbe
00000120: ff58 11bf 2445 fb3d bd96 88be b964 1dbf
00000130: 8751 37be a5a0 8b3e 5771 a23d 7108 113f
00000140: 558a b13d fd2c 8e3f 6323 143f 3cbf 43bf
00000150: 970f 193f 33c4 4d3e 0b94 9cbd eec7 12bf
00000160: 3f4b 9e3e 8289 8c3f b201 a53f d95f fe3d
00000170: 8f2d c6be 7758 a23e 97c5 0cbf cf14 ef3e
00000180: 730c 68bf 378f 623c 62a8 8dbd 1ad9 5dbe
00000190: f949 ad3e 0e6e 3ebe ccfe 983e f495 ec3e
000001a0: db77 a8be 8787 9b3d a005 99be 284b 863e
000001b0: 4d91 1ebe 899c 3abf f59d cb3d c2ce 8e3d
000001c0: 8429 b83d a6c6 a8be 19f2 1e3e 32fb fe3e
000001d0: 3a25 4c3f 8daa c0bd cc94 12bf 7ab1 3a3f
000001e0: f747 453d 7b6e ffbe a526 a83d be24 d23e
000001f0: 7b97 a43f 1c0a 913e 64fc 2ebe b4a8 b8bf
0.18801172 1.0546632 -1.5036056 0.8670427 0.3084647 -0.6500937 0.29975668 0.2955672
-1.2469327 1.0457325 1.670096 -0.5232647 0.04215605 -0.7360194 0.15174171 0.08989286
-0.57959443 0.66801816 0.35000595 0.51661205 -0.44851032 0.027869461 0.42397368 0.63995695
-0.7187707 0.07060497 -0.43792677 0.5986306 -0.3009574 0.35908008 -0.12860638 0.34586927
-1.2335765 -1.0757451 -1.4815135 0.41642162 -0.4511024 0.22349124 0.9421844 0.30984098
0.37865025 0.27899787 -0.16043448 0.9428632 0.8156137 -0.14420994 -0.07679266 -0.15181004
-0.035194527 0.67534155 0.16737607 1.097733 0.20837715 0.0849739 0.0377362 0.5244484
-0.15887675 -0.41593426 -0.18032362 0.14181583 -0.18526374 0.2006706 0.03808274 -0.11011975
-1.6444323 -0.5770081 0.03584792 0.35990977 -0.32170498 -0.0415933 0.6772433 -0.3983594
-0.5677642 0.12269047 -0.26677504 -0.61481816 -0.17902194 0.27271 0.07931774 0.56653506
0.08668963 1.1107479 0.57866496 -0.76463675 0.59789413 0.20094375 -0.076454245 -0.5733632
0.30916783 1.0979464 1.2891142 0.12420625 -0.38706633 0.31708118 -0.54989 0.46695563
-0.90643996 0.01382809 -0.06916882 -0.21664849 0.338455 -0.1859667 0.29881895 0.46208155
-0.32903942 0.07594209 -0.29887104 0.26229215 -0.15485115 -0.72895104 0.09942237 0.0697303
0.089922935 -0.32964057 0.1552204 0.49801022 0.79744303 -0.0940753 -0.57258296 0.7292706
0.048164334 -0.49888977 0.08210496 0.41043657 1.2858728 0.28328025 -0.17088467 -1.4426484

xh/W f4 [128, 10]
00000000: 6194 51c0 9b14 963c 11e6 323a 97d3 643d
00000010: 0819 b23e 0ed7 8dbe 96b2 943f d9f6 8d3f
00000020: 4bae c53d 9aaf a53f 7df2 c9bf 57cf 60bf
00000030: f57f 5abe be2e 5c40 ac1d 95bf f2e3 24bd
00000040: c572 54bf ebb2 2cbf e349 4bbf 3f72 a8bf
00000050: 9bff 93bf e6b9 783c 1bac 9e3c 75a5 d53c
00000060: 861e 3a3d 06c6 eabd ad1b ecbe 941f 233f
00000070: 31b0 f3bf 8b90 e9bf 3509 7a40 703a 59bd
00000080: 34c5 71bd ac94 57bd f053 1140 d536 1cc0
00000090: 75a1 0ebe 5132 043f cc15 81bf 9e91 34bf
000000a0: 7a05 d23f 3ba9 243c 72cc 98bc 601d 92bc
000000b0: 15d8 6cbe 2da7 0d3e 4eca 14be a15e 9fbe
000000c0: 8d65 16be dc1d d73d 8156 4dbe 179c c1bc
000000d0: cd51 603b e982 043b cc4c 61bd d4b5 f6bc
000000e0: f6c5 8b3e 9847 e3be 5935 69bf 8e73 3fbf
000000f0: 5a2d 4dbd 4749 b43a 785c deba 3feb 58bc
00000100: 9fbf 143d db4f 933d ecb4 dc3e a753 bbbe
00000110: ab8e 393f 01a3 453e 54ea 0c40 15dd 30bc
00000120: fb02 873c 2865 4bbd 6351 0d3e d572 27be
00000130: 171d 843e 8849 d13e 49a0 33bf 3a57 92bf
00000140: 051e d93f 37a1 98bf c10d 403f a3b9 c13f
00000150: 9742 1c3f afaf 3f3f 5fb6 903f 0411 da3e
00000160: ee52 ce3f 5dce 0340 f2d7 5c40 d0be bfbc
00000170: afe5 a4bc 1b3e 12bd 014b 6b3f 02fa 7ebf
00000180: b4d6 f63d 2832 c2be d984 aabe 86e6 f13e
00000190: 4c7f 8a40 d411 07bc 8276 1bbd bde8 72bd
000001a0: 0aaf 073f 1f71 19bf 872c a9bc 1ff0 90be
000001b0: 3cdb 743f 3ad3 a33e 924e 9940 4909 b6bc
000001c0: 2dbf 16bd ea5a 7ebd 0433 52bf 81c4 343f
000001d0: 59a2 02c0 70ee e0bf ac12 68bf bf42 b6bf
000001e0: 15e8 5340 2281 d3bd 55fb 1dbe 75e4 f3bd
000001f0: 4f81 793f a1ad 96bf 9e6d cdbf 08ee b0bf
00000200: c1f0 ebbe 3a7e d0be 79b0 1440 4e89 bebb
00000210: b52e 73bc 9cde 35bd f7cd c7bd cf6b b8bc
00000220: 7229 10c0 9315 99bf 4d8f cfbe c9fe 1abf
00000230: 78f5 b2bf 658e ffbd beff 94be 6fa5 3dbd
00000240: ea52 22be 0978 a6be fc11 4cbe 70af f53e
00000250: d24a cfbe afcf 14be 301d 9d3f fe00 283a
00000260: 552a 64bc ad85 b5bc 0af5 d03f a85e d4bf
00000270: 036f 56be e065 ea3d 0869 3abe 92c1 33bf
00000280: 49e9 c43f 4a1b 9cbf 23ed cf3f 1864 673e
00000290: 2429 3cbe b6cc a0bd f11c ed3d 5fba 503f
000002a0: 44c8 d43d 917d 2b3f 40ac 383f 1b21 5eba
000002b0: baf3 f53c cebc 47bc d376 2bbd 9288 fc3d
000002c0: 819e 573f 78fd d1be 7728 0e3f fe50 b73e
000002d0: 728e c4bf 0c92 e2ba a539 013b 2598 bc3c
000002e0: ef2a 87bc dce9 073e 7ce2 ce3f 54e7 963f
000002f0: d5d1 95be d981 9fbd cf95 98bf 060c 28bf
00000300: 3848 54bf 8c65 253f 9fed 00bf 4ec4 f4bf
00000310: ec73 3d3e e674 b53d b18d 1cbe 9128 1f3d
00000320: 530d 1e40 1c4f aebb b56c 94bb eaba 55bd
00000330: 7139 113f 0850 24bf ee35 a0bf 294d fbbf
00000340: c43c fa3e bfe7 7abf b8a0 2c3f a435 a2be
00000350: bda5 5f3f 13ee aabe 386b f3bd 394a e4bf
00000360: bb87 dd3e 3f3c ee3d d1d8 5cbf aa58 78be
00000370: fedb 6d3f 9abb 91bb 71d9 8bbd f8ae 563c
00000380: 36f0 3340 3310 44c0 8446 f33d 75b3 5c3e
00000390: badd febd c756 a1be 6605 94bf 02c2 29bd
000003a0: 9c0b afbe fa61 71bd a444 c93d 19eb bbbe
000003b0: 424f 3f3f ac9e 153f 7bdc 58bf 488a bdbc
000003c0: 70c0 eb3f 32e7 9bbe a869 713f 0f8c 1740
000003d0: 2d11 133f 488c dc3f 4b5e 683e 4449 df3b
000003e0: 74e7 413f 26bc 05bd 00fc d23f 6324 d0bc
000003f0: 7cd4 31bc 92a5 2ebd c6c7 7ebd b829 b43d
-3.2746813 0.018320372 0.00068244437 0.05586585 0.34784722 -0.27703136 1.1617 1.1090957
0.09652384 1.2944214 -1.5777127 -0.87816375 -0.21337874 3.440353 -1.164968 -0.040256448
-0.82987624 -0.6746051 -0.7940962 -1.3159865 -1.156238 0.01518104 0.019369176 0.026079873
0.045439266 -0.11463551 -0.46114865 0.6372006 -1.9038144 -1.8247236 3.906812 -0.053034246
-0.05902596 -0.05263202 2.2707481 -2.4408467 -0.13928778 0.51639277 -1.0084777 -0.70534694
1.6407921 0.010050113 -0.018652175 -0.017836273 -0.23129304 0.13833304 -0.14530298 -0.31126884
-0.14687176 0.10503742 -0.2005253 -0.023634 0.0034228445 0.002021963 -0.05500488 -0.030116
0.2729947 -0.4439056 -0.9109703 -0.747857 -0.05009208 0.0013754749 -0.0016964814 -0.013239681
0.036315557 0.071929656 0.43106782 -0.3658726 0.7248332 0.19300462 2.2018023 -0.010794898
0.016480913 -0.049657017 0.13800578 -0.16352399 0.25803444 0.40876412 -0.7016645 -1.143287
1.6962286 -1.1924199 0.75020987 1.5134777 0.6103911 0.74877447 1.1305655 0.42591107
1.6119058 2.0594704 3.4506803 -0.023406416 -0.020129053 -0.03570376 0.9191132 -0.9960023
0.1205267 -0.3792889 -0.3330448 0.47246188 4.328039 -0.008243997 -0.037954815 -0.059303988
0.53001463 -0.59938234 -0.020651115 -0.28308198 0.95647025 0.3199709 4.790841 -0.022221224
-0.036803413 -0.06209842 -0.82109094 0.7061234 -2.041159 -1.7572765 -0.9065349 -1.4239119
3.3110402 -0.103273645 -0.15427907 -0.11908809 0.97462934 -1.1771737 -1.6049078 -1.3822641
-0.46082118 -0.40721303 2.323271 -0.005814708 -0.014842679 -0.04440175 -0.097560816 -0.022512345
-2.2525296 -1.1959709 -0.40539017 -0.6054502 -1.3981161 -0.124783315 -0.29101366 -0.046300348
-0.15851942 -0.32513455 -0.19928735 0.4798541 -0.4048677 -0.1453235 1.2274532 0.0006408839
-0.013926108 -0.022158468 1.632478 -1.6591387 -0.20940785 0.11445212 -0.18204129 -0.7021724
1.5383693 -1.2195828 1.6244243 0.22596776 -0.18375069 -0.078515455 0.11577786 0.8153438
0.1038976 0.66988474 0.7213783 -0.0008473561 0.030023444 -0.012191011 -0.041861366 0.12330736
0.8422623 -0.41013694 0.55530494 0.3580398 -1.5355971 -0.0017285957 0.0019718197 0.023021767
-0.016499965 0.13272804 1.6162868 1.1789346 -0.29261652 -0.07788438 -1.1920718 -0.65643346
-0.829227 0.64608073 -0.5036258 -1.9122407 0.18501252 0.08860187 -0.15288426 0.038857047
2.4695632 -0.005319489 -0.0045295605 -0.05218021 0.56728274 -0.6418462 -1.2516458 -1.9632922
0.48874485 -0.98009866 0.6743274 -0.3168155 0.8736227 -0.3338476 -0.11885685 -1.7835151
0.43267617 0.11632585 -0.86268336 -0.24252573 0.92913806 -0.0044474127 -0.06828583 0.013103239
2.8115363 -3.0634887 0.11878684 0.21552832 -0.12444635 -0.31511518 -1.1564147 -0.041444786
-0.34188545 -0.05893133 0.09827545 -0.36702803 0.7473031 0.5844524 -0.84711426 -0.023137227
1.8418102 -0.30449826 0.94301844 2.3679235 0.57448083 1.723031 0.2269222 0.006814154
0.75743794 -0.032650135 1.6483154 -0.025407976 -0.010853883 -0.04263837 -0.062202238 0.0879702

hh/upward/b f4 [512]
00000000: 773f f8be cf34 643f 970f af3f 9ada 0f3f
00000010: b32a 02c0 b232 26bd 63d5 6e3e 7f5e dfbe
00000020: 7b39 9abf 0820 c2be 4dbe c33f ef79 15be
00000030: b230 4f3e 3522 83bf 0c08 823f 8d93 44bf
00000040: 3ec1 dbbf 2ba5 de3f 4bc8 1e3f 0117 1940
00000050: 05a9 bb3f 0a55 523f 316a 16bf 9787 55bf
00000060: b767 983f 7d17 42bd 15c6 653e b54b c93f
00000070: fb39 c73e d7e6 a63e 3e26 903e 4ecc a4be
00000080: 6e41 803d f839 b13e 8a4b cabd ebd0 98be
00000090: e287 863e 0ec7 dc3f b97b b33f ed06 65bf
000000a0: 8d1b 4ebf d281 00be 8116 903f 60ea 5cbf
000000b0: d6f7 bf3f 6411 0540 7fa7 9c3e 1a53 c03f
000000c0: c90c a13f 56cc bebe f307 19bd 5883 f63e
000000d0: 6919 8b3f 1a50 d23f a3b3 ac3c f72f 853f
000000e0: 4e32 1e40 3a43 2dbe 7cc6 8fbf 2b63 9a3f
000000f0: b828 0040 0979 fd3f 54ad cc3f ae20 be3e
00000100: cdc5 913f aac1 433e 3f40 a33f ab12 33be
00000110: b43d 4fbf 85ae 2ebf da27 c8be 1956 553e
00000120: 3929 0440 9373 df3f 5451 a4bd ba0a 0040
00000130: c38f ff3f 31c2 d73f a39a cb3f 4995 4240
00000140: 0131 08be ea3c d9be 3ab9 a13e 65ac a73d
00000150: 0ba8 bb3f 12a3 003f 803a 223f c08b 9b3d
00000160: 75b3 adbf 69cb 673f 23d4 0f3f c67a 0a40
00000170: bf41 c13e 999b 163e b5f3 673f 0e04 a23f
00000180: fcb7 56be c033 603f 6a5b b83f 87fb 463f
00000190: 4c6e c93e 5d24 c73f dafb bd3e bdb8 4a3f
000001a0: 6720 ba3d d356 babd e431 a03f 3ba5 b33e
000001b0: d58b 92be 75bb 2040 717e 953e 47a0 1940
000001c0: 72bc a1bf c130 1ebf c9c0 0f3e 7122 76bf
000001d0: bc6c 97bf 68ed 2e3f bcba 803f 9c8e 77bf
000001e0: 99a5 953f f4ce 97bf 2ccf 3a3f 31c3 813e
000001f0: c5b9 d7bf 8b1d bf3f 57cf fe3f 6c37 cd3e
00000200: adef 683f c4fc 9d3f e3f8 9f3f cd47 1cc0
00000210: d8ce ce3d 6b38 333f 7472 123e aac2 d83f
00000220: 0fb1 72bb 5aa0 98bf 2a7e 1d3f 9687 b0be
00000230: 4bd5 453f f70f 7e3f 053e 913f 0ed6 693e
00000240: 7e0e e13e c82b 11bf 4296 6a3f ceb9 a53e
00000250: 3afc 9bbe 8355 083f 4a9b 043e 2b8b 82be
00000260: 8f1c 90be 42b0 a03d 6eba 3ebd ee8d 5abf
00000270: 9e2e d63f c192 453f 069d 143f 42e7 3ebf
00000280: dd20 c9bf 3a5f 803f ad50 b63f 231a 98be
00000290: da3e 6f3f 2a92 853f 20de ff3f 909f 85be
000002a0: d14d e5bf e0f7 b13f 1b5c e13f adf2 87be
000002b0: f1ce d23f bff5 cb3f 02ae 0a40 f03c bd3f
000002c0: c220 3bbf 88dd 36bf bd9a 0e3e 7020 9a3e
000002d0: 1edb b43f 9493 903f 3ba9 713f a32e 8f3f
000002e0: eb91 8b3f 1a61 3d3f 05f4 603f cd50 80bf
000002f0: c924 8bbf a391 eabe c6c6 663f 272b febc
00000300: 7831 523e df69 87bc 5275 1d3f d9d6 ad3e
00000310: 814b 533e f277 0340 74bc 933f 108f 91bf
00000320: c617 debf c140 c33f 9a4f ec3f 96be 833e
00000330: 6fe8 edbe 9244 003f 40c9 353e d3c4 9d3f
00000340: 4d81 fa3e 54d8 1f40 10b8 fb3f 2ad2 2a3f
00000350: a19f 8e3f c1d3 bebd 418f 3b3e a4a7 173f
00000360: 5874 4ebf 9381 c73d 9311 b03f 91c5 f03e
00000370: bce6 19bf 038f 41bf ba64 ea3f e5ec 36bf
00000380: 0ad2 10c0 cf59 a13f bc8f 383f 7498 693d
00000390: 16d2 0540 693f f33f d626 b9be 98d3 953f
000003a0: 0227 fcbd 09a9 773f 7220 ad3f c557 65bf
000003b0: 4180 8fbf 42a8 1040 4723 0640 2a8e 48bb
000003c0: 6773 5bbd 123c 8a3d 946b 0a3f 667f 4c3f
000003d0: 0bf2 31bd 30c2 893f 56c7 043f f104 96bf
000003e0: c2f2 a63e 97fd 96bf 89c4 a93f 9b98 10c0
000003f0: 0540 efbe 9565 dd3d f2e4 983d 3a9f 8e3d
-0.4848592 0.8914308 1.3676633 0.56192935 -2.0338562 -0.04057569 0.23323588 -0.43626782
-1.2048792 -0.37915063 1.529245 -0.14597295 0.2023342 -1.0244814 1.0158706 -0.76787645
-1.7168348 1.7394155 0.6202437 2.392029 1.4660956 0.8216101 -0.58755785 -0.8341002
1.1906651 -0.04738568 0.22438844 1.5726229 0.38911423 0.32597992 0.28154176 -0.32187122
0.0626248 0.3461454 -0.09877689 -0.29846892 0.26275545 1.7248247 1.4022132 -0.8946369
-0.8051079 -0.12549523 1.1256868 -0.8629513 1.4997509 2.0791864 0.3059654 1.502536
1.2582027 -0.3726527 -0.037361097 0.48147082 1.086713 1.6430695 0.021081751 1.0405263
2.4718204 -0.16920176 -1.1232448 1.2061514 2.0024853 1.9802562 1.5990396 0.37134308
1.1388489 0.19116846 1.2753981 -0.1748759 -0.80953526 -0.68235046 -0.39092904 0.20833625
2.065016 1.7457145 -0.080233246 2.0006547 1.9965748 1.6856138 1.5906566 3.0403616
-0.13299944 -0.42429286 0.3158663 0.081871785 1.4660658 0.50248826 0.63370514 0.075950146
-1.3570391 0.90544754 0.5618307 2.1637435 0.37745473 0.14707793 0.9060624 1.2657487
-0.20968622 0.87578964 1.4402897 0.7772755 0.39341962 1.5557972 0.3710621 0.7918814
0.090882115 -0.09098592 1.2515225 0.35086998 -0.28622308 2.5114415 0.2919803 2.4004076
-1.2635634 -0.6179314 0.14038385 -0.96146303 -1.1830058 0.68331003 1.0056987 -0.9670198
1.1691161 -1.1860032 0.7297237 0.25344232 -1.6853567 1.4930891 1.9907025 0.40081346
0.90990716 1.2342763 1.2497829 -2.4418824 0.10098046 0.7000796 0.14301473 1.6934407
-0.0037031805 -1.1923935 0.61520636 -0.34478444 0.77278584 0.9924311 1.1347052 0.22835562
0.4395637 -0.5670743 0.91635525 0.3236832 -0.3046587 0.5325548 0.12949863 -0.25496802
-0.28146788 0.078461185 -0.046564512 -0.8537282 1.6732976 0.77177054 0.580521 -0.7457162
-1.5713154 1.0029061 1.424337 -0.2970744 0.9345528 1.0435231 1.9989662 -0.260983
-1.7914373 1.390377 1.7606233 -0.26552334 1.6469404 1.5934371 2.1668706 1.4784222
-0.7309686 -0.7143178 0.13926215 0.30102873 1.4129369 1.1295037 0.9439885 1.1186107
1.0903906 0.7397629 0.87872344 -1.0024658 -1.0870601 -0.45814237 0.90147054 -0.031026436
0.20526683 -0.016529975 0.6150714 0.33952978 0.20634271 2.054196 1.1541886 -1.1371784
-1.7351005 1.5254136 1.8461792 0.25731343 -0.46466395 0.5010463 0.17752552 1.2325691
0.48926774 2.4975786 1.9665546 0.66726935 1.1142465 -0.093177326 0.18316366 0.59240174
-0.80646276 0.09741511 1.3755363 0.4702573 -0.601177 -0.75608844 1.8311989 -0.7145522
-2.2628198 1.2605532 0.7209432 0.057030156 2.0909476 1.9003726 -0.36162442 1.1705198
-0.12312128 0.967423 1.3525527 -0.8958705 -1.1211015 2.2602696 2.0959032 -0.0030602315
-0.053576853 0.06749739 0.540704 0.79881895 -0.04344372 1.0762386 0.5186666 -1.1720258
0.32607085 -1.179614 1.3263103 -2.2593143 -0.4672853 0.10810391 0.07465543 0.06963964

hh/upward/W f4 [512, 128]
00000000: c361 a93d 822f c0bf e2a6 8dbc f4d2 963f
00000010: 7474 683d 7bba 24be 0a70 4cbc 4fb5 08be
00000020: 44b8 e8be b7c3 223f 5e26 923f 1b41 cf3d
00000030: 1e59 ad3f 5197 26bd c488 fc3e ab45 c43e
00000040: 1bbe 2abf d5ff cf3d e5f0 3cbe 5de5 1a3f
00000050: 4447 893e 9ecf a1bd 8c89 0840 726e 243f
00000060: 0161 6cc0 8efb 8d3c 38bb bbbd 3236 3dbe
00000070: 5af5 17bf 46c5 a73e b4f6 4cbe 4065 20be
00000080: d2c8 28bf e502 e03e 4921 acbe 3246 b3bd
00000090: abc3 5a3e 8a3d 35be 6d5b 1d40 971d 9a3f
000000a0: 592b 1340 d1d8 b03c 59ef 863d 66aa dc3e
000000b0: d794 8d3e 715f 94bd c287 8fbe 491a 8d3f
000000c0: a0fd 343e ff26 603f a473 223e ac98 cf3f
000000d0: c2ca d83e 5d15 06bd 4f65 8dbb 764c dbbd
000000e0: 5007 f9bd ebae a13d 0812 31be 5898 14be
000000f0: ab6a 2ebf dd7c 12be 6000 5bbd f8fa 1e3d
00000100: 9ac5 49be 9586 17c0 6270 183e b9ab ab3f
00000110: ff4f 6c3f c468 ddbf 9d9b 88b9 2773 5c3f
00000120: 1961 4fbe dc34 183e ddf6 013e 57a1 70bd
00000130: 1aec 21be f99f 90bf d2f8 d63e 5016 4a3f
00000140: b6c6 55be f81a 5d3e 4b3e 333f 12b9 15bf
00000150: 7bc7 693e bb14 9f3e fddc 46be 0a17 9c3f
00000160: fa01 ca3d 8f27 11bd 176c 23be fcca 503e
00000170: b1a6 92be b2a6 143f e2b1 203e b232 abbc
00000180: aaae 95bf 199c 883d c08a 10bf 08fc e53d
00000190: e23d 953e dab6 7ebd 2a66 05bf f0df 34bf
000001a0: d9e8 bebe 0568 1b3c 6ad4 633d 1587 5e3f
000001b0: d424 f63d 6195 2abf 5367 4cbd 1c0a 143d
000001c0: fdba 71be 59a9 4b3f 89d8 823d 4ddb 133f
000001d0: bbd1 113f 0e3d cf3c e6a8 28be 76d6 3bbd
000001e0: 7bed 31be f5ee 17c0 ddad 3fbf 52c3 af3f
000001f0: 8efc 873f 354a dc3c 2a2b 2e3c a1e7 5dbf
00000200: bbe3 a5bd 575f ab3f f5e4 2bbf c4d9 b73f
00000210: 135a 70bd 2e96 06bf cc03 b23d 3495 d5bc
00000220: 3814 a93e daef ea3e 3504 dc3f 6384 dabf
00000230: c7fe 39bf d957 91be 91bc 7ebf 71cc 0e3e
00000240: 3a7e cc3e 84a5 ee3e 1cd2 0c3d 309f 21bd
00000250: 2fed a7be 717a 84bd 9058 2a3f 1987 d1be
00000260: 1a5e 1a40 9e79 2abe 7bea ba3c 92e1 f43d
00000270: d165 203d cec7 d43f a0f8 8bbe 86eb 653e
00000280: 4890 17c0 4270 bb3d 5786 51bf 1138 a03e
00000290: 2993 d83e 70b1 4d3e bfb3 bbbf dcd5 d03f
000002a0: ebaf e3bf 50b1 1b3d 41cd ee3d f923 50bf
000002b0: cf8e ac3e d148 a93d 59d9 b83f 808b 8cbe
000002c0: 8f4c 4abe 659f 99be 4938 003f c529 0140
000002d0: aa33 9b3e 6dd6 3dbe cbea 8f3e a005 043f
000002e0: ae3f b5be bcd4 92be de46 5f3e f40a 1d3e
000002f0: ae66 8c3f 63d9 37bd 9d9e be3d dc38 193f
00000300: 8c41 9dbf 321f e73f 763d f7bd 66fc bdbe
00000310: 578e 43be ffbe 7a3f 41bb 163d 0530 10be
00000320: 63bc 12bf d71d b73e f4cb 1bbd 2730 143f
00000330: 50d7 53bd 1931 2a3c c06b 63be f295 28be
00000340: e66b 11bf fec5 023f 9ab7 11bf 7031 01bf
00000350: 73e3 f23d b6aa ecbe e113 df3d 6001 ffbe
00000360: 8c43 523e 78e7 b73e e5bf 293f a2b7 903e
00000370: e042 fc3e 2c06 08be 9b33 1c40 bf2c 0f3e
00000380: 664e 543f c831 da3e 46b3 94be 564a 643f
00000390: 5cc0 333e bc75 d13d 50a7 6dbe 3759 a6be
000003a0: 0229 b33f 2558 d73d 1456 4bbe 650c 29be
000003b0: 43dc f83d 272b d03e d44a 1cbf 04ad de3e
000003c0: 63b5 123e 2da5 2cbe 8bca 013f a622 67bf
000003d0: ba37 f3bf 6c29 f5bd 7d74 bfbe 1807 8bbe
000003e0: ac6a f3be e9a4 973f 37db c8be 90c8 86bf
000003f0: d26b 95bf a2f3 ce3d 1ebc 84be 30b1 71bf
0.082706 -1.5014498 -0.01729149 1.1783128 0.056751683 -0.16086762 -0.012477884 -0.13350414
-0.45453084 0.6357989 1.1417959 0.1011984 1.3542821 -0.04067165 0.49323094 0.38334402
-0.6669633 0.10156218 -0.18451269 0.6050623 0.26812184 -0.07900928 2.1333952 0.64231026
-3.6934206 0.017331865 -0.091665685 -0.18477705 -0.5935875 0.32767695 -0.20015985 -0.15663624
-0.6593143 0.43752208 -0.33619145 -0.08753623 0.21363704 -0.17699257 2.4587052 1.204028
2.2995207 0.021587761 0.06588621 0.43098754 0.27652618 -0.072447665 -0.28033262 1.1023647
0.17674875 0.87559503 0.15864426 1.6218467 0.42342192 -0.032735217 -0.0043150554 -0.10707943
-0.12159598 0.07894691 -0.17292035 -0.1451124 -0.6813151 -0.14305444 -0.053467155 0.03881356
-0.19704285 -2.3675892 0.1488662 1.341178 0.92309564 -1.7297597 -0.00026055882 0.8611321
-0.20251884 0.14863914 0.12691827 -0.058747616 -0.15812722 -1.129882 0.4198671 0.78940296
-0.20876583 0.21592319 0.70016927 -0.5848552 0.22830002 0.31070504 -0.19420238 1.2194531
0.09863658 -0.035438117 -0.15959202 0.20389932 -0.286428 0.58066857 0.15692857 -0.020898197
-1.1693928 0.06670398 -0.56461716 0.11229712 0.29148775 -0.0621861 -0.52109015 -0.706542
-0.37287024 0.009485249 0.055622496 0.8692487 0.12018743 -0.66634184 -0.049903225 0.036142454
-0.23606487 0.7955528 0.06388957 0.577565 0.5696065 0.025297668 -0.1647068 -0.045858823
-0.17375748 -2.3739598 -0.7487467 1.3731482 1.0623949 0.026890853 0.010630408 -0.8668156
-0.08100077 1.338847 -0.67146236 1.4363332 -0.05867965 -0.52572906 0.086921304 -0.026072122
0.33023238 0.45886117 1.7188784 -1.7071651 -0.72654384 -0.28387335 -0.9950648 0.13945176
0.39940053 0.46610653 0.034380063 -0.039458454 -0.32798144 -0.06468666 0.66541386 -0.40923384
2.4119935 -0.16647956 0.022816887 0.119570866 0.0391596 1.6623476 -0.27338123 0.22453126
-2.3681812 0.09152271 -0.8184561 0.31292775 0.42299774 0.20087218 -1.4664229 1.6315265
-1.7788061 0.038010895 0.11660243 -0.8130489 0.33702704 0.08265842 1.4441329 -0.2745018
-0.19755767 -0.3000442 0.50085884 2.0181744 0.30312854 -0.18538828 0.2810882 0.51571083
-0.35400146 -0.28677928 0.21804377 0.1533621 1.0968835 -0.04488505 0.09307597 0.59852386
-1.2285628 1.8056395 -0.120722696 -0.37106627 -0.19097267 0.97947687 0.036799673 -0.14080818
-0.57318705 0.35764953 -0.0380363 0.57885975 -0.05171901 0.010387682 -0.22209072 -0.1646345
-0.56805265 0.5108336 -0.5692078 -0.5046606 0.11859789 -0.46223992 0.108924635 -0.49805737
0.2053358 0.35918784 0.6630843 0.282651 0.49269772 -0.13283604 2.4406497 0.13981913
0.82932127 0.42616105 -0.29043025 0.8917593 0.17553848 0.10227534 -0.23208356 -0.3248994
1.399689 0.10514859 -0.19857055 -0.16508634 0.121513866 0.40657923 -0.6105168 0.43491375
0.14327006 -0.16859885 0.5069968 -0.90287244 -1.9001381 -0.11970791 -0.3739356 -0.2715385
-0.47542322 1.1847202 -0.39229748 -1.0529957 -1.1673529 0.10105063 -0.25924772 -0.9441099

hh/lateral/W f4 [512, 128]
00000000: 1f08 9e3e b251 29c0 5d6a 3640 d9c6 1cc0
00000010: 5c74 9ebe 915a 81bf 55d4 753f 5c7e 2ec0
00000020: 95d2 89bf f6de 5e40 b5d2 1740 1b5a 74bf
00000030: 0ae1 2040 1dc0 0b40 0596 703f 4d4d 2f40
00000040: a177 fd3e 5beb 7f3f 23f1 0abe ea17 4439
00000050: ca4c 6a3f b73e 63c0 2193 7bbf 55ad 7e3f
00000060: 2833 843f 1fdb b33f af60 10bf bb2c bebd
00000070: 80e8 8bbf ec7e 58bf 14dd 183f 7a10 853f
00000080: bcfa 6a3e e0a3 d13e 95d4 b2bf 8b32 7f3e
00000090: 8034 fd3f 8a34 463f 12a8 053f 5ee2 033f
000000a0: bf7a a3bf ecc2 843e 047a 71bf 938b 10c0
000000b0: 2dfa 823f 899d 29bf 17c6 8e3f 16a6 913f
000000c0: eb85 ea3f 5779 303f 6282 0e40 3579 803e
000000d0: 3be0 0a3f eb50 9ac0 2c82 a43e d43c d03f
000000e0: acfd 99bf a502 55bf ebad 7540 675a a1bf
000000f0: c581 c0bf 975b cf3e e4a1 0b3d 5a31 2b3f
00000100: 8377 8ebf 26ab 92be d185 9b3f 5d16 4abe
00000110: eeb3 0d3f 3942 4240 452d a740 38c1 fb3e
00000120: 7032 54bf d60f e1bf 20f9 27c0 dc28 cebf
00000130: d15d 29c0 ed40 a73f 18a2 ac3f 8f63 3c3d
00000140: 7749 6abf e4c5 f7bf 011b 6abe cddf 8f3e
00000150: 813f a53f 9f63 4c3f f21c 9b3f 2e05 9cbf
00000160: f189 ef3d 35cb 5440 f7cf 7e3e 6c02 33c0
00000170: f314 b1bf 211b ea3f 73d2 6dbe f8ff b1bf
00000180: e118 e9be e4d0 963f e221 643e 4ec6 a4bf
00000190: d7ce 2abe 9261 b2bf 89c0 2bbf 86f2 6940
000001a0: 69b0 0fc0 939a 4e3f 18c9 81bf 68a4 a63f
000001b0: fdd8 fcbe f2e6 acbf 82e1 b73f 29ab 9e3e
000001c0: 8687 1abf fd70 d2bf 69ba e9be 1a00 31be
000001d0: 0852 74bf 991c f0be 74eb 09c0 9f01 21c0
000001e0: 9361 d3bd 7b18 2940 ae1c c73f e3ef 5140
000001f0: 988f 1ec0 033c dcbe 1864 7dbf e71f 86be
00000200: 30f0 633f c5ba 1340 c96e bebf ca4e b63d
00000210: 4925 dc3f 84b2 a23f 83cd 34bf ced5 84bf
00000220: 28d0 1940 c1e9 43c0 3d5a 5abf d41b 6a3f
00000230: fda5 54bd 9a83 1cc0 6815 a4be 3bdf aabe
00000240: abb4 cdbf a5e1 9e3f 7a3f 87be b55f c23f
00000250: 81dc 423f f1d6 40bf 72f4 9cbf 4e4b b6be
00000260: 8740 8e40 df0a d03e b6da e33d e7be 0b40
00000270: 4c1c 963e 7d3c c13f 9fc4 26bf 723f 06be
00000280: 26cb afbf a1f5 1e40 38e2 f53f efbf be3e
00000290: 7da7 f0bf 650b 3a40 20d7 39bf ad91 b1bf
000002a0: 942c 5c3e 5af1 1a3f 14e9 ae3f 3220 49be
000002b0: e9dc 9b3f 4095 483f a569 d73f 4a88 ebbc
000002c0: 2a01 0440 1089 2c3f 9b1e d6be 47ed b23f
000002d0: a788 0ebf 7661 7cc0 36e9 38c0 b790 763e
000002e0: 09ed 93bf e298 acbf 511a 0640 7d1d 05c0
000002f0: b2a9 8abf db3a 7b3f d5fb 9d3e 490b bd3f
00000300: 7946 80be 4d84 45bf e4ca a13f bc41 0240
00000310: 17fa 81bf fc36 1940 8626 1f40 4839 6a3e
00000320: ad0f 1240 3bdf d5bf bddd 3340 8174 2dbf
00000330: 54b3 6cbf 9ca5 4e3f a3dc 8c40 78a5 123f
00000340: 34c9 4abe f3d0 4fc0 be32 493e 27b6 3940
00000350: c343 153f 5084 37bf 24a0 6ebf 13ff 6e3d
00000360: 38a8 69c0 4a98 b5bf dee9 1a3e efca 38c0
00000370: 3dde 9c3f 9460 a4bf 6022 8abf 16e9 2ebf
00000380: 1d60 d53f 22f2 1f40 db36 bf3f d400 1140
00000390: f715 20bf c96e 1f40 1e91 1d40 3bd4 6340
000003a0: 4320 403f b9d3 103f 1dfa 8a40 84e9 9a3f
000003b0: 5678 383f 66de 6dc0 3dfc 3ec0 18a2 b03e
000003c0: c61d 0740 607c f13f d475 b83e 8851 813e
000003d0: 5159 e13f 42fd 6dbf 92de 403f 2dac c23f
000003e0: 584f 7040 3e11 723f 44c7 afbf 34d7 2fc0
000003f0: 9cd9 043f d3da 8c3f 4d4b cb3f 830a 2abe
0.3086557 -2.6456113 2.850242 -2.4496367 -0.3094815 -1.0105764 0.9602712 -2.7264624
-1.076739 3.4823585 2.3722355 -0.9544999 2.5137353 2.1836007 0.9397891 2.739093
0.49505332 0.999685 -0.13568549 0.00018700925 0.9152342 -3.5507028 -0.98271376 0.99483234
1.0328112 1.4051245 -0.5639753 -0.092858754 -1.0930328 -0.8456867 0.5971234 1.0395653
0.2294721 0.4094534 -1.3971125 0.24921624 1.9781647 0.7742392 0.5220958 0.51517284
-1.2771834 0.25929964 -0.94326806 -2.258519 1.0232598 -0.66256005 1.1154202 1.137881
1.8322119 0.6893515 2.226708 0.25092474 0.542484 -4.8223777 0.32130563 1.6268563
-1.203054 -0.8320716 3.83874 -1.2605714 -1.5039603 0.40499565 0.034089938 0.6687218
-1.1130222 -0.286462 1.2150213 -0.19735093 0.55352676 3.035292 5.224276 0.49170852
-0.8288946 -1.7582958 -2.6245804 -1.6106219 -2.646351 1.3066689 1.3486967 0.045993384
-0.9151835 -1.9357266 -0.22861864 0.28100434 1.2910005 0.7983951 1.2118208 -1.2189081
0.11696232 3.3249028 0.2488402 -2.7970228 -1.3834518 1.8289529 -0.23224811 -1.390624
-0.45526794 1.1782498 0.2227855 -1.2873018 -0.16680466 -1.3936026 -0.6709066 3.6554275
-2.2451422 0.8070461 -1.0139494 1.3018923 -0.493843 -1.3507979 1.4365695 0.3098996
-0.6036304 -1.6440731 -0.45650032 -0.17285195 -0.9543767 -0.46896818 -2.154996 -2.515724
-0.10321345 2.6421192 1.5555627 3.2802665 -2.4775143 -0.43014535 -0.98980856 -0.26196215
0.8903837 2.3082745 -1.4877559 0.089017466 1.7198879 1.2710729 -0.70626086 -1.0377748
2.4033298 -3.0611422 -0.8529394 0.9144871 -0.05191611 -2.4455323 -0.32047582 -0.33373436
-1.607076 1.2412611 -0.26415616 1.5185457 0.7611771 -0.75327975 -1.2262099 -0.35604328
4.445377 0.40633294 0.111257 2.1835268 0.29318464 1.5096585 -0.6514377 -0.1311014
-1.3733871 2.483742 1.9209661 0.3725581 -1.8801113 2.9069455 -0.7259388 -1.3872582
0.2150138 0.60524523 1.366488 -0.19641188 1.2176791 0.7835274 1.6829115 -0.028751511
2.062571 0.6739664 -0.41820225 1.3978661 -0.55677265 -3.9434485 -2.889234 0.24078642
-1.1556712 -1.3484156 2.0953562 -2.0799248 -1.0833037 0.9813668 0.30856195 1.4769069
-0.25053766 -0.77155 1.2640042 2.035262 -1.0154446 2.393981 2.4867263 0.22873414
2.2822068 -1.670875 2.8104088 -0.67755896 -0.92461133 0.8072145 4.401933 0.57283735
-0.19803315 -3.2471282 0.19648263 2.9017427 0.5830652 -0.7168627 -0.93213105 0.058348726
-3.6508923 -1.41871 0.15128276 -2.887386 1.2255322 -1.2841973 -1.079174 -0.6832441
1.6669956 2.4991536 1.4938616 2.2656755 -0.62533516 2.4911368 2.4619823 3.5598285
0.7504923 0.56573063 4.3430314 1.2102513 0.7205862 -3.7166991 -2.9841454 0.34498668
2.1111922 1.8866081 0.36027396 0.25257516 1.7605382 -0.92964566 0.75339615 1.5208794
3.7548428 0.9455756 -1.3732686 -2.74751 0.51894546 1.100428 1.5882355 -0.16605572

hy/b f4 [2]
00000000: dad4 f5be 25ed 5d3e
-0.48013955 0.21672495

hy/W f4 [2, 128]
00000000: 7b8b a9bf 0da8 d93f 36be b0bf 4702 a33f
00000010: 8e56 903f 2459 79bf 5348 eabf 0ff3 e83f
00000020: 8f7c e6bf 883e 9cbf b551 ccbf 6b25 6f3f
00000030: e78e b5bf d82c 54bf 362e 6bbf d480 87bf
00000040: 614e 73bf 7d1c a43f 2502 693f 8eea a4bf
00000050: ede3 fcbf a01f 0ac0 3f6d 8b3f 4f8c 97bf
00000060: efce 1ebf c537 94bf c9da b23f d719 80bf
00000070: 57ab a83f fe40 fdbf 592c bcbf 4a36 92bf
00000080: f271 903f 9b7b b9bf a3eb fcbf 9b6f 493f
00000090: efcf 903f 60ab 793f d931 2a40 8462 01c0
000000a0: 25d3 3b3f 04f1 8a3f eaf6 c6bf 7059 13bf
000000b0: 6e1b abbf f4a6 7c3f 2a9f 86bf 8116 ac3f
000000c0: f7d6 b5bf e052 bc3f 16fd a0bf 26e5 7dbf
000000d0: 2aca 803f 7f91 e23f d6e9 b03f da25 e2bf
000000e0: f940 583f 38d7 0cc0 38df 43bf 47d7 d9bf
000000f0: 7784 e03e 2bc8 d83f beb5 01c0 f384 e23f
00000100: 036f a33f dba8 583f 1589 abbf 1c33 ed3e
00000110: a40a 21bf 07a2 cebf 1183 d1bf 0d04 883f
00000120: c81d dcbf b0d1 b93f 5097 acbf 338c eb3e
00000130: bf1d 863f c5bc 983f 3671 0f40 5b46 59bf
00000140: 59d0 1ebf e1ef bbbf 14c2 67bf fc58 a0bf
00000150: 03ec 20c0 9208 e8bf 2ede 19c0 0cbe bfbf
00000160: d32c 9bbf b0fe 85bf 9917 8e3f 4a92 1140
00000170: d545 713f 60df d93f 3872 a7bf ceba 603f
00000180: 54e3 56bf 397b a43f c41e 9c3f 3199 c03f
00000190: 1da5 0f3f 7f90 f5bf b20a ed3f 2cb1 e13f
000001a0: 8293 d43f 8ed9 323f 421a bcbf 758f c2bf
000001b0: 172e 643f 3729 863f 0148 b8bf 4082 69c0
000001c0: c424 49bf d8dc 68bf be92 a1bf 7255 cebf
000001d0: 7033 f13f ade0 b6bf 3407 12bf 71b0 c9bf
000001e0: f2f5 89bf b5eb 8e3f 47ef 5abf ba4d f0bf
000001f0: 119b 3f3f f90d 0340 d6e8 4bbf 2a03 7c3f
00000200: be91 a4bf 81ee c03f 6c09 c3bf cb54 8f3f
00000210: 2210 8f3f e3a9 b7bf ef40 d6bf 4b27 d33f
00000220: 4d9d 01c0 d3c2 91bf 55af e6bf 378a 803f
00000230: 3cbe 9ebf 36eb 4cbf f874 87bf 1de7 4abf
00000240: 7a36 90bf 197e 8c3f cd0e 833f 0e8d b2bf
00000250: 228b f1bf 0aaf 05c0 aae9 803f 1581 8cbf
00000260: 0c9d 0bbf 670e 85bf fdca ab3f 5512 85bf
00000270: 4523 943f d9c5 04c0 2111 d9bf 8a8c f2bf
00000280: 653a bc3f dcbf c5bf 0f7f f7bf f949 523f
00000290: a4d4 853f 1f8a 823f 1532 3840 da46 f3bf
000002a0: 7316 393f df43 993f 778c aabf 91e3 04bf
000002b0: c1b0 38bf 267d 8c3f 66d5 f3be 3c3f a23f
000002c0: 21fb c1bf 97e0 cc3f cefe b7bf 0715 4ebf
000002d0: e259 4a3f ff88 f93f 5ec5 c43f a8ea 3bbf
000002e0: 6795 483f 10c3 e1bf e6cc d5bf 5f5d 9dbf
000002f0: eb89 003f eb3b ef3f 5447 09c0 c459 fd3f
00000300: d7b1 3a3f c749 493f f7c7 a8bf 1a69 e83e
00000310: 6b05 59bf 8391 e6bf 9662 c2bf 7c96 8d3f
00000320: 5bcb e2bf e3b5 be3f 32bf b5bf 384f cd3e
00000330: e005 8f3f a378 953f 7f1e 0240 3f59 14bf
00000340: 7eaf 48bf 4134 9ebf 14fb 73bf 2b9d 8bbf
00000350: 6aa8 0cc0 36f4 05c0 7b81 29c0 cb37 acbf
00000360: 5fa2 a3bf 43a7 80bf 4287 9e3f dae7 fa3f
00000370: fce8 823d 4ed0 ec3f a986 c3bf 847a 6a3f
00000380: 458c 93bf e31f a63f 722f 8a3f 413f f73f
00000390: 8b08 033f 1371 eebf 3688 a13f 03ad f13f
000003a0: e694 cf3f d240 4a3f 2013 e8bf b3f1 81bf
000003b0: 5950 553f dc3c 993f 1e90 dcbf 1e13 61c0
000003c0: d206 40bf 47fa 71bf 3a6d aebf 1852 ccbf
000003d0: a957 cb3f f5d7 a2bf c1f5 4dbf 81fe d5bf
000003e0: bce9 63bf 4dca 803f ab9f 46bf e35b fdbf
000003f0: 343e 3b3f 079b c13f d666 55bf 9378 823f
-1.3245691 1.700441 -1.3808048 1.273507 1.1276414 -0.9740164 -1.8303322 1.8199176
-1.8006762 -1.2206583 -1.5962435 0.9341647 -1.4184235 -0.82880926 -0.9186739 -1.058619
-0.9504147 1.2821194 0.910189 -1.288408 -1.9757057 -2.1581802 1.0892714 -1.1839694
-0.62034506 -1.157952 1.3973018 -1.0007886 1.3177289 -1.9785459 -1.4701034 -1.1422818
1.1284773 -1.4490846 -1.9759411 0.7868592 1.1313456 0.9752712 2.6592925 -2.021638
0.73369056 1.0854802 -1.5544102 -0.57558346 -1.3367746 0.9869225 -1.0517323 1.3444368
-1.4206227 1.4712791 -1.2577236 -0.9917778 1.0061696 1.7700652 1.3821361 -1.7667801
0.8447414 -2.200636 -0.7651248 -1.7018822 0.43851063 1.6936086 -2.0267177 1.7696823
1.2768253 0.84632653 -1.3401209 0.46328056 -0.6290686 -1.6143197 -1.6368123 1.0626236
-1.7196589 1.4517117 -1.3483677 0.460054 1.0477828 1.1932608 2.2412848 -0.8487298
-0.62036663 -1.468258 -0.90530515 -1.2527156 -2.514405 -1.8127615 -2.4041858 -1.4979873
-1.2123054 -1.046835 1.1100951 2.2745538 0.9424718 1.7021294 -1.3081732 0.8778504
-0.83940625 1.2850105 1.2196889 1.504675 0.5611132 -1.9184722 1.8518889 1.7632194
1.6607516 0.6986321 -1.4695513 -1.520003 0.8913283 1.0481328 -1.4396974 -3.6485748
-0.78571725 -0.9096198 -1.2622907 -1.6119826 1.8843822 -1.4287316 -0.5704224 -1.5756971
-1.0778182 1.1165682 -0.8552136 -1.877372 0.7484599 2.0477278 -0.79652154 0.9844233
-1.2856977 1.5072786 -1.523725 1.1197752 1.1176798 -1.434872 -1.6738566 1.6496366
-2.0252259 -1.1387581 -1.8022257 1.004218 -1.2401805 -0.80046403 -1.0582571 -0.792589
-1.1266625 1.0975982 1.0238892 -1.3949296 -1.8870585 -2.0888085 1.0071309 -1.0976893
-0.5453651 -1.039502 1.3421322 -1.039622 1.1573263 -2.0745757 -1.6958352 -1.8949139
1.4705321 -1.5449176 -1.933565 0.82144123 1.0455518 1.0198401 2.8780568 -1.9005997
0.7229988 1.1973838 -1.3324116 -0.5190974 -0.72144705 1.0975692 -0.47623748 1.2675548
-1.5154763 1.6006039 -1.4374635 -0.80500835 0.790434 1.9494933 1.5372732 -0.7340493
0.7835297 -1.7637653 -1.6703155 -1.229412 0.50210446 1.869016 -2.1449785 1.9793019
0.7292761 0.786282 -1.3186024 0.45392686 -0.8477389 -1.8013157 -1.5186336 1.1061549
-1.7718309 1.4899257 -1.4198973 0.40099502 1.1173668 1.167744 2.0331113 -0.5794868
-0.7839278 -1.2359697 -0.9530499 -1.0907339 -2.1977792 -2.0930305 -2.6485279 -1.3454527
-1.2783927 -1.0051044 1.2385027 1.9602005 0.063920945 1.850107 -1.527547 0.91593194
-1.1527182 1.2978481 1.0795729 1.9316179 0.5118491 -1.8628258 1.2619693 1.8880924
1.6217315 0.7900516 -1.8130836 -1.0151886 0.83325726 1.1971698 -1.7231481 -3.5167918
-0.75010407 -0.9452252 -1.3627083 -1.5962553 1.5886127 -1.2722155 -0.80453116 -1.6718293
-0.89028525 1.0061737 -0.77587384 -1.9793667 0.7314179 1.5125436 -0.8336004 1.0193046
