code/python/spin_model/10_128_2_5_10_29900_40_use_train_spin_model.npz (npz, 497304 bytes, 7 tensors)

hh/lateral/W f4 [512, 128]
00000000: edc9 4bbf 6a94 c8bf 4693 623e 3df1 14bf
00000010: 9eeb 81be c129 143f 7b74 7d3f c02c 66be
00000020: 4d97 b8be d435 a9bf 1a72 ce3f cd43 2e40
00000030: 855d 4c3f c1b1 febf 1217 62be 5e2c 8bbf
00000040: 4eed 073f 1d43 003f b80f 5dbf b7c7 ecbe
00000050: 98a8 a5bf 1855 c43e 2dae 3c3e 44ea 8f3f
00000060: a7ea efbf ac66 a03f be0b 65bf 361c 3abf
00000070: 006e 473f a67d 403f 454b e83e 5eb9 3bbf
00000080: 5cd8 a1bf 98b8 193f 0784 7a3f 6567 8d3f
00000090: 467a 453e 42b4 82be 7511 5abf 194a 143f
000000a0: db15 453f 25af 56bf 5d04 0bbf e6b1 1740
000000b0: f28b 65bf a093 9cbf 8873 a73f ca70 3a3f
000000c0: 2d2f f5be f24a 92bf 52df a3bf 46cb 473e
000000d0: 9052 cd3f dfef e83c a87e 853f 8c43 2140
000000e0: 8e47 843f f5bc 1ebf 9134 f63d b09a 4a3e
000000f0: e112 6ebf 9a0a 2dbf 38ae 80bf 366f c9be
00000100: ac91 c43f 7b92 97be 6863 47bf e1f6 f43d
00000110: 2d06 9cbf 1f1c 00bf f7a7 1040 e8d0 70bf
00000120: 2e8d 943f ff27 c6bd da93 39bf 8215 30bf
00000130: 1574 953f 7cd1 083f e0b2 2abf f93c 19bf
00000140: 97fa 1d40 9004 47bf 1503 5a3f ca55 91bd
00000150: cb51 8abf 7caf 0cc0 027d 443f be69 193e
00000160: de08 c93f cb6f 0e40 ed45 fc3e 979c 083f
00000170: 51ce f73e 4c8f d13f 694e 41be 5bb4 433f
00000180: a45c 95bf 440e 793e a21c f13e 4366 ff3f
00000190: 32a6 47bf e6f2 c03e 21fc 32bf f59d 0fbf
000001a0: 5ee1 fabf bae3 5abe 1e93 463f a3f2 ebbf
000001b0: 988c 0d3f 78dc a73e 66d5 963f 71d9 03be
000001c0: 73a7 a6bf 06f2 e43b 30d6 393f f5aa 023f
000001d0: 7816 023d 25f2 4cbe 5279 973f b1f7 9c3f
000001e0: 422d ea3f 1029 6b3e ba9a bd3e 1318 893e
000001f0: c4a5 3c3f 1d99 ba3e 4e0d c43e d5c8 a83f
00000200: e566 8b3f 10cd 0cbe 6968 27be 195e 433f
00000210: b36e 723e 8519 babf 5c11 7ebf 5cca af3d
00000220: d4da c53e 93b8 6e3f 32c6 5dbf 6654 773e
00000230: 64a0 4bbd 638a 3dbe 9ee9 09bf 6fd5 c23f
00000240: 9e48 19bf 4a5a 75be 49bb 7a3f 7873 983e
00000250: 31f2 e5bd f4dc 3f40 d16d 503f 8453 33be
00000260: 2798 bc3d c84a c7bf 4df1 25bd 212a b83f
00000270: 5956 1e40 7f3a 07be 2f10 2e3e 2c24 b23d
00000280: d10b c1be 885e bc3f 6c93 863f 6a84 983c
00000290: 8fa4 923d 12b0 c8bc e747 eb3e 7899 31bf
000002a0: 244f 82be 6a2e 623f eb4f 8a3f 193f 003f
000002b0: d48a c93e 7dd2 503f 0e28 4e3e af6e 113f
000002c0: 9276 ae3f 1041 2f3f 673d 593e 629f 933e
000002d0: f0b1 8640 32f2 813f 1a0b 1440 39ba 1ebf
000002e0: bba3 b5be d56b 19bf bd45 243e 559a 2540
000002f0: 0718 953f 7232 f1bf 93e2 b7be 340a 843e
00000300: e350 72bf bfee 19bf dd1b 0dbe 13e1 773e
00000310: 8e8a f03e 9898 24be 9ea8 d2be 6bf8 243e
00000320: 0a37 d13f 9438 543e c74e debd fcdc 04be
00000330: fa54 c33f e10f 953f 6a90 183f 9f46 c03e
00000340: 3082 30bf 0214 35be 5506 d2bf b342 0840
00000350: 4a9f 51bf 5d26 0940 5d96 5bbf b7f1 1c3f
00000360: 7de0 5d3d b4e4 7ebf e511 71bf 959e 16bf
00000370: 8628 d3be 8633 19bf 7cb7 5d3f c939 143f
00000380: 1012 06c0 61ee 89bd 2356 393f 70d4 93be
00000390: 5fbc 993f 22e8 803d bcaf 98bf 2e4d 0cbf
000003a0: 99df ba3f cda1 0340 f412 0fbf 57b8 cbbf
000003b0: 657d a4bf 9cb2 a9bf 63b1 493e 5e8f b5bf
000003c0: 6aa3 b83f 8bd3 34bf 69ec 7b3f 16c4 29bf
000003d0: dc35 3e3f 43ab d1be 81a4 a6be 225c 9bbd
000003e0: 4073 b8be 77b7 703e 56df 3b3f 42c3 213f
000003f0: 6808 85bf 840f a43f 8e49 3abf 3f3c f2bf
-0.7960499 -1.5670292 0.22126493 -0.581806 -0.25375074 0.5787621 0.9900586 -0.22478008
-0.36052933 -1.3219552 1.6128571 2.7228882 0.798302 -1.9897996 -0.22079113 -1.0872915
0.53096473 0.50102407 -0.8635211 -0.4624612 -1.2942076 0.3834617 0.18425818 1.1243367
-1.8743485 1.2531333 -0.8947104 -0.72699296 0.7790222 0.75191724 0.45369926 -0.7332972
-1.2644153 0.6004729 0.9785771 1.1047179 0.19284925 -0.2552815 -0.8518289 0.57925564
0.76986474 -0.83861 -0.5430353 2.370233 -0.89666665 -1.2232552 1.3082132 0.7282835
-0.47887555 -1.1429121 -1.2802527 0.19511136 1.6040821 0.028434692 1.0429277 2.5197477
1.0334337 -0.62007076 0.12021745 0.19785571 -0.92997557 -0.675943 -1.0053167 -0.3934266
1.5356956 -0.29603943 -0.77886057 0.11961151 -1.2189385 -0.5004291 2.2602518 -0.94068766
1.1605585 -0.096755974 -0.7249123 -0.6878282 1.167605 0.5344465 -0.6667919 -0.5985866
2.4684198 -0.77741337 0.8516095 -0.07096441 -1.0806211 -2.1982107 0.76753247 0.14981744
1.5705831 2.2255733 0.492721 0.5336394 0.48399594 1.6371856 -0.18877567 0.76447076
-1.1668897 0.24321848 0.47092158 1.9953083 -0.7798797 0.37685317 -0.6991597 -0.561004
-1.9600027 -0.21375933 0.77568233 -1.8433422 0.55292654 0.32785392 1.1783874 -0.12875916
-1.3019851 0.0069868593 0.7259245 0.5104211 0.03175971 -0.20014246 1.1833899 1.226309
1.8295062 0.22964883 0.3703211 0.2677618 0.7369044 0.3644494 0.382914 1.3186289
1.0890776 -0.137501 -0.16348423 0.76315457 0.23675041 -1.4539038 -0.9924524 0.08583519
0.38643515 0.9325039 -0.8663055 0.24153289 -0.049713507 -0.18509822 -0.53872097 1.5221385
-0.5987643 -0.23960224 0.97942024 0.29775596 -0.11227835 2.997861 0.81417567 -0.17512327
0.09208708 -1.5569696 -0.040513325 1.4387857 2.4740202 -0.13205908 0.16998361 0.086983055
-0.37704328 1.4716349 1.051374 0.018617827 0.07160293 -0.02449802 0.45953295 -0.693748
-0.25451005 0.8835207 1.0805639 0.5009628 0.3936373 0.8157118 0.20132467 0.56809515
1.3629935 0.6845865 0.2121483 0.28832537 4.209221 1.0152037 2.3131776 -0.62002903
-0.3547648 -0.59930164 0.16042228 2.5875447 1.1647958 -1.884352 -0.3591505 0.25789034
-0.94654673 -0.6012992 -0.1378016 0.24206953 0.4698071 -0.16073835 -0.4114427 0.16110389
1.6344922 0.20724708 -0.10854869 -0.12974924 1.5260308 1.1645471 0.5959536 0.3755388
-0.6894865 -0.17683414 -1.6408182 2.129071 -0.8188368 2.1429665 -0.8577631 0.6130633
0.054169167 -0.99567723 -0.9416793 -0.58835727 -0.41241854 -0.59844244 0.866081 0.57900673
-2.0948524 -0.0673492 0.7239706 -0.28873014 1.2010611 0.06294276 -1.192863 -0.54805267
1.4599487 2.0567505 -0.55888295 -1.5915631 -1.2850767 -1.3257632 0.19696574 -1.4184377
1.442487 -0.7063529 0.9840761 -0.6631483 0.7430093 -0.40950975 -0.32547382 -0.07585932
-0.3602543 0.23507486 0.7338766 0.63188565 -1.039319 1.2817235 -0.72768486 -1.8924636

hh/upward/W f4 [512, 128]
00000000: 98b2 6abf 2a3b 30bf 6ffb 49bf 3f57 313d
00000010: ba34 39be e5fe 92be c84c f5be 9ea3 af3f
00000020: d05f bc3e d009 8e3f 8918 d8be 9289 b3be
00000030: 4ced 233f 0830 0cbf 05f1 aabe aaab 50be
00000040: 611b 19bf 1fd8 ec3f 25f6 75be 440d d83e
00000050: cbad 803f 9ffb b63d 3a1c 583f 6909 583e
00000060: 6fe2 8fbf a956 a93f 558e 93be 5b5e 8a3f
00000070: 1aa7 c1be a8e4 a6bd c26d 33be 1e58 be3d
00000080: c006 b2bc 344f 103f 86ad febd 75e7 bdbe
00000090: b625 973e 3a15 a33f 2f11 dd3f 52dd 9f3d
000000a0: 39b9 11bf bf59 a53c 36ce d1be e20c 78bf
000000b0: dd96 b1be 9abf 903e 0280 a33e a64a 573d
000000c0: 3b57 193f 9bac f43e f00c 813d 50cf d43e
000000d0: 3b15 9c3f 98c2 c4be 6b53 e6be a813 99bf
000000e0: 3300 b5bb 9504 71be 575e 34bd 79cc b2be
000000f0: 86a9 99be 4620 05be 20cb 66c0 0740 c83e
00000100: 2ed0 693f 9985 82be 1f89 19bf e6fc 08bf
00000110: c891 e33d 6686 9bbf 0297 2a3f c13b cabe
00000120: 3344 8abe fcb6 e1bd 7833 f1be ea0b 52bd
00000130: 375c 20be 8c30 a9bd dca5 863f 1cf2 d33e
00000140: 677e 323f 3fa7 f3be 6808 21bf dd30 fc3e
00000150: 9a88 103f 1f28 11c0 81d6 c8be e557 17bc
00000160: 351e 943f 3ae2 873e e082 9bbf 6a97 3c3e
00000170: 33ce 05be fe12 75be cd76 043e e753 cdbf
00000180: bb56 ae3d 232c 9abd ec8e 43bf 86a5 fcbe
00000190: 2210 233f 764e 4e3f 7b79 893f a8ed f83c
000001a0: f421 883e 667b f3be 3f43 a43d f79c a6bc
000001b0: 1d76 023f 918f 883d 10d0 6abe 7bcd c1be
000001c0: 3913 bdbd a6e7 fcbe 14e0 babf b6ea 903f
000001d0: c5cd 6fbe b075 48bd 04d8 9e3e 6338 28bf
000001e0: 8867 733e 235a 4dbf dcd4 a1be 471a 613f
000001f0: e361 81bd 838a 8f3e 325b 94be 95c6 17bf
00000200: 8050 013d 747b 3a3f 5208 1640 669d 87bf
00000210: a1a5 ad3d 187c 07bd 0e9c 6c3e 4da3 583c
00000220: 021d 26bf a86c 27bf e12f a43e d2d5 163e
00000230: 2d67 d53e a52c b0be 941a 6d3e 7ccf 6bbe
00000240: 8f11 36bf 257b 87be 5425 a63d 1743 97bd
00000250: 4d0e dfbe f293 d73e b9e5 563e 727f 343e
00000260: c3d5 1e40 6ad1 52bf 9085 0b3f b2bd 97bd
00000270: cc11 3ebf 862b bd3e 547a 6dbe 4d46 843e
00000280: 3f90 46bf 7b43 0e3e 0b95 183f 1e55 143f
00000290: 9035 363f 5156 b43d 27ff 73bf ec0a 12bf
000002a0: 345f 36be ba77 7abf 614b abbe 8853 94be
000002b0: 363d 67be 069e 13be 664b 0fbd 35e8 b33f
000002c0: 17db 203f 9aa5 bcbe 9368 57be acdb e93d
000002d0: d730 f43e b7a8 11bf 6a3b 3d3f e500 abbe
000002e0: cd85 173f a0fc a33e d2a4 333f d506 b73e
000002f0: 915b 1c3f 50fc e8be a2f4 6840 6a91 acbe
00000300: c7b5 74bd 9bd4 5b3d 2dcb 8f3f ac8e a33f
00000310: cb33 d4be ccbd 1bbf e153 113f b5f8 143f
00000320: f750 d2be df3e 8d3f e1b1 01be 3b5f 4abf
00000330: 3994 9e3d 793e 4540 1cf4 843b f248 003f
00000340: c619 08bf 5218 9dbe 2022 d7be 350f f93e
00000350: ba33 22bf b148 d3be c2ef 8cbe 2bc7 a93e
00000360: a24e 33bf 3ebd dabf caed 3c3f 1d2a f5be
00000370: b2b9 f83e a8f2 423f 89ec 33bf a510 c4be
00000380: 7d1e 2cbf 6d9c 553e 13b9 fdbe 5cd7 49be
00000390: cebc 66bf 863b 16c0 869b 0a3f 3cfd 1dbf
000003a0: 0572 83bf eec1 01bb 2994 103e 456a 683e
000003b0: 35d7 c4be c1b7 bd3e 3d8a 9b3d c89a 393f
000003c0: 2311 53be 1a53 a43e abc6 03bf 621f 043e
000003d0: a245 523f 29e5 e43f 30c1 43bf e349 aa3f
000003e0: 684a 213f 63ec e6bd baff fc3c accf 59bf
000003f0: ceb6 17be 4e4d 86be 51ab 3a3e 329e 2cbe
-0.9167876 -0.6884028 -0.7889928 0.043296095 -0.1808652 -0.28710094 -0.47910142 1.3721807
0.3679185 1.1096745 -0.4220622 -0.35065895 0.6403396 -0.5476079 -0.33387008 -0.20377985
-0.598074 1.8503455 -0.24019678 0.4219762 1.0053037 0.08934712 0.8441807 0.2109734
-1.1240977 1.3229572 -0.28819528 1.0810045 -0.378228 -0.081490815 -0.17522338 0.09294151
-0.021731734 0.56370854 -0.12435441 -0.3709065 0.2952096 1.2740853 1.7270869 0.078058854
-0.5692325 0.020184396 -0.4097764 -0.9689466 -0.34685412 0.2827118 0.319336 0.052561425
0.5989873 0.47787938 0.06301296 0.41564417 1.2193979 -0.38429713 -0.44985518 -1.1959124
-0.0055237054 -0.23536904 -0.044035282 -0.34921625 -0.3001215 -0.13000593 -3.6061478 0.3911135
0.9133328 -0.25492552 -0.59974855 -0.5351089 0.1111179 -1.215039 0.6663667 -0.39498714
-0.27005157 -0.110212296 -0.4710958 -0.051280893 -0.15660177 -0.08261213 1.0519366 0.41395652
0.69724125 -0.47588536 -0.6290345 0.4925603 0.5645844 -2.2680738 -0.39226153 -0.009237264
1.1571718 0.26539785 -1.2149315 0.18417135 -0.1306694 -0.23933026 0.12935944 -1.604123
0.08512636 -0.0752795 -0.76389956 -0.49345034 0.6369649 0.8058847 1.0740198 0.03038676
0.26588404 -0.47555083 0.08020639 -0.020338519 0.50961477 0.06668008 -0.22930932 -0.37852082
-0.09232182 -0.49395484 -1.4599633 1.1321628 -0.23418339 -0.04894036 0.31024182 -0.6571104
0.23769963 -0.8021566 -0.3160771 0.8793072 -0.063174985 0.28035364 -0.28975827 -0.5928739
0.03157091 0.72844625 2.3442578 -1.0594909 0.08478857 -0.03307733 0.23106405 0.013222528
-0.6488801 -0.6540017 0.3206778 0.14730003 0.4168028 -0.3440906 0.2315467 -0.23028368
-0.7112054 -0.2646114 0.081125885 -0.07385843 -0.43565598 0.4210506 0.2098607 0.17626742
2.481797 -0.8235079 0.54500675 -0.074092284 -0.74245906 0.36947268 -0.23191196 0.25834885
-0.7756385 0.1389293 0.5960242 0.5794238 0.7117548 0.08805526 -0.95311207 -0.57047915
-0.17809755 -0.9783894 -0.33455947 -0.2896998 -0.22581944 -0.1441575 -0.034984015 1.4055239
0.62834305 -0.36845094 -0.21035986 0.11418852 0.47693512 -0.56898063 0.73918784 -0.3339912
0.5918854 0.32028675 0.7017337 0.357474 0.6107722 -0.45505 3.6399312 -0.33704692
-0.05974367 0.053669553 1.1233879 1.2777915 -0.41445765 -0.6083648 0.56768614 0.58191997
-0.41077396 1.1034812 -0.12665512 -0.7905156 0.07743115 3.081938 0.0040574204 0.50111306
-0.5316433 -0.30682617 -0.42018223 0.48644415 -0.6336018 -0.41266397 -0.2752667 0.33159766
-0.7004186 -1.7089002 0.7380034 -0.47883692 0.48579174 0.76151514 -0.702828 -0.3829395
-0.6723402 0.20860453 -0.49555263 -0.1971106 -0.90131843 -2.347383 0.5414356 -0.6171453
-1.0269171 -0.001979943 0.14119019 0.22696789 -0.3844544 0.37054256 0.07594726 0.725018
-0.20612006 0.3209465 -0.5147502 0.12902597 0.821375 1.7882434 -0.76466656 1.3303798
0.6300416 -0.11275556 0.030883659 -0.8508251 -0.14815828 -0.26230854 0.18229415 -0.16857222

hh/upward/b f4 [512]
00000000: dde0 4ebf f480 35bf 3cc7 d83f 1f8f 283f
00000010: 5b76 e9be 55cf 723e 4209 973f e276 b8bc
00000020: 730d 05bf 5f44 3c3f d497 a13f 62ad b73e
00000030: c335 673f 9bc9 723f 1be1 b53f 6660 e8bd
00000040: 76d7 debd 385d da3d adb9 1b3f 8579 81be
00000050: 4edb 83bd 0f24 2ebf 6319 323f d9d3 3fc0
00000060: 6226 033f 156b 78bf 3516 bc3f 6a7e 95bf
00000070: c574 35be e16d 8a3d 26b4 1e3f eac1 a23f
00000080: e772 c73e 64de 063f 44b5 803f dd49 1e3d
00000090: 609b 383f e6f5 5b3f 2558 793f c586 e43e
000000a0: 7f0d b0bf 0ef2 5e3f 0d6b 873e 1b93 b73e
000000b0: 6221 8bbd 2af3 2c3f 9488 17bf d8f4 4c3f
000000c0: 9c53 813e 1708 b5be 665e 893f 313a 56bf
000000d0: c4ac a83e 7b53 c8bf fe15 ca3f 82f1 153f
000000e0: c49f 063e 23f3 643f 2586 4c3f 0dfe e33e
000000f0: 408e c03f 791b 2d3f 49a5 b43f 1c4d 93be
00000100: 0578 a5be 00b2 cdbf e05e d33f e419 b43d
00000110: 19ac ffbe 6d19 2bbf 226f 0840 9b9a b73f
00000120: b7dd 003f a0a3 a4bf a6af 343f 8539 debe
00000130: c6ff 32bf 14ff 913f 6e5c 6e3f d31d df3f
00000140: e8d2 5e3e 04d9 c53e 82e1 c63f 6f80 8ebf
00000150: b7f5 9d3f 2bed bebc d569 f73f 5389 76be
00000160: 5eb7 ab3e 871d 553f 8e23 863e 7965 e43d
00000170: d1d8 933f 7d88 06bf 7e69 7f3f 2cc8 1d3e
00000180: fe13 7e3e 13f3 623f f068 7d3f aaf9 983f
00000190: 64b8 c33f e1d5 d83e e929 963f e863 fa3e
000001a0: 3c54 20be d9f9 7dbf 8567 85be 2dec ba3e
000001b0: 5e0a 833f fd27 fa3e d897 d23f 04d3 953f
000001c0: 3570 4d3e 7d36 78be 53b6 933f 548d 783f
000001d0: 6fb5 80bf 8db6 943d 6267 1d3f 470e e1be
000001e0: e1b6 80bf d4c4 06bd 695b 983f 9db9 993e
000001f0: b41a ddbe c831 eebf e961 8e3f c964 c1bd
00000200: 4601 81bf 2019 573d 3d97 b0be e997 1cbf
00000210: fa62 8dbf 434a 423f 3dd3 fc3f c14e 36bf
00000220: 3306 c8bf 8e8f 023f d677 e63f ccb5 6b3e
00000230: 007b 54bc e2be 19c0 80bd 243f 488f d2be
00000240: a69f 2f3f 0a58 413f 5991 0240 64e2 053f
00000250: e419 b0bf 79fe 4e3f 52fe 893f 1075 44be
00000260: 6022 5bbf 7e8a 6b3f a143 683f 7590 a3bd
00000270: f66a 80bf 4097 093f 2bf0 9d3f be58 8e3f
00000280: 46d8 b83f fdce c2bf d2af a6be 781d 253f
00000290: 4926 2a3f 5fde 7bbf 7e0d 4f3f ae29 00be
000002a0: ce73 253f a358 a03e 1fcd c33f 6daf c53f
000002b0: b421 8ebc e8bc 50bf 60eb e83e 7c75 783d
000002c0: 2b2d 8ebf a4fd ebbe f879 26bf 1e86 653f
000002d0: 413c 723f 39c7 02bf 69ee b03f d1e4 133f
000002e0: 03b5 adbe c431 1040 d3a6 48bd d428 6e3f
000002f0: cc34 d93e a284 0fc0 9656 ab3f 71c9 dabe
00000300: 28d7 39bf 6ca5 283e 1cf1 bf3e 9cea 0dbf
00000310: 6717 e93e 01cd 0cbf 6a10 493f f327 8cbf
00000320: f1fa 3fbf 2549 4c3f 3574 0040 8930 b33f
00000330: fcb6 aebe f18e 043f 0eff 143f bed5 c3be
00000340: c09b 8e3f cdee 633f 9a90 b63f c13c 8ebe
00000350: bffe 93bf 99cf a93f ef13 763f aafd 923f
00000360: 59f7 7fbf d0c4 803d 38c8 353d 8e2d 223e
00000370: 8275 92be d7df 8f3e 956a 79be c852 19be
00000380: ae4c b83f 3b84 bd3e 8450 bf3f 74a8 803f
00000390: 2602 d6be 1069 803e 1367 2c3f 9dc4 ed3d
000003a0: 8b0c 05bf f97f b5bf 14ed bf3f 4ea6 88bf
000003b0: 9765 ccbe 406d e2bd 55b9 c63f 01d4 cc3f
000003c0: dbd9 a5bf 6697 53be 3b3d a83f 91b0 c03b
000003d0: 9cda bebd 64ac 00c0 01dc d03f e92d e2be
000003e0: 3535 25bf d429 36be a4c9 993f 39bc 7bbf
000003f0: 01b0 2d3f 430f 773f 11ec fd3e eba2 e2bd
-0.80811864 -0.7089989 1.6935802 0.65843385 -0.4559811 0.23711903 1.17997 -0.022517625
-0.51973647 0.73541826 1.2624459 0.35874468 0.9031641 0.94838876 1.4209322 -0.113465115
-0.1088094 0.10662311 0.60830194 -0.25288025 -0.064383134 -0.6802377 0.6956999 -2.9973052
0.5123044 -0.97038394 1.4694277 -1.1679204 -0.17720325 0.06759239 0.61993635 1.2715428
0.3895485 0.5268309 1.0055318 0.03864466 0.72112083 0.85922086 0.9740012 0.4463407
-1.3754119 0.87088096 0.2644886 0.3585442 -0.06793477 0.6755854 -0.59192777 0.800611
0.252591 -0.35357735 1.0731933 -0.83682543 0.3294431 -1.5650476 1.5787961 0.58571637
0.13146883 0.894335 0.7989219 0.44529763 1.5043411 0.67620045 1.4112941 -0.28769767
-0.3231813 -1.6069946 1.6513329 0.08794001 -0.49935988 -0.6683567 2.131783 1.4344057
0.5033831 -1.2862434 0.7058052 -0.4340326 -0.6992153 1.1405969 0.93109787 1.7430977
0.21760142 0.38642132 1.553757 -1.1132945 1.2340611 -0.02330645 1.9329172 -0.24075823
0.33538336 0.8324818 0.26199 0.11152167 1.1550542 -0.52552015 0.99770343 0.15408391
0.24812314 0.8865215 0.98988247 1.1951191 1.5290647 0.42350677 1.173154 0.48904347
-0.15657133 -0.9920936 -0.26055542 0.36508313 1.0237539 0.48858634 1.6452589 1.1705022
0.20062335 -0.24239536 1.1540016 0.9709065 -1.0055369 0.07261381 0.61485875 -0.43956205
-1.005581 -0.032902554 1.1902896 0.30024424 -0.43184435 -1.8608942 1.112363 -0.09443051
-1.0078514 0.052514195 -0.34490386 -0.61169297 -1.104583 0.75894564 1.9751965 -0.7121392
-1.5626892 0.510003 1.8005321 0.23018569 -0.012968779 -2.4022756 0.64351654 -0.4112494
0.6860298 0.7552496 2.0401213 0.5229857 -1.3757901 0.80857044 1.0780737 -0.19185281
-0.8559933 0.920082 0.90728194 -0.07986537 -1.0032642 0.53746414 1.2338918 1.1120832
1.4441001 -1.5219418 -0.32556015 0.6449809 0.6646467 -0.98386186 0.8087996 -0.125159
0.6462983 0.31317624 1.5296973 1.5444161 -0.017350055 -0.8153825 0.45492077 0.060658917
-1.1107534 -0.4609195 -0.6502986 0.8965777 0.9462319 -0.5108524 1.3822757 0.5777102
-0.33927163 2.2530375 -0.04898722 0.9303105 0.42423093 -2.2424703 1.3385799 -0.42731813
-0.7259393 0.16469353 0.3748864 -0.5543611 0.45525667 -0.5500031 0.7854067 -1.0949692
-0.7499228 0.7979911 2.0070927 1.3999187 -0.3412398 0.5178061 0.5820168 -0.3824901
1.1141281 0.89036256 1.4262879 -0.27780727 -1.1562117 1.3266479 0.96124166 1.1483662
-0.999868 0.06287539 0.044380397 0.1583769 -0.28605276 0.28100464 -0.24357064 -0.14972985
1.4398401 0.37014946 1.4946446 1.0051408 -0.41798514 0.25080156 0.6734478 0.11609767
-0.51972264 -1.4179679 1.4994226 -1.0675752 -0.39921257 -0.11055994 1.5525309 1.6002198
-1.2957109 -0.20663223 1.3143686 0.0058804234 -0.0931904 -2.010522 1.631714 -0.44175652
-0.6453431 -0.17789394 1.2014661 -0.9833408 0.67846686 0.9650766 0.49594167 -0.110662304

hy/W f4 [2, 128]
00000000: 8081 40bf e787 f03f f707 8ebf 4fba 4040
00000010: f6f0 d3bf 9511 1dc0 2462 18bf 796e 123f
00000020: d2c0 88bf 15d7 373f f1f3 4e3f 2a4d 91bf
00000030: efde 923e e017 f1be aa94 7fbf 512a 0e40
00000040: 6ccf ddbe 03fc 7bbf 3dd0 b63f 0fc8 3b3f
00000050: fa33 933f fa65 833f d0e1 c03f b8af 0dc0
00000060: 6e03 803f b733 c43e 4112 eabf 8610 d13f
00000070: bf20 94bf 6b2c 17c0 c54f e1bf 668b e7be
00000080: 8001 dc3f 3ae6 91bf 40a9 99bf 9ac0 27bf
00000090: 84c2 ed3f 0178 273f b6d8 9bbf d9c8 84bf
000000a0: 50ae a3bf d53f cb3f 7693 c73f 91e0 13bf
000000b0: 4f2b 97bf 2362 0e3f 77c0 253f f7a1 b83f
000000c0: 2fe2 9a3f c9a0 8f3e af4f 37bf cee5 c1bf
000000d0: d872 803f 38a7 87bf 0cd9 eb3f 538c e9bf
000000e0: 56c6 3240 259b 6d3f 3e1e 55c0 599c d2bf
000000f0: b3e5 763f eac0 88bf bdee 1440 1bc6 c83f
00000100: 043f ffbf 7633 9bbf 2177 87bf 72c0 2e3f
00000110: 3ab4 963f 5c52 16bf 16f5 ffbf 33ba a7bf
00000120: dae8 6c3f 822c 4fbf f428 0ec0 25e2 dc3f
00000130: 8e36 4840 5731 4a3e 6934 2940 0ac9 c1bf
00000140: 4910 b7bf d517 85c0 265c f8bf 903e fc3e
00000150: 41b2 e23f 12ab 8740 c522 a73f 16c7 30bf
00000160: 1ad4 2cc0 1af2 65bf 4772 733b c091 1b3f
00000170: 10f6 cebf 8427 41bf e023 6ebf 6474 243f
00000180: 0e01 ccbe 4fc5 2ac0 6b76 e9bf dc64 16c0
00000190: b7e8 cc3f 964c c83f 020c 1f40 943c 47bf
000001a0: ad8d 8f3f 47ee d43f e152 f33f bda5 f03f
000001b0: 7421 1ec0 aa6a e7bf 7ce7 86bf cedb be3e
000001c0: 0648 c8bf 71b5 bcbf fe4e 983f 0b17 cb3f
000001d0: 7e81 563f 2cd9 a8bf 2aa0 d8bd 0b7f bdbe
000001e0: 046f 903f 2a4e 80bf 8997 8f3f 9cbb 943f
000001f0: f3dd a7bf 3355 d3bf 467b 72be ffc2 293e
00000200: 7063 33bf 128a f23f d324 87bf 75f3 3840
00000210: def5 d1bf f806 17c0 ed4a 3abf 4f41 173f
00000220: 9b86 86bf ca8a 2f3f 6ec3 443f c4ea 8dbf
00000230: 743c aa3e 4a62 c6be 9be6 76bf 7b51 1940
00000240: 9d56 a4be 2413 85bf 1d49 b43f ea9c 373f
00000250: f732 903f 015c 7e3f 2f34 c03f a415 0cc0
00000260: 0a46 743f 4191 c03e 83d5 e7bf 818a d83f
00000270: acbc 8bbf 15c0 1ac0 df5e e2bf 0ee8 bdbe
00000280: ad5b e93f 2434 8cbf bdd7 8bbf 43d5 1fbf
00000290: cff0 e73f acc6 153f c330 9bbf 3975 80bf
000002a0: 39ac a1bf 9a32 cb3f ab86 ce3f 9d95 b4be
000002b0: e15f 9bbf a50f 073f b5c7 1b3f 0e0f e63f
000002c0: 6880 993f 403e ce3e 6b31 3abf b8df c6bf
000002d0: a8c0 743f 5819 96bf 08f3 ec3f 42e9 e1bf
000002e0: 1a1d 3e40 20ff 723f 94f5 46c0 a936 d7bf
000002f0: 87bd 713f 13f7 88bf ad55 1240 8909 c43f
00000300: 9940 fabf fbe7 9dbf f9cf 87bf 7792 323f
00000310: 26db 993f 40d8 e6be 11d2 00c0 946e a7bf
00000320: 07c1 6e3f 90fa 55bf ab24 10c0 48d6 d03f
00000330: 435b 5040 9404 343e ef1f 2340 ee29 c4bf
00000340: edd7 b2bf 4ad9 86c0 9d40 ffbf 61b2 013f
00000350: bb6b e73f f992 7b40 5479 a43f fcb3 29bf
00000360: 91a0 25c0 5c24 59bf 42a9 fdb9 494c 223f
00000370: 2028 cebf 4a12 53bf 2e51 73bf 5eeb 2e3f
00000380: 0fa2 1dbe 4484 2dc0 0d9c ecbf 037c 08c0
00000390: e88b ca3f 480b c43f 5df7 2040 014d 5abf
000003a0: 2055 8f3f 9fea dc3f ed56 e23f 7c64 dd3f
000003b0: fd02 23c0 e4da f3bf ce7f 83bf 0b58 d33e
000003c0: 28c5 babf 8952 c6bf b8de 943f cb30 c43f
000003d0: c408 5d3f fe41 a6bf 9c49 e5bd fe26 dfbe
000003e0: 7e20 8a3f 17f6 67bf cfec 8e3f 5ca7 923f
000003f0: a87f a4bf 4e1a c6bf 12d6 c3be 8cf3 313e
-0.751976 1.8791474 -1.1096181 3.0113714 -1.655791 -2.4541981 -0.5952475 0.5719982
-1.0683844 0.71812564 0.80840975 -1.1351674 0.2868571 -0.47088528 -0.9983622 2.2213328
-0.43322313 -0.98431414 1.4282299 0.7335214 1.1500237 1.0265496 1.5068913 -2.21385
1.0001047 0.38320705 -1.8286821 1.6333168 -1.1572493 -2.362086 -1.7602469 -0.4522354
1.7187958 -1.1398385 -1.2004776 -0.6552826 1.8574986 0.65417486 -1.217551 -1.0373794
-1.2787571 1.5878855 1.5591877 -0.57764536 -1.1810092 0.55618495 0.64746803 1.4424428
1.2100276 0.28052357 -0.7160596 -1.5148256 1.0035048 -1.0597906 1.8425612 -1.8245949
2.7933555 0.92814857 -3.3299708 -1.6453964 0.96444243 -1.0683873 2.3270714 1.5685457
-1.9941106 -1.212508 -1.058323 0.682624 1.1773751 -0.5871942 -1.9996669 -1.3103698
0.92542803 -0.8092729 -2.2212496 1.7256514 3.1283298 0.19745384 2.6438239 -1.5139477
-1.4301845 -4.159159 -1.9403121 0.4926648 1.7710649 4.2396326 1.3057486 -0.6905378
-2.7004457 -0.8982254 0.0037146972 0.6076927 -1.6168842 -0.7545092 -0.9302349 0.642401
-0.39844555 -2.6682928 -1.8239263 -2.349906 1.6008519 1.5648372 2.485108 -0.7782681
1.1215111 1.6635216 1.9009668 1.8800579 -2.4707918 -1.8079426 -1.0539393 0.37277073
-1.564698 -1.4742872 1.1899107 1.5866407 0.8379134 -1.3191276 -0.10577424 -0.3701099
1.1283879 -1.0023854 1.121812 1.1619754 -1.3114609 -1.6510376 -0.23679838 0.16578291
-0.70073605 1.8948386 -1.0558113 2.8898594 -1.6403158 -2.3598003 -0.7277058 0.5908403
-1.0509828 0.6857115 0.768607 -1.108727 0.33249247 -0.38746864 -0.96445626 2.3955982
-0.3209733 -1.0396466 1.4084812 0.71723807 1.1265553 0.99359137 1.5015925 -2.1888208
0.9541937 0.3761082 -1.8112034 1.6917268 -1.0916953 -2.4179738 -1.7685202 -0.37091106
1.8231102 -1.0953412 -1.0925213 -0.62434787 1.8120364 0.58506274 -1.2124256 -1.0035774
-1.2630683 1.5874817 1.6134847 -0.35270396 -1.2138635 0.52758247 0.60851604 1.7973344
1.1992311 0.40281868 -0.72731656 -1.5537024 0.9560647 -1.1726484 1.8511667 -1.764931
2.9705262 0.9492054 -3.108739 -1.6813556 0.9442982 -1.0700401 2.2864792 1.531541
-1.9550964 -1.233642 -1.0610343 0.6975474 1.2020004 -0.4508686 -2.0128214 -1.3080621
0.93263286 -0.83585453 -2.252238 1.6315393 3.2555702 0.17579871 2.548824 -1.5325296
-1.3972145 -4.2140245 -1.9941593 0.5066281 1.8079752 3.9308455 1.2849526 -0.6629026
-2.5879252 -0.84821105 -0.00048382027 0.6339765 -1.6105995 -0.8244978 -0.95045745 0.6832789
-0.15393852 -2.7111979 -1.8485123 -2.132569 1.5823946 1.5315943 2.5150979 -0.8527375
1.1197853 1.7259101 1.7682778 1.729629 -2.5470574 -1.9051175 -1.0273378 0.4127811
-1.4591417 -1.5493938 1.1630468 1.532739 0.863415 -1.2988889 -0.111956805 -0.43584436
1.0791166 -0.9060988 1.1166018 1.1457324 -1.2851458 -1.5476778 -0.3824926 0.17378062

hy/b f4 [2]
00000000: 0481 9e3f dcad 943f
1.2383122 1.1615558

xh/W f4 [128, 10]
00000000: 2769 b7bf c04a 4bba 0a67 1b3d cbed e9bc
00000010: 8d1f 433f 5cb5 26bf cc2b 2c3f 1af1 b3bd
00000020: c372 6bbf 47b1 eabf 7526 58be 892d 983d
00000030: c45c 3b3c 20b8 41bc a770 a1be 9daf bc3e
00000040: ff58 943d e07c d33d dd63 273f e5d1 5dbf
00000050: 129f a13f 51f4 3d3f b9c3 403e 16dc a73f
00000060: 527d 133f 728c d03f 5466 183f 5e24 783e
00000070: 4b6f 1b3e 3130 463e 2022 8a3f 6e52 5abe
00000080: 717c f1bc 99f1 32bf b71b 713e 718b 21bf
00000090: ffe9 a9bf 0596 afbf de31 b03d 3100 6b3f
000000a0: 64e3 583f 1cf8 febc 070a 133d 2e30 2a3c
000000b0: 4b17 f2be f9ce f43e bb1d fbbe 0d17 01bf
000000c0: bc1d a93c 57cc 03be d330 a9bf f340 d03d
000000d0: 5446 44ba 5d44 883d 696c 84be 42f6 2b3e
000000e0: d502 893f cdfa c63f 8234 863f 292f 19bf
000000f0: 576e 83be 4780 f73c d2a0 cf3d ad1f 15bd
00000100: 7e21 0c3f afb6 14bf 2393 213f 7d98 683f
00000110: 3758 163d 6e4b 99bd 5a9a 613d 11d0 003d
00000120: 096e c8be 0473 25be a762 93be bea0 81bd
00000130: 3aa2 8bbf 27ac 46bf e719 a43e e8b0 e73f
00000140: d069 afbe 1df9 a33e 1af8 a8be da49 6ebf
00000150: aa58 2fbf fb0a 69bf e55a b8bf 3e62 64bf
00000160: 3b29 6cbe 5c97 a5bf bb18 6d3e f9dd 71bd
00000170: ed15 9abe 5612 24bd 74e5 913c 47c1 94be
00000180: b852 2dbf 4b53 3bbe dde6 a33f c809 093f
00000190: 69df 49bf ab17 b33d e7ae 3ebe e04e 4cbe
000001a0: 4e42 f8be 9bc8 273f b6fe 7abf e11e 99bf
000001b0: e544 9ebf f0ea ac3e 19b9 77bf a48b 11be
000001c0: a541 033f d6b6 db3c 842d 5f3e b27c 3b3e
000001d0: ca30 87be 0ce8 9d3f 8d77 333e b708 273f
000001e0: 4a72 f83f d60c b2bd c776 9f3c 4e92 19bd
000001f0: 5829 f13e 76ed cbbe 8063 34bf c0f4 7abf
00000200: 75e8 673f 3d38 ab3e 81bb e23e 9c6b 153d
00000210: a195 4bbc 76b1 14bc 6d7b 36be a7d2 533e
00000220: aed7 47be ab26 90be b958 ffbf e5b4 a2bf
00000230: d44f d43f 0f3d 8dbd ef67 b13c 711f 50bb
00000240: 68b3 dfbd 2db7 063e e3e3 71bf de75 dcbe
00000250: f12e 96be fdb6 b9bf de5a 99be 80b9 97bc
00000260: 0aeb 003d d2f1 5c3d 7d32 6cbf 9f40 783f
00000270: c23f 253f 9e92 26bf 905f f43f 0ac8 4c3f
00000280: 39a5 4bbf 07bf 693c 17a6 a5bb c37e 123d
00000290: 0acc b9bf c8b7 cf3f ba29 66bf 2341 9cbf
000002a0: efa9 24be f4ef 06bf 8ccd 80bf e676 56bf
000002b0: e2dc 25bf 850f 3d3e e076 963e 3ecb 6fbf
000002c0: 5d62 1c3e e399 ed3e c01d fc3e 73b9 4dbd
000002d0: 0a54 0a3f 4cdd 65ba eab8 49bd c5c7 413d
000002e0: 0e53 1e3d eaf3 52bc bc0b 873d 0837 313e
000002f0: 4564 9f3e 0327 d8bf 21bd 43bf ac79 2bbd
00000300: 11e3 4d3d cdaf 073d 85f0 233f b389 42bf
00000310: 4f6d 703e 3634 133f df33 3cbf 7662 f93e
00000320: 3d67 99bf d051 ee3d d263 37bf bbe6 fdbd
00000330: c8da 73be c535 33bf 184b 23bf 2edb 0abf
00000340: c0d3 19be 5b7b 34bf 3ccd 9fbf 34d4 d3bb
00000350: f624 0f3c ee1a fcbc 7af2 8a3f 3e43 92bf
00000360: 77f1 0a3f 05e6 933f 82e0 553e f6fc 793e
00000370: 2cc9 863f 030f d0be 5dc7 9dbe 8fdf de3e
00000380: 22ae 983f 1bb5 d63f 950f 293e 2ad6 94be
00000390: 9c7a 8b3c 9f50 403f a6c2 87bf 8f42 bfbe
000003a0: 365d abbd 1f13 983d acb7 2abe c616 a8bf
000003b0: e78f 65bd 495b b03e e5d7 9d3e b02c 51be
000003c0: b7e9 873e bc85 d83e 1e3b 363f c944 b93f
000003d0: 5ff6 f83e 5f5b 2b3f b35e 213f 0bfc 6c3f
000003e0: dcf3 133f f561 593f a61f e8bf 7da0 ddbe
000003f0: c805 7ebf 2dbc 6cbf d4a7 f6be 0810 a4bf
-1.4328965 -0.0007754974 0.037940063 -0.028555771 0.7622002 -0.6512048 0.6725433 -0.08786221
-0.9197199 -1.8335351 -0.2110842 0.0743056 0.011435691 -0.011823684 -0.3153126 0.36852732
0.07243537 0.103265524 0.65386754 -0.866484 1.262667 0.7420092 0.18824662 1.311404
0.576131 1.629286 0.5953114 0.24232623 0.15179174 0.19354321 1.0791664 -0.21320507
-0.029478284 -0.698999 0.23545729 -0.63103396 -1.3274535 -1.3717657 0.086032614 0.9179717
0.8472197 -0.031124167 0.035898235 0.0103874635 -0.47283396 0.47814158 -0.4904612 -0.504258
0.020644061 -0.12870918 -1.3218025 0.10168638 -0.00074872863 0.06653664 -0.2586396 0.16793159
1.0703989 1.5545288 1.0484774 -0.59837586 -0.2567012 0.030212535 0.10138096 -0.03640716
0.54738605 -0.58091253 0.6311514 0.9085768 0.036705222 -0.0748509 0.05507884 0.031448428
-0.3914645 -0.16157156 -0.28786203 -0.06329487 -1.0908883 -0.77606434 0.32051012 1.8100863
-0.34260416 0.32025996 -0.33001786 -0.9308144 -0.68494666 -0.9103238 -1.4402739 -0.89212406
-0.23062603 -1.2936816 0.23153965 -0.05904958 -0.30094853 -0.04005655 0.017809607 -0.2905371
-0.67704344 -0.18293492 1.2804829 0.5353055 -0.7885652 0.08744749 -0.18621407 -0.19951963
-0.48488086 0.65540475 -0.9804491 -1.1962548 -1.2364775 0.33772993 -0.9676681 -0.14213425
0.5127204 0.026820581 0.21794707 0.18309286 -0.2640441 1.233644 0.17526074 0.6524767
1.9409878 -0.086938545 0.019465817 -0.037493043 0.47101855 -0.39829606 -0.70464325 -0.9802971
0.90589076 0.33441344 0.4428368 0.036479577 -0.012425811 -0.009075513 -0.1782052 0.20685826
-0.19515869 -0.281545 -1.9948951 -1.2711455 1.6586862 -0.06896412 0.021656005 -0.0031757022
-0.10922891 0.13155814 -0.9448835 -0.43058676 -0.29332688 -1.4508969 -0.2995214 -0.01852107
0.03147415 0.053941555 -0.9226454 0.96973604 0.6455041 -0.6506747 1.9091663 0.79992735
-0.79548985 0.014266736 -0.0050552 0.03576542 -1.4515393 1.622796 -0.8990742 -1.2207378
-0.1608045 -0.5270989 -1.0062728 -0.83775175 -0.64790165 0.18462951 0.2938757 -0.936695
0.15271898 0.4640647 0.49241447 -0.050225686 0.54034483 -0.00087686325 -0.049248613 0.047309656
0.038653426 -0.012875536 0.06594035 0.17306149 0.31131187 -1.6886905 -0.7646046 -0.041864082
0.050265376 0.03312664 0.6403888 -0.7599136 0.23479198 0.5750154 -0.7351665 0.48707932
-1.1984631 0.11636698 -0.7163669 -0.12397524 -0.23813927 -0.7000392 -0.6378646 -0.5424069
-0.15022182 -0.70500726 -1.2484508 -0.0064645056 0.0087368395 -0.03077456 1.0855248 -1.1426771
0.54274696 1.1554571 0.20886424 0.24412903 1.0530143 -0.40636453 -0.30816165 0.43529937
1.1928141 1.6774019 0.1650985 -0.29069644 0.017026238 0.7512302 -1.0606277 -0.37355468
-0.08367388 0.07425522 -0.16671628 -1.313195 -0.05604544 0.34444645 0.30828777 -0.20427203
0.26545498 0.4228953 0.71183956 1.4474117 0.48625466 0.66936296 0.63035125 0.9257209
0.57793975 0.84915096 -1.8134658 -0.43286505 -0.9922757 -0.92474633 -0.48174918 -1.2817392

xh/b f4 [128]
00000000: 034b 30bf d60b a0bd edd6 febe e55c 463c
00000010: a320 a4bd 1d61 a53e b8e3 293e e7ce 463f
00000020: 5857 933f 79c3 653f abc6 63bf 93d0 58bf
00000030: 5e30 973e ab46 39bf 7098 aabe 3dc2 f03e
00000040: ce6b 3dbf 7029 cc3e 7ec5 23bd 95ec b1bc
00000050: 1627 8a3f 0976 363e 90e3 ffbe f065 9a3e
00000060: 98b7 0abf 26af 143f 9977 60be 99b9 f7be
00000070: a4fc 91bf 0cf6 91bd d659 7abf 992c 82bf
00000080: d5a3 68be 093a 183f 0ed2 23be dc9d cdbe
00000090: bf73 403f b1cf 263f 8f9e 423e 90a7 c3be
000000a0: 8fdb 99be 30c1 0abf e217 e4be 3508 33be
000000b0: 41c8 31bf 2760 f93f 408a 3c3d cc1c bf3e
000000c0: a7fd 9f3f cd97 1e3f 9aaf 46be c9eb 0e3e
000000d0: 3c2e 903e f1dc 5bbe 79b0 b73e db9e 68bf
000000e0: 8ec6 423f 789f 5dbf 9a8e 06bf a1cd 633d
000000f0: 921b a9bf 6fcd 96be 4073 6cbf 08a7 49be
00000100: 01e7 4a3f 06c3 4dbe 64eb fbbe 4e6e 4fbf
00000110: 6df6 b93d 403d 3bbf b4b3 7a3f 1a80 8ebe
00000120: 10f3 423e 5534 de3e 44e7 bc3d 0d8e 9d3e
00000130: ec91 fdbe ed58 d9bd 1c94 e93f 6230 903e
00000140: c183 ddbe 1a1c 14bf 815f 4cbe ec35 02bf
00000150: dd4b f53f bb93 81bf f441 1b3f 35cf a2be
00000160: 16bc 153e 4f8c 8cbd e426 90bd 4c9f 52bf
00000170: 3157 92be d3ca cfbe 0269 a73f f12c f0be
00000180: 4bd4 ebbe 126a c13b 0224 83be eaca 72be
00000190: 15b6 01bf 29ab 083f 0e0b cdbf c29c 51be
000001a0: 9af6 0ebf 1dc8 e8be cc06 1f3e 9cb6 f93e
000001b0: 5cf2 943e 5095 143f 9516 aabe e370 a9be
000001c0: e199 03bf 0b4e 34bf c17f 84bf e163 483f
000001d0: 3086 a23e bc47 533e a528 0240 ff58 8fbd
000001e0: 036b ce3d 41ac 29bf 5ac9 8cbf 2366 593f
000001f0: 8503 ce3e aa56 133f 8378 74bd 121d bebd
-0.6886446 -0.078147575 -0.4977335 0.012107109 -0.080140375 0.32300654 0.16590774 0.7765946
1.151103 0.8975139 -0.8897502 -0.8469326 0.2952909 -0.72373456 -0.33319426 0.47023192
-0.7399262 0.39875364 -0.039983265 -0.021719256 1.0793178 0.17818464 -0.49978304 0.30155897
-0.5418639 0.58079755 -0.21920623 -0.48383787 -1.1405225 -0.07127008 -0.9779333 -1.016986
-0.22718747 0.59463555 -0.15998098 -0.401595 0.75176615 0.6516066 0.19005798 -0.38213778
-0.30050322 -0.5420103 -0.4454947 -0.174836 -0.6944619 1.9482468 0.046030283 0.37326658
1.2499284 0.6195038 -0.19402924 0.13957132 0.28160274 -0.21471001 0.35876825 -0.90867394
0.7608422 -0.86571455 -0.5256134 0.055616025 -1.3211539 -0.29453608 -0.9236336 -0.19692624
0.79258734 -0.20093927 -0.49203026 -0.81027687 0.09080205 -0.73140335 0.97930455 -0.2783211
0.19038033 0.433993 0.09223798 0.3077244 -0.49525392 -0.10612664 1.8248324 0.28161913
-0.43264583 -0.5785538 -0.19958307 -0.5086353 1.9163777 -1.0123209 0.6064751 -0.3179871
0.1462253 -0.06862699 -0.07038668 -0.8227432 -0.28582147 -0.4058443 1.3078921 -0.46909288
-0.46060404 0.005902537 -0.2561341 -0.23710218 -0.5066846 0.5338617 -1.6018999 -0.20469955
-0.55845034 -0.45465174 0.15529937 0.48772132 0.29091156 0.5804033 -0.33220354 -0.33093938
-0.51406676 -0.70431584 -1.0351487 0.78277403 0.31743002 0.20632833 2.0337307 -0.069993965
0.100790046 -0.66278464 -1.0998948 0.84921473 0.4023706 0.57554114 -0.05968524 -0.092828885
