code/python/spin_model/10_128_2_5_10_29900_630_use_train_spin_model.npz (npz, 497224 bytes, 7 tensors)

hh/lateral/W f4 [512, 128]
-11.053094 -7.7792535 -0.66184926 2.5495071 7.084396 0.814654 2.6980703 2.747337
-0.5650268 -9.623327 -0.55145425 0.3877906 -5.5263577 -3.7273788 1.9188343 -1.5088024
-1.4315442 3.764366 3.8683429 6.5186124 -3.4508996 0.22362623 1.7873143 6.157769
0.9620585 -5.8297915 1.916846 -2.0713665 -4.139194 2.7742815 4.0572863 -4.1526875
-3.3716962 0.58709747 1.1603959 -4.276377 0.5104706 -7.4577403 -8.551016 1.7875793
7.327608 -2.9324021 -2.745221 15.567752 -4.125684 -1.1806895 0.2989637 3.646952
-2.5251105 0.18429804 -3.77556 -2.324328 1.56356 4.5406094 -2.6192918 9.023822
8.693715 -6.2067785 3.125412 5.1560616 -4.8284082 -3.0411522 -3.0394118 -4.2258096
2.399942 4.3098836 -0.47604617 -0.73046637 -5.5591993 -2.5880642 -2.5960848 2.886625
-1.8127227 -0.9415239 -3.4315917 0.35339063 3.958033 0.4165045 -2.7902412 2.6482928
10.377838 0.9794451 3.0281658 -5.687115 -2.5830593 -5.22282 6.4730263 -0.36771256
-2.8169258 9.031763 -2.872073 1.7641641 5.7306595 5.969577 -1.5791358 2.5801036
-3.8023055 0.60615706 2.2226133 1.442653 -1.2307059 -0.09028569 -2.860551 1.0036888
-9.480427 5.346195 3.2594054 -4.2560334 1.1006429 0.29318655 8.673201 -3.2207022
-7.136691 -1.381265 -0.5482678 5.371359 -0.30914107 1.0234245 -2.7185788 -3.6575122
-0.7150926 3.8825152 3.4131017 2.552846 1.3862311 11.200519 8.819296 4.388281
17.035364 3.0942094 -3.1993272 -0.64952594 -1.7220933 -3.4024277 -2.3507578 -0.13722146
0.2838631 6.4790406 -2.458545 -0.033825394 0.959061 4.786615 -1.444181 8.058975
-5.5681386 -3.0535946 6.5685034 6.3131022 -4.5205426 5.719773 1.0479232 -11.32942
1.3452967 -5.384765 -0.85493565 0.5866126 10.8451 -0.83972347 -2.9953694 3.3943374
1.1653274 8.5274 -3.3506908 -4.9707284 1.8804451 -2.3983684 -6.3695455 -2.6642716
-0.96430105 6.9266067 1.0768131 -1.570291 -3.4207058 -0.9782786 -1.8647461 1.8316666
5.570263 11.267967 4.861008 -0.22129196 4.756603 -0.7322989 -0.8612148 -2.5152917
3.6251953 5.068311 -2.1373453 -3.9180045 5.3317842 1.3784226 -3.9465246 -1.0964903
-5.5383844 0.6342563 0.84379673 4.343199 -0.9670541 3.4653358 -10.389367 3.128632
5.3017683 -7.2482557 -3.645533 -2.5390654 3.1370656 -0.18074965 9.818131 3.7316022
1.665613 -4.522039 -5.0437284 5.066795 1.1888084 3.8130815 -3.5466378 0.9654562
0.027448682 -1.5382489 3.1736598 4.307705 -8.206491 1.334662 -2.8384938 12.005532
-5.063187 -3.9536746 -3.8341112 0.043381017 1.4527094 -4.5239573 -12.735772 -5.8163652
7.917092 3.2201228 -1.8194727 -4.1087475 -10.147913 -7.4182057 0.602726 2.9225814
-0.97618526 -4.6082263 5.9831038 0.5361106 0.4168451 -8.022225 0.62050635 -6.161362
5.649771 1.1350522 5.3524914 -2.2569277 -0.3403444 6.910081 2.380162 -3.7577791
00000000: 79d9 30c1 a5ef f8c0 f46e 29bf 202b 2340
00000010: 5fb3 e240 2a8d 503f 2fad 2c40 5fd4 2f40
00000020: 99a5 10bf 26f9 19c1 1b2c 0dbf 7d8c c63e
00000030: ecd7 b0c0 608d 6ec0 5d9c f53f 7020 c1bf
00000040: d73c b7bf 5feb 7040 ee92 7740 7998 d040
00000050: 8adb 5cc0 46fe 643e b7c6 e43f 720c c540
00000060: 7749 763f a78d bac0 365b f53f 4591 04c0
00000070: 4774 84c0 d48d 3140 4ad5 8140 d1e2 84c0
00000080: dfc9 57c0 054c 163f da87 943f 15d8 88c0
00000090: 34ae 023f cfa5 eec0 f6d0 08c1 66cf e43f
000000a0: c47b ea40 7aac 3bc0 b3b1 2fc0 8315 7941
000000b0: 9a05 84c0 d520 97bf c511 993e a967 6940
000000c0: 699b 21c0 a0b8 3c3e c6a2 71c0 cac1 14c0
000000d0: bc22 c83f ac4c 9140 7aa2 27c0 9361 1041
000000e0: 7519 0b41 ee9d c6c0 c006 4840 75fe a440
000000f0: 5282 9ac0 3da2 42c0 b985 42c0 d539 87c0
00000100: a698 1940 91ea 8940 53bc f3be d8ff 3abf
00000110: f6e4 b1c0 d8a2 25c0 4126 26c0 77be 3840
00000120: 4c07 e8bf b607 71bf 339f 5bc0 9eef b43e
00000130: 6a50 7d40 1440 d53e 5093 32c0 a17d 2940
00000140: a00b 2641 eabc 7a3f 78cd 4140 d9fc b5c0
00000150: d850 25c0 5721 a7c0 0823 cf40 d244 bcbe
00000160: 8348 34c0 1a82 1041 0bd0 37c0 21d0 e13f
00000170: 9061 b740 c606 bf40 1f21 cabf 6b20 2540
00000180: f958 73c0 1c2d 1b3f 4c3f 0e40 daa8 b83f
00000190: c587 9dbf b4e7 b8bd 4513 37c0 e078 803f
000001a0: d4af 17c1 0814 ab40 199a 5040 6d31 88c0
000001b0: dee1 8c3f 8c1c 963e 6ec5 0a41 fc1f 4ec0
000001c0: c65f e4c0 4bcd b0bf 475b 0cbf 2ce2 ab40
000001d0: bd47 9ebe 93ff 823f 32fd 2dc0 ae14 6ac0
000001e0: 4f10 37bf 217b 7840 4270 5a40 d461 2340
000001f0: 0570 b13f 5335 3341 d61b 0d41 cc6c 8c40
00000200: 6d48 8841 8707 4640 c7c1 4cc0 5547 26bf
00000210: 8e6d dcbf 60c1 59c0 d172 16c0 c883 0cbe
00000220: 8156 913e 4d54 cf40 cd58 1dc0 7f8c 0abd
00000230: 0685 753f f32b 9940 ecda b8bf 90f1 0041
00000240: 312e b2c0 186e 43c0 2e31 d240 ef04 ca40
00000250: 49a8 90c0 6108 b740 5922 863f 4e45 35c1
00000260: af32 ac3f ff4f acc0 10dd 5abf 3e2c 163f
00000270: 8885 2d41 1ef8 56bf 22b4 3fc0 d33c 5940
00000280: 7329 953f 3b70 0841 b871 56c0 3510 9fc0
00000290: 6db2 f03f de7e 19c0 51d3 cbc0 6d83 2ac0
000002a0: 6fdc 76bf c3a6 dd40 03d5 893f 4cff c8bf
000002b0: d8ec 5ac0 7770 7abf 00b0 eebf 0d74 ea3f
000002c0: 983f b240 9849 3441 618d 9b40 5c9a 62be
000002d0: 1736 9840 f177 3bbf 9378 5cbf 8afa 20c0
000002e0: 3303 6840 9b2f a240 44ca 08c0 96c0 7ac0
000002f0: fa9d aa40 2770 b03f dc93 7cc0 cb59 8cbf
00000300: 723a b1c0 9f5e 223f 1003 583f 7cfb 8a40
00000310: dc90 77bf 10c8 5d40 d93a 26c1 823b 4840
00000320: 16a8 a940 b6f1 e7c0 6a50 69c0 0c80 22c0
00000330: afc5 4840 7016 39be 1117 1d41 92d2 6e40
00000340: cf32 d53f 8bb4 90c0 3966 a1c0 2f23 a240
00000350: e02a 983f 8709 7440 1dfc 62c0 2328 773f
00000360: 0fdc e03c 57e5 c4bf 3e1d 4b40 b8d8 8940
00000370: ca4d 03c1 34d6 aa3f e2a9 35c0 a916 4041
00000380: a105 a2c0 0109 7dc0 1462 75c0 4bb0 313d
00000390: 62f2 b93f 42c4 90c0 b9c5 4bc1 aa1f bac0
000003a0: d158 fd40 7e16 4e40 7be4 e8bf dc7a 83c0
000003b0: da5d 22c1 f161 edc0 404c 1a3f 930b 3b40
000003c0: 47e7 79bf 9776 93c0 9675 bf40 8b3e 093f
000003d0: b96c d53e 095b 00c1 81d9 1e3f e129 c5c0
000003e0: edca b440 6449 913f 9c47 ab40 8171 10c0
000003f0: 9f41 aebe 621f dd40 9354 1840 747f 70c0

hh/upward/W f4 [512, 128]
1.8247386 -1.2018744 -3.330817 -2.9748197 0.14564101 2.6166909 2.698154 0.24179232
6.904052 2.4239926 -1.1633534 -0.29559794 1.5254321 -2.3368723 -0.31718767 0.51898956
-0.8132241 0.06488247 1.3859968 -1.0111821 5.7776456 0.08607477 0.2652642 -1.6503439
-8.834464 2.3491642 3.7289498 1.3101027 -5.4628696 0.17696927 -2.2640522 -1.8173939
3.6607728 -0.7299166 -1.9618487 -2.8847203 0.847975 5.167888 1.173103 2.0034761
0.23803635 -3.4159348 -0.3663135 1.1738911 -0.8190204 -0.96333236 -1.0435154 -1.1767054
-1.3260686 -0.31226963 0.57734436 0.80007565 1.4052737 0.3863362 0.18361698 0.4557258
1.5432376 0.09724739 -3.6457386 1.4983526 -0.85933256 2.548007 -1.5246649 -0.41229725
-0.23025343 0.7906489 1.5869339 0.6379332 0.35306913 -3.1685364 1.2038678 -0.1696939
-1.5916151 -3.0102315 -1.4061213 0.45553112 -0.22299466 1.1543908 4.4078608 0.6081235
-0.015755868 -0.52401334 1.3957678 -0.105411455 6.403005 -5.5521064 -7.429202 -1.1385913
0.16650605 2.4552417 -1.0945623 -2.9284263 -1.4185479 0.69397455 0.7463923 0.93344986
-0.46922165 0.15014358 0.9776969 2.2443185 -2.8542151 0.75320596 -0.16989477 -0.6734724
-1.5060698 -0.44361413 0.8133076 1.3516074 -0.3225958 3.2603333 -0.7374261 -0.052314885
-2.3554049 -1.6979784 -3.4060936 -0.32771516 2.434794 -3.2961695 4.8667893 3.1310093
1.471261 1.2448378 -1.7116524 0.5262808 0.6874764 1.4476001 -1.7197969 -0.26791865
-0.18049979 -1.2491189 9.187134 0.26472563 -0.037682347 0.4154244 -1.4137206 1.091773
-3.2563736 0.13138601 1.6954588 1.0394659 0.39564738 2.2904823 -0.9991525 0.945745
0.7823778 0.037934795 1.540977 0.663662 0.52024096 -1.1712197 2.2655501 0.8396537
3.5512812 -5.422033 -1.3652431 0.67433786 0.35636154 -1.5947574 -0.7847203 -2.2567625
3.5460072 0.9904047 -2.0954757 -0.25488076 1.0489734 -0.67652684 -1.9158092 2.710485
0.48704162 -2.6822546 1.0244819 -1.4911983 3.081074 -2.5039737 -0.52287924 -1.3451905
0.5963436 -0.33800432 -0.54068303 -0.70699203 1.6804477 2.4072611 0.3477759 0.61884195
-1.297208 2.9574413 -4.207686 0.4317683 2.5621126 1.780177 0.39795324 -1.7954795
-1.4635042 0.9829432 1.4955783 0.71393985 -0.086554304 0.35000423 -1.4869103 1.8869896
0.55655885 1.2312613 1.7110215 -1.6194941 -0.3200343 2.0931082 -0.37073237 0.54016584
-3.1740038 -0.68844473 0.5718529 0.7946945 -3.925217 1.0240602 -3.4625995 -0.14431797
-2.0709603 -1.4433057 1.7902584 -1.2502177 0.9233399 1.1630828 -0.25322166 -0.73885864
1.4761646 0.8383296 1.1786653 -0.6884666 0.19199964 -0.115644075 3.347071 1.2703632
2.771786 1.4952979 0.43033308 -1.4435412 -2.3177142 -1.1158967 0.739822 -0.07273725
2.509885 -3.128354 0.98023707 -0.26033875 1.9395427 -3.3661385 -0.502903 -1.1430213
-0.17425995 1.0939893 2.107668 -0.33736184 1.0856639 0.21203482 0.39955097 2.5728846
00000000: 0991 e93f 05d7 99bf 1b2c 55c0 7263 3ec0
00000010: eb22 153e dd77 2740 8eae 2c40 6898 773e
00000020: feed dc40 b222 1b40 c4e8 94bf 9d58 97be
00000030: 5c41 c33f 518f 15c0 6c66 a2be 80dc 043f
00000040: 742f 50bf 1ae1 843d 5868 b13f 6a6e 81bf
00000050: 79e2 b840 f847 b03d b6d0 873e 783e d3bf
00000060: f759 0dc1 b558 1640 1da7 6e40 72b1 a73f
00000070: d4cf aec0 6f37 353e 3be6 10c0 5da0 e8bf
00000080: 1a4a 6a40 d0db 3abf dc1d fbbf 429f 38c0
00000090: e414 593f 575f a540 3d28 963f f438 0040
000000a0: cdbf 733e ad9e 5ac0 718d bbbe 1042 963f
000000b0: 52ab 51bf f39c 76bf ea91 85bf 489e 96bf
000000c0: 9ebc a9bf cee1 9fbe d7cc 133f c2d1 4c3f
000000d0: 02e0 b33f dccd c53e 1706 3c3e e454 e93e
000000e0: cf88 c53f a429 c73d c853 69c0 05ca bf3f
000000f0: 38fd 5bbf 8c12 2340 3828 c3bf a018 d3be
00000100: 8ec7 6bbe f767 4a3f a620 cb3f 974f 233f
00000110: 7ac5 b43e 4dc9 4ac0 5718 9a3f 3dc4 2dbe
00000120: 0bba cbbf a2a7 40c0 c8fb b3bf 603b e93e
00000130: b658 64be 14c3 933f 320d 8d40 fbad 1b3f
00000140: 7312 81bc bd25 06bf 85a8 b23f f6e1 d7bd
00000150: 6be5 cc40 dbaa b1c0 06bc edc0 5cbd 91bf
00000160: 9080 2a3e ae22 1d40 9e1a 8cbf 566b 3bc0
00000170: fa92 b5bf 51a8 313f 9113 3f3f 92f6 6e3f
00000180: d23d f0be 3dbf 193e 584a 7a3f eaa2 0f40
00000190: 76ab 36c0 1bd2 403f e5f8 2dbe b068 2cbf
000001a0: e5c6 c0bf 6421 e3be ed34 503f 7901 ad3f
000001b0: 472b a5be 4da9 5040 f5c7 3cbf 2248 56bd
000001c0: f4be 16c0 5b57 d9bf 70fd 59c0 48ca a7be
000001d0: aad3 1b40 71f4 52c0 bdbc 9b40 7562 4840
000001e0: 4852 bc3f d856 9f3f 6d17 dbbf 57ba 063f
000001f0: 74fe 2f3f f64a b93f 4e22 dcbf a22c 89be
00000200: f0d4 38be 21e3 9fbf 80fe 1241 1e8a 873e
00000210: ce58 1abd 82b2 d43e ccf4 b4bf 38bf 8b3f
00000220: 6d68 50c0 0e8a 063e cb04 d93f 380d 853f
00000230: 4b92 ca3e 4397 1240 75c8 7fbf 581c 723f
00000240: e949 483f 8461 1b3d bc3e c53f c1e5 293f
00000250: 832e 053f 87ea 95bf c6fe 1040 8bf3 563f
00000260: 3148 6340 4b81 adc0 49c0 aebf 68a1 2c3f
00000270: 0575 b63e 0321 ccbf 6ee3 48bf cc6e 10c0
00000280: c8f1 6240 2a8b 7d3f 461c 06c0 bb7f 82be
00000290: c344 863f dd30 2dbf 3c39 f5bf 9678 2d40
000002a0: 855d f93e 0faa 2bc0 3922 833f 96df bebf
000002b0: 5130 4540 1b41 20c0 6adb 05bf 342f acbf
000002c0: f9a9 183f e70e adbe 346a 0abf 6efd 34bf
000002d0: e918 d73f 9110 1a40 af0f b23e 6d6c 1e3f
000002e0: e90a a6bf b846 3d40 5da5 86c0 bc10 dd3e
000002f0: a7f9 2340 d7dc e33f 87c0 cb3e 46d2 e5bf
00000300: 1b54 bbbf 2aa2 7b3f 1c6f bf3f c3c4 363f
00000310: 6243 b1bd c133 b33e 1453 bebf e088 f13f
00000320: a47a 0e3f f899 9d3f c102 db3f 954b cfbf
00000330: 89db a3be 7cf5 0540 a2d0 bdbe 4f48 0a3f
00000340: e122 4bc0 ea3d 30bf f464 123f 1971 4b3f
00000350: c136 7bc0 6814 833f 3b9b 5dc0 17c8 13be
00000360: 9d8a 04c0 3ebe b8bf 3027 e53f 2207 a0bf
00000370: 0160 6c3f e6df 943f 45a6 81be d725 3dbf
00000380: f6f2 bc3f c59c 563f 81de 963f 593f 30bf
00000390: 8e9b 443e cdd6 ecbd 6936 5640 439b a23f
000003a0: f164 3140 ec65 bf3f 9e54 dc3e f5c5 b8bf
000003b0: 6e55 14c0 b4d5 8ebf f964 3d3f 44f7 94bd
000003c0: f5a1 2040 f436 48c0 d1f0 7a3f 1f4b 85be
000003d0: ef42 f83f d06e 57c0 40be 00bf 864e 92bf
000003e0: 3371 32be d707 8c3f 08e4 0640 b1ba acbe
000003f0: 09f7 8a3f a81f 593e f291 cc3e 24aa 2440

hh/upward/b f4 [512]
0.46146896 -3.5444162 4.985787 2.5149083 -2.025644 3.900679 -0.07545244 2.90798
-2.335694 -1.0740259 0.17398953 -1.2493265 2.580617 0.27400598 0.21294343 -3.0140083
4.5187984 3.053329 -2.132294 2.6840723 -2.4214077 -2.5606494 -0.5123655 -4.155185
0.31914476 -4.3313127 -0.37551335 -5.6872582 -1.4672439 0.9991938 -0.23199186 3.966884
2.3448696 2.9351113 0.97016585 -0.8215395 -1.0117631 2.268653 -0.63885456 0.062064074
-4.4718194 2.395459 2.0311732 0.9503674 -1.11044 1.8894786 -4.3696446 -3.4834723
-1.3090571 -0.76619923 0.47638768 -3.98976 -0.2902548 -3.6419425 1.6349214 2.4841247
2.2865148 2.4360254 1.5548062 4.8212523 4.3807974 0.77738696 1.8133768 0.07110685
-3.2072396 -2.4057994 1.102093 1.2017024 1.7806686 -5.262782 4.041397 1.3620392
0.5882869 -1.038458 0.10332627 -2.2737093 -0.60138994 2.3146834 2.7622123 3.6661954
-0.9781038 0.8447724 -1.3217249 -2.8131466 0.96448296 -3.7280023 4.3993273 -0.28535694
-0.041943815 4.401562 -0.9526825 1.1759776 3.1873422 0.86340755 1.0989751 0.065209344
-3.7229967 2.9856126 -1.938558 4.4310093 3.460528 -1.3183113 2.062984 -0.65204597
-0.961338 -2.7356308 0.17526716 1.0473794 -2.8284502 1.0232537 0.8790028 5.400627
1.2666466 -1.0374796 0.28437608 0.66011035 -0.989026 0.6231044 -1.4759644 0.04988194
0.724269 -1.9135443 2.1331327 -0.23713648 -1.219265 -4.9227777 1.001618 -1.0561662
-2.024661 2.8548322 -4.016109 -2.944293 -2.932097 1.9357712 1.1815058 -3.2539852
-4.5854907 -1.022868 0.9478571 -3.181917 0.4106306 -2.2535856 -0.3297788 2.947346
0.43676305 -5.0619125 4.7343407 2.5753696 -3.3035617 4.3876357 -1.6898566 -0.6101928
-4.6104546 2.6961339 -2.850351 -0.067613065 -1.6448338 -1.1563395 0.09533903 -2.2054772
4.5753717 -0.68526447 -2.6079848 2.8210368 2.7362344 0.49490482 0.030840008 -0.14008401
-2.8699815 5.569171 0.96987766 0.7872667 0.1952288 0.0802601 1.3980595 0.84158397
-2.2415173 -3.660752 -4.4079595 2.1908128 0.6172556 2.0522373 1.3296313 2.2767897
-1.7185562 5.396854 -4.558446 4.082451 0.19718482 -4.0142384 3.3689559 2.4132361
-1.8087026 -0.12878808 0.91337484 1.0095758 0.7859678 -2.662123 -1.0314339 -3.0055523
1.6193701 1.3684514 5.9504995 4.6264977 -1.8672665 0.34722227 -2.2160132 -4.7129617
3.6682875 5.493833 3.6902647 2.6836164 -2.7443414 -0.10304967 -1.4065168 3.0329616
-1.2369277 -2.2245328 1.1621549 1.8360481 -1.1147671 2.4627001 -1.7195636 1.8597385
3.513768 -0.13430761 1.4114782 2.5574083 -2.7330964 1.0327674 -0.81711406 1.3188734
-2.1655858 1.7964835 1.220147 -2.4619575 1.6927546 -0.80475485 4.913449 4.316659
-3.6568267 -4.3169384 1.3731469 -0.88374126 -0.7832358 -4.5165997 1.205358 1.549558
-0.70588005 1.9042363 -1.4583365 -2.064059 -5.952093 -0.6090681 2.3648891 0.5864055
00000000: a945 ec3e b7d7 62c0 918b 9f40 42f4 2040
00000010: 27a4 01c0 baa4 7940 cf86 9abd 581c 3a40
00000020: 037c 15c0 ae79 89bf 502a 323e eee9 9fbf
00000030: d428 2540 834a 8c3e d80d 5a3e 83e5 40c0
00000040: ff99 9040 be69 4340 8177 08c0 d7c7 2b40
00000050: 58f8 1ac0 aee1 23c0 632a 03bf 47f7 84c0
00000060: f166 a33e 1d9a 8ac0 4943 c0be 05fe b5c0
00000070: a6ce bbbf 2acb 7f3f 468f 6dbe 6de1 7d40
00000080: 5812 1640 ddd8 3b40 ca5c 783f 6a50 52bf
00000090: 7481 81bf 9c31 1140 f98b 23bf e636 7e3d
000000a0: 2519 8fc0 334f 1940 befe 0140 474b 733f
000000b0: e622 8ebf 6fda f13f 21d4 8bc0 36f1 5ec0
000000c0: 2f8f a7bf a225 44bf 16e9 f33e 3a58 7fc0
000000d0: 479c 94be 9615 69c0 1b45 d13f e6fb 1e40
000000e0: 4256 1240 d7e7 1b40 e403 c73f b347 9a40
000000f0: 7e2f 8c40 d502 473f bb1c e83f 78a0 913d
00000100: 6a43 4dc0 9ef8 19c0 6211 8d3f 62d1 993f
00000110: f3ec e33f b668 a8c0 2053 8140 4d57 ae3f
00000120: f899 163f 31ec 84bf b99c d33d 7484 11c0
00000130: b1f4 19bf c623 1440 16c8 3040 f2a2 6a40
00000140: 0365 7abf 0143 583f 482e a9bf 980a 34c0
00000150: 5be8 763f 9797 6ec0 4ac7 8c40 4e1a 92be
00000160: 47cd 2bbd 99d9 8c40 00e3 73bf 6f86 963f
00000170: 6afd 4b40 4708 5d3f 37ab 8c3f 7a8c 853d
00000180: 9445 6ec0 4714 3f40 ab22 f8bf d4ca 8d40
00000190: 4a79 5d40 6dbe a8bf ee07 0440 7cec 26bf
000001a0: 3f1a 76bf 9314 2fc0 3c79 333e 8710 863f
000001b0: 5405 35c0 faf9 823f 5406 613f f0d1 ac40
000001c0: 7a21 a23f 22cc 84bf be99 913e fefc 283f
000001d0: cf30 7dbf c583 1f3f 67ec bcbf 0151 4c3d
000001e0: b169 393f 05ef f4bf 3f85 0840 e8d3 72be
000001f0: e010 9cbf 6587 9dc0 0535 803f 7430 87bf
00000200: 0c94 01c0 92b5 3640 f783 80c0 4c6f 3cc0
00000210: 7aa7 3bc0 5ac7 f73f 953b 973f 4b41 50c0
00000220: 57bc 92c0 57ed 82bf c3a6 723f 87a4 4bc0
00000230: 2d3e d23e bf3a 10c0 c4d8 a8be 51a1 3c40
00000240: 689f df3e 30fb a1c0 b87f 9740 dbd2 2440
00000250: 8e6d 53c0 8367 8c40 394d d8bf 9835 1cbf
00000260: d888 93c0 758d 2c40 276c 36c0 b878 8abd
00000270: ea89 d2bf ef02 94bf 1c41 c33d 8a26 0dc0
00000280: 7269 9240 7e6d 2fbf 39e9 26c0 de8b 3440
00000290: 771e 2f40 2a64 fd3e 2fa4 fc3c 2f72 0fbe
000002a0: c7ad 37c0 a636 b240 e749 783f 4f8a 493f
000002b0: 0fea 473e 685f a43d 9df3 b23f 0c72 573f
000002c0: 0575 0fc0 c349 6ac0 010e 8dc0 4736 0c40
000002d0: 7704 1e3f db57 0340 5c31 aa3f ecb6 1140
000002e0: a6f9 dbbf 07b3 ac40 cade 91c0 70a3 8240
000002f0: d1ea 493e a474 80c0 f99c 5740 7672 1a40
00000300: 9183 e7bf 06e1 03be efd2 693f c839 813f
00000310: 3035 493f 3960 2ac0 0706 84bf f85a 40c0
00000320: 8547 cf3f 6a29 af3f 7e6a be40 450c 9440
00000330: 9702 efbf 1ec7 b13e 29d3 0dc0 95d0 96c0
00000340: 39c5 6a40 7bcd af40 4c2d 6c40 5fc0 2b40
00000350: 4aa3 2fc0 b50b d3bd be08 b4bf 0b1c 4240
00000360: a653 9ebf bf5e 0ec0 7ec1 943f a003 eb3f
00000370: b0b0 8ebf e19c 1d40 a91a dcbf e90b ee3f
00000380: 93e1 6040 ef87 09be 51ab b43f 94ac 2340
00000390: 0deb 2ec0 b931 843f 632e 51bf d8d0 a83f
000003a0: f598 0ac0 2cf3 e53f c72d 9c3f b690 1dc0
000003b0: 2fac d83f 6a04 4ebf f93a 9d40 1222 8a40
000003c0: 7309 6ac0 5c24 8ac0 47c3 af3f de3c 62bf
000003d0: 2482 48bf fc87 90c0 2c49 9a3f eb57 c63f
000003e0: 8eb4 34bf 04be f33f c5aa babf 8b19 04c0
000003f0: 8c77 bec0 e3eb 1bbf 585a 1740 ac1e 163f

hy/W f4 [2, 128]
-1.8254044 2.790063 0.7066548 1.7309353 -0.21768042 0.1401346 -4.4390707 -1.9372505
-0.47032624 -0.37396836 -1.3986884 -2.6552088 1.0158501 1.8107722 -0.5986765 2.8652344
0.52342916 -2.7811294 0.80775696 -1.5134238 6.865628 1.679256 0.07825035 0.43189994
3.1729314 -0.22044986 0.5150414 0.23420905 15.109849 -1.5564471 -0.0833372 -3.62425
-0.23449321 -3.2782805 -4.9676833 -5.1844473 1.0197695 -0.6458488 0.81130993 -1.2455537
-0.9198921 3.1499119 -0.403981 -1.2943997 -1.016884 -0.1827427 1.2131078 -0.28031483
-0.37355164 -0.44652924 -0.1406288 -6.016785 0.05621624 -0.65969306 -1.065058 -0.5700893
1.5990081 1.6798325 -1.4177433 -0.5978873 -1.1188717 3.3620794 1.6301202 0.9592296
-4.8365254 1.4836544 0.06497291 1.2856804 0.8485721 -0.8596445 -3.5039315 -1.1204243
0.5765109 -2.2349544 -3.2316756 0.9649635 3.0530748 -0.10535643 2.4508796 1.0357139
-0.03490423 -9.657042 -1.2147274 0.7920667 2.0357282 3.9255562 -0.5501666 -3.4107678
4.4414134 -0.06302005 1.664452 -1.2502509 0.19671807 2.8523865 -0.19746257 1.0034385
0.94231576 -2.9989762 -0.8597716 -3.1594963 2.3092747 0.103461556 2.8694274 -5.174126
-0.032029614 4.544899 1.9934568 3.4875944 -3.2717097 -1.0289149 -0.14604409 0.043245833
-0.3588463 -2.354832 1.3824744 0.7348713 -5.503095 -0.041694134 -1.2974297 -1.7699065
0.49432066 0.009815915 3.4004104 2.477611 2.330822 -0.06741961 0.84026605 -1.2879889
-1.8130556 2.8800738 0.6287974 1.7404721 -0.2171203 0.11884626 -4.2301426 -1.9928141
-0.41055244 -0.40289906 -1.5371199 -2.7157795 1.0474198 1.7694265 -0.61127067 2.9533343
0.52002126 -2.6389976 0.94910103 -1.4912243 6.5133076 1.6400956 0.06118473 0.42062587
3.1726902 -0.1101891 0.5292625 0.2480794 15.250553 -1.5889295 -0.07447281 -3.4379997
-0.21878885 -3.245211 -4.7892942 -5.283188 2.035505 -0.5878469 0.71450216 -1.2128282
-0.8770379 3.1253214 -0.40959096 -1.133414 -0.9842521 -0.19308749 1.1744018 -0.29026076
-0.3222662 -0.39309335 -0.14260559 -5.932028 0.0970414 -0.66929185 -0.9643509 -0.5626881
1.5647757 1.6596951 -1.3314946 -0.5668632 -1.461264 3.180355 1.6009032 0.9654545
-4.597153 1.5963012 0.098591246 1.2818097 1.0474454 -0.83164376 -3.554312 -1.1252542
0.5802079 -2.2883093 -3.2249925 0.96300226 3.0830934 -0.13312817 2.3410187 0.9925669
0.020469012 -9.57948 -1.2256249 0.7874634 2.0834672 3.9032362 -0.627025 -3.2784114
4.3756976 -0.04680189 1.6030996 -1.3148817 0.19915856 2.775075 -0.13850059 1.0431229
1.0490233 -2.992239 -0.8982573 -3.0763187 2.1898 0.04439215 2.928241 -5.326567
0.004059338 4.532302 2.0078065 3.611941 -3.2809024 -1.073541 -0.16537252 -0.027863663
-0.28889847 -2.5189722 1.8515885 0.67142344 -6.600565 -0.064349905 -1.3106616 -1.8169448
0.38318425 0.1597185 3.427059 2.4412246 2.4436834 -0.065914385 0.9461773 -1.0844966
00000000: daa6 e9bf 6490 3240 54e7 343f 4a8f dd3f
00000010: 9ee7 5ebe 727f 0f3e de0c 8ec0 d3f7 f7bf
00000020: 9ace f0be c878 bfbe 3908 b3bf f1ee 29c0
00000030: 6007 823f 62c7 e73f dd42 19bf 0060 3740
00000040: 74ff 053f 06fe 31c0 29c9 4e3f dfb7 c1bf
00000050: 39b3 db40 dcf1 d63f b841 a03d fd21 dd3e
00000060: 4f11 4b40 9cbd 61be c1d9 033f 7fd4 6f3e
00000070: f1c1 7141 a939 c7bf b2ac aabd b6f3 67c0
00000080: fd1e 70be 59cf 51c0 43f7 9ec0 fee6 a5c0
00000090: cf87 823f 5956 25bf 02b2 4f3f 4e6e 9fbf
000000a0: 0c7e 6bbf 2898 4940 99d6 cebe e4ae a5bf
000000b0: 4129 82bf e720 3bbe 1e47 9b3f 6d85 8fbe
000000c0: 2942 bfbe 7b9f e4be ff00 10be 8189 c0c0
000000d0: 0043 663d a5e1 28bf d253 88bf 5ff1 11bf
000000e0: 4cac cc3f c004 d73f 9d78 b5bf 240f 19bf
000000f0: 3037 8fbf 4f2c 5740 c7a7 d03f 1290 753f
00000100: d1c4 9ac0 63e8 bd3f 8410 853d 2d91 a43f
00000110: 053c 593f a911 5cbf 6a40 60c0 106a 8fbf
00000120: 3896 133f 7e09 0fc0 c6d3 4ec0 d907 773f
00000130: 9465 4340 1dc5 d7bd 36db 1c40 4692 843f
00000140: bdf7 0ebd 3e83 1ac1 307c 9bbf e2c4 4a3f
00000150: 5f49 0240 503c 7b40 b8d7 0cbf 054a 5ac0
00000160: 0f20 8e40 a810 81bd c30c d53f 3908 a0bf
00000170: 7670 493e 808d 3640 a133 4abe ac70 803f
00000180: 9b3b 713f 3aef 3fc0 fe19 5cbf 3035 4ac0
00000190: 28cb 1340 a7e3 d33d b3a4 3740 7192 a5c0
000001a0: 7c31 03bd d06f 9140 9829 ff3f bf34 5f40
000001b0: b163 51c0 7cb3 83bf 958c 15be 8b22 313d
000001c0: b4ba b7be 91b5 16c0 ecf4 b03f 8720 3c3f
000001d0: 5b19 b0c0 78c7 2abd 2d12 a6bf 4c8c e2bf
000001e0: 9917 fd3e eed2 203c 53a0 5940 2e91 1e40
000001f0: 302c 1540 4b13 8abd ad1b 573f d2dc a4bf
00000200: 3512 e8bf 2153 3840 def8 203f cac7 de3f
00000210: c954 5ebe ab65 f33d 545d 87c0 8814 ffbf
00000220: ee33 d2be c948 cebe 58c0 c4bf 55cf 2dc0
00000230: da11 863f 917c e23f 3c7c 1cbf 6e03 3d40
00000240: 1d20 053f 56e5 28c0 49f8 723f 70e0 bebf
00000250: 046d d040 a7ee d13f d79c 7a3d 465c d73e
00000260: 5b0d 4b40 d3aa e1bd bf7d 073f 8708 7e3e
00000270: 4402 7441 0b62 cbbf 3385 98bd 3008 5cc0
00000280: 2f0a 60be 89b1 4fc0 e641 99c0 e00f a9c0
00000290: b745 0240 227d 16bf 9de9 363f f43d 9bbf
000002a0: 8e85 60bf 4405 4840 e8b5 d1be b613 91bf
000002b0: f2f7 7bbf bab8 45be cc52 963f 0f9d 94be
000002c0: 1300 a5be 8843 c9be 3307 12be 2cd3 bdc0
000002d0: a4bd c63d b656 2bbf b3df 76bf 540c 10bf
000002e0: 924a c83f e470 d43f 6a6e aabf f21d 11bf
000002f0: b30a bbbf f08a 4b40 65ea cc3f 0728 773f
00000300: e11b 93c0 9953 cc3f 35ea c93d 5712 a43f
00000310: b112 863f 9be6 54bf d979 63c0 5408 90bf
00000320: 8188 143f a973 12c0 4766 4ec0 5187 763f
00000330: 6751 4540 c052 08be 40d3 1540 dd18 7e3f
00000340: a1ae a73c 8d45 19c1 47e1 9cbf 3497 493f
00000350: 8757 0540 9fce 7940 b684 20bf 7ed1 51c0
00000360: b705 8c40 57b3 3fbd 5e32 cd3f 0b4e a8bf
00000370: 39f0 4b3e d49a 3140 19d3 0dbe 0d85 853f
00000380: 6546 863f d880 3fc0 31f4 65bf 68e2 44c0
00000390: af25 0c40 8bd4 353d 4d68 3b40 3d73 aac0
000003a0: 3204 853b 9e08 9140 e77f 0040 0b2a 6740
000003b0: 4efa 51c0 cb69 89bf 6a57 29be 5642 e4bc
000003c0: 80ea 93be d736 21c0 da00 ed3f 68e2 2b3f
000003d0: d437 d3c0 e2c9 83bd c2c3 a7bf a691 e8bf
000003e0: ba30 c43e 3f8d 233e ef54 5b40 063d 1c40
000003f0: 4f65 1c40 1ffe 86bd ad38 723f c9d0 8abf

hy/b f4 [2]
8.602146 8.396902
00000000: 64a2 0941 b659 0641

xh/W f4 [128, 10]
-5.6098905 0.66213334 -0.5819771 -0.3846803 1.4989771 -2.8856535 1.859509 -0.42015207
-5.498419 -8.662918 -0.9674379 1.4468652 0.9627069 0.9337896 -0.6911399 1.3019626
1.8053697 1.3218127 1.8650602 -2.524634 3.49843 3.0978198 -0.33709803 3.157362
2.7560446 5.3660693 4.2086763 2.4613864 1.1362576 1.1972094 6.588471 -2.5741837
0.076747954 1.5012504 1.6212276 -0.91318715 -4.3932734 -3.2574515 1.9869688 3.877531
2.524291 0.09157835 0.012983452 0.33051625 -0.52058464 0.8455355 -2.1571894 -2.3160768
0.44015455 -0.027114835 -7.6369896 -0.08063556 -0.19090985 -0.05907925 -0.22980359 1.9437673
5.392595 5.9928927 2.458296 -1.9337415 -0.7324841 -0.3442864 -0.058143698 -0.7189856
1.2766479 -1.7401414 1.4096181 2.8771358 -0.57792693 -0.3059203 2.755538 0.58216655
0.18374187 1.0884163 -0.032134946 0.46095836 -2.5195668 -1.1187403 3.039109 7.7773027
-0.7714438 -1.209701 -2.438861 0.16476323 -0.9440197 -2.2783313 -2.704583 -2.4369981
1.8845406 -0.66648763 2.483599 -0.76579577 0.039808027 1.1418164 0.81353104 -0.14535858
-0.5521837 -0.34529722 5.7041297 3.8878636 -4.0583105 0.23722216 -0.47583678 0.78082144
-0.78524137 2.0376933 -4.1385837 -3.6660204 -4.436531 -0.11699738 -6.1272097 0.0037510027
0.16718945 -1.5400218 0.027195476 -0.33805957 -1.5645484 1.6111295 -1.2599686 0.1014444
9.322407 -0.7760515 0.612745 0.5764644 1.4020375 -1.1835718 -3.0182307 -4.200844
3.5129135 1.8120143 1.4052432 0.5249557 -0.64320886 0.7006646 1.4085504 2.4937856
-0.35877588 -0.7226894 -6.5298424 -4.23929 5.403666 -0.07770025 -0.06203032 0.15930972
-0.40724218 -0.42653692 -3.4097302 -4.5307117 -1.2963332 -5.4785857 -1.7516485 1.1556947
1.6677978 0.011785455 -3.0516636 2.4794831 1.9038197 -0.5745414 6.4621153 4.0766525
-4.2617855 0.94385254 0.40672922 -0.16182724 -3.4975808 5.604528 -2.591542 -4.325964
-0.78875935 -2.446827 -1.5002286 -0.14976503 0.7110387 -1.3541313 0.7495916 -2.8998775
0.51862365 1.8929212 1.0962135 0.16180196 1.5667335 0.93452615 -0.6590977 -1.2016563
0.009931992 -0.16650811 1.2607944 -0.5022928 0.786585 -5.788934 -2.4032063 -1.5689551
0.38222882 0.80885446 2.493964 -0.82818025 0.43991834 2.9788392 -3.4608753 1.3002115
-3.1656759 -0.9783721 -0.30459338 -0.3024084 1.3914177 -0.6859862 0.81664664 0.433524
1.947547 1.3157622 -3.2390037 -1.7720604 -0.20813952 -2.4298785 3.0400288 -3.9354196
0.83574253 3.3294475 -0.94317377 -0.15131019 4.0960035 0.034233607 1.1226821 1.0838026
1.4868015 4.2247434 3.4729223 3.2713473 2.565409 4.418752 -1.2522964 -0.9453781
0.41962227 0.0033347635 1.970171 -2.1138747 1.0861686 2.5813558 0.5325352 0.29642022
1.1372037 4.904987 2.3424263 3.4936686 1.7620215 2.3341234 4.714718 4.8613
0.2642233 0.6679384 -6.618368 -0.6330691 -0.7664285 -1.2759174 -3.3453512 -6.261709
00000000: 3984 b3c0 9281 293f 74fc 14bf d1f4 c4be
00000010: 7bde bf3f 8cae 38c0 6404 ee3f 2c1e d7be
00000020: 0cf3 afc0 509b 0ac1 03aa 77bf e132 b93f
00000030: f673 763f d60c 6f3f 8bee 30bf b6a6 a63f
00000040: 5b16 e73f 2931 a93f 4bba ee3f 9a93 21c0
00000050: 47e6 5f40 ae42 4640 1d98 acbe 3812 4a40
00000060: 0963 3040 d7b6 ab40 7aad 8640 5b87 1d40
00000070: e470 913f 283e 993f c1d4 d240 6dbf 24c0
00000080: 082e 9d3d f928 c03f 6384 cf3f a2c6 69bf
00000090: b295 8cc0 167a 50c0 fe54 fe3f 7829 7840
000000a0: fc8d 2140 6e8d bb3d 8bb8 543c 6d39 a93e
000000b0: 0945 05bf 0475 583f 640f 0ac0 9a3a 14c0
000000c0: f05b e13e ee1f debc 3862 f4c0 4224 a5bd
000000d0: df7d 43be 15fd 71bd a251 6bbe 5ecd f83f
000000e0: 2390 ac40 c7c5 bf40 b954 1d40 d784 f7bf
000000f0: 1484 3bbf 4f46 b0be 1628 6ebd 710f 38bf
00000100: 3369 a33f f4bc debf 5e6e b43f fe22 3840
00000110: 05f3 13bf 96a1 9cbe bc5a 3040 de08 153f
00000120: d426 3c3e 3a51 8b3f ef9f 03bd bc02 ec3e
00000130: 9540 21c0 e232 8fbf c380 4240 aadf f840
00000140: 577d 45bf 7bd7 9abf 4c16 1cc0 b1b7 283e
00000150: 46ab 71bf 2ed0 11c0 e317 2dc0 c7f7 1bc0
00000160: a038 f13f ef9e 2abf 49f3 1e40 310b 44bf
00000170: be0d 233d 0a27 923f 9243 503f e1d8 14be
00000180: e95b 0dbf ccca b0be 3b88 b640 c2d2 7840
00000190: aedd 81c0 5eea 723e e1a0 f3be eae3 473f
000001a0: 9405 49bf 9169 0240 476f 84c0 14a0 6ac0
000001b0: 10f8 8dc0 539c efbd 1a12 c4c0 62d3 753b
000001c0: b633 2b3e 6f1f c5bf 0cc9 de3c 2516 adbe
000001d0: 1f43 c8bf 7e39 ce3f a746 a1bf 15c2 cf3d
000001e0: 9428 1541 50ab 46bf dbdc 1c3f 2c93 133f
000001f0: f775 b33f 487f 97bf b12a 41c0 506d 86c0
00000200: 93d3 6040 16f0 e73f 02df b33f 7f63 063f
00000210: 56a9 24bf c15e 333f 614b b43f 2f9a 1f40
00000220: 79b1 b7be 2c02 39bf 78f4 d0c0 44a8 87c0
00000230: d5ea ac40 4f21 9fbd 8113 7ebd 1622 233e
00000240: 0c82 d0be 0c63 dabe 0539 5ac0 97fb 90c0
00000250: 3fee a5bf 9350 afc0 0536 e0bf ceed 933f
00000260: 667a d53f c817 413c 754e 43c0 daaf 1e40
00000270: 5db0 f33f 2515 13bf a6c9 ce40 f073 8240
00000280: 8c60 88c0 52a0 713f d03e d03e 0ab6 25be
00000290: 5dd8 5fc0 4b58 b340 d3db 25c0 4c6e 8ac0
000002a0: 22ec 49bf d098 1cc0 7e07 c0bf 015c 19be
000002b0: a206 363f 2d54 adbf 3ce5 3f3f 9897 39c0
000002c0: 85c4 043f 3e4b f23f b950 8c3f 6aaf 253e
000002d0: b98a c83f 1b3d 6f3f a0ba 28bf e0cf 99bf
000002e0: cbb9 223c 1a81 2abe b661 a13f 4396 00bf
000002f0: a25d 493f f33e b9c0 22ce 19c0 85d3 c8bf
00000300: 7fb3 c33e 1611 4f3f 1b9d 1f40 9f03 54bf
00000310: fa3c e13e 4da5 3e40 fb7e 5dc0 556d a63f
00000320: 6f9a 4ac0 9876 7abf aaf3 9bbe 46d5 9abe
00000330: fa19 b23f cb9c 2fbf c10f 513f dcf6 dd3e
00000340: 3849 f93f e56a a83f d64b 4fc0 e0d2 e2bf
00000350: 8722 55be 2183 1bc0 d58f 4240 eadd 7bc0
00000360: 39f3 553f ab15 5540 d673 71bf 0ff1 1abe
00000370: 7612 8340 8a38 0c3d 0cb4 8f3f 0bba 8a3f
00000380: 834f be3f 1931 8740 5c44 5e40 c15d 5140
00000390: a92f 2440 6b66 8d40 404b a0bf 4d04 72bf
000003a0: bbd8 d63e 0c8c 5a3b 902e fc3f b949 07c0
000003b0: 9307 8b3f ef34 2540 3a54 083f 64c4 973e
000003c0: e48f 913f a7f5 9c40 50ea 1540 4498 5f40
000003d0: ec89 e13f 4762 1540 f8de 9640 c58f 9b40
000003e0: 4748 873e 03fe 2a3f acc9 d3c0 d110 22bf
000003f0: a834 44bf 4351 a3bf 3c1a 56c0 ec5f c8c0

xh/b f4 [128]
-1.2509931 -0.22719672 -2.074174 -0.5388883 -0.6156434 1.3896734 1.6676526 0.9103544
4.8307214 2.5027468 -3.3985076 -2.1720123 1.8525966 -2.392342 0.625286 0.13481094
-3.06104 0.4874535 0.43729344 -0.5708917 2.3374195 1.440533 -3.4527938 -0.6661061
-1.9773879 3.2646482 1.3419249 -5.6645064 -3.374087 -0.5787889 -2.1402385 -3.8826692
-1.9957643 2.644481 -0.36446863 -2.4542477 3.971018 0.73652965 0.34564182 -2.214524
-0.8799925 0.11240104 -1.0158547 0.7737422 -2.1685357 3.622713 -0.3889314 2.5400765
4.70254 -0.57430476 -3.3056629 0.117237255 -0.87702924 -1.6447027 -0.21921399 -0.41706637
2.110545 -3.2869952 -3.64606 -1.3061535 -3.5917685 -2.9602568 -1.392681 0.7706257
2.2435036 0.63408 -2.041274 -0.00032634492 0.11514971 -3.1017373 3.399084 -1.800415
-0.58805245 -0.12711543 -1.3863106 2.0234404 -0.49056214 -0.24291542 6.8789625 1.1691476
-3.1749535 -0.59426427 -1.0344496 -2.159928 5.308707 -4.2432137 4.8246984 -0.42032358
0.82183915 0.93981874 0.4774732 -3.2897618 0.020342581 -2.2440844 2.631105 0.6853952
-2.245997 -0.80526876 0.80251443 0.7843361 -0.8923297 2.013002 -22.556992 -1.7987388
-2.8246682 -2.1373365 1.7487185 2.8760917 1.4771997 1.6190656 -5.23932 -0.12835875
-1.8746978 -1.5789014 -1.3400877 2.2292829 -1.5070364 1.3719606 4.4036775 0.9925666
0.50951517 -3.6721926 -3.657296 0.792985 1.5088421 0.9233256 -0.5673108 -0.7139467
00000000: 8b20 a0bf 42a6 68be 44bf 04c0 95f4 09bf
00000010: ce9a 1dbf d1e0 b13f a475 d53f fc0c 693f
00000020: 4595 9a40 012d 2040 2681 59c0 4002 0bc0
00000030: e321 ed3f 221c 19c0 be12 203f e10b 0a3e
00000040: 14e8 43c0 8193 f93e ede4 df3e f525 12bf
00000050: 4898 1540 6363 b83f 93fa 5cc0 ee85 2abf
00000060: 0c1b fdbf ffef 5040 32c4 ab3f a343 b5c0
00000070: 0bf1 57c0 822b 14bf abf9 08c0 a77d 78c0
00000080: 3475 ffbf 2d3f 2940 a29b babe 6512 1dc0
00000090: 2925 7e40 358d 3c3f f7f7 b03e c3ba 0dc0
000000a0: 3047 61bf 8432 e63d 8707 82bf f813 463f
000000b0: 4ac9 0ac0 88da 6740 0422 c7be 9d90 2240
000000c0: 357b 9640 a305 13bf fb8f 53c0 161a f03d
000000d0: fd84 60bf 9e85 d2bf a279 60be b989 d5be
000000e0: 2b13 0740 215e 52c0 0c59 69c0 0a30 a7bf
000000f0: 89df 65c0 d974 3dc0 5f43 b2bf ba47 453f
00000100: 9095 0f40 1153 223f 3ca4 02c0 4619 abb9
00000110: 9cd3 eb3d dd82 46c0 988a 5940 0074 e6bf
00000120: 9b8a 16bf 8c2a 02be a072 b1bf 0c80 0140
00000130: f62a fbbe d2be 78be 7620 dc40 a1a6 953f
00000140: 7032 4bc0 b421 18bf d868 84bf 433c 0ac0
00000150: eee0 a940 68c8 87c0 ee63 9a40 a734 d7be
00000160: 0d64 523f f697 703f 5e77 f43e 758b 52c0
00000170: 7ca5 a63c 149f 0fc0 0664 2840 0f76 2f3f
00000180: 6abe 0fc0 1826 4ebf 9671 4d3f 40ca 483f
00000190: b86f 64bf 06d5 0040 b874 b4c1 133d e6bf
000001a0: 5dc7 34c0 1fca 08c0 02d6 df3f e311 3840
000001b0: e114 bd3f 8b3d cf3f 82a8 a7c0 7a70 03be
000001c0: 19f6 efbf 7119 cabf fe87 abbf 92ac 0e40
000001d0: 92e6 c0bf 689c af3f edea 8c40 d818 7e3f
000001e0: 966f 023f 3405 6bc0 2311 6ac0 1101 4b3f
000001f0: bd21 c13f 115f 6c3f 483b 11bf 36c5 36bf
