code/python/spin_model/10_128_2_5_10_4950_330_use_train_spin_model.npz (npz, 499258 bytes, 7 tensors)

xh/b f4 [128]
0.19031036 1.0314928 -1.4306885 0.8367792 0.31735355 -0.6233333 0.31000832 0.27770776
-1.2217879 0.9898781 1.5908213 -0.498979 0.08877286 -0.72303814 0.17312211 0.092570275
-0.5837557 0.63683444 0.32968414 0.48350844 -0.45042813 0.00546481 0.4042396 0.6608432
-0.68916464 0.04413064 -0.42042878 0.5866084 -0.2994533 0.34349576 -0.09783869 0.32114872
-1.1758305 -1.0533245 -1.3996474 0.40013552 -0.44901818 0.21121348 0.94757 0.2949648
0.3645115 0.26605037 -0.17955409 0.91919476 0.7477956 -0.10680101 -0.060163915 -0.16115241
-0.0693386 0.692693 0.101035856 1.0344542 0.1669171 0.10410345 0.044218134 0.48361057
-0.11752393 -0.45044756 -0.19504385 0.11541575 -0.20805418 0.21959063 0.062454965 -0.08521
-1.5512453 -0.538331 0.018249566 0.34909895 -0.30950856 -0.049634177 0.6114455 -0.4000312
-0.54800755 0.11983379 -0.22722495 -0.56917274 -0.15029049 0.27203503 0.072142385 0.6056203
0.08423743 1.0714005 0.6019699 -0.72420025 0.53067183 0.14752702 -0.08283523 -0.5947782
0.29746258 1.0564587 1.2411803 0.1194354 -0.36111656 0.27120098 -0.51651174 0.4565557
-0.85918146 0.004093997 -0.078956574 -0.26460484 0.2871757 -0.15939127 0.30074126 0.45739058
-0.3627902 0.046242237 -0.23818655 0.24964912 -0.12418831 -0.721634 0.1556821 0.06154063
0.074626945 -0.3170809 0.16893916 0.52964514 0.79899466 -0.060327776 -0.54600286 0.72078794
0.042494908 -0.5014067 0.16457877 0.39347252 1.2582687 0.26996705 -0.1428534 -1.3602883
00000000: b8e0 423e f507 843f cd20 b7bf 2937 563f
00000010: 2a7c a23e c592 1fbf 69b9 9e3e b62f 8e3e
00000020: 8c63 9cbf a768 7d3f 08a0 cb3f 2d7a ffbe
00000030: 8cce b53d 0719 39bf ec46 313e 7c95 bd3d
00000040: 0371 15bf 9507 233f 5ccc a83e 6b8e f73e
00000050: 849e e6be 2612 b33b 7ef8 ce3e 052d 293f
00000060: 186d 30bf 54c2 343d 7142 d7be f82b 163f
00000070: f151 99be adde af3e a75f c8bd 9b6d a43e
00000080: 9d81 96bf 56d3 86bf a527 b3bf 90de cc3e
00000090: b6e5 e5be 5948 583e f393 723f a005 973e
000000a0: 40a1 ba3e c137 883e 07dd 37be 5950 6b3f
000000b0: 886f 3f3f 7dba dabd 706e 76bd 2305 25be
000000c0: 6501 8ebd 5454 313f e3eb ce3d ff68 843f
000000d0: 51ec 2a3e 3134 d53d 131e 353d ce9b f73e
000000e0: 63b0 f0bd 10a1 e6be 93b9 47be 185f ec3d
000000f0: 280c 55be 5edc 603e c7d0 7f3d 9582 aebd
00000100: 358f c6bf 0fd0 09bf 1d80 953c 19bd b23e
00000110: e877 9ebe 354d 4bbd b187 1c3f e4d0 ccbe
00000120: 394a 0cbf 6b6b f53d a8ad 68be 4eb5 11bf
00000130: c0e5 19be 2d48 8b3e 63bf 933d ef09 1b3f
00000140: ac84 ac3d a723 893f b31a 1a3f 3065 39bf
00000150: 1cda 073f 5311 173e 84a5 a9bd 6243 18bf
00000160: 044d 983e 0a3a 873f ffde 9e3f 8c9a f43d
00000170: 45e4 b8be dbda 8a3e 1d3a 04bf abc1 e93e
00000180: 51f3 5bbf f026 863b fcb3 a1bd 497a 87be
00000190: b108 933e 7737 23be c2fa 993e 192f ea3e
000001a0: a3bf b9be 8068 3d3d 2de7 73be 05a4 7f3e
000001b0: 7156 febd 01bd 38bf 216b 1f3e 0712 7c3d
000001c0: 03d6 983d 6d58 a2be 63fe 2c3e d396 073f
000001d0: ea8a 4c3f 421a 77bd d8c6 0bbf 8f85 383f
000001e0: 240f 2e3d 315c 00bf 5687 283e 3b75 c93e
000001f0: f30e a13f 1f39 8a3e 2948 12be ed1d aebf

xh/W f4 [128, 10]
-3.193147 0.015789056 0.025313582 0.054335043 0.35376406 -0.30893373 1.1537948 1.0879544
0.116949566 1.280179 -1.5623453 -0.8827032 -0.20507054 3.4020076 -1.2124665 -0.10022175
-0.81977063 -0.6615716 -0.7814028 -1.3022115 -1.0528668 0.027205972 -0.010776173 -0.018440219
0.057308674 -0.103462555 -0.44969139 0.6299165 -1.8194848 -1.7475023 3.7772121 -0.023647109
-0.06462776 -0.06704053 2.2448723 -2.3600576 -0.14726529 0.49054936 -0.98929536 -0.711332
1.591303 -0.027812527 -0.005777058 -0.047703043 -0.21532018 0.20868379 -0.18893075 -0.3447227
-0.18271343 0.07731448 -0.15923111 -0.023067437 -0.0049051456 -0.027435375 -0.021206288 0.016414499
0.27681732 -0.4377938 -0.88410443 -0.7125145 -0.071097456 -0.007822331 0.005959658 0.02019594
0.013244196 0.037865777 0.37253097 -0.4089441 0.6663081 0.14828901 2.1585515 0.030071614
-0.01551849 -0.0432707 0.1372423 -0.17274024 0.20418784 0.3475359 -0.70543873 -1.1472191
1.6595432 -1.0965592 0.77329785 1.4133083 0.5983205 0.73368734 1.1181432 0.39621943
1.5608555 2.0052073 3.3060534 -0.00789844 -0.020885618 -0.057905406 0.94086957 -0.9939709
0.1063652 -0.39556718 -0.3553098 0.42981595 4.136566 -0.015121125 -0.02874965 -0.06563096
0.56403136 -0.5479408 -0.044409256 -0.29877794 0.8898534 0.2610365 4.619362 -0.028660925
-0.044640765 -0.109710924 -0.79463214 0.71116257 -1.9805757 -1.6974616 -0.9036248 -1.3948805
3.1289556 -0.07503112 -0.16514763 -0.11685335 0.9878922 -1.1270299 -1.5897199 -1.3740047
-0.5143542 -0.45074272 2.3140829 -0.0050367517 -0.011362885 -0.04631703 -0.06719188 0.01720092
-2.1871095 -1.1499044 -0.3990394 -0.6017992 -1.3780509 -0.18649021 -0.29784042 -0.09510805
-0.20839451 -0.38487878 -0.22629334 0.4463609 -0.41935486 -0.17906901 1.1888957 0.0014133508
0.0036135921 -0.030960979 1.6055496 -1.667516 -0.2110703 0.10398942 -0.16017847 -0.7015567
1.5576801 -1.2581013 1.6101093 0.22672166 -0.14538312 -0.04496709 0.13138345 0.8039919
0.11429333 0.6580828 0.6682538 0.013033464 0.013348767 0.032482654 -0.10309605 0.10464638
0.7967212 -0.42246988 0.5163597 0.34186965 -1.5290518 0.023091488 0.0031280827 0.04614998
-0.057512634 0.079241194 1.5991869 1.1683145 -0.24025254 -0.033654656 -1.1428374 -0.70445526
-0.79601586 0.65860206 -0.5034356 -1.8913555 0.19948503 0.104004964 -0.1321721 0.0507062
2.4475849 -0.0039360863 0.0025088151 -0.015772043 0.61327 -0.5979654 -1.1981933 -1.8986038
0.46919456 -0.9644594 0.6978772 -0.33172563 0.87946135 -0.27408466 -0.14717251 -1.8146385
0.4635847 0.13926038 -0.8346715 -0.21828179 0.9219054 0.023966597 -0.05410646 -0.02114429
2.766171 -2.9734843 0.11732673 0.20390318 -0.109316856 -0.30546352 -1.1796889 -0.0062156613
-0.37154585 -0.07038479 0.06288055 -0.3891726 0.6999043 0.55071765 -0.8589338 -0.046355214
1.7845426 -0.3103356 0.9144931 2.3090665 0.5907659 1.7135155 0.21106392 -0.022876073
0.7357517 -0.0654349 1.6411232 0.010302416 0.002964903 -0.013034882 -0.07094156 0.103412
00000000: 855c 4cc0 0d58 813c 6e5e cf3c 6c8e 5e3d
00000010: 9020 b53e 902c 9ebe 8caf 933f 1742 8b3f
00000020: 4183 ef3d e8dc a33f eefa c7bf d6f8 61bf
00000030: 03fe 51be 7eba 5940 1a32 9bbf 1041 cdbd
00000040: 7ddc 51bf c25c 29bf 040a 48bf deae a6bf
00000050: 57c4 86bf 0fdf de3c 8c8e 30bc f10f 97bc
00000060: 80bc 6a3d 2de4 d3bd f33d e6be 3542 213f
00000070: e1e4 e8bf 28ae dfbf d8bd 7140 95b7 c1bc
00000080: 8f5b 84bd 8c4c 89bd fdab 0f40 2f0b 17c0
00000090: b6cc 16be 4929 fb3e 7642 7dbf db19 36bf
000000a0: d1af cb3f 19d7 e3bc 7a4d bdbb 4464 43bd
000000b0: e57c 5cbe 34b1 553e 1077 41be 7e7f b0be
000000c0: 3b19 3bbe 0e57 9e3d 7b0d 23be ecf7 bcbc
000000d0: 58bb a0bb 27c0 e0bc cfb8 adbc b377 863c
000000e0: 00bb 8d3e 8226 e0be ab54 62bf 5a67 36bf
000000f0: 8b9b 91bd 3c29 00bc 3c49 c33b f571 a53c
00000100: 2ffe 583c 2519 1b3d 61bc be3e 1f61 d1be
00000110: 2b93 2a3f 13d9 173e b525 0a40 bf58 f63c
00000120: 4441 7ebc 9e3c 31bd 3f89 0c3e d1e2 30be
00000130: 9e16 513e 3af0 b13e a297 34bf 13d8 92bf
00000140: e96b d43f 0d5c 8cbf d9f6 453f 49e7 b43f
00000150: 882b 193f efd2 3b3f 511f 8f3f 46dd ca3e
00000160: 1dca c73f 5155 0040 6196 5340 7568 01bc
00000170: 5118 abbc 382e 6dbd d4dc 703f e074 7ebf
00000180: ffd5 d93d c887 cabe 2beb b5be d610 dc3e
00000190: c05e 8440 98be 77bc 6384 ebbc 8669 86bd
000001a0: 5c64 103f d945 0cbf 7be6 35bd 6cf9 98be
000001b0: 6fcd 633f 93a6 853e d0d1 9340 51ca eabc
000001c0: 3cd9 36bd 1fb0 e0bd 036d 4bbf c00e 363f
000001d0: 8183 fdbf 6c46 d9bf f453 67bf 728b b2bf
000001e0: cf40 4840 eaa9 99bd 761c 29be cf50 efbd
000001f0: 81e6 7c3f 8442 90bf f17b cbbf 63df afbf
00000200: b8ac 03bf c0c7 e6be ef19 1440 560b a5bb
00000210: 652b 3abc edb6 3dbd e59b 89bd f2e8 8c3c
00000220: 9af9 0bc0 1130 93bf e44e ccbe 830f 1abf
00000230: f963 b0bf 4af7 3ebe 8a7e 98be 02c8 c2bd
00000240: 5f65 55be d50e c5be 71b9 67be 6a89 e43e
00000250: aeb5 d6be de5d 37be bc2d 983f 2f40 b93a
00000260: 04d2 6c3b e1a1 fdbc a682 cd3f 2a71 d5bf
00000270: d022 58be 68f8 d43d d305 24be 3899 33bf
00000280: 1062 c73f 7709 a1bf 1018 ce3f b929 683e
00000290: 50df 14be 692f 38bd 6289 063e 6ad2 4d3f
000002a0: 9f12 ea3d 1d78 283f ae12 2b3f 4f8a 553c
000002b0: c9b4 5a3c 880c 053d 0624 d3bd d750 d63d
000002c0: ecf5 4b3f f94d d8be 2630 043f 8a09 af3e
000002d0: f8b7 c3bf 5c2a bd3c 8500 4d3b c307 3d3d
000002e0: 5e92 6bbd 3549 a23d 28b2 cc3f 548b 953f
000002f0: c304 76be 77d9 09bd 7f48 92bf 2e57 34bf
00000300: b2c7 4bbf 259a 283f 28e1 00bf f017 f2bf
00000310: ce45 4c3e 8e00 d53d 1f58 07be 4eb1 4f3d
00000320: 3ba5 1c40 49fa 80bb ef6a 243b 5f34 81bc
00000330: 43ff 1c3f 4314 19bf 665e 99bf 7305 f3bf
00000340: 453a f03e d0e6 76bf 15a8 323f f1d7 a9be
00000350: 6124 613f d354 8cbe 64b4 16be 1346 e8bf
00000360: f95a ed3e 469a 0e3e 08ad 55bf 4385 5fbe
00000370: fe01 6c3f 9955 c43c bc9e 5dbd ca36 adbc
00000380: f208 3140 914d 3ec0 ff48 f03d ffcb 503e
00000390: 84e1 dfbd b765 9cbe 0c00 97bf bfac cbbb
000003a0: 423b bebe e725 90bd 85c7 803d a241 c7be
000003b0: ee2c 333f d5fb 0c3f 16e3 5bbf f7de 3dbd
000003c0: e46b e43f 4fe4 9ebe 381c 6a3f bfc7 1340
000003d0: 6f3c 173f 7a54 db3f 2421 583e 9a66 bbbc
000003e0: 395a 3c3f bc02 86bd 5310 d23f 77cb 283c
000003f0: d14e 423b 4290 55bc cf49 91bd acc9 d33d

hh/upward/b f4 [512]
-0.49042955 0.87449557 1.3237596 0.5436917 -2.044503 -0.050354082 0.25217587 -0.41724074
-1.1886094 -0.2884385 1.410486 -0.13209513 0.17285495 -0.9857323 1.0001569 -0.75825757
-1.658764 1.7526772 0.6555462 2.3423984 1.4581145 0.66059846 -0.48033282 -0.7702265
1.2376465 -0.062768884 0.2768118 1.5054775 0.39462143 0.2931014 0.2674176 -0.2936221
0.19367868 0.3934014 -0.095525816 -0.3531648 0.23212193 1.6877162 1.4442698 -0.934614
-0.86579645 -0.13485433 1.1638464 -0.8875325 1.4981139 2.0290668 0.2970504 1.5003657
1.1664877 -0.3447583 0.0470061 0.482413 1.1396456 1.6084146 -0.004398859 1.044765
2.4095032 -0.121391274 -1.0098997 1.1832336 2.013013 1.9463779 1.5939318 0.37413853
1.0817621 0.18476723 1.2352103 -0.118658796 -0.76602983 -0.7848679 -0.34667358 0.23970257
1.9730926 1.6932956 0.018890172 1.9454366 1.8196194 1.6722143 1.5591029 2.8794637
-0.039493937 -0.36690345 0.33687225 0.103609 1.5253825 0.4669613 0.5787834 0.04605128
-1.3754406 0.895672 0.5727646 2.1148734 0.4609656 0.10823338 0.90158683 1.2442816
-0.147489 0.87618214 1.4318416 0.7471814 0.3281048 1.5650216 0.38260165 0.8529465
0.14144325 -0.07322293 1.2327406 0.3632193 -0.26206905 2.534459 0.31668714 2.3404636
-1.2254623 -0.6138859 0.22814071 -0.8325492 -1.1874795 0.7011513 0.9446524 -0.9070173
1.1441061 -1.197557 0.7085297 0.32002372 -1.5832478 1.4948113 1.9607565 0.43158102
0.92126215 1.2013774 1.3073444 -2.3641057 0.114566304 0.60262 0.08863299 1.593454
-0.038053107 -1.1236207 0.55117184 -0.37264398 0.79619044 1.0059965 1.1184047 0.20193091
0.42126328 -0.5555849 0.88438797 0.29246432 -0.28952494 0.554294 0.107484594 -0.23593476
-0.27889478 0.0040349946 0.023957882 -0.7818549 1.6369259 0.74568534 0.49504992 -0.7281837
-1.5287997 1.0135942 1.3869137 -0.2857265 0.9345898 1.1123099 1.9308594 -0.2948722
-1.6675556 1.2626545 1.7008231 -0.23417252 1.6306502 1.3944798 2.1195393 1.4916105
-0.66323113 -0.7430859 0.09279914 0.29226843 1.2698237 1.1549712 1.1919363 1.0776713
1.0353478 0.71987873 0.8732687 -1.0076352 -1.071463 -0.46490613 0.9323257 -0.05110937
0.20351909 -0.036797293 0.70515895 0.3126281 0.018690806 1.9307612 1.1839656 -1.0965375
-1.7192519 1.470555 1.866754 0.2617286 -0.48537114 0.49556944 0.18436125 1.2585917
0.39629045 2.39511 1.9877714 0.6484627 1.1255054 -0.08257384 0.20321468 0.584738
-0.76626474 0.12022712 1.36451 0.45148453 -0.6210667 -0.7432474 1.7888188 -0.68449473
-2.126502 1.3820537 0.75886804 0.03192881 2.08853 1.9018065 -0.35079622 1.1312789
-0.08498669 0.9129964 1.3221734 -0.87730235 -1.0579597 2.2531745 2.0493667 0.06958592
-0.085675895 0.08004607 0.5869998 0.8121677 -0.039973315 1.0174189 0.5571944 -1.1147876
0.3423429 -1.1736919 1.3246328 -2.172985 -0.4309045 0.06839051 0.14349206 0.04491888
00000000: 9519 fbbe f1de 5f3f f470 a93f 612f 0b3f
00000010: 23d9 02c0 1540 4ebd 321d 813e 94a0 d5be
00000020: 5a24 98bf 36ae 93be ce8a b43f f243 07be
00000030: e300 313e f458 7cbf 2405 803f 2b1d 42bf
00000040: 6152 d4bf ba57 e03f e0d1 273f dbe9 1540
00000050: 7fa3 ba3f fb1c 293f 2fee f5be 902d 45bf
00000060: 336b 9e3f f98c 80bd 47ba 8d3e 7db3 c03f
00000070: d20b ca3e 6311 963e f6ea 883e a355 96be
00000080: b453 463e e96b c93e 0aa3 c3bd 04d2 b4be
00000090: 5fb1 6d3e 1607 d83f d5dd b83f dd42 6fbf
000000a0: d6a4 5dbf 4117 0abe ebf8 943f 5435 63bf
000000b0: 32c2 bf3f 3bdc 0140 fd16 983e fc0b c03f
000000c0: 784f 953f 2984 b0be 7889 403d d6fe f63e
000000d0: e8df 913f 88e0 cd3f 4e24 90bb dcba 853f
000000e0: 4d35 1a40 fd9b f8bd 6544 81bf 3374 973f
000000f0: 34d5 0040 e922 f93f f505 cc3f 168f bf3e
00000100: 2e77 8a3f 9f33 3d3e 5f1b 9e3f 6203 f3bd
00000110: 881a 44bf 1aed 48bf 337f b1be 9774 753e
00000120: 4c8e fc3f e9bd d83f 90bf 9a3c 1104 f93f
00000130: 4ae9 e83f 1e0b d63f af90 c73f 2249 3840
00000140: 65c4 21bd c5da bbbe 857a ac3e f530 d43d
00000150: bc3f c33f 8d15 ef3e 262b 143f 44a0 3c3d
00000160: 700e b0bf c34a 653f b3a0 123f 165a 0740
00000170: af03 ec3e 76a9 dd3d 65ce 663f 9f44 9f3f
00000180: 5b07 17be 794d 603f 9646 b73f 4847 3f3f
00000190: 5afd a73e a152 c83f 5de4 c33e b45a 5a3f
000001a0: 80d6 103e e7f5 95bd 72ca 9d3f e1f7 b93e
000001b0: ea2d 86be 9434 2240 d124 a23e 28ca 1540
000001c0: f3db 9cbf a027 1dbf b89d 693e f221 55bf
000001d0: 54ff 97bf a77e 333f bdd4 713f 4932 68bf
000001e0: 1272 923f 8c49 99bf 3462 353f 26da a33e
000001f0: dda7 cabf fa55 bf3f 12fa fa3f 30f8 dc3e
00000200: d6d7 6b3f bcc6 993f 1057 a73f 824d 17c0
00000210: bda1 ea3d 4e45 1a3f 3785 b53d 4df6 cb3f
00000220: 93dd 1bbd ced2 8fbf 9919 0d3f 31cb bebe
00000230: 23d3 4b3f 7ec4 803f e327 8f3f fac6 4e3e
00000240: d2af d73e d03a 0ebf 4067 623f e2bd 953e
00000250: 9d3c 94be 36e6 0d3f e220 dc3d e298 71be
00000260: 4ccb 8ebe fd37 843b 5243 c43c a527 48bf
00000270: ca86 d13f 3ce5 3e3f 2f77 fd3e 3f6a 3abf
00000280: b5af c3bf 74bd 813f 6386 b13f be4a 92be
00000290: 4741 6f3f 2c60 8e3f 6726 f73f 7df9 96be
000002a0: 7672 d5bf aa9e a13f 92b4 d93f ecca 6fbe
000002b0: 25b9 d03f 507e b23f 88a6 0740 18ed be3f
000002c0: 84c9 29bf e13a 3ebf 7a0d be3d 35a4 953e
000002d0: 9589 a23f 19d6 933f 5e91 983f 22f1 893f
000002e0: 4786 843f f949 383f 8a8e 5f3f 31fa 80bf
000002f0: b325 89bf 2d08 eebe e6ac 6e3f 0f58 51bd
00000300: 4f67 503e c2b8 16bd 4c85 343f ca10 a03e
00000310: 761d 993c 2f23 f73f 2f8c 973f 575b 8cbf
00000320: 7210 dcbf 253b bc3f ccf1 ee3f 4b01 863e
00000330: 9182 f8be 47bb fd3e 32c9 3c3e 8819 a13f
00000340: 95e6 ca3e 7b49 1940 4b6f fe3f a701 263f
00000350: 9010 903f 791c a9bd 8217 503e 64b1 153f
00000360: ed29 44bf a339 f63d 44a8 ae3f fb28 e73e
00000370: 3afe 1ebf 7645 3ebf 04f8 e43f 0c3b 2fbf
00000380: 9c18 08c0 23e7 b03f 2d45 423f c9c7 023d
00000390: 7aaa 0540 656e f33f 909b b3be bfcd 903f
000003a0: 800d aebd 22ba 693f fa3c a93f e396 60bf
000003b0: 396b 87bf 0334 1040 d328 0340 1083 8e3d
000003c0: d876 afbd 32ef a33d 9e45 163f 39ea 4f3f
000003d0: 0fbb 23bd c83a 823f 4ba4 0e3f 5cb1 8ebf
000003e0: 9247 af3e 893b 96bf 918d a93f 3012 0bc0
000003f0: 849f dcbe 5310 8c3d 95ef 123e dcfc 373d

hh/upward/W f4 [512, 128]
0.04934268 -1.4211596 -0.047319483 1.0820034 0.19494465 -0.15658939 -0.2489649 0.1486489
-0.4168621 0.5795127 1.0289474 -0.03908127 1.2871779 -0.015528338 0.45287117 0.20110063
-0.6796761 0.12924343 0.02991177 0.6100663 0.022667583 -0.06999169 2.118378 0.6746942
-3.52294 0.19923985 -0.32777113 -0.05000754 -0.53629225 0.30701727 0.17001303 -0.19609824
-0.5777991 0.41796994 -0.27526397 -0.08699079 0.19286649 -0.08141138 2.4629755 1.231917
2.2278829 -0.08600336 -0.113622636 0.46103126 0.2381643 -0.037068542 -0.3186729 1.0738406
0.07405803 0.81612045 0.2962619 1.5304564 0.36125866 0.17138003 0.21491994 0.056621414
-0.010207239 0.06318566 0.13474534 -0.121937566 -0.8041737 -0.28233248 -0.14580873 0.010258896
-0.3822336 -2.276322 -0.14078103 1.2487278 0.733381 -1.7355756 0.07261846 0.76682484
-0.3130597 0.3885644 0.19923565 -0.060112823 0.01417473 -1.0362047 -0.002670454 0.7516194
-0.35760012 0.15129283 0.6366032 -0.5597453 0.24656071 0.23037542 -0.11996503 1.1905807
-0.07122871 0.07092135 0.03546075 0.032147877 -0.11577435 0.58000857 0.21048847 0.16656414
-1.0703739 0.13200997 -1.1694218 -0.0056549376 0.25162584 -0.10108753 -0.44001544 -0.6063365
-0.4201813 0.2050225 0.062367074 1.2542436 0.18504116 -0.6543372 -0.035762303 -0.08977898
-0.21709934 0.74060136 0.18606536 0.6573716 0.5147175 -0.0033596877 -0.1959156 -0.011627558
-0.12071841 -2.3260922 -0.69660586 1.3899373 1.0591031 0.082550324 0.11759279 -0.88781446
0.066058956 1.2808167 -0.6986389 1.5326123 -0.21264406 -0.37638983 0.13788342 -0.021184744
0.26894128 0.6641212 1.4927971 -2.0631573 -0.76478314 -0.39780393 -0.9775627 0.45522803
0.42539138 0.4446483 0.17252731 -0.045683768 -0.28199828 -0.053991206 0.69840276 -0.36676764
2.3151782 -0.09752054 0.046786524 -0.02457496 0.08536586 1.8728232 -0.20934734 0.21759309
-2.536345 0.06676658 -0.8855148 0.038831893 0.43649855 0.013278651 -1.4224284 1.7336892
-1.6817441 -0.11462264 0.17713659 -0.7894376 0.6136539 0.11700467 1.3526354 -0.23203307
-0.3116162 -0.30171126 0.23536918 2.1084712 0.36313522 -0.5022405 0.12312973 0.3305712
-0.63500774 -0.3049307 -0.062349457 -0.10460069 1.1742268 -0.1844744 0.014093149 0.56593394
-0.86699706 1.7387141 -0.03645041 -0.30291024 -0.23272808 0.9293997 -0.20602764 0.029938534
-0.22232679 0.11413387 0.11570023 0.5887728 -0.17666748 0.02057681 -0.41324523 -0.11997914
-0.25734028 0.278364 -0.51237655 -0.33994824 0.22444041 -0.21038443 -0.009463045 -0.4486362
0.33110192 0.42800218 0.8023422 0.115634836 0.8975543 -0.12330805 2.6914923 -0.0123815965
0.765371 0.4351693 0.3143798 0.82507855 -0.35710418 -0.13907777 -0.23142953 -0.31082138
1.4676702 -0.005779055 -0.31070215 -0.62353504 0.08712154 0.3064141 -0.58733994 0.31509826
-0.10774578 -0.17197947 0.3807382 -0.8620486 -1.7865721 -0.09590693 -0.1475822 -0.2809843
-0.23420817 1.1346548 -0.19176824 -1.0076936 -1.1153078 0.056945566 -0.38220537 -0.94861513
00000000: 8d1b 4a3d 8fe8 b5bf 13d2 41bd 167f 8a3f
00000010: 929f 473e f858 20be a8f0 7ebe 6b37 183e
00000020: f36e d5be f25a 143f 8cb4 833f af13 20bd
00000030: 3fc2 a43f 926a 7ebc bbde e73e 53ed 4d3e
00000040: 41ff 2dbf 6458 043e 8709 f53c 4e2d 1c3f
00000050: 5eb1 b93c ce57 8fbd 8193 0740 c2b8 2c3f
00000060: d977 61c0 8805 4c3e 9ed1 a7be b5d4 4cbd
00000070: 734a 09bf 5e31 9d3e e517 2e3e facd 48be
00000080: a4ea 13bf 2800 d63e 66ef 8cbe 3a28 b2bd
00000090: cb7e 453e 02bb a6bd 64a1 1d40 75af 9d3f
000000a0: a295 0e40 8822 b0bd fcb2 e8bd 4a0c ec3e
000000b0: 58e1 733e 2fd5 17bd 1829 a3be 9c73 893f
000000c0: bdab 973d 45ed 503f a4af 973e ffe5 c33f
000000d0: e5f6 b83e 3f7e 2f3e f913 5c3e dbeb 673d
000000e0: 433c 27bc 7c67 813d affa 093e 67ba f9bd
000000f0: 54de 4dbf e28d 90be e24e 15be ee14 283c
00000100: 1fb4 c3be 42af 11c0 e728 10be 50d6 9f3f
00000110: dbbe 3b3f 5727 debf fdb8 943d a24e 443f
00000120: 5c49 a0be eaf1 c63e 6e04 4c3e dd38 76bd
00000130: 203d 683c 5ba2 84bf c902 2fbb 216a 403f
00000140: 5d17 b7be 82ec 1a3e 6df8 223f 784b 0fbf
00000150: 697a 7c3e 89e7 6b3e 3ab0 f5bd f364 983f
00000160: 5ce0 91bd 363f 913d 4b3f 113d 7ead 033d
00000170: 1a1b edbd 717b 143f 4a8a 573e ca8f 2a3e
00000180: 0302 89bf 9f2d 073e 9daf 95bf 0e4d b9bb
00000190: 1ad5 803e fb06 cfbd b449 e1be de38 1bbf
000001a0: 0122 d7be 6bf1 513e 9e74 7f3d 0e8b a03f
000001b0: 6e7b 3d3e a582 27bf 7e7b 12bd 0bde b7bd
000001c0: 4a4f 5ebe 0d98 3d3f eb87 3e3e 8149 283f
000001d0: 87c4 033f 352e 5cbb 199e 48be 8381 3ebc
000001e0: 373b f7bd b2de 14c0 c354 32bf 77e9 b13f
000001f0: b190 873f 2510 a93d 7dd4 f03d cf47 63bf
00000200: eb49 873d cdf1 a33f 00da 32bf a42c c43f
00000210: 5dbf 59be 2bb6 c0be 5031 0d3e a18b adbc
00000220: acb2 893e d903 2a3f fa13 bf3f c50a 04c0
00000230: d4c8 43bf f5ac cbbe 8d41 7abf a613 e93e
00000240: e6cc d93e f1a8 e33e 00ab 303e e71e 3bbd
00000250: 1462 90be e225 5dbd 86ca 323f f8c8 bbbe
00000260: e12b 1440 d9b8 c7bd 3aa3 3f3d 6d51 c9bc
00000270: 4cd4 ae3d acb8 ef3f 265f 56be b9d0 5e3e
00000280: 7a53 22c0 ebbc 883d 19b1 62bf 310e 1f3d
00000290: bd7c df3e b38e 593c 2212 b6bf 87e9 dd3f
000002a0: 6443 d7bf 46bf eabd 4b63 353e 9518 4abf
000002b0: 6c18 1d3f 25a0 ef3d 2823 ad3f 149a 6dbe
000002c0: 298c 9fbe e679 9abe 9e04 713e 31f1 0640
000002d0: dcec b93e d592 00bf 712b fc3d a140 a93e
000002e0: de8f 22bf e01f 9cbe 2562 7fbd e338 d6bd
000002f0: 104d 963f dbe6 3cbe f4e6 663c 0ce1 103f
00000300: 85f3 5dbf 2f8e de3f 064d 15bd 0d17 9bbe
00000310: 4550 6ebe 24ed 6d3f e9f8 52be a841 f53c
00000320: a2a9 63be 05bf e93d 3ef4 ec3d d0b9 163f
00000330: 52e8 34be b390 a83c e194 d3be a0b7 f5bd
00000340: 1bc2 83be ba85 8e3e 1c2b 03bf b20d aebe
00000350: b5d3 653e 046f 57be e30a 1bbc a5b3 e5be
00000360: 3186 a93e 1a23 db3e 4c66 4d3f f5d1 ec3d
00000370: 1ec6 653f ee88 fcbd 6941 2c40 2edc 4abc
00000380: 5bef 433f 83ce de3e 64f6 a03e 5938 533f
00000390: 5cd6 b6be 676a 0ebe ddfb 6cbe fb23 9fbe
000003a0: 9edc bb3f 3a5e bdbb 5a14 9fbe fe9f 1fbf
000003b0: c76c b23d 4fe2 9c3e e95b 16bf 8f54 a13e
000003c0: d2a9 dcbd 631b 30be 1ef0 c23e 38af 5cbf
000003d0: 65ae e4bf da6a c4bd ca1f 17be 2ddd 8fbe
000003e0: 44d4 6fbe 5e3c 913f e55e 44be 1bfc 80bf
000003f0: 68c2 8ebf c13f 693d 6cb0 c3be 71d8 72bf

hh/lateral/W f4 [512, 128]
0.2467707 -2.3104095 2.9805129 -2.3091848 -0.28483713 -1.1263843 1.1558278 -2.7761822
-0.95347726 3.4924178 1.9728969 -0.98462087 2.4033928 2.0667741 1.082442 2.7525623
0.31390333 0.81136256 -0.14407006 0.038138926 0.9831057 -3.7334762 -0.927359 1.0963268
0.89193213 1.4396893 -0.46959177 -0.2701351 -0.6345158 -0.48769242 0.97945213 1.0415357
0.2633421 0.30413333 -1.3597537 0.33514488 1.8715106 0.72646916 0.2814778 0.5856297
-1.1187649 0.30614713 -0.62739456 -2.1231103 1.2218668 -0.5759298 1.3405591 1.1445976
2.0032377 0.59361994 2.0392153 0.16633871 0.33288553 -4.8334665 0.08891027 1.6239239
-1.1346003 -0.7559764 3.8905036 -1.2389871 -1.468105 0.47457278 -0.048790425 0.5745444
-1.087195 -0.2910088 1.0338484 -0.04685421 0.5778601 2.804461 4.956807 0.45573485
-0.8088672 -1.7411069 -2.4284778 -1.5067924 -2.644771 1.1068417 0.9919438 0.015254264
-0.9211096 -2.0828073 -0.14520228 0.31554976 1.3658288 0.66742295 1.0774479 -1.1806556
0.16287571 3.189003 0.27572235 -2.926007 -1.3566607 1.6741744 -0.285682 -1.6072012
-0.5263033 1.0857589 0.36650074 -1.3267725 -0.18916187 -1.4117532 -0.604866 3.4912255
-2.1766813 0.761435 -1.1406306 1.2485642 -0.63948077 -1.3544629 1.3864701 0.5326366
-0.62730354 -1.5368453 -0.38569486 -0.07688017 -0.9630359 -0.42848656 -2.5370657 -2.3956501
-0.015645443 2.7625744 1.6743455 3.1702535 -2.3716254 -0.39977932 -1.1 -0.26941526
1.0245043 2.2103581 -1.6108186 0.0061193914 1.7085787 1.2147634 -0.37941417 -0.90318763
1.8820753 -2.7190506 -0.83674246 0.7517482 0.036509424 -2.089293 -0.3636101 -0.21024354
-1.4810654 0.89895934 -0.39915642 1.5184159 0.705198 -0.920133 -1.3356677 -0.3258581
4.3018384 0.20668527 -0.0014350908 2.226456 0.18853346 1.731117 -0.6583056 -0.20352887
-1.2457248 2.3060303 1.7921695 0.30695307 -1.9715505 2.9156895 -0.6813621 -1.3500016
0.38756981 0.549776 1.2985243 -0.12762967 1.2739563 0.79597616 1.615066 -0.005986363
2.0525231 0.51218456 -0.4469523 1.5784358 -0.37851065 -3.5556364 -2.5053093 0.218419
-0.8851152 -1.4041318 1.7791134 -2.1343486 -0.87331635 0.9276288 0.33661476 1.3298585
-0.34621212 -0.6087038 1.5061333 1.996463 -0.8889379 2.7099087 2.2710361 0.32781035
2.022236 -1.5421575 2.5410504 -0.5345671 -0.7082755 0.73752475 4.1627283 0.5317459
-0.2847327 -3.053692 0.15896828 2.8756194 0.77245647 -0.7361127 -0.8442576 0.059172507
-3.473046 -1.3131256 0.21779609 -2.8477275 1.2337408 -1.3276464 -1.0025117 -0.7047175
1.3688374 2.4500904 1.404943 2.1145704 -0.5397482 2.492125 2.450791 3.7025886
0.694492 0.804739 4.1007843 1.1326355 0.6936588 -3.7923143 -3.0915766 -0.0014305917
2.0208714 1.8421719 0.21559055 0.29232317 1.6179214 -0.90190977 0.73137206 1.853562
3.5635023 0.96079034 -1.4040903 -2.7628272 0.5440182 0.88207006 1.906284 -0.20948361
00000000: 75b1 7c3e c0dd 13c0 b9c0 3e40 afc9 13c0
00000010: 2cd6 91be 5c2d 90bf 2af2 933f f8ac 31c0
00000020: 1617 74bf c683 5f40 e387 fc3f 1d10 7cbf
00000030: 30d1 1940 0746 0440 768d 8a3f fb29 3040
00000040: f0b7 a03e 75b5 4f3f 1a87 13be 9037 1c3d
00000050: d1ac 7b3f 46f1 6ec0 6667 6dbf 7054 8c3f
00000060: aa55 643f bd47 b83f 556e f0be 264f 8abe
00000070: a16f 22bf d2b2 f9be 60bd 7a3f 0b51 853f
00000080: c7d4 863e 5db7 9b3e 690c aebf 1c98 ab3e
00000090: a98d ef3f e2f9 393f dc1d 903e d4eb 153f
000000a0: b033 8fbf 51bf 9c3e ee9c 20bf 0ae1 07c0
000000b0: 2266 9c3f 2370 13bf 7197 ab3f 2d82 923f
000000c0: 0c35 0040 7af7 173f 8182 0240 b254 2a3e
000000d0: f96f aa3e c2ab 9ac0 9616 b63d bddc cf3f
000000e0: 953a 91bf ab87 41bf 03fe 7840 2197 9ebf
000000f0: ddea bbbf 34fb f23e 78d8 47bd 5815 133f
00000100: 3529 8bbf 1bff 94be 2555 843f 33ea 3fbd
00000110: a4ee 133f 4a7c 3340 2a9e 9e40 1456 e93e
00000120: ec11 4fbf 97dc debf 2e6c 1bc0 93de c0bf
00000130: ee43 29c0 fdac 8d3f 07f0 7d3f 05ed 793c
00000140: d7cd 6bbf b74c 05c0 e8af 14be bd8f a13e
00000150: 7ad3 ae3f 3bdc 2a3f d0e9 893f b91f 97bf
00000160: e4c8 263e a018 4c40 7b2b 8d3e b343 3bc0
00000170: 0fa7 adbf 594b d63f e944 92be c5b8 cdbf
00000180: d0bb 06bf 26fa 8a3f fca5 bb3e aed3 a9bf
00000190: a6b3 41be 54b4 b4bf 80d8 1abf 3d70 5f40
000001a0: bf4e 0bc0 67ed 423f 2f00 92bf f4d0 9f3f
000001b0: 03b5 23bf 0a5f adbf da77 b13f df5a 083f
000001c0: f796 20bf 59b7 c4bf cc79 c5be 5a73 9dbd
000001d0: 8589 76bf 9762 dbbe 495f 22c0 5552 19c0
000001e0: df2a 80bc 05ce 3040 f450 d63f 6fe5 4a40
000001f0: b6c8 17c0 e0af ccbe cdcc 8cbf ccf0 89be
00000200: f522 833f 8276 0d40 4e2f cebf 2d85 c83b
00000210: b5b2 da3f 5e7d 9b3f 9342 c2be 4e37 67bf
00000220: d8e7 f03f ed04 2ec0 c134 56bf 9272 403f
00000230: e88a 153d fab6 05c0 1a2b babe 154a 57be
00000240: 8d93 bdbf 3322 663f 3b5e ccbe 745b c23f
00000250: db87 343f d68d 6bbf 29f7 aabf dfd6 a6be
00000260: a9a8 8940 4ea5 533e a819 bcba 417e 0e40
00000270: ea0e 413e 3e95 dd3f b786 28bf df69 50be
00000280: e973 9fbf 0096 1340 cf65 e53f f428 9d3e
00000290: c45b fcbf a89a 3a40 bf6d 2ebf dacc acbf
000002a0: 8d6f c63e 1fbe 0c3f 0b36 a63f 5ab1 02be
000002b0: 0011 a33f 18c5 4b3f 7cba ce3f 4129 c4bb
000002c0: 8a5c 0340 871e 033f efd6 e4be 2f0a ca3f
000002d0: 26cc c1be 8c8f 63c0 fd56 20c0 3ba9 5f3e
000002e0: e996 62bf 97ba b3bf fdb9 e33f 2b99 08c0
000002f0: a991 5fbf 1579 6d3f c558 ac3e ce38 aa3f
00000300: b742 b1be 03d4 1bbf fac8 c03f 198c ff3f
00000310: 6f91 63bf 256f 2d40 a858 1140 c2d6 a73e
00000320: 516c 0140 6b65 c5bf 92a0 2240 64d9 08bf
00000330: 8b51 35bf 6cce 3c3f 1235 8540 8020 083f
00000340: 7cc8 91be b16f 43c0 95c8 223e 260a 3840
00000350: b5bf 453f e271 3cbf 4421 58bf df5e 723d
00000360: 6346 5ec0 8014 a8bf f005 5f3e 2b41 36c0
00000370: 38eb 9d3f 51f0 a9bf 4e52 80bf 5e68 34bf
00000380: 1036 af3f 48ce 1c40 2cd5 b33f 1f55 0740
00000390: f02c 0abf fa7e 1f40 c2d9 1c40 36f7 6c40
000003a0: 3aca 313f 6003 4e3f a039 8340 33fa 903f
000003b0: a093 313f 47b5 72c0 64dc 45c0 b182 bbba
000003c0: f555 0140 4acc eb3f c5c3 5c3e 62ab 953e
000003d0: 0c18 cf3f 8fe3 66bf 333b 3b3f 8541 ed3f
000003e0: 6c10 6440 5bf6 753f 3bb9 b3bf 29d2 30c0
000003f0: c744 0b3f 58cf 613f 1d01 f43f df82 56be

hy/b f4 [2]
-0.42901528 0.26652858
00000000: e4a7 dbbe 6f76 883e

hy/W f4 [2, 128]
-1.2929116 1.6762195 -1.3579874 1.2592088 1.1425807 -0.9793912 -1.7870437 1.8160787
-1.7284213 -1.198018 -1.6009465 0.93976575 -1.4476178 -0.7925652 -0.94315195 -1.0621117
-0.93177754 1.2593614 0.91700053 -1.2164909 -1.9576857 -2.1592214 1.118858 -1.177667
-0.5638765 -1.1204762 1.4062703 -1.0020593 1.2709596 -1.9565221 -1.4671512 -1.1399128
1.15287 -1.3943175 -1.9691561 0.81328493 1.1320164 0.96124756 2.6448421 -1.9789711
0.7160791 1.0677302 -1.5445315 -0.5708027 -1.3281503 0.99418396 -1.0827087 1.3318017
-1.3899451 1.523921 -1.2397622 -1.0006064 0.97242093 1.7480876 1.3854334 -1.7483437
0.81474054 -2.2001934 -0.854653 -1.7291037 0.44427982 1.7183888 -2.028831 1.7433677
1.2755688 0.84276825 -1.3355744 0.46167344 -0.64776814 -1.6549973 -1.6041176 1.0832951
-1.7314588 1.4429525 -1.3544769 0.48698452 1.0587637 1.2241281 2.2504935 -0.8533283
-0.64487517 -1.4401946 -0.8764646 -1.2440048 -2.4861672 -1.7832406 -2.4043403 -1.4411397
-1.2321372 -1.0605593 1.0944155 2.2799888 0.9248188 1.6712086 -1.3050617 0.88665223
-0.8591183 1.2976015 1.2259281 1.5186646 0.57962537 -1.9159658 1.8374572 1.7719142
1.6408612 0.66112155 -1.5019743 -1.5067902 0.8740306 1.0055828 -1.4409007 -3.6468751
-0.7523938 -0.8761289 -1.2281587 -1.6471157 1.8919147 -1.4049063 -0.5276411 -1.5589708
-1.0439656 1.1083211 -0.86167103 -1.8663685 0.77198356 2.0106683 -0.7727189 0.98589736
-1.257239 1.4646144 -1.4980397 1.1096457 1.0951641 -1.4336622 -1.6311535 1.6504308
-1.971745 -1.1276524 -1.8015702 1.0103201 -1.2467365 -0.7731718 -1.0875634 -0.789923
-1.1044217 1.089707 1.0271193 -1.3333157 -1.8890508 -2.079653 1.0428909 -1.1010548
-0.49679607 -1.0205002 1.3385751 -1.0504556 1.1349533 -2.0412316 -1.6719998 -1.8915552
1.5144773 -1.4914877 -1.9464974 0.8528888 1.0280787 1.0155166 2.8709056 -1.8632078
0.71082985 1.1842959 -1.3136401 -0.5100178 -0.7140031 1.1134624 -0.46994984 1.236935
-1.4962568 1.662577 -1.4217407 -0.80993235 0.76990527 1.9303458 1.5422698 -0.7350883
0.77298605 -1.7541785 -1.7302808 -1.2407117 0.50420094 1.8988848 -2.147128 1.9479142
0.725268 0.8028139 -1.3068445 0.4501049 -0.8633267 -1.8166007 -1.4799826 1.1218163
-1.7884834 1.4917561 -1.4168075 0.41458717 1.1336305 1.1933024 2.027895 -0.5903741
-0.7932127 -1.2108731 -0.90142226 -1.0925795 -2.1762607 -2.0552313 -2.6451209 -1.2944242
-1.3059441 -1.0179625 1.230497 1.9514216 0.04905291 1.8288937 -1.5208322 0.9221657
-1.1765447 1.3272824 1.0856911 1.9303367 0.52831477 -1.8695827 1.2626606 1.8855208
1.6081727 0.76811206 -1.8164009 -1.0001372 0.8262383 1.1590375 -1.7253354 -3.522319
-0.7315103 -0.9078121 -1.3477116 -1.636543 1.6048889 -1.2387512 -0.7520463 -1.6658881
-0.8538828 0.99032193 -0.77281725 -1.9732732 0.74750143 1.4980373 -0.8029604 1.0130546
00000000: 217e a5bf 5c8e d63f 88d2 adbf c12d a13f
00000010: 1640 923f 62b9 7abf d9bd e4bf 4475 e83f
00000020: e93c ddbf a758 99bf d1eb ccbf 7d94 703f
00000030: 8a4b b9bf 8ee5 4abf 6872 71bf 47f3 87bf
00000040: f988 6ebf c132 a13f 8cc0 6a3f f9b5 9bbf
00000050: 7295 fabf af30 0ac0 bd36 8f3f cbbd 96bf
00000060: 365a 10bf c46b 8fbf aa00 b43f 7b43 80bf
00000070: ceae a23f 516f fabf 9ccb bbbf aae8 91bf
00000080: 3f91 933f ff78 b2bf 4f0d fcbf 7133 503f
00000090: eae5 903f 5214 763f 1845 2940 ed4e fdbf
000000a0: f650 373f 62ab 883f 35b3 c5bf 2020 12bf
000000b0: d400 aabf d782 7e3f 3396 8abf 7a78 aa3f
000000c0: b9e9 b1bf d80f c33f 87b0 9ebf df13 80bf
000000d0: 94f0 783f 56c1 df3f e255 b13f bac9 dfbf
000000e0: d692 503f f8cf 0cc0 8aca 5abf 4553 ddbf
000000f0: a578 e33e 2af4 db3f 5ed8 01c0 ac26 df3f
00000100: d745 a33f a9bf 573f 1af4 aabf 7660 ec3e
00000110: 22d4 25bf f4d6 d3bf ba53 cdbf 6aa9 8a3f
00000120: 71a0 ddbf abb2 b83f 805f adbf 0956 f93e
00000130: 9285 873f 3bb0 9c3f 1608 1040 b973 5abf
00000140: 8a16 25bf 4c58 b8bf fc5f 60bf 8d3b 9fbf
00000150: 5d1d 1fc0 3a41 e4bf b6e0 19c0 4477 b8bf
00000160: acb6 9dbf 68c0 87bf cf15 8c3f 56eb 1140
00000170: edc0 6c3f 2aea d53f 430c a7bf a4fb 623f
00000180: 2def 5bbf ce17 a63f 36eb 9c3f 9a63 c23f
00000190: 5462 143f 5e3e f5bf cc31 eb3f 16ce e23f
000001a0: bd07 d23f 433f 293f b240 c0bf 80de c0bf
000001b0: 78c0 5f3f f0b6 803f 6f6f b8bf 6766 69c0
000001c0: e19c 40bf fc49 60bf 4e34 9dbf b0d4 d2bf
000001d0: 432a f23f f8d3 b3bf 7d13 07bf 5b8c c7bf
000001e0: aaa0 85bf 77dd 8d3f 7996 5cbf 2ae5 eebf
000001f0: b7a0 453f caae 0040 e8d0 45bf c563 7c3f
00000200: 35ed a0bf 7c78 bb3f c4bf bfbf df08 8e3f
00000210: 562e 8c3f 3e82 b7bf a3c9 d0bf 5141 d33f
00000220: 2462 fcbf ea56 90bf da99 e6bf 2b52 813f
00000230: 1095 9fbf 96ee 45bf 4735 8bbf 6538 4abf
00000240: b15d 8dbf 857b 8b3f a578 833f 17aa aabf
00000250: 6bcc f1bf 0919 05c0 737d 853f 5def 8cbf
00000260: 0e5c febe c09f 82bf 6e56 ab3f 5475 86bf
00000270: 2646 913f 8aa3 02c0 1704 d6bf 7b1e f2bf
00000280: 64da c13f 12e9 bebf d426 f9bf ec56 5a3f
00000290: 1598 833f 73fc 813f ebbc 3740 987d eebf
000002a0: f2f8 353f 0297 973f 5c25 a8bf 8790 02bf
000002b0: e8c8 36bf f085 8e3f 449d f0be e353 9e3f
000002c0: 5885 bfbf 53cf d43f 99fb b5bf ba57 4fbf
000002d0: 8318 453f 9215 f73f 1969 c53f bf2e 3cbf
000002e0: 6ae2 453f ec88 e0bf d779 ddbf a4cf 9ebf
000002f0: 5013 013f a80e f33f 8c6a 09c0 4155 f93f
00000300: 2aab 393f 3685 4d3f ae46 a7bf 2674 e63e
00000310: fb02 5dbf 5f86 e8bf 1270 bdbf ad97 8f3f
00000320: 06ed e4bf ddf1 be3f f359 b5bf c544 d43e
00000330: ce1a 913f 22be 983f 08c9 0140 c222 17bf
00000340: fd0f 4bbf e4fd 9abf 9cc3 66bf a5d9 8bbf
00000350: db47 0bc0 e988 03c0 a949 29c0 b1af a5bf
00000360: 2d29 a7bf 984c 82bf ed80 9d3f 2fc8 f93f
00000370: b4eb 483d 3019 ea3f a1aa c2bf 0d13 6c3f
00000380: 0499 96bf 64e4 a93f edf7 8a3f 4615 f73f
00000390: a33f 073f 7c4e efbf dd9e a13f bf58 f13f
000003a0: 9ad8 cd3f fea2 443f d37f e8bf 7f04 80bf
000003b0: 5a84 533f 575b 943f cad7 dcbf ad6d 61c0
000003c0: 4244 3bbf 6066 68bf d081 acbf 3e7a d1bf
000003d0: 006d cd3f 668f 9ebf 1b86 40bf d23b d5bf
000003e0: 1098 5abf bd85 7d3f 5ad7 45bf 3794 fcbf
000003f0: 415c 3f3f b0bf bf3f d08e 4dbf c6ab 813f
