code/python/spin_model/10_64_1_5_10_4950_350_use_train_spin_model.npz (npz, 127919 bytes, 6 tensors)

hh/lateral/W f4 [256, 64]
0	0x3fb43a30	1.4080257
1	0xbf674c69	-0.9035097
2	0x404574f4	3.0852633
3	0x3f98d6be	1.1940534
4	0xbe8db24c	-0.27675092
5	0x3f786a0b	0.9703681
6	0xbf412edc	-0.75462127
7	0xbfb4dd66	-1.4130065
8	0xbf91433c	-1.1348643
9	0x3f0463fd	0.5171507
10	0x3ec2c9db	0.38044629
11	0xbfcea587	-1.6144265
12	0x401ec093	2.4805038
13	0x3fe8f5d3	1.820002
14	0x3ea474e0	0.3212042
15	0xc08a8ddd	-4.3298173
16	0x3f5ea3e8	0.8696885
17	0xc025c66a	-2.5902352
18	0x3f87d3c6	1.0611503
19	0xbfa4e189	-1.2881328
20	0xbf797383	-0.9744188
21	0x3f422e72	0.7585212
22	0xc08df2cf	-4.4358897
23	0x3f6a9b68	0.9164338
24	0x400d9e39	2.2127821
25	0x4050a1b1	3.2598689
26	0xbfaec53f	-1.3653945
27	0x3ffdb5fc	1.9821162
28	0xbd94acc8	-0.07259518
29	0x3fdf6237	1.7451848
30	0x3e67443d	0.22584625
31	0xbfb344eb	-1.4005407
32	0x3f38f459	0.72247845
33	0x3ec9a075	0.39380231
34	0xbddd1c54	-0.10796419
35	0xbe7b6d70	-0.24553466
36	0xbf4ef1dd	-0.80837804
37	0x3e2cc17e	0.16870686
38	0x3fd73e88	1.6815958
39	0xbf9420d2	-1.1572516
40	0xbf9272a9	-1.1441242
41	0x3ffedeb9	1.991172
42	0x3f2158b4	0.63025975
43	0x3ffcb600	1.9743042
44	0x3e3a274b	0.18179052
45	0x3fa26af5	1.2688891
46	0xc0629830	-3.5405388
47	0xbf85468a	-1.0412152
48	0xbf9b7cf7	-1.2147511
49	0x3e9434ed	0.2894663
50	0x3e5e99d3	0.21738367
51	0x3ef7d86b	0.484073
52	0x40002d35	2.0027592
53	0xbf7dce50	-0.9914293
54	0xbf80ac66	-1.0052612
55	0xbfb0438e	-1.3770616
56	0x402a1cb8	2.6580029
57	0x3eea48e5	0.4575874
58	0xc04b462e	-3.1761584
59	0x3f79300d	0.97338945
60	0x3e34ccdf	0.17656277
61	0xbf4232c7	-0.7585873
62	0x3f5a5b38	0.8529544
63	0x3fe8802b	1.8164114
64	0xbf8f11cf	-1.117731
65	0x3e803870	0.25043058
66	0x4083fcdf	4.124618
67	0x3e2ffe33	0.17186813
68	0xbed1370c	-0.4086231
69	0x3ec462f1	0.38356736
70	0xbf089b63	-0.533621
71	0xbd44295d	-0.04789101
72	0x3f9fe709	1.2492381
73	0x3fa80ccd	1.3128906
74	0xbf8e9784	-1.1139989
75	0xbe1158dd	-0.14194055
76	0xbf0005b4	-0.500087
77	0xbfb21e13	-1.3915428
78	0x4000aa42	2.0103917
79	0x402c4f27	2.692331
80	0x3f49eccf	0.78876966
81	0xbf1a81e2	-0.60354435
82	0x3f06efe1	0.52709776
83	0xbd9c05bd	-0.07618282
84	0x3f93556a	1.1510441
85	0xbebaf96a	-0.36518413
86	0x3ecad568	0.3961594
87	0x3e8a1ec5	0.269766
88	0xc02c7af3	-2.6950042
89	0xbefeb5fc	-0.49748218
90	0x3f9ea651	1.2394506
91	0x3e604332	0.21900633
92	0xbf840f41	-1.0317155
93	0x4054d293	3.3253524
94	0xbeb54ffc	-0.35412586
95	0x3f887a50	1.0662327
96	0xbe9f2f90	-0.31090975
97	0xbff99358	-1.9498091
98	0xbf6efc5f	-0.9335384
99	0xbfeee17e	-1.8662565
100	0xc00d3f31	-2.206982
101	0x3e1e1801	0.15438844
102	0x3f1eec89	0.62079674
103	0x3e985915	0.29755464
104	0xbd527c09	-0.05138782
105	0xbf6a4ab0	-0.91520214
106	0xc02784b5	-2.6174748
107	0x3f8ed080	1.1157379
108	0x3d939e08	0.072078764
109	0xbfeaa7db	-1.8332475
110	0xbfcc96eb	-1.5983557
111	0xbf3c6740	-0.73595047
112	0x3ebd3fea	0.36962825
113	0xbe8578f0	-0.2606883
114	0xbe4a51fc	-0.19757837
115	0x3ffeb826	1.9899948
116	0x3e34d812	0.1766055
117	0xc0214bc7	-2.52025
118	0x3ff2e0d6	1.8974864
119	0xbfd14c07	-1.6351327
120	0x4010503d	2.2548974
121	0xbf3a7022	-0.7282735
122	0xbf2edc45	-0.68304855
123	0xc0207de0	-2.5076828
124	0x3f30c8c1	0.69056326
125	0x3f4349bd	0.7628439
126	0xbf262b53	-0.6490986
127	0xc0003144	-2.003007
128	0x3fa25621	1.2682534
129	0x3f4a2a06	0.7897037
130	0x40478595	3.1175282
131	0x3f948a2a	1.1604664
132	0xbfa91289	-1.3208781
133	0xbf047431	-0.51739794
134	0xbf3c4233	-0.7353851
135	0x3f9a0b7d	1.2034756
136	0xbf6c0b18	-0.9220443
137	0x3f87cb98	1.0609007
138	0xbf6d27ac	-0.9263866
139	0x3ed0dfbf	0.40795705
140	0x3f557b58	0.8339133
141	0xbfb2590b	-1.3933424
142	0x3fae2279	1.360427
143	0xbe412916	-0.1886333
144	0xbd99d78e	-0.07511817
145	0x4037f3c2	2.8742528
146	0x3fe6b723	1.8024639
147	0xc02e2fbe	-2.721664
148	0x3e98f776	0.29876298
149	0x3f89628c	1.0733199
150	0xbf079788	-0.52965593
151	0xc0576ad8	-3.3658962
152	0x3e02b961	0.12766029
153	0xbdeecd29	-0.11660225
154	0x3fb4688f	1.4094409
155	0xbf94c250	-1.16218
156	0xc01b290a	-2.4243798
157	0x403cd957	2.9507654
158	0xbfb4ec70	-1.4134655
159	0xbdfd8206	-0.12378316
160	0x400b1c63	2.1736076
161	0x4017a990	2.3697243
162	0xbe39c638	-0.1814202
163	0xbbe3a42d	-0.0069470615
164	0x3e91a1e9	0.2844384
165	0xc0122f27	-2.284128
166	0x407a891c	3.9146185
167	0xbf804de3	-1.0023769
168	0xc0396b14	-2.8971605
169	0x401544c7	2.3323228
170	0x3caa0885	0.020756016
171	0x3fc8716b	1.5659612
172	0x3f56a4d6	0.8384527
173	0x3e0cf3d2	0.13764885
174	0xc0083d64	-2.128747
175	0xbf926121	-1.1435891
176	0xbf3547f0	-0.7081289
177	0x40682eb1	3.6278498
178	0x4024c7bf	2.5746915
179	0xbfa36271	-1.2764417
180	0x3f32d6a2	0.69858754
181	0xc03aa229	-2.9161475
182	0x4037a6be	2.8695521
183	0xbe5886a7	-0.21145116
184	0x406a7f0b	3.664004
185	0xbb57b81a	-0.003291613
186	0xbfeb90e2	-1.840359
187	0xbe3406be	-0.17580697
188	0x3f937a69	1.1521732
189	0x3f8cfb09	1.101411
190	0xbfa33a3e	-1.2752149
191	0x3fcf7b6e	1.6209543
192	0xc0c56a4c	-6.1692257
193	0x3f90c934	1.1311402
194	0xc0736a8b	-3.8033779
195	0xc061d135	-3.528394
196	0xbfb4675a	-1.409404
197	0xc045e68b	-3.0921962
198	0x3f29a744	0.6627085
199	0xc01e7f09	-2.4765036
200	0xc0c4cc9e	-6.1499777
201	0xbfce75ac	-1.6129661
202	0x3f289a63	0.65860575
203	0x3ee1bae6	0.44087905
204	0xbf1cc1f3	-0.61233443
205	0xbf3a1457	-0.72687286
206	0xbcfb1e94	-0.03065423
207	0xbf0e2cb2	-0.5553695
208	0x3f08791b	0.5330979
209	0xbe0e30c6	-0.13885793
210	0xbe6702c6	-0.22559652
211	0x3d9dd734	0.07707062
212	0x3e4e6424	0.20155388
213	0x3fb44209	1.4082652
214	0x3fd13713	1.6344932
215	0xc00aaba2	-2.1667256
216	0x3f39dc9f	0.72602266
217	0x4060e3c0	3.5139008
218	0xbe224b83	-0.15849118
219	0xbf68e4e3	-0.90974253
220	0xbe64acbb	-0.22331516
221	0x3f885c65	1.0653197
222	0x3fcf88e6	1.6213653
223	0xc023371a	-2.5502381
224	0xbf912025	-1.1337935
225	0x3febb843	1.8415607
226	0x3e75328d	0.23945065
227	0x3f0fe4e3	0.5620863
228	0x40137649	2.3040946
229	0xbf84fbfc	-1.03894
230	0xc0107315	-2.257024
231	0xc10e3fcc	-8.890575
232	0xbf4db7a0	-0.80358315
233	0x3f906b43	1.1282734
234	0xbef2646e	-0.47342247
235	0x3f2a895a	0.6661583
236	0x40421b0d	3.032901
237	0x3fbaa32b	1.4581045
238	0xbf99c382	-1.2012789
239	0xbf79462c	-0.973727
240	0xc03ce94c	-2.9517393
241	0x3f5a2f9d	0.852289
242	0xbf258deb	-0.64669675
243	0xbf825a3b	-1.0183786
244	0xbfbd1482	-1.4771883
245	0xbfb418e4	-1.4070096
246	0x3e440f5a	0.19146481
247	0xbfec6d83	-1.847092
248	0x3ffabbc3	1.958855
249	0x401c9429	2.446543
250	0x402ee9f7	2.73303
251	0xc056696a	-3.350184
252	0xbef8a098	-0.48560023
253	0xbfb75b0f	-1.4324664
254	0x3e259001	0.16168214
255	0xbfa80a32	-1.3128111

hh/upward/W f4 [256, 64]
0	0x3fbc347d	1.4703518
1	0xbf060f1e	-0.52366817
2	0xbe9b1e0e	-0.30296367
3	0x3d8134f9	0.06308932
4	0x3fc0a1f9	1.504943
5	0xbe1d870d	-0.15383549
6	0xbc75a3b7	-0.014992646
7	0xbfb3d07e	-1.4048002
8	0xbe8a9b76	-0.27071732
9	0x40062eb3	2.0966003
10	0xc0536617	-3.303106
11	0xbb0c4f54	-0.0021409588
12	0xbda57812	-0.08079542
13	0xbac0f967	-0.0014722765
14	0x3d9d9751	0.07694877
15	0xbe009651	-0.12557341
16	0xbfac9c68	-1.3485231
17	0xbc46f41d	-0.012143162
18	0x3ccea793	0.02522639
19	0x3f994695	1.1974665
20	0xbe7353f4	-0.23762494
21	0x3e379ccc	0.17930907
22	0xbc669871	-0.014074431
23	0x3f464c35	0.7746003
24	0x3eb59537	0.35465404
25	0xbf96e582	-1.178879
26	0xbe1a5057	-0.1506971
27	0xc0070e5c	-2.1102514
28	0x3de515c2	0.111857906
29	0xbe5d09b0	-0.21585727
30	0xbd52b266	-0.051439665
31	0x3f9c156e	1.219404
32	0x3fb08c1b	1.3792757
33	0xbe2024dd	-0.15639062
34	0xbc5c7f16	-0.013458034
35	0xbddd3849	-0.10801751
36	0x3e2a5fb9	0.16638078
37	0x3d539a70	0.051660955
38	0x3cd2bbf9	0.025724398
39	0x3ed6d4f3	0.41959342
40	0xbf8af850	-1.0857029
41	0xbe2ac7ef	-0.16677831
42	0x3f197059	0.59937054
43	0x3baaeebe	0.0052164486
44	0xbe80fa73	-0.25191078
45	0xbfbe930c	-1.4888625
46	0x3d54d876	0.051964246
47	0xbd77a4ca	-0.06045989
48	0xc00a3d87	-2.1600053
49	0xbd625ded	-0.055265356
50	0x3faee275	1.3662859
51	0x3f9469c0	1.1594772
52	0xbdacdf1f	-0.084409945
53	0xbf409422	-0.7522603
54	0x3d839856	0.0642554
55	0xbdd21b01	-0.10259057
56	0x3de3e046	0.11126761
57	0x3ea3e008	0.3200686
58	0x3f14d882	0.58142865
59	0x3da1d2ef	0.079015605
60	0xbf039d60	-0.5141201
61	0x3eedf555	0.46476236
62	0x3ea9c15c	0.33155334
63	0xbe5b6779	-0.2142619
64	0xbf1182cc	-0.56840205
65	0xbf77ffb3	-0.9687454
66	0x3e57b252	0.21064118
67	0xbe3e62cd	-0.18592377
68	0x3e922015	0.28540102
69	0xbe5fc6cf	-0.21853183
70	0x3df42acc	0.11922225
71	0xbf279998	-0.6546874
72	0x3e6b15b0	0.22957492
73	0xbf677973	-0.9041969
74	0xbe3cbbca	-0.18431011
75	0x3e8b7bea	0.27242976
76	0x3e92756b	0.28605208
77	0xbe1dd53d	-0.15413375
78	0xbcce8510	-0.025209934
79	0xbe040c22	-0.12895253
80	0x3ecc223b	0.39869866
81	0xbe2ef338	-0.17084968
82	0x3e2bcecd	0.16778107
83	0x3eb0718c	0.3446163
84	0x3eb55937	0.35419628
85	0x3dbc1802	0.091842666
86	0xbc7b3352	-0.01533206
87	0x3e91763b	0.28410515
88	0x3da81ad2	0.082082406
89	0x3f3fe829	0.74963623
90	0x3e577a77	0.2104281
91	0xbf78ef03	-0.972397
92	0xbcdded09	-0.027090566
93	0xbdfdb0f7	-0.12387269
94	0xbd4d9450	-0.05019027
95	0x3f2f3458	0.68439245
96	0xbf46898f	-0.7755365
97	0xbe162558	-0.14662683
98	0xbec4a38d	-0.3840603
99	0xbe8030e9	-0.25037315
100	0x3ea56ce4	0.3230964
101	0xbf25eb18	-0.6481185
102	0x3d4c23d7	0.049838867
103	0xbe44b187	-0.19208346
104	0xc0421553	-3.0325515
105	0x3dc95ed4	0.0983254
106	0xbe9db2e8	-0.30800557
107	0x3eb4991c	0.35273063
108	0xbbbb99b6	-0.005725111
109	0xbf638c16	-0.8888563
110	0x3f0f380b	0.5594489
111	0x3ca6979a	0.020335961
112	0x3ecdf29a	0.40224153
113	0x3d0cf9ea	0.034418024
114	0xbf60f1cd	-0.8786896
115	0xc018a9cb	-2.3853633
116	0x3e35ce56	0.17754492
117	0x3f3375bf	0.7010154
118	0x3c4b5079	0.012409323
119	0x3e324b86	0.17411622
120	0xbe58988d	-0.21151944
121	0x3e0dba79	0.13840665
122	0x3f8bd794	1.0925164
123	0xbcb084cc	-0.021547697
124	0x4025bbf5	2.589597
125	0xbeabde6c	-0.33568132
126	0x3ec9c8c6	0.3941099
127	0x3e9a62a4	0.30153382
128	0xbfb7e9af	-1.436819
129	0xbe87d459	-0.26529196
130	0x3e704660	0.23464346
131	0x3e0f913c	0.14020246
132	0x3e36e3ae	0.1786029
133	0xbcedd949	-0.029034274
134	0x3f2ca4ab	0.67438763
135	0xbe33f5ae	-0.17574188
136	0x3f01cd32	0.5070373
137	0xbf1e2928	-0.6178155
138	0xbfedd345	-1.8580099
139	0xbd3ab705	-0.045584697
140	0xbe4f0cd7	-0.20219742
141	0x3de69a8f	0.112599485
142	0x3e8f1b0d	0.27950326
143	0xbdea835a	-0.114508346
144	0x3f448b9f	0.76775545
145	0xbeff6c2e	-0.49887222
146	0xbead00f4	-0.3378979
147	0x3d508b31	0.050913993
148	0x3b55e20c	0.0032635955
149	0x3e94bc0c	0.29049718
150	0x3f0893ea	0.533507
151	0xbf3b7d98	-0.73238516
152	0xbf242ff3	-0.64135665
153	0x3ecc553e	0.39908785
154	0x3c63ea5a	0.013910854
155	0xc0969c78	-4.7066
156	0x3df1b46d	0.118019916
157	0x3f417cc8	0.75581026
158	0xbeb2fbeb	-0.34957823
159	0x3e266dd6	0.16252837
160	0x3d77f399	0.060535047
161	0x3dcfe5e4	0.1015127
162	0x3b77324e	0.0037719193
163	0x3c41b9bb	0.011824067
164	0x3f3226c7	0.6959042
165	0xbe494104	-0.19653708
166	0x3ea59f54	0.3234812
167	0xbf635672	-0.8880378
168	0xc0c088f8	-6.01672
169	0xbf988e97	-1.1918515
170	0xbef2dded	-0.4743494
171	0x3f2cd611	0.6751414
172	0x3e2ddf40	0.16979694
173	0xbf8282d6	-1.0196178
174	0xbf3576c2	-0.70884335
175	0xbe278e1f	-0.16362809
176	0x3f64a751	0.89317805
177	0xbdf5577c	-0.11979577
178	0xbe27456a	-0.16335073
179	0xbfac17c4	-1.3444753
180	0xbccec2f2	-0.025239442
181	0x3e0316f6	0.12801728
182	0xbeb06438	-0.3445146
183	0xbf435f37	-0.7631716
184	0xbe207388	-0.15669072
185	0xbe923774	-0.28557932
186	0x3f4e2e4b	0.8053939
187	0x3d2583fa	0.040409066
188	0x403d4fd5	2.9579976
189	0xbfc308f6	-1.523711
190	0x3f3a4092	0.72754776
191	0x3da9fafd	0.08299825
192	0xbf1a611e	-0.6030444
193	0xc05934f2	-3.3938565
194	0x3c6ccde7	0.014453388
195	0xbd00b89e	-0.031426065
196	0xbe616577	-0.22011362
197	0x3bddb3b1	0.0067658057
198	0x3e4f1e02	0.20226291
199	0xbee498fc	-0.44647968
200	0xbe935955	-0.28779092
201	0xbf93fc30	-1.1561337
202	0x3f721474	0.9456246
203	0x3a97fbc0	0.0011595413
204	0xbd57f198	-0.052720636
205	0xbd4358a4	-0.047691956
206	0xbadf0ab1	-0.0017016736
207	0xbe8850d9	-0.26624182
208	0x3ddf00a4	0.10888794
209	0xbce19214	-0.027535476
210	0x3e005c21	0.12535144
211	0x3ea80c90	0.32822084
212	0x3e22c0bc	0.15893835
213	0xbdc1accd	-0.09456787
214	0x3e12d14f	0.14337657
215	0x3f4a699b	0.7906739
216	0x3d0b2e12	0.033979483
217	0x3f6c9043	0.92407626
218	0x3c8410db	0.016121319
219	0x3e905009	0.28186062
220	0xbc0a1a42	-0.008429112
221	0xbea2161b	-0.3165749
222	0xbc866536	-0.016405683
223	0x3f0ec3e6	0.5576767
224	0xbfe76701	-1.8078309
225	0x3e2ad6e2	0.16683534
226	0xbfcfa7fc	-1.622314
227	0x3d19b5cb	0.037526887
228	0x3ea81b85	0.32833496
229	0xbdf47377	-0.11936086
230	0xbc81e4e9	-0.015856223
231	0x3fb4b23b	1.4116892
232	0xc0348bfc	-2.821044
233	0x3e22fd72	0.15916994
234	0x3de0e0fc	0.10980412
235	0xbf0cf08f	-0.55054563
236	0xbd770822	-0.06031049
237	0xbd8d5376	-0.069006845
238	0x3e9ed0c2	0.31018645
239	0x3dbf449c	0.09339258
240	0x3f805131	1.0024778
241	0xbdbb31a5	-0.09140328
242	0xbf8601e9	-1.0469333
243	0xbdd450aa	-0.10366948
244	0xbc29f7e2	-0.010374041
245	0x402dcf3a	2.715773
246	0x3d1a2a56	0.03763803
247	0x3db5c961	0.088763006
248	0xbdb8bead	-0.090207435
249	0x3d6fe871	0.058571283
250	0x3f664467	0.89948124
251	0xbe021cbb	-0.12706272
252	0x3f640794	0.89074063
253	0x3f8597b9	1.0436927
254	0x3f2d533e	0.6770514
255	0x3de6bf28	0.11266929

hh/upward/b f4 [256]
0	0x3f8e4444	1.1114583
1	0xbf655e05	-0.8959659
2	0xbe40c31a	-0.18824425
3	0xbf6e1ca5	-0.9301246
4	0xbf06b470	-0.52619076
5	0xbe9431f8	-0.28944373
6	0x3e0929f2	0.13394907
7	0xbebc6649	-0.36796787
8	0xbf660e15	-0.8986524
9	0xbf6de79c	-0.9293153
10	0x3f761037	0.9611849
11	0x3f92daae	1.1472986
12	0x400b3681	2.1752017
13	0x3ee7db21	0.4528437
14	0xbf91b9bb	-1.1384805
15	0x3fc55ea9	1.5419513
16	0x3f134bd7	0.575376
17	0x3fc0e442	1.5069659
18	0xbd0261de	-0.031831615
19	0x3fb2a598	1.3956785
20	0x3fdcc952	1.7248938
21	0xbf99ef01	-1.2026063
22	0xbdf18163	-0.11792257
23	0x3cce9a40	0.025220037
24	0xbf75fc32	-0.96087945
25	0x40072ba5	2.1120389
26	0x3fa8c815	1.318606
27	0x3f5ba30f	0.8579568
28	0xbf9d8369	-1.2305728
29	0xbf040aea	-0.51579154
30	0xbfa9760d	-1.3239151
31	0xbeafdb6f	-0.34347102
32	0xbf948547	-1.1603173
33	0x3f9f75e6	1.2457855
34	0xbf5adb85	-0.8549121
35	0x3fb67a25	1.4256026
36	0x3d8887b5	0.06666509
37	0x3ef1492c	0.47126138
38	0xbe716283	-0.23572735
39	0x3e62d061	0.22149803
40	0xbf16530f	-0.5872049
41	0x401d22b6	2.4552436
42	0xbc9d315f	-0.019188581
43	0x3f7255f3	0.946624
44	0xbe51fc9e	-0.20506522
45	0x402b75dc	2.6790686
46	0x3facd3ed	1.3502175
47	0xbe54ac02	-0.20768741
48	0xbff817f2	-1.9382308
49	0xbe464d3d	-0.19365402
50	0xbee6b027	-0.4505627
51	0x3f2438cf	0.64149183
52	0xbf2c2924	-0.67250276
53	0xbff0b880	-1.8806305
54	0xbf3d1ae9	-0.73869187
55	0xbfaade5d	-1.334911
56	0x3f88b1be	1.0679243
57	0xbe0f1048	-0.13971055
58	0x3f2aab79	0.66667897
59	0x3fc806ed	1.5627114
60	0x3f58c513	0.8467571
61	0x3e8ac7f3	0.27105674
62	0x3fbb9e8a	1.4657757
63	0x3dc0b13e	0.09408806
64	0x3e8b44e1	0.27200988
65	0x3ebf5da4	0.3737613
66	0xbe4f9494	-0.20271522
67	0x3eb4c851	0.3530908
68	0xbc5ac3be	-0.013352333
69	0x3f8ac7b9	1.08422
70	0x3f4c6383	0.7983934
71	0x3f881c1c	1.0633578
72	0x3f68b10c	0.9089515
73	0x3f36c2a5	0.71390754
74	0xbd10eab9	-0.0353801
75	0x3e0a8654	0.13527805
76	0x3fd62b3b	1.6731943
77	0xbefcb2d3	-0.49355182
78	0x3f34df6b	0.7065341
79	0xbf3fd60e	-0.74935997
80	0x3f73c561	0.9522305
81	0xbf68c87d	-0.9093092
82	0xbe589725	-0.21151407
83	0x3fb42628	1.4074144
84	0xc028a9c6	-2.6353621
85	0x3f1e0025	0.6171897
86	0x3f3f0fce	0.7463349
87	0x4004cb72	2.0749173
88	0xbfaca616	-1.3488185
89	0x3ffa5d70	1.9559765
90	0x3f6a4848	0.9151654
91	0xbfaa45da	-1.3302567
92	0xbef0a193	-0.4699827
93	0xbf3cc551	-0.7373858
94	0x3e4e9828	0.2017523
95	0x3fa7b41b	1.3101839
96	0xbf9ad574	-1.2096391
97	0xbed8a346	-0.42312068
98	0xbf3456a7	-0.7044472
99	0xbfd59987	-1.6687478
100	0xbf76a6c7	-0.9634823
101	0x40041858	2.0639858
102	0xbd2d72cd	-0.04234581
103	0x3f0e6c72	0.55634224
104	0x3f2049e8	0.6261277
105	0x3e10ce51	0.14141203
106	0xbf6058e9	-0.87635666
107	0x3e09f6ef	0.13473104
108	0x3f829819	1.0202667
109	0x3ec24fca	0.379515
110	0xbf1fae0f	-0.6237497
111	0xbfa5de7f	-1.2958525
112	0x3e8dfb5f	0.27730843
113	0x3ffd0390	1.9766712
114	0x3f2c1074	0.67212605
115	0x3fb37155	1.4018961
116	0x3fb61fc7	1.4228448
117	0xbe807ead	-0.25096646
118	0xbef3990e	-0.4757771
119	0xbf824412	-1.0177023
120	0x3f8a5c3d	1.0809399
121	0x3fab18cb	1.3366941
122	0x3f9f14e5	1.2428252
123	0x401fd151	2.4971507
124	0xbf96e38e	-1.1788194
125	0x3f83d63a	1.0299752
126	0x3f89e5df	1.0773276
127	0x400d3bde	2.206779
128	0x3e7caee1	0.24676086
129	0xbf4d9c54	-0.8031666
130	0x3f29faa0	0.6639805
131	0xbfacff19	-1.351535
132	0xbf845e91	-1.0341359
133	0xbf30925b	-0.6897332
134	0x3ec57e93	0.3857313
135	0x3fa675cd	1.30047
136	0xc00050b8	-2.0049267
137	0x3f88ca3e	1.068672
138	0xbf3a2f44	-0.7272837
139	0x3ff1c36e	1.8887765
140	0x3f3af675	0.73032314
141	0xc0011b89	-2.0173056
142	0x3d3cd478	0.046101063
143	0x3f445fb1	0.76708513
144	0x3ec669e4	0.38752663
145	0xbf80de4b	-1.0067838
146	0xbdc9a726	-0.09846334
147	0x3fb8ea9d	1.4446598
148	0xbfb0d901	-1.3816224
149	0x3fc5a939	1.5442268
150	0x3da03fd3	0.078246735
151	0x4032d314	2.7941332
152	0x3f3bc3fd	0.7334593
153	0x3fdf7880	1.7458649
154	0x3f12a6a4	0.57285523
155	0x3e3ea888	0.18618977
156	0x3fa16211	1.2608052
157	0x3dd4f10c	0.103975385
158	0x3fc36a9b	1.5266908
159	0x3d75d092	0.06001336
160	0xbd5d34cc	-0.05400543
161	0x3f776faa	0.9665476
162	0x3fb0a490	1.380022
163	0x3c2da7fd	0.010599134
164	0x3f882b7c	1.063827
165	0xbc24d3bb	-0.010060246
166	0x3f61adde	0.88155925
167	0xbe856fcf	-0.26061866
168	0xbe6cd982	-0.23129848
169	0x3f87c770	1.0607738
170	0x3f88d75c	1.0690722
171	0x405b892a	3.4302468
172	0xbf91a06d	-1.1377083
173	0x3f05571e	0.52086055
174	0x3f67a3d9	0.90484387
175	0x3ea65306	0.32485217
176	0x3f9230a7	1.1421098
177	0x3e9f77f1	0.31146196
178	0x3e9bb39f	0.30410478
179	0x3e890db0	0.26768255
180	0xbd65bcf7	-0.056088414
181	0x40197ccc	2.398242
182	0x3f053592	0.52034867
183	0xbfc3ed84	-1.5306859
184	0xbf1980b9	-0.5996204
185	0xbedcd06a	-0.43127757
186	0xbf1d2210	-0.613801
187	0x3f8a8572	1.0821974
188	0xbfa4817a	-1.2852013
189	0x401c26a9	2.4398596
190	0x3fc182e0	1.5118065
191	0x3fca80cb	1.5820554
192	0x40308224	2.7579432
193	0x3f6c96e5	0.92417747
194	0xbf15a652	-0.5845691
195	0x3f047ff5	0.51757747
196	0xbf6a0a2c	-0.9142177
197	0x3f707898	0.9393401
198	0x3e399dfa	0.1812667
199	0xbffb03e2	-1.961056
200	0x3f5b7abb	0.85734147
201	0x3cdcd2fe	0.026956078
202	0x3f77ef2f	0.9684934
203	0xc0294884	-2.645051
204	0x3f80ac88	1.0052652
205	0x3e9c2c83	0.3050271
206	0xbf45affe	-0.7722167
207	0x4023e15c	2.5606298
208	0x3fa7b325	1.3101546
209	0xbe68bf8c	-0.2272932
210	0x3eebfa05	0.46089187
211	0x3f60f567	0.87874454
212	0x3f348c6e	0.7052678
213	0x3e031a2d	0.12802954
214	0xbfdc6f9e	-1.7221563
215	0xbf430d87	-0.76192516
216	0xbeb2819e	-0.34864515
217	0xbc7d010f	-0.015442147
218	0xbf4ae786	-0.79259527
219	0x3f226e79	0.6344982
220	0xbec193f0	-0.3780818
221	0xbf5a30fb	-0.8523099
222	0x3f98379d	1.1891972
223	0xbfa99e1e	-1.3251379
224	0xc029c23b	-2.65248
225	0x3f487d60	0.7831631
226	0x3db764d9	0.08954782
227	0x3e4c94ff	0.19978712
228	0x3fa7479c	1.3068728
229	0x3fb21e77	1.3915547
230	0xbf039fd3	-0.5141575
231	0xbf8f2951	-1.1184484
232	0x3b44f663	0.0030054084
233	0x3f114ed5	0.56760913
234	0xbe27269a	-0.16323319
235	0xbfe5a004	-1.7939458
236	0x403f9efa	2.9940782
237	0x403b1d2e	2.923656
238	0xbde2f094	-0.11081043
239	0xbf7d1d7f	-0.9887313
240	0x3f3b7673	0.73227614
241	0x3f35b8e1	0.7098523
242	0x3ee4c0a0	0.4467821
243	0x3e8229fa	0.2542265
244	0x3ecfc31d	0.40578547
245	0x3fdd12c7	1.7271355
246	0xbd4e4d0b	-0.050366443
247	0xbe82c26c	-0.25538957
248	0x3fbd8452	1.4806006
249	0x3fa8141e	1.3131139
250	0xbe364324	-0.1779905
251	0xbf36f102	-0.714615
252	0x3ee2ca0e	0.4429478
253	0xbe3a1247	-0.18171035
254	0x3e7047e5	0.23464926
255	0xbeb56a5d	-0.3543271

xh/W f4 [64, 10]
0	0x3fbc2caf	1.4701136
1	0xbf068c19	-0.5255752
2	0x3f84c654	1.0373025
3	0xbe1aeb2d	-0.15128775
4	0x3f7d243d	0.9888342
5	0x4029b93f	2.6519315
6	0x3f68d280	0.909462
7	0x3f8997a5	1.0749403
8	0x3f2491fa	0.6428524
9	0xbe01146f	-0.12605451
10	0xbe33bedb	-0.17553274
11	0xbfd3d8cd	-1.6550537
12	0xbeb8c47a	-0.360874
13	0xbf396c22	-0.7243062
14	0xbf8c9442	-1.0982745
15	0xbf7da4b0	-0.9907942
16	0xbf4dbfd0	-0.8037081
17	0x3ca5bbf6	0.020231228
18	0xbef44cbf	-0.47714803
19	0xbee00a80	-0.4375801
20	0xbf3d3025	-0.7390159
21	0xbd04b6e7	-0.03240099
22	0x3cc2b9d7	0.023770256
23	0x3c97c3d1	0.01852599
24	0xbc9b77de	-0.018978056
25	0xbb45cafb	-0.00301808
26	0x3f0de1a9	0.55422455
27	0x3e6342d3	0.2219346
28	0x3edc67fe	0.4304809
29	0x3ee6ac07	0.4505312
30	0x3e1ef1de	0.15521953
31	0x3ca464d8	0.020067617
32	0xbabddaa5	-0.0014484717
33	0x3a4732f1	0.00075988384
34	0x3c67fbed	0.014159185
35	0xbc89cb29	-0.016820507
36	0xbdf10f44	-0.1177049
37	0xbf4c14f8	-0.79719496
38	0x3ea08eae	0.31358856
39	0x3e8e1260	0.27748394
40	0x3f3ca30b	0.73686284
41	0xbdef3d68	-0.11681634
42	0xbea66c8e	-0.32504696
43	0xbdf15fd5	-0.11785857
44	0x408cb470	4.397026
45	0xc08b4a67	-4.3528323
46	0xbe438986	-0.1909543
47	0xbf2e50f3	-0.6809227
48	0xbf7618f1	-0.9613181
49	0xbf37346b	-0.7156436
50	0xc00a0d77	-2.1570718
51	0x3c31c26b	0.0108495755
52	0x3c634ca1	0.01387325
53	0x3d5a9f0f	0.053374346
54	0xbc6b19e8	-0.014349438
55	0x3b8300dd	0.0039979056
56	0xbf78bbc0	-0.97161484
57	0xbf5390c6	-0.8264278
58	0x3fd58f0b	1.6684278
59	0x40061d97	2.095556
60	0xbf1f829e	-0.6230868
61	0xbcc8c0f0	-0.024506062
62	0x3bd35840	0.006449729
63	0x3c43956f	0.011937483
64	0xbd33be80	-0.043882847
65	0x3da7e419	0.08197803
66	0xbf328b2c	-0.6974361
67	0x3efa01cf	0.48829505
68	0x3ec95585	0.3932306
69	0x3f21b05c	0.6315973
70	0x3f776973	0.9664528
71	0x3e0c63a0	0.13709879
72	0x3e64bb98	0.22337186
73	0xbd9212ba	-0.07132478
74	0xc09a6345	-4.824618
75	0x4020c42e	2.5119739
76	0xbf4fe4ad	-0.81208307
77	0xbea7e617	-0.32792732
78	0x3e10b463	0.14131312
79	0x3c2008a0	0.009767681
80	0xbf55870e	-0.834092
81	0xbd4fed15	-0.05076321
82	0xbf79d0ae	-0.97584045
83	0x3d4ea032	0.050445743
84	0x3f0cc083	0.5498125
85	0xbf5e1917	-0.86757034
86	0xbf5cafab	-0.8620555
87	0xbf406a0c	-0.75161815
88	0xbf1522be	-0.5825614
89	0xbebfbef6	-0.3745038
90	0x3ccc4312	0.024934325
91	0xbe3d691b	-0.18497126
92	0x3f42c5b3	0.76082915
93	0x3da22dbe	0.07918881
94	0x3f961f9d	1.1728398
95	0xbf6eb242	-0.9324075
96	0xbf2fb01f	-0.68628114
97	0xbe016dc0	-0.12639523
98	0x3f02f05e	0.5114802
99	0x3f1cf3d3	0.61309546
100	0x3f2aa9f8	0.666656
101	0x3f31c0bf	0.6943473
102	0xbf84bf0d	-1.0370804
103	0xbf9b83af	-1.2149562
104	0x3f9e5dc7	1.2372369
105	0x3f0a224d	0.5395859
106	0x3e5fba34	0.21848375
107	0x3ea7f754	0.32805884
108	0x3e386098	0.18005598
109	0x3eb9a8c9	0.36261585
110	0xc08359f0	-4.1047287
111	0x3c0780c7	0.008270449
112	0x3c4ccd91	0.012500183
113	0x3db165b7	0.08661979
114	0xbf0ea6d6	-0.5572332
115	0x3f205529	0.62629944
116	0xbe9ab5f8	-0.30216956
117	0x3d960121	0.07324434
118	0x3f5be2c1	0.85892874
119	0x3f6ecb4b	0.9327895
120	0xbfcec4ac	-1.615377
121	0xbb4040f9	-0.0029335602
122	0x3c2a565c	0.010396566
123	0x3d4b4569	0.04962674
124	0xbdb13f81	-0.086546905
125	0x3e1c9b5b	0.15293638
126	0x3fb29ec9	1.3954707
127	0x3f838708	1.0275583
128	0x3ea8a9d8	0.3294208
129	0x3f7e9b6f	0.9945592
130	0xbf4a93c7	-0.7913174
131	0x3c5437ac	0.012952726
132	0x3cc17fa9	0.023620443
133	0xbb557fde	-0.0032577435
134	0x3b81c5cc	0.003960347
135	0xbdbda6ef	-0.09260356
136	0xbf327ba8	-0.69719934
137	0xbf9ec616	-1.2404201
138	0x3fa19492	1.2623465
139	0x3f426220	0.75930977
140	0xbeba8f32	-0.36437374
141	0x3c9d9838	0.019237623
142	0x3c265ca1	0.01015392
143	0xbaada4fa	-0.0013248019
144	0x3c9f08de	0.019413408
145	0xbccacbca	-0.024755377
146	0xbf74f698	-0.9568877
147	0xbeeb60af	-0.459722
148	0xbe4a3385	-0.19746216
149	0xbd0f4406	-0.03497698
150	0x3f50edba	0.8161274
151	0x3ccd8861	0.025089445
152	0xba2840f4	-0.000641837
153	0xbc014f3e	-0.007892428
154	0x3c19f5f1	0.009397016
155	0x3c1848e0	0.0092947185
156	0x3d9f025d	0.07764123
157	0xbeb47daa	-0.35252124
158	0x3e24a95e	0.16080233
159	0x3db6a9f3	0.08919134
160	0xbfc781bf	-1.558647
161	0x3e51f538	0.205037
162	0xbf18970b	-0.59605473
163	0x3df0a742	0.11750652
164	0xbd8ad144	-0.067781955
165	0xbfc593a9	-1.5435687
166	0xbf83af9a	-1.0287964
167	0xbea41ce1	-0.32053283
168	0xbe004b46	-0.12528715
169	0xbecb2d15	-0.39682832
170	0x3ed3fb7e	0.4140281
171	0x3c818e81	0.015815021
172	0x3c1ad640	0.009450495
173	0xbc89c6c6	-0.016818415
174	0xbd9c13d3	-0.07620969
175	0xbd723605	-0.05913355
176	0xbf7368ef	-0.9508199
177	0xbf9a29ae	-1.204397
178	0x3edd8d2f	0.43271777
179	0x3f1766e5	0.5914138
180	0xbf05a2a4	-0.52201295
181	0xbbde2949	-0.006779824
182	0xbb05addd	-0.002039782
183	0xbb5ad973	-0.003339377
184	0x3c2ed44c	0.010670733
185	0x3d8cd464	0.06876448
186	0x3ea4bfb1	0.321775
187	0x3f02634e	0.50932777
188	0xbf17d5dd	-0.59310704
189	0x3f0f9289	0.5608297
190	0x3f0e77ab	0.5565135
191	0x3d4a58ce	0.049401097
192	0x3f318944	0.69350076
193	0x3d94953e	0.07255028
194	0x3e997825	0.29974476
195	0x3c848fff	0.016181944
196	0x3f6c4063	0.92285746
197	0x3f74dfac	0.95653796
198	0xbe873a49	-0.26411656
199	0xbe73d1ac	-0.23810452
200	0x3dcc3050	0.099701524
201	0x3bfec194	0.007774541
202	0x3ca68cf2	0.02033088
203	0xbc04bc03	-0.008101466
204	0xbc9a3953	-0.018826162
205	0xbc09ed8c	-0.008418452
206	0x3f363ec6	0.71189535
207	0x3e2ee475	0.17079337
208	0xbe908d50	-0.28232813
209	0xbea5796a	-0.32319194
210	0xbe3c3015	-0.18377717
211	0x3c11a30a	0.008888969
212	0xbc0ca923	-0.008585247
213	0x3c744a9e	0.014910368
214	0xbcf37df0	-0.029723138
215	0x3c648e5c	0.013949957
216	0xbf1d48a5	-0.6143897
217	0x3f6fca40	0.93667984
218	0xbef33294	-0.47499526
219	0x3d9ba138	0.075991094
220	0x3fc78261	1.5586663
221	0xbca9e5a2	-0.02073938
222	0xbc2b7746	-0.010465449
223	0xbc5bab60	-0.013407558
224	0x3d0bb124	0.03410448
225	0xbc81bfe8	-0.015838578
226	0x3f3d098f	0.7384271
227	0x3eb439e4	0.35200417
228	0x3e875768	0.26433873
229	0xbe025494	-0.12727576
230	0x3f736cad	0.950877
231	0x3ca2f0ce	0.019890215
232	0x3e78d7af	0.24301027
233	0xbd007136	-0.031357966
234	0x4026e2e3	2.607598
235	0xc01dbfaf	-2.4648244
236	0xbd50a653	-0.05093987
237	0xbd39ebc7	-0.04539087
238	0xbd4df30b	-0.050280612
239	0x3e50c9e0	0.20389509
240	0x3f4bcb02	0.7960664
241	0x3cf04b9f	0.029332934
242	0xbc499632	-0.012303876
243	0xba7ec9f8	-0.0009719427
244	0xbd1e48be	-0.03864359
245	0xbd4c5c85	-0.04989292
246	0xbe4aa1ea	-0.19788328
247	0x3dd63598	0.10459441
248	0xbc89a6f4	-0.016803242
249	0x3e05a542	0.13051322
250	0xbf58563c	-0.84506583
251	0xbda50b1a	-0.08058758
252	0xbfe73290	-1.8062305
253	0xbea50f59	-0.32238272
254	0xbe1ff739	-0.15621652
255	0x3f817110	1.0112629

xh/b f4 [64]
0	0xbf07f34e	-0.5310563
1	0x3e4a133a	0.19733897
2	0x3ea03169	0.31287697
3	0xbdb35540	-0.087564945
4	0x3d6ce55b	0.057835918
5	0xbcf79364	-0.030221649
6	0x3daeeb90	0.08541024
7	0xbee3fa1c	-0.44526756
8	0x3f7973ad	0.9744213
9	0xbf527769	-0.82213455
10	0x3e11611e	0.14197204
11	0xbf458262	-0.77152073
12	0x3f3d015f	0.7383022
13	0xbe4ad624	-0.1980825
14	0xbf2131ce	-0.6296662
15	0x3e725975	0.23666938
16	0x3e3385cc	0.17531508
17	0xbe5c901f	-0.21539353
18	0x3dc61225	0.096714295
19	0xbf379981	-0.71718603
20	0x3dda573f	0.10661172
21	0xbdba6a76	-0.09102337
22	0x3f5f232b	0.8716304
23	0xbe587587	-0.21138583
24	0x3e8886f0	0.2666545
25	0x3f98ec78	1.1947165
26	0x3e8edee7	0.27904436
27	0x3d2288e0	0.039681315
28	0xbe2da871	-0.16958787
29	0x3fe355c0	1.7760544
30	0xbe5e227f	-0.21692847
31	0xbece08fb	-0.40241227
32	0xbf20afc8	-0.6276822
33	0xbd88d3ef	-0.06681048
34	0xbee3d6e9	-0.444999
35	0xbf4529af	-0.7701673
36	0x3edffbe2	0.4374686
37	0x3dd2ec88	0.10299021
38	0xbef60e99	-0.48058012
39	0x3dfa1f79	0.12213034
40	0xbe5d7cf3	-0.21629696
41	0x3e4ce9c0	0.20011044
42	0xbf18abd9	-0.5963722
43	0xbf29eac3	-0.6637384
44	0xbf1ccfff	-0.61254877
45	0x3ec6b63f	0.38810918
46	0xbfe7d41b	-1.8111604
47	0x3dc952a5	0.09830216
48	0x3e774e49	0.24150957
49	0xbecea421	-0.40359595
50	0x3effd76f	0.4996905
51	0xbceb577d	-0.028728241
52	0x3d98f7a4	0.07469109
53	0x3c39c7b7	0.01133912
54	0xbeb8d69f	-0.36101243
55	0xbf1c5aa2	-0.61075795
56	0xbf82b664	-1.0211911
57	0xbe8c744b	-0.27432474
58	0xbe3e65a0	-0.18593454
59	0x3e03dd04	0.1287728
60	0x3f1ee359	0.62065655
61	0xbea0fbdd	-0.31442156
62	0x3eb792e2	0.3585425
63	0x3ecc4640	0.39897346

hy/W f4 [1, 64]
0	0xbf8950ae	-1.0727746
1	0xbf086c02	-0.53289807
2	0xbf96404a	-1.173837
3	0x3f2cd50e	0.67512596
4	0xbba3e8c1	-0.0050021117
5	0xbf5f1af2	-0.8715049
6	0x3e1c8f24	0.15288979
7	0x3f9e3302	1.2359316
8	0x3f19df34	0.60106206
9	0xbf8c46e3	-1.0959133
10	0xbf789c0c	-0.9711311
11	0x3fa094f3	1.2545456
12	0x3f707435	0.9392732
13	0x3f878057	1.0586041
14	0xbf7d4d04	-0.9894564
15	0x3f6103e4	0.8789656
16	0x3f7ac790	0.9796076
17	0x3f03dea6	0.5151161
18	0x3f4e1058	0.8049369
19	0xbf636d67	-0.8883881
20	0xbf9ac31a	-1.209079
21	0xbf87fea0	-1.062458
22	0xbf4e3abc	-0.8055837
23	0x3f14c159	0.58107525
24	0x3f8d61eb	1.1045507
25	0xbf71a169	-0.9438692
26	0x3f211763	0.6292631
27	0xbf72e275	-0.94876796
28	0x3f5b87cd	0.8575409
29	0xbfb2ffba	-1.3984292
30	0xbf59bb85	-0.8505176
31	0xbf472058	-0.7778373
32	0x3f1c3282	0.6101457
33	0x3f5caf7b	0.8620526
34	0x3f935fc1	1.1513597
35	0xbf25f1d6	-0.6482214
36	0xbf4f7a95	-0.8104642
37	0x3f02fc0d	0.5116585
38	0xbf787845	-0.97058517
39	0xbf620ae7	-0.88297886
40	0x3f6c720c	0.9236152
41	0x3f2cea86	0.67545354
42	0xbe1816e5	-0.14852484
43	0xbf1a6138	-0.60304594
44	0x3eb9a2fa	0.36257154
45	0xbf5828f4	-0.8443749
46	0x3f7ba7e3	0.9830305
47	0xbf2070bd	-0.62672025
48	0xbf49d446	-0.7883953
49	0x3f62255e	0.8833827
50	0x3f49abd9	0.78777844
51	0x3f511f5b	0.8168847
52	0x3fbb694a	1.4641507
53	0xbf87eb8b	-1.0618757
54	0x3f4b25f4	0.79354787
55	0xbf896a60	-1.0735588
56	0x3f4ca138	0.799335
57	0x3f37f6bf	0.7186088
58	0xbf977456	-1.1832378
59	0xbf6f496b	-0.934714
60	0xbf70b24c	-0.9402206
61	0xbf854a18	-1.0413237
62	0x3e919756	0.28435773
63	0xbf31a46b	-0.69391507
