code/python/spin_model/10_64_1_5_10_4950_520_use_train_spin_model.npz (npz, 128060 bytes, 6 tensors)

hh/lateral/W f4 [256, 64]
000000 22 24 7d 3f 19 82 0e bd 05 e3 9a 40 b2 0a a3 3f
       0.9888326 -0.03479204 4.8402123 1.2737639
000010 9e 94 24 bf e2 c6 f0 3f 7c 23 1c bf 4a 64 c5 bf
       -0.6428927 1.8810694 -0.60991645 -1.5421231
000020 e8 d1 06 bf b1 75 e8 3e f2 7d 07 be 45 50 db bf
       -0.5266404 0.4540229 -0.13231638 -1.7133871
000030 b9 81 1e 40 23 6f 01 40 0a 24 99 3e 40 1a 9f c0
       2.4766676 2.0224082 0.29910308 -4.9719543
000040 7d 9f fd 3e 5d 72 76 c0 84 1e 41 3f d7 91 81 bf
       0.49535742 -3.8507302 0.7543719 -1.0122632
000050 33 cb 0f c0 81 45 11 40 6e 2a 95 c0 a9 40 ea 3f
       -2.2467773 2.2698672 -4.6614294 1.8300983
000060 59 c8 1f 40 21 bf 88 40 14 43 35 c0 27 19 30 40
       2.4966033 4.273331 -2.8322191 2.7515352
000070 25 64 33 be 41 4a d0 3e cb 4b dc be 0c d0 c0 bf
       -0.17518671 0.4068165 -0.43026575 -1.5063491
000080 cb 01 4e be dd c0 46 3f d3 1c 14 be 0f cd 1d 3e
       -0.20117871 0.77638036 -0.1446412 0.15410255
000090 92 d7 77 bf 33 ef e5 3d 31 52 46 40 50 9c 98 bf
       -0.9681331 0.11227264 3.0987666 -1.1922703
0000a0 51 5b d9 bf 8a f6 55 40 06 cf 94 3f e3 9e 0d 40
       -1.6980993 3.3431726 1.1625679 2.2128227
0000b0 97 c4 8a 3e 0f 07 bb 3f 43 3f b2 c0 13 2c 59 bf
       0.2710311 1.4611529 -5.5702224 -0.84832877
0000c0 7d 6d f1 bf 5f 5c ce 3e 12 93 67 3e 45 3d a8 bd
       -1.8861538 0.4030485 0.22614697 -0.08214811
0000d0 4f a0 0a 40 02 40 8e bf 5c 8d fc bf 5b 22 01 c0
       2.1660345 -1.1113284 -1.973064 -2.017722
0000e0 37 05 61 40 da ee 32 3f 2b b9 39 c0 38 cd ef 3e
       3.5159433 0.6989571 -2.9019268 0.46836257
0000f0 48 1f bd 3e 75 af 6b bf 30 9d 69 bf 6c 25 01 40
       0.36937928 -0.920646 -0.91255474 2.017909
000100 6b 31 23 bf 06 46 87 3e 0f 0b 8f 40 90 f9 7c be
       -0.6374728 0.2642061 4.4701 -0.24704576
000110 e7 0c d0 be 8f d2 86 3f 2b ad 40 bf 57 bc 19 bd
       -0.40634844 1.0533007 -0.75264233 -0.03753313
000120 d8 ca cd 3f 46 2c b6 3f e9 ec 54 bf cf 42 3a bf
       1.6077528 1.4232261 -0.83173996 -0.7275819
000130 e2 ce fd be 06 87 94 bf ac ac ea 3f 1c 06 4b 40
       -0.49571902 -1.1603706 1.8333945 3.172248
000140 c2 0a d6 3f 2c d2 c1 bf 00 53 52 3f b1 ea 67 bf
       1.6722033 -1.5142264 0.821579 -0.90592486
000150 cd ec fe 3f ad d8 0c be 75 61 94 3f a8 b9 07 3f
       1.9916016 -0.1375453 1.1592242 0.53017664
000160 ec e0 64 c0 14 bd 86 bf e5 8d df 3f 55 16 1d 3f
       -3.5762281 -1.0526452 1.7465178 0.613622
000170 78 e6 92 bf 13 12 5b 40 46 ee 08 bf 5a 3f bd 3f
       -1.1476583 3.4229782 -0.53488576 1.4784958
000180 e1 2f 17 bf 63 ea 05 c0 4a 1b 9d bf 57 eb c4 bf
       -0.5905743 -2.0924308 -1.2273953 -1.538432
000190 4b fc 1a c0 88 e8 c3 3e e7 a9 02 3f dc 33 1b 3f
       -2.4216487 0.38263345 0.510405 0.60626006
0001a0 28 8a 99 bb 5d 92 31 bf 9b 6c 37 c0 a6 3e b3 3f
       -0.004685659 -0.6936396 -2.8660038 1.4003494
0001b0 1b 80 b2 be 2d a5 1f c0 9d 62 b2 bf d4 9e 43 bf
       -0.34863362 -2.4944565 -1.3936344 -0.7641423
0001c0 84 d0 61 3f bc 58 ca be de b4 8f 3e f0 b3 02 40
       0.88208795 -0.39520824 0.28067678 2.0422325
0001d0 e6 69 6b be 36 89 46 c0 9b cd f1 3f 78 ce e7 bf
       -0.22989616 -3.1021247 1.8890871 -1.8109884
0001e0 b9 39 2b 40 8d 62 59 bf c2 ee ee be 51 8c 12 c0
       2.675398 -0.84916 -0.46666533 -2.2898142
0001f0 5b 5d 27 3f de c5 94 3f f2 9a 43 bf 4e 49 03 c0
       0.65376824 1.1622884 -0.764083 -2.0513492
000200 7e 14 24 40 24 1a d9 3f 6d 08 14 40 67 f6 2f 40
       2.5637507 1.6961102 2.3130143 2.7494142
000210 b0 64 e0 3d df ed ff bf ef cf 74 bf 15 d9 67 3f
       0.109567046 -1.9994467 -0.9562978 0.90565616
000220 50 2f 69 bf f2 f3 7e 3f e3 9a 38 be 48 4a 1e 3f
       -0.9108782 0.9959098 -0.18027835 0.61832094
000230 25 ca c3 3f 44 81 17 c0 d8 62 bb 3f 6e 9f 1f 3f
       1.5296065 -2.3672647 1.463954 0.62352645
000240 c3 e1 56 3e d5 f6 46 40 89 1d fc 3f 3e 9e 22 c0
       0.20984559 3.1088154 1.9696513 -2.5409083
000250 f4 8f 9b 3f a6 82 1b 40 27 e7 95 3e bd 11 69 c0
       1.2153306 2.4298491 0.29277918 -3.6417077
000260 c1 9f 42 3f 8d fa f8 bd 62 91 94 3f 6d 74 cc bf
       0.76025015 -0.12157164 1.1606867 -1.597303
000270 9f d6 32 c0 03 f9 fd 3f 0f 4b 1d c0 49 e0 53 be
       -2.7943494 1.9841617 -2.4577062 -0.20691027
000280 53 01 f9 3f 1f 58 4e 40 86 55 d2 bd 6b d8 b8 bd
       1.9453529 3.2241285 -0.102702186 -0.090256535
000290 18 ac 2e 3f 10 ae 38 c0 32 4f a0 40 51 21 11 bf
       0.68231344 -2.885624 5.0096674 -0.5669146
0002a0 9d 15 63 c0 7d 05 38 40 ad 99 c0 bf df 46 dc 3f
       -3.5481942 2.875335 -1.5046898 1.7209128
0002b0 ee c2 c7 3f 1d 7a 0e bd f0 24 44 c0 f3 d7 82 bf
       1.5606363 -0.034784425 -3.0647545 -1.0222152
0002c0 fa 36 b6 bf 2a d3 42 40 8b 8d 09 40 d8 f4 0f c0
       -1.4235528 3.0441384 2.149264 -2.249319
0002d0 52 ef 53 3f 4f 69 49 c0 c5 a5 cd 3f f6 8e 06 bf
       0.8278705 -3.1470525 1.6066214 -0.5256189
0002e0 72 cc a4 40 b0 3d ec bd 2b 86 01 c0 4e 8a b9 be
       5.1499567 -0.115352035 -2.023814 -0.3623833
0002f0 20 76 c9 3f 9e 62 f4 3f a9 a8 51 bf e3 5f f3 3f
       1.5739174 1.9092596 -0.8189798 1.9013637
000300 f7 3d df c0 d0 16 86 3f 74 e8 84 c0 78 13 81 c0
       -6.976314 1.0475712 -4.1533756 -4.0336266
000310 98 af d1 bf ce 42 4a c0 f7 3d 24 3f ab a4 49 c0
       -1.6381712 -3.1603274 0.6415705 -3.1506755
000320 7e 72 cd c0 bb 93 fa bf 9e f6 1c 3f e5 80 37 3f
       -6.420226 -1.9576334 0.6131381 0.7168105
000330 d4 08 26 bf 33 78 5a bf 3d 7b 43 3e 80 06 94 bf
       -0.6485722 -0.8533966 0.1908998 -1.1564484
000340 f3 92 14 3f 3f d4 da bd 0b de b2 3e 33 47 de 3d
       0.58036727 -0.10685014 0.3493503 0.10853424
000350 52 c4 3a 3e ab 4d d4 3e 23 cd 5e 3f 5e 56 05 c0
       0.18238953 0.41465506 0.87031764 -2.0833964
000360 a0 7b a6 3f a1 0b 5e 40 e3 ba 09 be 46 95 76 bf
       1.3006477 3.4694598 -0.13450198 -0.96321523
000370 09 76 f3 3c 50 2a 6f 3f 03 fe bd 3f 21 de 3d c0
       0.02971937 0.9342394 1.4843143 -2.9666827
000380 54 57 32 bf c1 dd 05 40 6e 5f 1c 3f 7f b4 41 3f
       -0.696645 2.0916598 0.61083114 0.7566604
000390 9e eb 23 40 15 8a 8c bf 99 44 22 c0 6b d3 13 c1
       2.561256 -1.0979639 -2.5354369 -9.239116
0003a0 23 83 3f bf 80 4b b2 3f 15 38 18 bf ad ab 59 3f
       -0.74809474 1.3929291 -0.59460574 0.8502758
0003b0 96 be 4e 40 3a 56 97 3f 49 62 a2 bf 6b bc 25 bf
       3.2303824 1.1823189 -1.2686244 -0.6474063
0003c0 ea 1b 5a c0 d1 86 bf 3f 38 da 47 bf fe 08 b9 bf
       -3.4079537 1.4963018 -0.7806735 -1.4455869
0003d0 2f 6a 9c bf 7d e8 99 bf ff 0e be 3d d1 6a ef bf
       -1.2219905 -1.2024075 0.09280204 -1.8704473
0003e0 a2 b6 1e 40 0a 55 44 40 c3 f2 0d 40 59 45 8c c0
       2.479897 3.0676904 2.217942 -4.3834653
0003f0 ba 37 1c bf 3f 17 f8 bf 51 b6 9b 3e 43 f8 ab bf
       -0.6102253 -1.9382094 0.30412534 -1.3435138

hh/upward/W f4 [256, 64]
000000 45 87 07 40 55 83 63 bf ab 11 9c bd 89 c9 6a be
       2.1176312 -0.8887227 -0.076205574 -0.22928442
000010 8b 23 e1 3f 9e ad 06 bf 3b b8 00 3e d4 56 dd bf
       1.7588972 -0.5260867 0.12570278 -1.7292123
000020 1c 57 27 bf c3 38 12 40 8f 9a 91 c0 ce 62 2f be
       -0.65367293 2.2847145 -4.550117 -0.17127535
000030 bf 93 8c bd f9 37 9e be 11 c9 57 3e 2c 86 0e be
       -0.06864118 -0.3090208 0.21072794 -0.1391837
000040 8d 67 20 c0 f0 fd 7d bd 2a ba 76 be ba ea c2 3f
       -2.5063202 -0.06200975 -0.24094453 1.5227883
000050 b6 54 1f 3d 3e bd bc 3b 78 20 da 3d 3c 97 5d 3f
       0.038899146 0.005759864 0.10650724 0.8655889
000060 dd 12 06 3d 0a 94 c4 bf ef 69 2c 3e 71 90 28 c0
       0.032732833 -1.5357678 0.16837285 -2.633816
000070 8e 4b 04 3d c6 ad 61 bf 24 a3 51 be 66 d4 97 3f
       0.032298617 -0.8815578 -0.2047239 1.1861694
000080 04 0b af 3f 51 08 0b be 98 dc d8 bd 18 aa 93 3d
       1.3675237 -0.13577391 -0.1058895 0.07210177
000090 56 dd a5 bd 78 98 38 be f8 91 ff 3d 3d ec 14 3e
       -0.08098857 -0.18026912 0.12479013 0.14543243
0000a0 55 06 e0 bf 7b 5e ce bd 43 b6 a3 3f 83 c0 ab 3d
       -1.7501932 -0.100766145 1.2789997 0.08386328
0000b0 19 9d af 3b d2 6c f5 bf 83 c7 10 3f 9c ec 84 3e
       0.0053593037 -1.9173834 0.5655443 0.2596177
0000c0 52 bb 1e c0 a4 94 12 3e 0f 78 0d 40 b3 ce db 3f
       -2.4801831 0.14314514 2.2104528 1.7172455
0000d0 05 fc 29 bc 43 c5 96 bf 41 9d 1f 3e 01 fd 22 3e
       -0.010375028 -1.177895 0.15587331 0.15916826
0000e0 49 03 c1 3d 8f 0a 6c be 8d 0e 3d 3f b6 1b b7 bd
       0.09424455 -0.23050903 0.7385033 -0.08940832
0000f0 3f b1 14 bf 0d fa 82 3f bf 66 5c 3e cc b5 1d 3e
       -0.58082956 1.023256 0.2152357 0.15401381
000100 c1 51 2b bf 79 f3 86 bf fc ab fa bc 1b bc 4e bd
       -0.6692162 -1.0543052 -0.030599587 -0.05047236
000110 14 21 47 bc 96 8c c2 be de 58 72 bd 9c 3d 29 bf
       -0.0121538825 -0.37997884 -0.05916678 -0.66109633
000120 8e 1b 8d 3e 8e 9c 98 bf 07 6d a1 be 13 0f 62 bd
       0.27560085 -1.1922777 -0.31528494 -0.055190157
000130 ab 60 a6 3e 11 17 f7 bd c2 88 f7 bd 0c 17 5c 3d
       0.32495627 -0.120649464 -0.12086631 0.053732917
000140 8c 59 e6 3e 6f 6c e4 be c5 34 e7 bd 26 6b c3 3e
       0.44990194 -0.44613978 -0.11289362 0.38167685
000150 f2 6b f8 bd f1 d7 8c bc 01 3d 97 3d cc e3 e1 3d
       -0.12129964 -0.017192813 0.073846824 0.11029777
000160 a4 37 f8 3d 73 09 3c 3f cf 38 36 3e 09 55 77 bf
       0.121199876 0.7345192 0.17795108 -0.9661413
000170 70 e8 f5 bc 00 05 9a be 23 18 8a be b5 c9 eb 3e
       -0.030018061 -0.3008194 -0.2697154 0.46052328
000180 a5 40 7e bf 03 28 e5 3d dc 2c d1 be b8 59 58 be
       -0.9931739 0.11189272 -0.40854537 -0.21127975
000190 ff b5 23 3e 78 24 4b bf 88 62 b2 3d 6a f5 1d be
       0.15987395 -0.7935252 0.087101996 -0.1542565
0001a0 93 06 46 c0 17 62 05 bd 95 0f 9c be 6a 02 e1 3e
       -3.0941513 -0.03256425 -0.30480638 0.43947154
0001b0 76 64 ac bd 28 5c 46 bf bd 44 b1 3e f9 8b e6 3d
       -0.08417599 -0.7748437 0.34622756 0.112571664
0001c0 e4 e1 0f 3e f5 ba cc be 93 1d 9c bf cd 4f 0a c0
       0.14051014 -0.39986387 -1.2196525 -2.1611207
0001d0 59 7c 74 3d f2 35 5c 3f bc 74 b3 bc 77 39 fb 3d
       0.0596889 0.86019814 -0.02190625 0.1226682
0001e0 2f 3f 40 be ac 54 22 be 3f 04 80 3f 6e 30 50 3e
       -0.18774103 -0.15852612 1.0001296 0.20330974
0001f0 fb a0 39 40 f6 38 aa be 3e b3 c6 3e a5 9c 85 3d
       2.9004505 -0.33246583 0.38808626 0.06524018
000200 d9 c9 fb bf 8f 40 aa be fe ba 1d 3f 45 47 e3 bd
       -1.9670974 -0.3325238 0.6161345 -0.11097578
000210 8c df ca bc 82 9e 63 3e db cf df 3e 76 d8 17 bd
       -0.024764799 0.22228435 0.4371327 -0.037071668
000220 88 38 d6 3d f3 7f 87 bf 65 93 0c c0 05 ea 33 3e
       0.10460001 -1.0585922 -2.1964962 0.1756974
000230 13 85 18 3f 7a e7 ca be 9a 43 0f bf 69 89 e8 3e
       0.59578055 -0.39629728 -0.55962527 0.45417336
000240 70 b5 7a 3f d3 25 63 3e 84 18 e6 be c4 41 87 3d
       0.979331 0.22182398 -0.4494058 0.06604341
000250 82 20 fe bd b7 05 87 bd 66 a9 2f 3f 1c a2 26 bf
       -0.12408544 -0.06592887 0.68617857 -0.6509111
000260 4b f3 20 3d e3 f4 05 3e 3c b1 6a be f0 c0 a8 c0
       0.039294522 0.13081698 -0.22919172 -5.273552
000270 1e 34 32 3d 93 b3 f4 3f e3 44 b0 be 79 c2 54 3e
       0.043506734 1.9117302 -0.34427556 0.2077731
000280 90 08 5d be 86 a0 8c 3d 2c 57 42 3d c6 43 27 bf
       -0.21585298 0.06866555 0.047446415 -0.6533779
000290 02 a7 09 3f c9 71 e3 be 13 61 5b bf 45 75 74 bf
       0.5377046 -0.4442275 -0.85695 -0.9549144
0002a0 86 0d db c0 a6 aa 8c bd 0c a6 86 bd f8 b9 04 3f
       -6.845401 -0.06868486 -0.0657464 0.51846266
0002b0 33 df 50 be 09 22 91 bf 8e e0 04 c0 12 0d 83 3d
       -0.20397644 -1.1338512 -2.0762057 0.06398977
0002c0 d8 03 86 3f c3 a5 dd be 52 e2 5b bf 0d 9e dd bf
       1.0469923 -0.4329053 -0.8589221 -1.7313858
0002d0 09 96 56 bf cc 24 30 3f a2 7f f2 bd 9d 43 f2 be
       -0.83822685 0.6880615 -0.1184075 -0.4731721
0002e0 a2 d4 86 be 05 b6 8c bd 49 d6 73 3f d7 1b 81 3d
       -0.263341 -0.06870655 0.9524885 0.06304138
0002f0 4c 74 8a 40 32 f4 da bf 57 d7 80 3f 14 fb fa 3e
       4.3266964 -1.7105772 1.0065717 0.49019682
000300 49 ef 3a bf 39 89 82 c0 50 d4 82 3d 79 34 1c bd
       -0.7302137 -4.079251 0.06388152 -0.03813598
000310 91 78 3c 3d ed c3 a0 bc 74 2a 94 3d 8e 85 85 be
       0.04601342 -0.019624675 0.0723466 -0.26078457
000320 4a f0 d2 be 05 62 69 bf 4e d0 a2 3f 5c 53 5f 3e
       -0.4119895 -0.9116519 1.271982 0.21809143
000330 d2 5d f7 3d f7 6c 0a be b6 0b b3 bc 43 14 f3 bd
       0.12078442 -0.1351813 -0.02185617 -0.11869099
000340 8d f5 25 bc 49 2b 1d be 10 c7 1a 3e eb 82 bd 3e
       -0.010129345 -0.15348543 0.15114999 0.37013945
000350 92 83 06 bd 9b d0 0f bd d3 e4 5c bd 08 42 d2 3e
       -0.03284032 -0.03511105 -0.05392916 0.41066003
000360 dc f8 40 3c 76 91 78 3f 65 97 81 3d 2b 0d 00 3f
       0.011778083 0.97096956 0.06327704 0.5002009
000370 a1 82 10 be 4a fc 80 be a6 94 17 bd 7b 72 06 3f
       -0.14112331 -0.2519248 -0.037006997 0.52518433
000380 ab 14 fe bf bf 37 1b bd a4 c5 ec bf e0 cc 83 3d
       -1.9850057 -0.03789496 -1.8497815 0.06435561
000390 d8 7e d1 3d 31 90 d5 be 3a a2 72 3e b4 33 ab 3f
       0.10229272 -0.41711572 0.23694697 1.3375154
0003a0 2a d3 44 c0 51 27 f7 bd 1b b6 69 3e 6c 2c 07 3d
       -3.0753884 -0.12068046 0.22823374 0.03300135
0003b0 9d 20 3d 3d 65 38 17 3d 5f 59 7e 3d 65 23 00 3e
       0.04617368 0.036919016 0.06209695 0.12513502
0003c0 4a 85 03 3e c0 56 13 3e d8 22 b8 bf 93 9d 21 3e
       0.12843814 0.14388561 -1.4385633 0.15782766
0003d0 6b 5b 9b bd 15 ab 02 40 3b d8 4e bd 10 21 98 3d
       -0.07585796 2.041692 -0.050499182 0.07428181
0003e0 74 05 d7 bd 70 3e d7 3d a0 2f 20 3f 32 3e 3b be
       -0.10499087 0.10509956 0.6257267 -0.18285444
0003f0 6a 3f 75 3e b8 73 a9 3f db 90 ae 3e 10 52 31 3e
       0.23949972 1.323844 0.3409489 0.1731646

hh/upward/b f4 [256]
000000 dd b5 bc 3f 94 38 93 bf 7f e4 0d bf ec c9 8f bf
       1.4743 -1.1501641 -0.5542678 -1.1233497
000010 26 cd 7f bf 93 46 bd be 26 5c 89 be ab 00 7b bd
       -0.99922407 -0.36967906 -0.26828116 -0.061279934
000020 1e 96 2a bf 50 28 8c bf cc 6b 71 3f a2 7e 8d 3f
       -0.6663531 -1.0949802 0.9430511 1.105427
000030 ca cd 37 40 c9 d0 49 3f d1 05 f0 bf e7 da da 3f
       2.8719354 0.78834206 -1.8751775 1.7098054
000040 04 36 63 3f ed 3c 03 40 1d b2 ca be 08 d4 bf 3f
       0.88754296 2.0505936 -0.39589015 1.4986582
000050 25 44 0b 40 55 c5 be bf 75 e0 f8 be 8e c2 97 3e
       2.1760342 -1.4903971 -0.48608747 0.2964062
000060 6a e4 91 bf 17 f5 2b 40 78 61 a5 3f 9a b8 88 3f
       -1.1397831 2.686834 1.292037 1.0681336
000070 c4 9e ca bf d1 91 02 bf e1 6a 16 c0 f0 9a a6 be
       -1.5829701 -0.5100375 -2.3502734 -0.32540083
000080 fc bd bb bf 1e 23 c0 3f 44 85 e4 bf 33 fe cc 3f
       -1.4667354 1.5010717 -1.785317 1.6015075
000090 75 b2 cf 3e 67 97 0b 3f c9 b6 4c bf 30 4c 11 3f
       0.4056584 0.54527897 -0.7996641 0.5675688
0000a0 c9 38 31 bf d7 ac 3e 40 8e 43 af be 6d 31 84 3f
       -0.6922727 2.9792993 -0.34231228 1.0327584
0000b0 4a db 3a be 79 f2 57 40 67 3e b5 3f bd 68 a9 be
       -0.18247715 3.3741744 1.4159669 -0.3308772
0000c0 a6 0f 0f c0 0a 5f 82 be 59 91 86 bf bd f2 6a 3f
       -2.23533 -0.25463134 -1.0513107 0.9177664
0000d0 fc 0e 72 bf 6a e2 f3 bf 7f f4 9c bf e7 fd cb bf
       -0.94554114 -1.9053471 -1.2262114 -1.593686
0000e0 07 a9 9a 3f 7c 86 8b be 73 f6 11 3f d4 c0 fc 3f
       1.2082833 -0.2725104 0.57016677 1.9746346
0000f0 be 0c 92 3f 26 0f a5 3e e2 83 cf 3f 57 85 2f bd
       1.1410139 0.3223812 1.6212122 -0.042851772
000100 01 2e ba 3e 58 5e 03 3f a4 a4 10 bf 5d 06 7d 3e
       0.36363223 0.5131583 -0.5650122 0.24709459
000110 52 c7 31 be ab cf 9c 3f 31 04 9c 3f 21 5f cd 3f
       -0.17361191 1.2250875 1.2188779 1.6044656
000120 fa d8 a4 3f 5f 7c 4a 3f b8 bb bb be e8 d1 1f 3e
       1.2878716 0.79096025 -0.36666656 0.15607417
000130 1e 01 03 40 a1 32 f2 be 2b ba 01 3f 24 d5 5b bf
       2.0469432 -0.47304252 0.50674695 -0.858721
000140 61 21 8c 3f 7c c3 90 bf 0a 3a a2 be 2d c5 de 3f
       1.0947686 -1.1309657 -0.31684905 1.7403923
000150 1c 38 4f c0 53 f0 4a 3f 00 1f fa 3e cf 9f 15 40
       -3.2377996 0.79272956 0.48851776 2.337879
000160 96 d4 d1 bf b9 d8 26 40 6e 19 a5 3f e8 1a d3 bf
       -1.6393001 2.6069777 1.2898386 -1.6492586
000170 68 28 85 bf 46 41 7c bf a5 d9 22 3d 18 06 d4 3f
       -1.0402956 -0.985371 0.039758343 1.656436
000180 b6 00 c1 bf 75 c8 51 bf da 9a b2 bf 68 c6 e0 bf
       -1.5078342 -0.819465 -1.3953507 -1.7560549
000190 36 c6 94 bf 00 22 10 40 b4 2a c3 be 01 1d 25 3f
       -1.1622989 2.2520752 -0.38118517 0.6449738
0001a0 64 2a 4a 3f 29 07 6a 3e 7b 94 b1 bf 09 bb cb 3d
       0.7897093 0.22854294 -1.3873438 0.099477835
0001b0 03 d4 ab 3f b6 3c c3 3e 01 0d 7f bf 81 36 bf bf
       1.3424076 0.38132256 -0.9962922 -1.4938508
0001c0 da e3 cd bb 85 c1 20 40 8c a9 59 3f 78 21 e6 3f
       -0.0062832655 2.5118115 0.85024333 1.7978964
0001d0 a4 57 ce 3f 69 3d eb bd d5 3d 82 bf 3b e8 8c bf
       1.6120496 -0.114863224 -1.017512 -1.1008371
0001e0 90 c2 ac 3f 49 3e d8 3f 4a 6c bc 3f 1e bf 52 40
       1.3496876 1.6894008 1.4720547 3.2929149
0001f0 4d d7 e6 bf 07 3c ab 3f f1 2c 53 3f 7d 35 29 40
       -1.8034455 1.3377694 0.8249045 2.6438897
000200 ed 3e c1 3e 14 54 58 bf 75 51 1b 3f 28 b9 e0 bf
       0.3774332 -0.84503293 0.6067117 -1.7556505
000210 26 be bb bf 3b ba 59 bf 54 a9 dc 3d 01 b9 a4 3f
       -1.4667404 -0.8504979 0.10774484 1.2868959
000220 d2 ed 3b c0 87 70 9f 3f 10 9b bd bf b1 14 1d 40
       -2.9363904 1.2456216 -1.4812946 2.454388
000230 69 33 3a 3f 63 c7 23 c0 b7 93 65 be 24 4e 89 3f
       0.72734696 -2.5590446 -0.2241963 1.0726972
000240 e4 2e ca 3e 84 87 57 bf 8b 49 db 3e 48 84 f0 3f
       0.394889 -0.84191155 0.42829546 1.8790369
000250 32 cd cf bf c6 43 e3 3f 09 6f 94 be 0d 60 60 40
       -1.6234496 1.7755058 -0.28990963 3.5058625
000260 03 f9 9d 3f bc 7e 11 40 04 9d d6 3e 0a 38 af 3e
       1.2341617 2.2733603 0.41916668 0.34222442
000270 27 bf b0 3f 2c de 0f be f2 c9 ca 3f bd f4 6a bd
       1.3808335 -0.14049596 1.5842879 -0.057362307
000280 d5 05 2a bd 78 58 a1 3f f7 3b cc 3f 12 6b 59 3d
       -0.041509468 1.2605124 1.59558 0.053080626
000290 a8 07 cb 3f 4b b3 5e 3e 09 09 64 3f 00 79 88 be
       1.5861712 0.21748082 0.89076287 -0.26654816
0002a0 51 6c bf be aa f8 ac 3f 2b 5c 86 3f 8a 3f 85 40
       -0.37387326 1.3513386 1.0496877 4.164006
0002b0 90 70 ba bf 22 79 0d 3f d3 79 5b 3f 1a 59 a1 3e
       -1.4565601 0.5526296 0.85732764 0.31513292
0002c0 8e 53 d1 3f f0 c6 83 3e 94 90 69 3d e1 39 e2 3e
       1.6353624 0.25737715 0.057022646 0.44184783
0002d0 20 3a 22 be 1b 2d 54 40 ed 44 96 3e 2e 07 eb bf
       -0.15842485 3.315253 0.2934946 -1.8361566
0002e0 08 fc 88 bf 52 08 05 bf 03 01 68 bf 61 3f ac 3f
       -1.0701914 -0.5196582 -0.90626544 1.3456842
0002f0 a0 86 c0 bf 9c 96 4c 40 db b5 cf 3f d2 71 fe 3f
       -1.5041084 3.1966925 1.6227373 1.9878485
000300 90 7c 46 40 8c 9c 9d 3f f6 65 40 bf 49 32 e1 3e
       3.1013527 1.2313399 -0.7515558 0.43983677
000310 7e 3a 99 bf a9 e0 92 3f 90 3a 79 be 19 8a 19 c0
       -1.1970975 1.1474811 -0.24338746 -2.3990538
000320 e4 9f 48 3f 0f 64 80 be 68 ed 00 3f 1f 95 58 c0
       0.78368974 -0.2507634 0.50362253 -3.3841016
000330 c0 ee 9a 3f 20 0e 60 3e 82 12 ac bf f7 ff 48 40
       1.2104111 0.21880388 -1.3443148 3.1406229
000340 8c fc c9 3f eb 08 65 be c5 0d 55 3e 6b c6 88 3f
       1.5780196 -0.22366683 0.20806034 1.0685552
000350 9a e5 47 3f 8e a7 a3 3e 17 a2 27 c0 fd ee dc be
       0.7808472 0.31963772 -2.6192682 -0.43151084
000360 59 52 4a be 3e b8 89 bd de 79 ab bf bb 99 24 3f
       -0.19757976 -0.067245945 -1.3396566 0.64297074
000370 15 81 c7 be df a6 85 bf 1b 8f 9b 3f d2 70 c9 bf
       -0.3896567 -1.044155 1.2153047 -1.5737555
000380 7c 64 6d c0 a8 ed 78 3f bc 51 2b be 6e f8 fe 3e
       -3.709258 0.97237635 -0.16730398 0.49798912
000390 80 62 ee 3f f0 71 de 3f f7 85 81 bf d9 7b c9 bf
       1.862381 1.7378521 -1.0119008 -1.574092
0003a0 c9 9f 94 bc 04 a3 2c 3f b5 1f d3 be 99 d9 08 c0
       -0.018142598 0.6743624 -0.41235128 -2.138281
0003b0 cd 2f 74 40 6f 41 6b 40 2a 1d ec be 59 50 82 bf
       3.8154175 3.6758687 -0.46116 -1.018077
0003c0 7f 2e 92 3f 6f 94 69 3f 06 6b 74 be ec 17 f3 3e
       1.142044 0.91242117 -0.23868951 0.47479188
0003d0 d1 c0 b8 3e a0 6a 06 40 dd 8f 63 be c0 e6 82 3e
       0.36084607 2.1002579 -0.22222848 0.25566673
0003e0 be 84 dc 3f 4b 1a b9 3f 35 0a 46 bf 90 7b 83 bf
       1.722801 1.4461149 -0.77359325 -1.0272083
0003f0 5d 90 fa 3e b2 d0 f6 bd 1b 52 8b 3e 3b 7e bd be
       0.48938265 -0.12051524 0.2721108 -0.3701037

xh/W f4 [64, 10]
000000 1b 6e d1 3f ab fa 27 bf c8 c2 9c 3f 62 8e 11 be
       1.6361727 -0.65616864 1.2246943 -0.14214471
000010 3e 08 d5 3f fa b6 38 40 a8 b0 82 3f 8c 4f 8e 3f
       1.664314 2.886168 1.0210161 1.1118026
000020 f2 d2 4a 3f 82 8b 63 bc 68 88 51 be 74 4c e4 bf
       0.79228127 -0.013888242 -0.20462191 -1.7835832
000030 2d 67 e4 be 48 c9 3f bf d2 5e a1 bf 20 cd a9 bf
       -0.44609967 -0.74916506 -1.2607062 -1.3265724
000040 c3 65 7a bf d4 df ba bd c8 64 0d bf f4 a2 03 bf
       -0.97811526 -0.09124723 -0.55231905 -0.5142052
000050 9c b4 80 be db 29 7c bc ac 2e 01 3c 20 8f ec ba
       -0.25137794 -0.0153908385 0.007884663 -0.0018048026
000060 0d f6 01 3c b3 3e 83 3a 20 e1 b7 3e f9 bb 80 bc
       0.007932198 0.0010013193 0.35913944 -0.015714632
000070 c3 ea 89 3e 8c 87 8c 3e b1 75 ab bb e0 09 3b bc
       0.2693692 0.27447164 -0.005232536 -0.011415929
000080 f1 75 46 bb 67 cc ba bc a3 4c 73 bc 55 8f 6f bd
       -0.00302827 -0.022802545 -0.014849815 -0.0584863
000090 6c 28 15 be 0e 98 60 bf 1c 64 fb 3e 9d d7 e4 3e
       -0.14566201 -0.8773202 0.49099815 0.4469575
0000a0 aa 94 85 3f 16 69 a4 bd 01 00 88 be c3 ee eb bd
       1.0435994 -0.08027856 -0.26562503 -0.115201496
0000b0 25 a7 a4 40 16 f0 9e c0 d6 2f 6b be e4 f5 32 bf
       5.1454034 -4.9668074 -0.22967467 -0.6990645
0000c0 08 e5 85 bf ce b5 57 bf 03 14 02 c0 23 74 d3 b9
       -1.046052 -0.84261787 -2.0324714 -0.00040331585
0000d0 6b 8b 1b 3c 63 98 21 3d cf 61 67 3d 7a df 6a bd
       0.009493689 0.039451968 0.056489762 -0.05734203
0000e0 3d f1 e3 bf 7b c2 bf bf 1d f6 02 40 9a 7c 1f 40
       -1.7807995 -1.4981226 2.0462716 2.49198
0000f0 19 52 ba be c9 55 a9 3c 39 86 f9 bb c5 88 ce 3c
       -0.3639076 0.020670788 -0.0076148775 0.025211701
000100 21 53 1f bc 41 1f 25 bd 86 23 7d bf 7f 20 b5 3e
       -0.009724409 -0.04031301 -0.9888233 0.35376355
000110 e0 4c bf 3e 59 f2 27 3f 93 30 82 3f c6 aa 0c 3e
       0.37363338 0.6560417 1.0171074 0.1373702
000120 62 f1 74 3e 00 2d 3f bd e9 84 ae c0 e3 06 53 40
       0.23920205 -0.046673775 -5.4537244 3.2972953
000130 39 7b 63 bf 41 2c c6 be 6e e8 eb 3d 71 e8 a2 bb
       -0.888599 -0.38705638 0.11518942 -0.004971557
000140 54 9c 65 bf dd 2a 97 bd 9f 86 89 bf 66 18 32 3d
       -0.8969166 -0.073812224 -1.0744208 0.0434803
000150 0e 96 f8 3e d4 7a 5e bf 45 70 7d bf 03 9c 5b bf
       0.48551983 -0.8690617 -0.98999435 -0.8578493
000160 dd 2d 15 bf 5d 46 c6 be 6d 75 c2 bd fe a5 ea bd
       -0.58273107 -0.38725558 -0.094950534 -0.11457442
000170 6d 9a 17 3f b3 f1 d7 3b 17 2b b6 3f c2 64 88 bf
       0.5922001 0.006590092 1.42319 -1.0655749
000180 10 0a 6a bf 8d d5 c3 be 05 e8 17 3f ff d8 24 3f
       -0.91421604 -0.38248864 0.5933841 0.6439361
000190 0e ee 49 3f 39 15 51 3f 6f 46 9d bf 41 5f b8 bf
       0.7887887 0.8167301 -1.228712 -1.4404069
0001a0 55 59 c0 3f e6 94 0b 3f e5 f1 98 3e ca 24 d8 3e
       1.5027262 0.54524076 0.2987205 0.42215568
0001b0 9b 5d 1a 3e 01 b4 ae 3e a5 ef 8c c0 9f 09 a5 3b
       0.1507477 0.34121707 -4.4042535 0.0050365473
0001c0 09 78 a6 3c 70 47 b6 3d ab bb a8 bd 5f 64 da 3d
       0.02032091 0.08900344 -0.0823892 0.106636755
0001d0 11 43 5d bf 1a dc b6 be 66 d3 4f 3f 3f 65 61 3f
       -0.8643046 -0.357148 0.81181943 0.88045114
0001e0 6c 17 49 bf 6e f0 80 3b dc 8f 90 3c 6d 33 72 3c
       -0.78551364 0.0039349115 0.017646722 0.014782769
0001f0 ec 90 e6 bb ef f0 58 3d 5b a4 95 3f 51 1b 46 3f
       -0.007036319 0.052964147 1.1690782 0.7738543
000200 82 23 0d be e4 bf 1e 3f 8c c0 5e bf 4f d5 b2 bb
       -0.13783076 0.6201155 -0.87012553 -0.0054575573
000210 a7 98 55 bc 3f 74 ff 3c b2 2e 3a 3c 17 82 85 bd
       -0.013036883 0.03118336 0.011363672 -0.06518953
000220 df 2b 8e bf 94 c6 d4 bf 32 23 da 3f f5 a7 8c 3f
       -1.1107138 -1.6623101 1.7041991 1.0988756
000230 df a1 4c bf 21 ee 30 bb ab 6c 61 bb 71 9c 19 3d
       -0.79934496 -0.0026997405 -0.0034397047 0.03750271
000240 1e 31 d1 bc 5b d0 c4 3c a0 b6 80 bf ba ed e3 be
       -0.025536116 0.024025133 -1.0055733 -0.44517308
000250 da f9 3c 3d 4b 10 60 3e 58 2b 3d 3f 74 2b 9b 3c
       0.046136715 0.21881215 0.7389426 0.018941619
000260 e4 35 d9 bb e3 13 8b 3c e0 b9 18 bd 24 fc 23 bd
       -0.0066287387 0.016977256 -0.03728664 -0.040035382
000270 12 7d 25 3e 4e 98 9c be 36 19 8d 3e 9c 2a 4d 3e
       0.16160992 -0.3058495 0.27558297 0.20035785
000280 db dd ca bf 2f 07 c4 3d 87 05 e0 be 37 d6 83 3d
       -1.5848955 0.09571683 -0.43754217 0.064373426
000290 31 d2 25 3e 49 e1 6b bf 4b 0b 74 bf 55 e4 2c be
       0.16193463 -0.9214063 -0.9532973 -0.16883977
0002a0 dd 81 41 bd c2 f1 a1 be e3 76 65 3d da b2 c1 3b
       -0.047242988 -0.3162976 0.056021582 0.0059112133
0002b0 57 9b ad bc 46 8a 97 3c 52 82 7c bb f2 87 c1 bc
       -0.021192236 0.018498551 -0.0038529825 -0.023624394
0002c0 1b a6 88 bf 5c 0a a2 bf 57 c5 6a 3f 36 b5 87 3f
       -1.0675691 -1.2659411 0.91707367 1.0602176
0002d0 4e 6d 69 be 30 d4 60 bc c6 36 b4 3b e1 01 dd bb
       -0.22795603 -0.013722464 0.0054996936 -0.0067446087
0002e0 96 10 bc 3a 0e ab 04 3c 8c 4c 3f 3e 43 1c df 3e
       0.0014348205 0.008097423 0.18681544 0.4357625
0002f0 2d f6 4a bf a2 46 f6 3e a0 2b 74 3e a3 46 54 3d
       -0.79281884 0.48100764 0.23844767 0.051825177
000300 d4 46 b8 3e f0 06 e2 3c b0 21 90 3e 4d 57 85 bd
       0.35991538 0.027591199 0.28150702 -0.06510792
000310 0d 52 4b 3f 97 e5 53 3f 09 2e 32 bf 11 10 26 bf
       0.79422075 0.827722 -0.69601494 -0.64868265
000320 44 06 30 3e c3 28 96 3c cb 44 14 bc 52 14 be 3c
       0.1718989 0.018329984 -0.009049605 0.023203049
000330 60 99 a6 3b 63 68 52 3d 83 c7 5b 3f 52 19 83 3e
       0.0050842017 0.051369082 0.85851306 0.25605255
000340 88 63 f2 be d6 db 04 bf 7f 94 53 be e0 7d 99 3c
       -0.4734156 -0.51897943 -0.20662116 0.01873678
000350 4f 63 2f 3c 54 1b 99 bc ef 33 8d 3c 8c 5f d0 bb
       0.010704829 -0.018689789 0.017236678 -0.0063590463
000360 eb 0d 31 bf 18 c2 88 3f 8b b8 21 bf 39 36 35 3d
       -0.6916186 1.0684233 -0.63172215 0.044241164
000370 ec 69 e5 3f cc a1 f7 3c 7c 0f 97 bb 5e 57 b1 bc
       1.792295 0.030228518 -0.00461 -0.021648105
000380 04 41 80 bb 8c b9 f4 3c f9 34 6e 3f d6 af e5 3e
       -0.0039140005 0.029873632 0.9304958 0.44860715
000390 38 45 43 3e b2 b8 51 be 3b 57 78 3f 41 cc 3c 3c
       0.19069374 -0.20480612 0.97008103 0.011523307
0003a0 f1 1e ce 3c 10 5b 3d bd 64 a5 2c 40 9e 87 2c c0
       0.025161238 -0.046229422 2.6975946 -2.6957774
0003b0 8c 08 c1 be b0 02 9e be cc e0 7e be 4d 7d c8 3c
       -0.37701833 -0.30861425 -0.2489044 0.02447381
0003c0 9e 08 3f 3f e8 2b 08 3c 02 8b ae bb 97 de 0e ba
       0.74622524 0.008311249 -0.0053266296 -0.00054500386
0003d0 8a 12 88 bb 88 50 c7 bb 6b d7 ce bd ae 7b 5b 3e
       -0.0041526007 -0.006082598 -0.100996815 0.21433899
0003e0 02 93 1c 3d 58 7e 7c 3e ba 87 85 bf bb ff 40 bd
       0.038226135 0.24657571 -1.0432045 -0.047118884
0003f0 e8 b4 03 c0 09 93 8b be 11 7e 08 be 99 06 9b 3f
       -2.0579166 -0.27260616 -0.1332934 1.2111388

xh/b f4 [64]
000000 2c 3e 11 bf bc 53 83 3e 81 8b 44 3e 32 af 47 bd
       -0.5673549 0.25649822 0.19193842 -0.048751064
000010 a3 39 21 bd fd ba 7f be ec 51 29 ba 03 2d 11 bf
       -0.039361607 -0.24973674 -0.00064590457 -0.5670931
000020 6b b0 8d 3f 3f 0f 68 bf b7 cc 61 3e 12 b3 9e bf
       1.1069463 -0.90648264 0.22050749 -1.2398398
000030 5f 2e 12 3f 46 a9 9a be dc bf 25 bf 30 cc a8 3e
       0.57102007 -0.3020727 -0.6474588 0.32968283
000040 a3 17 79 bd 43 b1 23 be 5a a2 a4 3c b3 33 10 bf
       -0.060813557 -0.15985589 0.020096947 -0.56328887
000050 1a 98 c3 3d c4 b7 c2 bd aa df 81 3f d3 59 7e bd
       0.095504954 -0.09507707 1.0146382 -0.06209738
000060 a8 c8 a3 3e d5 ac bf 3f a7 cd a8 3e 6b ea 7a 3d
       0.31989026 1.4974619 0.329694 0.061258715
000070 40 74 30 be 10 71 17 40 c1 27 f0 bd 3d c6 05 bf
       -0.17231846 2.3662758 -0.117263325 -0.5225561
000080 93 24 66 bf 30 04 82 bc 6e b2 ed be e4 10 47 bf
       -0.8989956 -0.015871137 -0.46425194 -0.7776015
000090 fb a0 0c 3f 15 44 98 bd 85 d2 04 bf 52 9c 38 3e
       0.54933137 -0.074348606 -0.5188373 0.18028381
0000a0 16 d3 9d be a8 0b a7 3e 38 a2 1b bf 75 43 09 bf
       -0.30825108 0.3262608 -0.607944 -0.53618556
0000b0 88 62 20 bf fd 9b e5 3e 5e 27 1b c0 18 7f ff bc
       -0.62650347 0.44845572 -2.4242778 -0.031188533
0000c0 65 f2 d8 3e a5 7a bf be fd d2 2f 3f fb 0a 96 ba
       0.42372432 -0.37398258 0.6868132 -0.0011447364
0000d0 95 5c 3c 3e e9 6e 59 3e 9a a1 c8 be 94 7d 3e bf
       0.18394692 0.21233715 -0.39185792 -0.74410367
0000e0 ba 8b 8a bf ee 0c cf be 5e d1 7d be ca 34 4f 3e
       -1.0823891 -0.40439552 -0.24786898 0.20234981
0000f0 6a 9a 42 3f c2 36 c5 be 4f cf e8 3e 87 b8 df 3e
       0.7601687 -0.3851834 0.45470664 0.4369547

hy/W f4 [1, 64]
000000 20 71 8a bf ab 8f 09 bf c8 24 99 bf aa 38 2d 3f
       -1.0815773 -0.53734845 -1.196435 0.6766459
000010 5b 9a 23 bd 9d af 64 bf 19 99 2a 3e b3 3b 98 3f
       -0.039942127 -0.89330465 0.16659965 1.1893219
000020 de 6f 29 3f a3 79 88 bf d1 71 73 bf ad 5d 9e 3f
       0.6618632 -1.066212 -0.95095545 1.2372338
000030 1c df 72 3f 04 80 84 3f 74 37 82 bf 1f a9 64 3f
       0.9487169 1.0351567 -1.0173173 0.8932056
000040 22 d9 73 3f 1e 4a 05 3f 79 9c 46 3f 07 8e 60 bf
       0.95253193 0.5206622 0.7758251 -0.87716717
000050 cd 25 98 bf be 24 8a bf 7c 38 4c bf dd a2 13 3f
       -1.1886536 -1.0792463 -0.7977369 0.57670385
000060 14 65 8a 3f a5 a6 72 bf 12 f4 29 3f 28 7d 7b bf
       1.0812097 -0.9478553 0.66388047 -0.9823785
000070 91 13 5e 3f 4d 78 b4 bf 71 a9 57 bf ba 4b 43 bf
       0.86748606 -1.4099213 -0.8424292 -0.76287425
000080 c8 38 22 3f bb 5b 56 3f 76 9b 8c 3f 8b ef 2e bf
       0.6336789 0.8373372 1.0984943 -0.68334264
000090 fa 11 41 bf 18 cc 0a 3f 2d c4 78 bf 55 b9 65 bf
       -0.75418055 0.5421767 -0.9717434 -0.8973592
0000a0 47 39 70 3f fd d7 34 3f 4f 1d 2c be 7b 40 1b bf
       0.938374 0.7064207 -0.16808055 -0.60645264
0000b0 8d fd 9b 3e 36 e1 5f bf 8a c0 7c 3f 2f ed 1c bf
       0.3046688 -0.8745302 0.9873129 -0.61299413
0000c0 8b ee 47 bf 43 c4 68 3f 44 b5 4c 3f 33 a5 57 3f
       -0.7809836 0.9092447 0.7996409 0.8423645
0000d0 8b b7 b5 3f ec 71 86 bf da ad 40 3f 14 d7 86 bf
       1.4196638 -1.0503516 0.75265276 -1.0534387
0000e0 7f 0d 48 3f 78 ed 3c 3f 14 e8 9c bf 3e a1 67 bf
       0.78145593 0.7379985 -1.2258325 -0.9048041
0000f0 76 ec 6e bf 72 a6 8c bf a0 69 85 3e 2e 45 37 bf
       -0.9332956 -1.0988295 0.26057148 -0.71589935
