code/python/spin_model/10_64_1_5_10_4950_150_use_train_spin_model.npz (npz, 127620 bytes, 6 tensors)

hh/lateral/W f4 [256, 64]
0	0x3f0b237b	0.54351014
1	0xbf5640fd	-0.83692914
2	0x400efaf9	2.2340682
3	0x3e6f51c7	0.2337104
4	0xbe75e87d	-0.24014468
5	0x3f861ccf	1.0477542
6	0xbf1af080	-0.60523224
7	0xbf76fff7	-0.9648432
8	0xbd3346e4	-0.04376878
9	0xbe4bbf6e	-0.19897243
10	0x3ed75ce4	0.42063057
11	0xbf244a82	-0.6417619
12	0x3fd9c34f	1.7012728
13	0x3fa95925	1.323033
14	0x3ea7e238	0.3278978
15	0xc04518db	-3.079642
16	0x3f27677b	0.65392274
17	0xbfe72e21	-1.8060952
18	0x3f522307	0.820847
19	0xbf80c0f2	-1.0058882
20	0xbf41b13e	-0.75661075
21	0x3e2660b5	0.16247828
22	0xbfe12efc	-1.7592463
23	0x3f4c6353	0.79839057
24	0x3fcdee7b	1.6088403
25	0x400005d0	2.0003548
26	0xbe171104	-0.14752585
27	0x3f85f1a0	1.0464363
28	0x3de8dcaf	0.11370217
29	0x3fc64d6d	1.5492378
30	0xbd4548a5	-0.048164982
31	0xbf7c8ba0	-0.9865055
32	0x3fab9eac	1.3407798
33	0xbe0a3ec0	-0.135005
34	0xbeec3b07	-0.46138784
35	0x3ee9a4c3	0.45633516
36	0xbf9aa515	-1.2081629
37	0xbe1c6e03	-0.15276341
38	0x3f871d47	1.055581
39	0xbf4cd802	-0.800171
40	0xbf36b093	-0.7136318
41	0x3fdea7a1	1.7394906
42	0x3df9b429	0.12192566
43	0x3f954b8e	1.1663682
44	0x3da71f33	0.08160248
45	0x3f2abef0	0.666976
46	0xc02d3884	-2.7065744
47	0xbf70a1b3	-0.93996733
48	0xbefa2bfe	-0.48861688
49	0xbe6d85b0	-0.23195529
50	0x3f8d4c89	1.1038982
51	0x3e15a3db	0.14613287
52	0x3f890851	1.0705663
53	0xbe95e202	-0.29273993
54	0xbe173f52	-0.14770249
55	0xbf11f8ed	-0.57020456
56	0x3fdfe5a0	1.7491951
57	0xbee5e508	-0.449013
58	0xc04dc5f8	-3.215208
59	0x3e763a72	0.24045733
60	0x3f0e2bb8	0.5553546
61	0xbf541bf9	-0.8285518
62	0x3fdf64e5	1.7452666
63	0x3f9b78b5	1.2146212
64	0xbf48a55a	-0.78377306
65	0xbeb6c074	-0.35693705
66	0x40116fe6	2.2724547
67	0xbf24d38a	-0.64385283
68	0xbd8d7932	-0.06907882
69	0xbee0f313	-0.4393545
70	0xbd150b33	-0.036387634
71	0xbeb3b42d	-0.350984
72	0x3ec80870	0.39068937
73	0x3fada13e	1.3564832
74	0xbf9c21be	-1.2197797
75	0xbe02ec2a	-0.12785402
76	0x3db721ff	0.08942031
77	0xbed4bc63	-0.41549978
78	0x3fb073b8	1.3785315
79	0x400ff62f	2.2494009
80	0x3ea6ef7c	0.32604587
81	0x3ead0b0a	0.33797485
82	0x3f121c05	0.57074004
83	0x3cbaa362	0.022782985
84	0x3f142d8e	0.5788201
85	0x3ee4430c	0.44582403
86	0x3f15a37c	0.5845258
87	0x3e66efd1	0.2255242
88	0xbfeef722	-1.8669169
89	0xbe846c0f	-0.25863692
90	0x3f97fd2f	1.187414
91	0xbed3875b	-0.41314206
92	0xbfe1c2f3	-1.7637619
93	0x404c632f	3.1935537
94	0x3e1141c4	0.14185244
95	0x3dac0210	0.08398831
96	0x3cbcc2b8	0.023042068
97	0xbfa25b6e	-1.2684152
98	0xbe33d06c	-0.17559975
99	0xbfaff7b9	-1.3747474
100	0xbf96dbf8	-1.1785879
101	0xbeee1d5d	-0.46506777
102	0x3f2fbaf5	0.6864465
103	0x3eca366c	0.39494646
104	0xbe83b9f3	-0.25727805
105	0xbe2c8b32	-0.16849974
106	0xbffb9737	-1.9655522
107	0x3ef17ef4	0.4716717
108	0x3f010230	0.5039396
109	0xbf85cef9	-1.0453788
110	0xbebff959	-0.37494925
111	0xbf24d5d3	-0.6438877
112	0xbd7a5e99	-0.06112537
113	0xbf5c701e	-0.8610858
114	0xbe582027	-0.21106015
115	0x3fd322f6	1.6495044
116	0x3d70f201	0.058824543
117	0xc0127313	-2.2882736
118	0x3fb12231	1.3838559
119	0xbf7a0830	-0.97668743
120	0x40075fdd	2.115226
121	0xbfab39ca	-1.3377011
122	0xbf5dee81	-0.86692053
123	0xbfb02c18	-1.3763456
124	0x3d6e77d3	0.058219742
125	0x3ec6b238	0.38807845
126	0xbf5bbb90	-0.8583307
127	0xbf919162	-1.1372492
128	0x3f610790	0.87902164
129	0x3ec1e488	0.37869668
130	0x3fe3f6b8	1.7809668
131	0xbeda1a26	-0.42598075
132	0xbf9d1883	-1.2273105
133	0xbf3cd922	-0.7376882
134	0xbedb4b0a	-0.42830688
135	0xbc6e4d45	-0.01454479
136	0xbfbaf6f8	-1.4606619
137	0x3e5252ae	0.20539352
138	0xc03e4b6c	-2.9733534
139	0xbf07acb6	-0.5299791
140	0x3fa10ee7	1.2582673
141	0x3f1126b5	0.5669969
142	0x3f8dec09	1.1087657
143	0xbf6f2380	-0.93413544
144	0xbe6eb71c	-0.23312038
145	0x401457ef	2.317867
146	0x3f94af10	1.1615925
147	0xbffe643b	-1.9874338
148	0x3f1c98c4	0.611706
149	0xbf87cb79	-1.060897
150	0xbf22847e	-0.6348342
151	0xc0395ddd	-2.896354
152	0xbecdc829	-0.40191773
153	0xbf670f81	-0.9025803
154	0x3f7f85d7	0.998136
155	0xbf8c3d0b	-1.0956129
156	0xbfb05bb2	-1.3777983
157	0x3fb9030f	1.4454058
158	0xbec74461	-0.38919356
159	0xbf4d6f59	-0.8024803
160	0x3fbb5fe9	1.4638644
161	0x3f1898d9	0.59608227
162	0x3edaa537	0.42704174
163	0x3f8b88aa	1.0901082
164	0xbdc15677	-0.0944032
165	0xbfe966c0	-1.8234482
166	0x3fff8846	1.9963462
167	0x3e89375d	0.2680005
168	0xc01c425e	-2.4415507
169	0x3f323e15	0.6962598
170	0xbe020db4	-0.1270054
171	0x3fc35f40	1.5263443
172	0x3e9ddb2b	0.30831274
173	0xbebad12f	-0.3648772
174	0xbfed0821	-1.8518106
175	0xbef06872	-0.46954685
176	0xbf230de3	-0.63693064
177	0x3fabc29d	1.3418766
178	0x4034d904	2.8257456
179	0xbf4955e0	-0.7864666
180	0x3f7c477c	0.98546576
181	0xbfd56958	-1.6672773
182	0x3fb1687b	1.386001
183	0x3dfac815	0.12245194
184	0x3fb1e95d	1.3899342
185	0x3f3aa2e6	0.72904813
186	0xbfa147f3	-1.2600082
187	0x3d89049c	0.06690332
188	0x3f1bd256	0.6086782
189	0x3dac2f45	0.084074534
190	0xbce4a934	-0.027912714
191	0x3f2bb643	0.67074984
192	0xc092ffaf	-4.5937114
193	0x3f88bfe4	1.068356
194	0xc009cf3b	-2.1532733
195	0xbfe987c4	-1.8244557
196	0xbfcf0837	-1.6174382
197	0xbffa17c5	-1.9538504
198	0x3f146a7d	0.5797499
199	0xc010ab4d	-2.2604554
200	0xc08f2432	-4.4731684
201	0xbe60a0a6	-0.21936283
202	0x3f3e6239	0.74368626
203	0x3e7f0458	0.24904001
204	0xbe46f024	-0.19427544
205	0xc00ab502	-2.1672978
206	0xbefc930d	-0.4933094
207	0xbf1b4ba8	-0.6066232
208	0x3f6e7b03	0.9315645
209	0x3e87877f	0.26470563
210	0xbe5f5a34	-0.21811754
211	0xbd69678e	-0.056983523
212	0x3e6ac4b7	0.22926603
213	0x3fecc660	1.8498039
214	0xbf05eded	-0.5231617
215	0xc0171aa5	-2.3610013
216	0x3f86ac83	1.0521396
217	0x403d2653	2.9554641
218	0x3e5b3db1	0.21410252
219	0x3d356d3e	0.044293635
220	0xbf88c11f	-1.0683936
221	0x3f294b1b	0.66130227
222	0x3fc0d9ca	1.5066464
223	0xc0139c3e	-2.3064113
224	0xbf2feb9b	-0.6871888
225	0x3f4040c2	0.7509881
226	0x3f240b4f	0.64079756
227	0x3f84396e	1.0330026
228	0x3f7e97e4	0.99450517
229	0xbf9d1134	-1.2270875
230	0xbfcf7e49	-1.6210414
231	0xc0fbb4ef	-7.8658366
232	0xbf43b8be	-0.7645377
233	0x3fc113a0	1.5084114
234	0xbf24befe	-0.6435393
235	0x3f32fbb0	0.69915295
236	0x401164a0	2.2717667
237	0x3f9f6fcb	1.2455992
238	0xbfce5647	-1.612008
239	0xbf675a16	-0.90371835
240	0xbfe942fc	-1.8223567
241	0xbe270408	-0.16310132
242	0xbf6c8203	-0.9238588
243	0xbf0d609e	-0.5522555
244	0xbf689762	-0.9085599
245	0xbf8db123	-1.1069683
246	0xbf25bcbc	-0.6474111
247	0xbffdabd8	-1.9818068
248	0x3f7e3672	0.99301827
249	0x3fef95f7	1.8717641
250	0x40324a0f	2.7857702
251	0xbffbbddc	-1.9667315
252	0xbf7945e4	-0.9737227
253	0xbda2a39b	-0.079413615
254	0x3ed5e957	0.41779587
255	0xbf2067d3	-0.62658423

hh/upward/W f4 [256, 64]
0	0x3f343e68	0.70407724
1	0xbe25dc42	-0.16197303
2	0xbe6460b6	-0.22302517
3	0xbe608512	-0.21925762
4	0x3f6f6cc8	0.9352536
5	0xbee24548	-0.44193482
6	0xbf378996	-0.71694314
7	0xbf833ae4	-1.0252347
8	0x3d26af10	0.040694296
9	0x3fe6dfa0	1.8036995
10	0xbfdd8ad1	-1.7307988
11	0xbe310cec	-0.17290086
12	0xbe0f5edd	-0.14001031
13	0x3c3e1750	0.011602238
14	0x3de91c42	0.11382343
15	0x3e495252	0.19660309
16	0xbee8795c	-0.4540509
17	0xbddbf092	-0.107392445
18	0x3cd4fee7	0.026000453
19	0x3f722f4a	0.9460341
20	0xbe19f9b2	-0.15036657
21	0xbb7d15d2	-0.0038617742
22	0x3d64e470	0.055881917
23	0x3f600231	0.87503344
24	0x3dfa0e01	0.12209702
25	0xbf6a86d4	-0.9161198
26	0x3d91832f	0.071050994
27	0xbf8e0d3e	-1.1097791
28	0xbddea43a	-0.108711675
29	0xbb9d5294	-0.004801104
30	0xbdddabe9	-0.10823805
31	0x3f8af6a9	1.0856525
32	0x3f5162b8	0.8179126
33	0x3920b2a4	0.00015325338
34	0x3d7c2648	0.061559945
35	0x3cf1a337	0.029496772
36	0x3ecffcee	0.40622658
37	0xbd939525	-0.072061814
38	0x3e052c42	0.13005164
39	0x3ed4af3b	0.4153994
40	0xbf382fea	-0.7194811
41	0xbf97b941	-1.185341
42	0xbde2c8ad	-0.11073432
43	0xbdfb9595	-0.1228439
44	0x3d1b9caa	0.037991203
45	0xbf6f6ee0	-0.93528557
46	0xbe787f9f	-0.24267434
47	0xbd772eae	-0.06034725
48	0xbf8c9774	-1.098372
49	0x39ed2254	0.0004522974
50	0x3e8bb0e8	0.27283406
51	0x3f24698b	0.64223546
52	0x3ebd0950	0.36921167
53	0xbeb2ce4b	-0.34923014
54	0x3d064874	0.03278394
55	0xbdef625f	-0.11688685
56	0x3deea218	0.11652011
57	0xbe16c68a	-0.14724174
58	0x3eb04e9d	0.34434977
59	0xbd6a9a03	-0.057275783
60	0xbe9d548c	-0.30728567
61	0x3d6c090c	0.057625815
62	0x3eba7d3a	0.36423665
63	0xbfdad851	-1.7097265
64	0xbf028aa2	-0.50992787
65	0xbf1bd3a6	-0.60869825
66	0x3ed1638b	0.40896258
67	0x3dbd5278	0.09244245
68	0x3f45d16b	0.7727267
69	0xbdaddd32	-0.08489455
70	0x3d1c941a	0.03822718
71	0xbf214369	-0.62993485
72	0x3ebecadc	0.37264144
73	0xbf1fadde	-0.62374675
74	0xbe15d0c4	-0.14630419
75	0xbe0526db	-0.13003103
76	0x3d9a9fd6	0.075500175
77	0x3d13d9d6	0.036096416
78	0xbe1cbdf9	-0.15306844
79	0xbdec43a9	-0.11536343
80	0x3ec97d33	0.39353332
81	0xbfc64285	-1.548905
82	0xbdbff619	-0.09373111
83	0x3e44d6af	0.1922252
84	0x3ebc5beb	0.36788878
85	0xbed1ea5a	-0.4099911
86	0x3e15904f	0.1460583
87	0x3eb2ecf6	0.34946412
88	0x3de3692d	0.11104045
89	0x3f2d2b08	0.67643785
90	0xbe008795	-0.1255172
91	0xbf5424b3	-0.828685
92	0xbd841e06	-0.06451039
93	0xbe81edb8	-0.25376678
94	0xbebe34c7	-0.3714964
95	0x3f4320e3	0.76222056
96	0xbed34247	-0.41261503
97	0xbdcd1c4b	-0.10015162
98	0xbe90c3c9	-0.28274372
99	0xbec138ce	-0.3773865
100	0x3ee38267	0.44435427
101	0xbe9774e7	-0.29581377
102	0x3e09675d	0.13418336
103	0xbe25ccf0	-0.16191459
104	0xc0107753	-2.257283
105	0xbf8beb94	-1.0931268
106	0xbee637b5	-0.44964376
107	0x3dbb609a	0.09149285
108	0x3dd7e9b9	0.10542626
109	0xbf1dfcf8	-0.61714125
110	0x3e26e280	0.1629734
111	0x3d9b2870	0.07576072
112	0x3ef052a5	0.46938053
113	0x3fc1d3ec	1.5142798
114	0xbf0300e3	-0.5117323
115	0xbf027660	-0.50961876
116	0xbf52cbd3	-0.8234226
117	0x3ec72250	0.38893366
118	0x3dfdd546	0.12394194
119	0x3d39bc30	0.045345485
120	0x3d8e2841	0.069412716
121	0xbd954421	-0.07288385
122	0x3f864da1	1.049244
123	0xbe5c8ddb	-0.21538489
124	0x3fa29b0f	1.270357
125	0xbec33889	-0.3812907
126	0x3e6e727e	0.23285863
127	0x3e980b1d	0.2969598
128	0xbf3c28d4	-0.734998
129	0xbe078f70	-0.13238311
130	0x3f9e7706	1.2380073
131	0x3eabafae	0.3353247
132	0x3d5c09f8	0.053720444
133	0x3f2e7566	0.68147886
134	0x3f15237d	0.58257276
135	0xbd9ce700	-0.07661247
136	0x3f63a32d	0.8892086
137	0xbf440d32	-0.76582634
138	0xbfc2cd44	-1.5218892
139	0xbecc1391	-0.39858678
140	0x3ead2612	0.33818108
141	0x3e5280ab	0.20556895
142	0xbde1537b	-0.11002251
143	0xbf7d4101	-0.98927313
144	0x3ed13536	0.4086091
145	0xbf439348	-0.7639661
146	0x3db9acea	0.09066184
147	0xbecb83d6	-0.3974902
148	0x3f2f370a	0.6844336
149	0xbe59a093	-0.2125266
150	0x3e42c831	0.1902168
151	0xbf0378e9	-0.5135637
152	0xbe54aaaf	-0.20768236
153	0x3ec88861	0.3916655
154	0xbe4f34ee	-0.20235035
155	0xc058fce0	-3.3904343
156	0xbe87503c	-0.264284
157	0x3c4d4310	0.012528196
158	0xbe130044	-0.1435557
159	0x3d2fb96e	0.04290145
160	0x3ec5d8a8	0.38641858
161	0xbe94aa2a	-0.29036075
162	0xbdca5ae0	-0.09880614
163	0x3ecca529	0.39969757
164	0x3e2d1f89	0.16906561
165	0x3c5f418c	0.013626467
166	0xbe4912b1	-0.19636036
167	0xbeffd73c	-0.49968898
168	0xc06dfaf8	-3.718443
169	0xc0179477	-2.3684366
170	0xbf449839	-0.76794773
171	0x3e35bc20	0.17747545
172	0xbc4b57fa	-0.012411112
173	0xbf4c16ad	-0.797221
174	0xbccdbacd	-0.025113488
175	0xbcd6efc0	-0.026237369
176	0x3f24876f	0.64269155
177	0x3faa98ca	1.3327878
178	0x3cdcd9f2	0.026959393
179	0xbf6f7729	-0.935412
180	0xbfa4f8f4	-1.2888474
181	0xbd2349d7	-0.03986534
182	0x3e0d4ee5	0.13799627
183	0x3e74f90c	0.23923129
184	0xbe3c1dcf	-0.18370746
185	0x3e3c6e9f	0.18401574
186	0x3ed2fc0e	0.41207927
187	0xbf00afe4	-0.5026839
188	0x3fa3ad62	1.2787287
189	0xbf8fb5fe	-1.1227415
190	0x3e03c341	0.12867452
191	0xbf2394f9	-0.6389919
192	0xbf1f1478	-0.6214061
193	0xc0102a10	-2.2525673
194	0x3d3c8cce	0.04603272
195	0x3d01a696	0.03165301
196	0xbf8aeeea	-1.0854161
197	0x3db25042	0.08706714
198	0xbf65e05f	-0.8979549
199	0xbeb2e0f9	-0.34937266
200	0xbe1d7d0d	-0.15379734
201	0xbf7270db	-0.94703454
202	0x3f138631	0.57626635
203	0x3e0bd9ff	0.13657378
204	0x3dde1361	0.1084354
205	0xbd9def16	-0.07711618
206	0x3deb062c	0.114757866
207	0xbd921af8	-0.0713405
208	0x3e37c0e7	0.1794468
209	0xc008ceca	-2.1376214
210	0xbaaad31c	-0.0013032886
211	0x3e8235b0	0.25431585
212	0xbda370e2	-0.07980515
213	0xbef026f2	-0.46904713
214	0x3dbbc66a	0.09168704
215	0x3f1664e0	0.58747673
216	0xbc6e0fdc	-0.014530148
217	0x3f24ba8b	0.6434714
218	0xbcc3f0f1	-0.0239186
219	0x3d10b35d	0.035327304
220	0x3e90612c	0.28199136
221	0x3dda7ba5	0.106681146
222	0xbf085055	-0.53247577
223	0xbe44ad1a	-0.19206658
224	0xbfa999ba	-1.3250039
225	0xbcedd429	-0.02903183
226	0xbf8fe214	-1.1240869
227	0xbfe33830	-1.7751522
228	0x3fc5e93b	1.5461801
229	0x3eb1a18c	0.34693563
230	0x3d13e92d	0.036111046
231	0x3f9176db	1.1364397
232	0xc0158ec4	-2.3368387
233	0xbf1f00ff	-0.62110895
234	0x3d94f97d	0.072741486
235	0xbf3b9074	-0.7326729
236	0xbe338867	-0.17532502
237	0xbdf0a34e	-0.11749898
238	0xbcc45fa9	-0.023971396
239	0xbbc13520	-0.0058962256
240	0x3f9eb19b	1.2397951
241	0x3f2d754e	0.6775712
242	0xbf3c65b9	-0.73592716
243	0xbecd33c0	-0.40078545
244	0xbf67c282	-0.9053117
245	0x3ffe26e1	1.9855615
246	0xbccd2784	-0.025043257
247	0xbd3e781b	-0.04650126
248	0xbcbd1b35	-0.023084262
249	0x3e259e58	0.16173685
250	0x3edaa5e8	0.427047
251	0xbcaeeeb2	-0.021354053
252	0x3f3ecbf2	0.74529946
253	0x3f065840	0.5247841
254	0x3f497716	0.78697336
255	0x3f814ed3	1.010218

hh/upward/b f4 [256]
0	0x3f147887	0.5799641
1	0xbf0d473f	-0.5518684
2	0x3ef66d12	0.4813009
3	0xbf2f29e0	-0.6842327
4	0xbda09a0e	-0.078418836
5	0xbe1638a7	-0.14670049
6	0x3f4f379d	0.80944234
7	0xbeee4b6b	-0.46541914
8	0xbf214061	-0.6298886
9	0xbf200150	-0.62502
10	0x3f8c55fc	1.096374
11	0x3f3ae11a	0.7299973
12	0x3f8a9445	1.0826498
13	0x3e3630b1	0.17792012
14	0xbdd17146	-0.10226683
15	0x3f73fbe1	0.9530621
16	0x3e19daec	0.15024918
17	0x3f331ce2	0.69965947
18	0x3e658124	0.22412544
19	0x3f76738c	0.9627006
20	0x3fa25931	1.2683469
21	0xbf42a7d4	-0.76037335
22	0x3eeef8fa	0.4667433
23	0xbe350573	-0.1767786
24	0xbf19cef5	-0.60081416
25	0x3fb6f097	1.4292172
26	0x3fa687f6	1.3010242
27	0x3f001d38	0.50044584
28	0xbee7bd89	-0.4526179
29	0xbe35f371	-0.17768647
30	0xbeb3d12d	-0.35120526
31	0xbe8ee3cd	-0.27908173
32	0xbf63c228	-0.88968134
33	0x3f3bd02c	0.7336452
34	0xbdd7f177	-0.10544103
35	0x3f7d69cb	0.9898955
36	0xbdc1db84	-0.094656974
37	0x3e2b67b9	0.16738786
38	0x3e932498	0.28738856
39	0xbe1096aa	-0.14119974
40	0xbecd13a0	-0.40054035
41	0x3fd243a8	1.6426897
42	0x3ec29982	0.38007742
43	0x3f2962b0	0.6616621
44	0xbe714828	-0.23562682
45	0x3fc61e70	1.5478039
46	0x3f882f4b	1.0639433
47	0xbe64fb3b	-0.22361462
48	0xbfb7e261	-1.436596
49	0xbe3d4868	-0.18484652
50	0x3ece193e	0.40253633
51	0x3ebcd8d6	0.36884183
52	0xbee0b4b4	-0.43887866
53	0xbfa98245	-1.324288
54	0xbd461ce0	-0.04836738
55	0xbf38e7ab	-0.722285
56	0x3f3a313d	0.7273138
57	0x3bca1589	0.006167118
58	0x3f8489d8	1.0354567
59	0x3f647433	0.89239806
60	0x3f166acd	0.58756715
61	0x3e9c9b90	0.30587435
62	0x3fac322f	1.3452815
63	0x3d87f0f6	0.066377565
64	0x3e735464	0.23762661
65	0x3e8b4345	0.2719976
66	0x3e87c76a	0.26519328
67	0x3ea76cc6	0.32700175
68	0x3c2ca0b2	0.01053636
69	0x3f13a7a9	0.57677704
70	0x3f48ae75	0.783912
71	0x3f27bfa7	0.65526813
72	0x3f277914	0.65419126
73	0x3eb29df8	0.34886146
74	0x3ee9c1c4	0.45655644
75	0x3d98b414	0.07456222
76	0x3f82df76	1.0224445
77	0xbe9b8e3a	-0.30381948
78	0x3f416dc1	0.75558096
79	0xbed89c49	-0.42306736
80	0x3f3098a8	0.68982935
81	0xbf14c664	-0.5811522
82	0x3e6dc9e3	0.23221545
83	0x3f6ad542	0.91731656
84	0xbfc714e5	-1.5553252
85	0x3e5636dc	0.20919365
86	0x3f47d130	0.7805357
87	0x3fa70729	1.304906
88	0xbf7abb44	-0.97941995
89	0x3f929e3b	1.1454538
90	0x3f6bfea3	0.9218542
91	0xbf96d35e	-1.1783254
92	0xbd57cc6e	-0.052685194
93	0xbedfbf7d	-0.4370078
94	0x3f109fed	0.5649403
95	0x3f6453d1	0.89190394
96	0xbf441b31	-0.7660399
97	0xbded8df1	-0.11599339
98	0x3ce7e84e	0.028309014
99	0xbfacca56	-1.3499248
100	0xbf333d78	-0.7001567
101	0x3fb571cc	1.4175353
102	0x3ed7bf68	0.4213822
103	0x3f0547e7	0.5206284
104	0x3ea9eff7	0.3319089
105	0xbcabf092	-0.020988736
106	0xbe611f20	-0.2198453
107	0x3e012fd2	0.12615898
108	0x3f051bb1	0.5199538
109	0x3e912884	0.28351223
110	0xbe1a76ba	-0.15084353
111	0xbf417785	-0.75573
112	0x3ea082d3	0.3134981
113	0x3f9ce6d9	1.2257949
114	0x3f1bef75	0.6091226
115	0x3f6fc9aa	0.9366709
116	0x3f548ca3	0.83027095
117	0xbeda2e2d	-0.42613354
118	0x3d9bc2b8	0.07605499
119	0xbf1bee6f	-0.60910696
120	0x3f13796f	0.5760717
121	0x3f9ac784	1.2092137
122	0x3f8a748a	1.0816815
123	0x3fb47276	1.4097431
124	0xbf0bb78c	-0.54576945
125	0x3f529e0c	0.8227241
126	0x3fa76015	1.3076197
127	0x3fcb7c07	1.5897225
128	0x3dc8fc66	0.09813766
129	0xbf1244df	-0.5713634
130	0x3f596b2b	0.8492915
131	0xbf7ceb63	-0.9879667
132	0xbf09b63b	-0.53793687
133	0xbee47ef3	-0.44628105
134	0x3f22470d	0.63389665
135	0x3f6f5c72	0.93500435
136	0xbf817812	-1.0114768
137	0x3f336f29	0.7009149
138	0x3d74d72f	0.059775528
139	0x3f9391bf	1.1528853
140	0x3ee9d9c3	0.45673952
141	0xbf8b3a43	-1.0877155
142	0x3ed69479	0.4191015
143	0x3e8dc32f	0.27687976
144	0x3dc9e84e	0.09858762
145	0xbf46f04e	-0.77710426
146	0x3cb08999	0.021549987
147	0x3f4b98ab	0.7952983
148	0xbf74dd46	-0.95650136
149	0x3f8c7f0d	1.0976273
150	0x3ef382fd	0.47560874
151	0x3fdab92f	1.7087764
152	0x3e6e1a55	0.23252232
153	0x3f84fdb6	1.0389926
154	0x3f5f1d75	0.8715432
155	0x3dd2fb4b	0.103018366
156	0x3f5e0318	0.8672347
157	0x3e356f61	0.17718269
158	0x3fbe3595	1.4860102
159	0x3ddd189d	0.1079571
160	0xbe19a9ad	-0.15006132
161	0x3f3e9184	0.7444079
162	0x3f7cb4e4	0.9871352
163	0x3df663d9	0.12030763
164	0x3f2c107a	0.6721264
165	0xbba7a32d	-0.0051158876
166	0x3f9a8480	1.2071686
167	0xbe8f31fb	-0.2796782
168	0x3d09278d	0.033484984
169	0x3f4994b5	0.78742534
170	0x3f641bf7	0.8910517
171	0x4018a5e6	2.3851256
172	0xbf264ec1	-0.6496392
173	0x3ea160cb	0.3151916
174	0x3f841dc6	1.0321586
175	0x3dbdc2e7	0.0926569
176	0x3f2d4ac1	0.6769219
177	0x3e8638a2	0.26215082
178	0x3ecc13f3	0.3985897
179	0x3e4564b3	0.19276695
180	0xbe2fe10c	-0.17175692
181	0x3fb01430	1.3756161
182	0x3f5025be	0.8130759
183	0xbf35f00a	-0.71069396
184	0x3db7625d	0.08954308
185	0xbe564fdc	-0.20928901
186	0x3e323e4a	0.17406574
187	0x3f2436ae	0.64145935
188	0xbf3e21fc	-0.74270606
189	0x3fb6788e	1.425554
190	0x3fa2d591	1.2721425
191	0x3f6d4341	0.92680746
192	0x3fd8d06e	1.6938608
193	0x3ed281af	0.41114566
194	0xbe74a3fa	-0.23890677
195	0x3ed93091	0.42419866
196	0xbf401160	-0.7502651
197	0x3efcb5e2	0.49357516
198	0x3ebad59e	0.36491102
199	0xbfab031b	-1.3360323
200	0x3eda84d5	0.42679468
201	0x3e7bc2d0	0.24586034
202	0x3f969c86	1.1766517
203	0xbfe6af61	-1.8022271
204	0x3ecd5b1a	0.40108567
205	0x3ddf784a	0.10911615
206	0xbe26c5f7	-0.16286455
207	0x3fae76c7	1.3629998
208	0x3f4212e1	0.75810057
209	0xbe702ad3	-0.23453836
210	0x3f48d52a	0.7845026
211	0x3f24027c	0.6406629
212	0x3ec5b110	0.3861165
213	0xbda90039	-0.082519956
214	0xbebe8e7f	-0.3721809
215	0xbf1a2c68	-0.6022401
216	0xbea7fda8	-0.32810712
217	0xbea49279	-0.32143
218	0x3dfcfd99	0.123530574
219	0x3e82c7ea	0.25543147
220	0xbe8b77c2	-0.27239805
221	0xbf06fc92	-0.5272914
222	0x3fa55a3e	1.2918165
223	0xbf1eef5c	-0.62083983
224	0xbf9c30ee	-1.2202432
225	0x3f19c73f	0.6006965
226	0x3ea0297d	0.31281653
227	0x3e0eaad5	0.13932355
228	0x3ebf646e	0.3738131
229	0x3f46cb17	0.7765364
230	0xbda475e3	-0.080302976
231	0xbf480673	-0.7813484
232	0xbb4fee1f	-0.0031727625
233	0x3e9356c7	0.28777143
234	0x3eb06939	0.3445528
235	0xbf9d7b28	-1.2303209
236	0x3fde2420	1.7354774
237	0x3fdb117b	1.711471
238	0x3e74a63d	0.2389154
239	0xbf44dcb5	-0.7689927
240	0x3eb1764f	0.34660575
241	0x3e71a006	0.235962
242	0x3f77749b	0.966623
243	0x3e079ed7	0.13244186
244	0x3e90858d	0.2822689
245	0x3f9a5757	1.2057904
246	0x3ec78dd6	0.389754
247	0xbe65ce48	-0.22441971
248	0x3f5acda5	0.8547004
249	0x3f750f5d	0.9572657
250	0x3eea0d04	0.45713055
251	0xbee13926	-0.43988913
252	0x3ea58f53	0.3233591
253	0xbdc05dcd	-0.09392891
254	0x3f0b793b	0.5448186
255	0xbe57c7b9	-0.21072282

xh/W f4 [64, 10]
0	0x3f9b6a4a	1.2141812
1	0xbef06caa	-0.46957904
2	0x3f4cca29	0.7999597
3	0xbe2213c0	-0.15827847
4	0x3ebc5b1a	0.36788255
5	0x400a8278	2.1642132
6	0x3f3eff6e	0.74608505
7	0x3f74c45e	0.9561213
8	0x3ed40274	0.41408122
9	0xbe9e1784	-0.30877316
10	0xbd2e66d1	-0.042578522
11	0xbf945448	-1.1588221
12	0xbe79ae93	-0.24383001
13	0xbf091469	-0.5354677
14	0xbf314ba4	-0.69256043
15	0xbf0a0461	-0.5391293
16	0xbf101d82	-0.56295025
17	0x3dff34b6	0.12461226
18	0xbeb57e6d	-0.35448018
19	0xbea3a99d	-0.31965342
20	0xbf922123	-1.1416363
21	0x3c8ce958	0.01720111
22	0x3bc2d62f	0.005945943
23	0x3d021aad	0.03176372
24	0x3f6da5aa	0.9283091
25	0xbf619c29	-0.88128906
26	0x3f374935	0.7159608
27	0x3ee34d09	0.4439471
28	0x3efcec2c	0.49398935
29	0x3f01479d	0.504999
30	0x3f01e69c	0.50742507
31	0x3bee0193	0.0072633713
32	0x3d9046de	0.07044767
33	0xbc90f7fd	-0.017696375
34	0xbec87658	-0.3915279
35	0x3e3d0a33	0.18460922
36	0xbda8c63e	-0.08240937
37	0xbf3bccf2	-0.73359597
38	0x3dae96c4	0.0852485
39	0x3d19f4d5	0.037587006
40	0x3ec715a3	0.38883695
41	0xbe2a6b3b	-0.16642468
42	0xbe898e7f	-0.26866528
43	0xbdb2a212	-0.08722319
44	0x4055dab4	3.3414736
45	0xc058c9cb	-3.3873165
46	0x3d22479b	0.03961907
47	0xbf0d6b03	-0.5524141
48	0xbf3b00cf	-0.7304811
49	0xbeffba34	-0.4994675
50	0xbfe274a5	-1.7691847
51	0xbb537a0e	-0.0032268795
52	0xbb9e9d9e	-0.004840567
53	0x3d5a372d	0.053275276
54	0xbd98d9e0	-0.07463431
55	0x3dce4185	0.100710906
56	0xbe24ab30	-0.16080928
57	0xbdbf8f22	-0.09353472
58	0x3f8db69f	1.1071357
59	0x3fbdd0be	1.4829328
60	0xbe736ae8	-0.2377125
61	0xbe9923d3	-0.29910144
62	0x3e705627	0.23470365
63	0xbe3333bd	-0.17500205
64	0xbf2a7ab9	-0.6659351
65	0xbf429f83	-0.76024646
66	0xbeaacba0	-0.3335848
67	0x3f256168	0.64601755
68	0x3efaf2fe	0.49013513
69	0x3f25a042	0.6469766
70	0x3f465a85	0.7748187
71	0x3dd2c74c	0.10291919
72	0x3e0b0004	0.13574225
73	0xbd83e63a	-0.064403966
74	0xc059a48a	-3.4006677
75	0x3fdce73a	1.7258065
76	0xbf43241d	-0.7622698
77	0xbe8e4e95	-0.27794328
78	0x3e1ff747	0.15621673
79	0x3c07d6c9	0.008290955
80	0xbf3768de	-0.7164439
81	0xbc6265fc	-0.01381826
82	0xbf4df166	-0.8044647
83	0x3d972e9f	0.07381939
84	0x3eda3968	0.42621922
85	0xbf40911f	-0.7522144
86	0xbf13442e	-0.5752591
87	0xbf0be3b5	-0.5464433
88	0xbef195e5	-0.47184673
89	0xbe8b78c1	-0.27240565
90	0x3d506ff2	0.05088801
91	0xbea1d7cc	-0.31609952
92	0x3f5a1511	0.85188395
93	0x3e22c177	0.15894113
94	0x3f66bfcf	0.90136427
95	0xbf723d88	-0.9462514
96	0xbef75704	-0.48308575
97	0x3dd3e789	0.10346896
98	0x3ebec866	0.37262267
99	0x3f0947f4	0.53625417
100	0x3ed1c26b	0.40968642
101	0x3f02be2a	0.5107142
102	0xbf42b591	-0.760583
103	0xbf62ea8d	-0.88639146
104	0x3f498fe7	0.787352
105	0x3ea6569f	0.32487962
106	0x3b962cc5	0.0045829737
107	0x3d1cf334	0.038317874
108	0x3e31649f	0.1732354
109	0x3e883c67	0.26608583
110	0xc012e527	-2.2952363
111	0xbc8a060c	-0.016848586
112	0x3c2ba1dc	0.010475602
113	0x3d81e1cf	0.06341898
114	0xbf98f0c9	-1.1948482
115	0x3fa030a5	1.2514845
116	0xbd4011a1	-0.046891812
117	0x3e91dbb1	0.28487924
118	0x3f17ae1d	0.5925005
119	0x3f2c438e	0.6729058
120	0xbfc63eb5	-1.5487887
121	0x3ad71ee3	0.0016412403
122	0x3b619aaa	0.0034424462
123	0x3d43541b	0.04768763
124	0xbeb88cf9	-0.36045054
125	0x3ed11375	0.40835157
126	0x3f8472c4	1.0347524
127	0x3f54900b	0.8303229
128	0x3eb16219	0.34645155
129	0x3f69e1b3	0.91360015
130	0xbf1ef294	-0.62088895
131	0x3cb617f0	0.022228211
132	0xbc1a282b	-0.009408991
133	0x3d1fc4f1	0.039006177
134	0x3c94008a	0.018066663
135	0xbd47140b	-0.0486031
136	0xbd9d4666	-0.07679443
137	0xbf1ae6ee	-0.6050862
138	0x3f62cd22	0.8859426
139	0x3ee61468	0.44937444
140	0x3ed646ad	0.41850796
141	0x3b800c81	0.0039077406
142	0x3ca2330c	0.019799732
143	0xbc156bcc	-0.009119939
144	0xbc2ec38f	-0.010666742
145	0xb9fa7731	-0.0004777252
146	0xbf5d1fd9	-0.8637672
147	0xbf0c9831	-0.54919726
148	0xbed28961	-0.41120437
149	0xbe8a9d90	-0.27073336
150	0x3f64ec1d	0.8942278
151	0x3bc39b2c	0.0059694257
152	0x3b130bbb	0.0022437412
153	0xbc146595	-0.009057422
154	0xbe7a66e1	-0.24453308
155	0x3e2aaa86	0.16666612
156	0xbe280f24	-0.16412026
157	0xbf03747e	-0.5134963
158	0xbd369b69	-0.044581804
159	0xbdc9e2d6	-0.09857719
160	0xbfab9049	-1.3403407
161	0x3ea2074a	0.31646186
162	0xbf0ecac4	-0.55778146
163	0x3e0c3864	0.13693386
164	0xbe6a48d1	-0.2287934
165	0xbfea5279	-1.8306419
166	0xbf75b312	-0.95976365
167	0xbe92b480	-0.28653336
168	0xbd0cabf2	-0.034343667
169	0xbe9a5679	-0.30144098
170	0x3d7db8e7	0.061943915
171	0xbec2d2d8	-0.38051486
172	0xbea42359	-0.32058218
173	0xbe95aecb	-0.2923492
174	0xbeafeef4	-0.34361994
175	0x3cbcde09	0.023055093
176	0xbf67f1ee	-0.9060353
177	0xbf99207d	-1.196304
178	0xbdcc3864	-0.09971693
179	0x3e0e5d82	0.13902858
180	0xbf6f807c	-0.93555427
181	0x3a088058	0.0005207113
182	0xbb9c803a	-0.004776028
183	0x3d2ec455	0.042667706
184	0x3ddcf6a6	0.10789232
185	0xbd77a71e	-0.06046211
186	0x3f02dee4	0.51121354
187	0x3f2aae2a	0.66672003
188	0xbe8b8d17	-0.2725608
189	0x3f3416fb	0.70347565
190	0x3f25902a	0.646731
191	0x3d00559e	0.03133165
192	0x3f4d9a00	0.8031311
193	0x3dccd2f8	0.100011766
194	0x3eba19e9	0.36347893
195	0x3d8ad928	0.067797005
196	0x3f540721	0.8282338
197	0x3f73dcb0	0.9525862
198	0xbdb42c57	-0.0879752
199	0xbd377f04	-0.044798866
200	0xbe229e1b	-0.15880625
201	0x3c315ea0	0.010825783
202	0x3bcb348a	0.0062013315
203	0x3bf1f55b	0.007383985
204	0x3ecf11b0	0.40443182
205	0xbec19527	-0.37809107
206	0x3f120633	0.5704071
207	0x3deb6a7a	0.11494918
208	0xbdd5ac3c	-0.10433242
209	0xbe082160	-0.13293982
210	0x3d9c7c2d	0.07640872
211	0xbd42e579	-0.047582123
212	0x3e3c64b4	0.1839779
213	0xbc1dca86	-0.009630805
214	0xbf53edae	-0.82784545
215	0x3f60bb32	0.8778564
216	0xbed162ab	-0.4089559
217	0x3f66ef10	0.9020853
218	0xbe3532cc	-0.17695159
219	0x3e77eee1	0.24212219
220	0x3f6aec3c	0.91766715
221	0x3c9d7541	0.01922095
222	0x3c824701	0.015902998
223	0xbd11ca77	-0.035593476
224	0xbde8596d	-0.113451816
225	0x3df66092	0.12030138
226	0x3e90cda1	0.28281882
227	0x3d950cf1	0.07277859
228	0x3e2ec423	0.17067008
229	0xbe2e9b1e	-0.1705136
230	0x3f668b37	0.90056175
231	0x3d3dc2cb	0.046328347
232	0x3f067251	0.52518183
233	0xbcb082b2	-0.021546695
234	0x4008b497	2.1360223
235	0xbfdb0c3e	-1.7113111
236	0x3e695194	0.22785026
237	0x3e371a2c	0.17881078
238	0x3e550a6e	0.2080476
239	0x3ed5751a	0.41690904
240	0x3f455648	0.7708478
241	0xbba527a6	-0.005040127
242	0x3b90c22b	0.004417678
243	0xbcc09a95	-0.02351121
244	0x3e3d5084	0.18487746
245	0xbe269e06	-0.16271219
246	0xbeb72ecb	-0.35777888
247	0xbdb59d88	-0.08867937
248	0xbe131601	-0.14363863
249	0xbd0b7cca	-0.034054555
250	0xbf27876b	-0.65441006
251	0xbdbe5a70	-0.09294593
252	0xbfc49f96	-1.5361202
253	0xbe9b49f5	-0.30329862
254	0xbe5c70b0	-0.21527362
255	0x3f5a2dab	0.85225934

xh/b f4 [64]
0	0xbef00930	-0.4688201
1	0x3de3ac60	0.11116862
2	0x3eb86cfa	0.36020643
3	0xbe59e237	-0.212777
4	0x3de4bd0e	0.11168872
5	0x3e35a335	0.1773804
6	0xbe274354	-0.16334277
7	0xbe94e4a0	-0.29080677
8	0x3f4fef44	0.81224465
9	0xbf0f9cbf	-0.5609855
10	0x3d4097f1	0.047019903
11	0xbe7b5fc0	-0.24548244
12	0x3f0ba69e	0.5455111
13	0xbccbb0dc	-0.024864607
14	0xbf00ae52	-0.5026599
15	0xbb8ec566	-0.004357028
16	0x3ea5d868	0.32391667
17	0x3dc23c47	0.09484153
18	0x3e83b33b	0.2572268
19	0xbf2a4569	-0.6651216
20	0x3de9e332	0.11420287
21	0xbe1d3905	-0.15353782
22	0x3eee9bdc	0.46603286
23	0xbed3be70	-0.4135623
24	0x3d8b933d	0.06815193
25	0x3f5d0191	0.86330515
26	0x3d679689	0.056540046
27	0xbd80a65e	-0.06281732
28	0xbe308407	-0.17237864
29	0x3f51e09b	0.81983346
30	0xbe49bf44	-0.19701868
31	0xbec542c6	-0.38527507
32	0xbe9f0dd0	-0.31065226
33	0xbe098456	-0.13429388
34	0xbecbe11a	-0.39820176
35	0xbd9a4e2d	-0.07534442
36	0x3ed4bf00	0.4155197
37	0x3ea8d0a2	0.32971674
38	0xbe760a6d	-0.24027415
39	0x3d207482	0.03917361
40	0xbe29b08a	-0.1657125
41	0x3e54db63	0.20786814
42	0xbf0af5a4	-0.5428107
43	0xbf01cd25	-0.5070365
44	0xbed25352	-0.41079193
45	0x3e6bbc6d	0.23021097
46	0xbf51d266	-0.8196167
47	0x3e96f711	0.29485372
48	0x3dea7cf6	0.11449616
49	0xbdfdbf9a	-0.12390061
50	0x3e86f842	0.2636128
51	0xbd9d47ad	-0.07679687
52	0xbe77df85	-0.2420636
53	0x3c364350	0.011124447
54	0xbe80f409	-0.25186184
55	0xbe5dfb80	-0.21677971
56	0xbf2a13da	-0.6643654
57	0x3cec89a4	0.028874226
58	0xbdbbb820	-0.091659784
59	0xbd84bf44	-0.064817935
60	0x3ed5f5b8	0.4178903
61	0xbe87a4e4	-0.2649299
62	0x3ec76b19	0.38948897
63	0x3c8084e6	0.01568837

hy/W f4 [1, 64]
0	0xbf786125	-0.9702323
1	0xbefbd6e2	-0.4918738
2	0xbf931496	-1.1490657
3	0x3f285102	0.6574861
4	0xbc49529f	-0.012287765
5	0xbf4ee223	-0.8081381
6	0x3e0ca73f	0.13735674
7	0x3f9abe0e	1.208925
8	0x3f19ab80	0.60027313
9	0xbf876d1b	-1.0580171
10	0xbf842010	-1.0322285
11	0x3f981b93	1.1883415
12	0x3f74a757	0.9556784
13	0x3f87cbc7	1.0609063
14	0xbf7849d2	-0.9698764
15	0x3f6358cd	0.88807374
16	0x3f788359	0.9707542
17	0x3f01c3c6	0.5068935
18	0x3f50c44b	0.8154952
19	0xbf5a437d	-0.8525923
20	0xbfa1107e	-1.2583158
21	0xbf838c7c	-1.0277247
22	0xbf468fb9	-0.77563053
23	0x3f160bab	0.58611554
24	0x3f8959a1	1.0730478
25	0xbf5c9eaf	-0.8617963
26	0x3f166690	0.5875025
27	0xbf76c020	-0.9638691
28	0x3f592b10	0.84831333
29	0xbfb424ef	-1.4073771
30	0xbf5962da	-0.8491646
31	0xbf3ad1e2	-0.72976506
32	0x3f1567ae	0.5836133
33	0x3f6507bc	0.89464927
34	0x3f958156	1.1680095
35	0xbf24daf4	-0.64396596
36	0xbf50dfc3	-0.81591433
37	0x3eec573e	0.4616031
38	0xbf7f72bb	-0.9978444
39	0xbf58acc7	-0.8463864
40	0x3f76acb5	0.9635728
41	0x3f340676	0.7032236
42	0xbe122fa6	-0.14275989
43	0xbf071c50	-0.52777576
44	0x3ee0afd2	0.4388414
45	0xbf596d9d	-0.8493288
46	0x3f7b6853	0.9820606
47	0xbf1ea4fc	-0.61970496
48	0xbf43a0f0	-0.76417446
49	0x3f60d996	0.8783201
50	0x3f3a0669	0.7266603
51	0x3f54f3fb	0.83184785
52	0x3fbaa414	1.4581323
53	0xbf8b6912	-1.089144
54	0x3f5debae	0.86687744
55	0xbf8cd676	-1.1002948
56	0x3f5b16b2	0.85581505
57	0x3f2fbbf9	0.686462
58	0xbf8d1b49	-1.1023952
59	0xbf65ef90	-0.8981867
60	0xbf7b70d2	-0.98219025
61	0xbf8ba74d	-1.0910431
62	0x3e4d9ae4	0.20078617
63	0xbf402878	-0.7506175
