code/python/spin_model/5_64_1_5_10_29500_900_use_train_spin_model.npz (npz, 126049 bytes, 6 tensors)

xh/b f4 [64]
00000000: 0a0a 0b3e 711c 343f c833 013e 3058 983d
00000010: 78d4 673e f530 e0be 75fd 09bf dc53 823e
00000020: 592d cdbe 6b31 f33e 7e25 54bd 98b1 c93e
00000030: 8c45 8cbe 05f8 7abd d36f 753e ac0c f63d
00000040: 975e a33c 1d85 7fbe 5c2a 3fc0 87f3 043f
00000050: 8827 e9bc 9de9 a13d 60e3 ddbf c351 86be
00000060: b46e 9fbe 4862 a43d 9264 1bbe de53 b83f
00000070: 9cb0 28bd 3459 823d 91da db3e 952c 40bd
00000080: 9114 b13d 90ac 6f3e 3aa9 3bbb 3b23 fa3e
00000090: 1842 0ec0 85a5 2f3f 213a 4c3e 8bfc 973f
000000a0: bb48 b3bd 25e5 5d40 5fe4 a53d 8c7c a13d
000000b0: f46a 02bd ff1d 013f 2959 293f e42f 2c3e
000000c0: 30b0 efbe 23a9 ce3e b751 7a3e c3e9 a53d
000000d0: 57d9 563b 83eb 943d bd99 60be 7096 acbe
000000e0: 511f 62bd fbd3 bf3e 8dee 4b3d 70c7 8a3d
000000f0: e4a4 f93d b77a 07be b384 2bbf 0be2 88bf
0.13578048 0.703559 0.12617409 0.074386954 0.22639644 -0.4378735 -0.5390237 0.25454605
-0.4007366 0.4749864 -0.051793568 0.39393306 -0.2739681 -0.061271686 0.23968439 0.12014136
0.019942565 -0.24953122 -2.9869604 0.51934093 -0.028461233 0.07905886 -1.7335014 -0.26234254
-0.31139147 0.08026558 -0.15175083 1.4400594 -0.041184053 0.063646704 0.4294019 -0.046917517
0.08646501 0.23405671 -0.0028634802 0.48855004 -2.222784 0.6861194 0.1994405 1.1873945
-0.087541066 3.4671109 0.08100199 0.078850836 -0.03184028 0.50436395 0.6615167 0.16815144
-0.46814108 0.40363416 0.24445234 0.08101227 0.0032783353 0.07271483 -0.21933647 -0.33708525
-0.055205647 0.37466416 0.049788047 0.06776321 0.121896535 -0.13230406 -0.6699936 -1.0693983

xh/W f4 [64, 5]
00000000: 798a 5d3e 1ec7 7a3d 7a45 c1be 8ac1 103f
00000010: ebc1 503e 6cdf b03d 0af3 72be 744e e83e
00000020: 7834 1a3e 6183 8c3e cdbc f43e 68f4 9bbd
00000030: 9081 ffbe 7b5e 90be 0bd9 9cbe 4fed 043e
00000040: 7ada cf3c 7e24 053f 0f0e 573f ac66 883d
00000050: 907b 88bd 80c2 ac3e 0ac6 553c 8a93 963c
00000060: ccf1 63be 3161 96be 965b 6cbe d7e8 7c3f
00000070: 6402 1640 a4ce 5ac0 2f3c 5e3e 8f3f 1d3f
00000080: 5a50 ae3f 6b2f 993f 63b6 31bf bbd2 3c3e
00000090: 1002 793e 60af 1d3f 5b4f 573d 932b 323d
000000a0: 0a98 10bf d12b 0abe 6326 d43e 1930 a8bd
000000b0: 9914 6cbf 626b a9ba 37a5 1b3e ce17 143f
000000c0: 22b3 693f f17c 813f 22dd 4cbf 05e1 673e
000000d0: a89b b6be 0699 77bc 9c55 b5bd 89e5 1a3b
000000e0: bc18 8a3d f652 c83d 945d 903d 0e46 a7bd
000000f0: befc 1abf ad24 943e 8f72 403e 91ad f13d
00000100: 0f68 c23e fc81 9a3e 0a71 3dbe 4ce9 cb3e
00000110: cf43 ab3e f5a7 8a3e 6c85 c340 6100 74c0
00000120: e051 0e3f f39e 3941 77ab c03f 4a39 993e
00000130: d42b 04be 3816 7bbe 995d 60c0 95db 3940
00000140: 4ddb 9fbd 9b7c 59be 5d7c 363f 1e1e 073f
00000150: 918f 15be 3c10 933e 66c4 26be eb86 ff3d
00000160: affd bc3e 48b8 efbe bdc1 13bf aacd 823f
00000170: d6d8 06c0 20b4 0941 f8da eec0 8ef0 513e
00000180: 384b c7be 2819 943e c92e 6f3e 6ab6 1c3f
00000190: 0e5e 0fc0 00c5 f0bf 0752 31c0 b1f6 33bf
000001a0: 57fd 4540 d9a2 943e afff 62bf 8ea6 953e
000001b0: 7d68 00be cfb4 43be bb3d 3fbf 126d e63f
000001c0: 1be8 92bf 372f 0bc1 6186 0e41 d820 b33c
000001d0: b6cb 3c3e 84a0 fabe 66ba fa3d 889a 11bf
000001e0: f7fb b53d 0d24 17bc 6fc3 d23d 27cb 14be
000001f0: b85c 843e 010c a23d 93d2 423b 49c8 2ebd
00000200: 7ebf d93e cdc6 4a3f e194 6fbd 37ff 733e
00000210: 2bc8 1dbf f5a6 a13e 0c80 81bf f6eb 213f
00000220: 7e7e 13c0 970d e640 5fa9 1440 53e1 5e40
00000230: cd9a 25be 3795 223e bb6a 7b3e e98c 0f3f
00000240: 7ae6 00bf 3d31 d43e 9c01 0abf d130 463f
00000250: c5e9 ba3e c2c3 633e cb0c b93e 2cc8 203e
00000260: 7026 673e a5e4 033e cd7f 71bd 17ce 253e
00000270: d87b be3b 6aa1 af3c bd16 6bbd f8c8 65be
00000280: b8af 253e 0d18 a83e c96c 71be abbb 95be
00000290: ddb0 743e de29 33bd baac bf3e 3b1f 5cbe
000002a0: 490b 0bbe 70f7 813e 89ed eebd bca9 48be
000002b0: d4cd 08be 4926 663f 2390 95bf c157 fcbd
000002c0: f58a 963e 80ac 9c3e 6fd5 583f 1c77 753d
000002d0: ce92 ac3f c3bb 6140 2311 ce40 0a9f 6940
000002e0: 0481 0ec0 4219 c93d fd00 353f e1d1 9fbe
000002f0: b61f 593e 13d0 05bb d698 e2be a246 853e
00000300: c344 b4bd 389e a43f ae99 c7bc f2f7 cc40
00000310: f311 4dc0 8cb4 bfbf 8082 4bc0 d131 c23f
00000320: 445f 153e 219a f6bd 3430 68be c8d2 07be
00000330: 0727 203d 41a3 48bf 9ca3 08c0 4a05 3440
00000340: b0cc 513f 8c46 78bf 06da 8b40 956a a940
00000350: ec8f 8bbf 2e6d a3c0 53ea 2cc0 10e9 903d
00000360: 03ae 033e dd73 d5be e785 163f d2ed 94bf
00000370: e141 bdbd 0b62 12bc 425d 5cbf 113d f33f
00000380: dab4 87bf 8076 9c3e e13b 663f 2630 24bd
00000390: f9fd 373f 1f7b 863f 8e78 99be 767d 2ebf
000003a0: 43ed debf 8c1d f7bf c614 1440 4ba8 bcbd
000003b0: f224 a6be cbf8 3fbd b112 fd3e 24f0 84be
000003c0: ee71 75bd 21ba d9be 6628 e5be b18c 2a3d
000003d0: 4e13 903e 93f7 ce3e 0199 0f3f bd20 06be
000003e0: 94d3 dbbe 1fa4 8c3e 2bf6 303e 57cf eb3e
000003f0: 821e 3ebf 8a24 0640 8ae4 03bf a0b1 64be
0.21634854 0.06122505 -0.3774832 0.5654532 0.20386474 0.08636364 -0.23725525 0.45372355
0.15059078 0.27443984 0.47800294 -0.07614976 -0.49903536 -0.28197083 -0.3063434 0.12981151
0.025372732 0.5200881 0.84005827 0.06660208 -0.06664193 0.33742142 0.0130477045 0.018380899
-0.22260207 -0.29371026 -0.23081812 0.98792785 2.343896 -3.4188623 0.21702646 0.6142511
1.3618271 1.1967596 -0.69418925 0.18439762 0.24317193 0.61595726 0.052565914 0.043498587
-0.56481993 -0.13493277 0.41435537 -0.08212299 -0.9221893 -0.0012925679 0.15199743 0.57848823
0.9128896 1.0116254 -0.8002492 0.22644432 -0.3566563 -0.015112167 -0.08854219 0.0023635349
0.06742999 0.097814485 0.070490986 -0.08167659 -0.60541904 0.2893423 0.187937 0.11800683
0.37970015 0.30177295 -0.18500152 0.3982643 0.3345017 0.27081266 6.110037 -3.8125231
0.5559368 11.601306 1.5052327 0.2992652 -0.12907344 -0.24520195 -3.5057127 2.9040272
-0.078055 -0.2123894 0.71283513 0.5278033 -0.14605547 0.28723323 -0.16285858 0.124769054
0.36912295 -0.46820283 -0.57717496 1.0219014 -2.1069846 8.606476 -7.4642296 0.2050192
-0.38924575 0.28925443 0.23357691 0.6121584 -2.2401156 -1.881012 -2.7706316 -0.70298296
3.0935876 0.29030493 -0.8867139 0.29228634 -0.12539859 -0.19111942 -0.7470357 1.8002036
-1.1477083 -8.699027 8.907807 0.021866247 0.18437085 -0.4895059 0.12242584 -0.5687642
0.08885949 -0.009224904 0.10291182 -0.14530621 0.2585199 0.07912446 0.0029727563 -0.042671476
0.4252891 0.79209596 -0.05849159 0.23827825 -0.6163356 0.3157269 -1.0117202 0.6325067
-2.3045955 7.189159 2.3228376 3.4825027 -0.16172333 0.15877233 0.24552433 0.56074387
-0.5035168 0.41443816 -0.53908706 0.7741824 0.36506477 0.22242644 0.36142573 0.1570136
0.22573256 0.1288019 -0.05895977 0.16191898 0.005813103 0.021439273 -0.05739473 -0.22439945
0.16180313 0.3283085 -0.23576654 -0.29244742 0.23895593 -0.0437411 0.37436467 -0.21496288
-0.13578524 0.25384092 -0.116664 -0.19595999 -0.13359767 0.8990217 -1.1684612 -0.12321425
0.2940289 0.30600357 0.84700674 0.059928045 1.3482301 3.527085 6.439592 3.650332
-2.2266245 0.09819271 0.70704633 -0.31214812 0.21203503 -0.0020418211 -0.4425723 0.2603045
-0.08802178 1.2860785 -0.024365272 6.405267 -3.2042205 -1.4976974 -3.17984 1.5171453
0.14587122 -0.120411165 -0.22674638 -0.13264 0.03909972 -0.78374106 -2.134986 2.8128228
0.81952953 -0.96982646 4.370364 5.2942605 -1.0903296 -5.1070776 -2.701802 0.07075703
0.12859349 -0.4168996 0.5879807 -1.1635077 -0.09241081 -0.008934508 -0.860798 1.9003011
-1.0602067 0.30559158 0.8993512 -0.04008498 0.71871907 1.0506324 -0.29974788 -0.6816019
-1.7416157 -1.9305892 2.313768 -0.09211787 -0.32450062 -0.046868127 0.49428323 -0.25964463
-0.059923105 -0.42524818 -0.44757384 0.04163808 0.28139728 0.4042326 0.5609284 -0.13098426
-0.4293486 0.27468964 0.17281406 0.46056625 -0.742653 2.0959802 -0.515206 -0.22333384

hy/W f4 [1, 64]
00000000: e66d 4e3f bbf6 3ebf 1eb6 08bf f687 5d3e
00000010: 3c93 10bf 448d 89be d606 ea3d e1b6 933e
00000020: a922 e43e acae 03bf 4307 3b3e ccb8 743e
00000030: 9f19 e23e 9100 0d3f 5a04 743e afdc 1c3f
00000040: f3c1 a83e 62a3 9ebe 9a95 cf3e 7035 f0be
00000050: 1cef b43e 8a26 2f3f f728 c23e e087 1e3f
00000060: 61a1 7e3e ec03 bf3e a3eb d2be 2f23 833e
00000070: 4c17 14bf 9f6f 283e 6e0c c9be bcec e3be
00000080: 61ab 083f 4302 18bf efd1 34be 1df8 fe3e
00000090: 93b9 443f 5949 d33e c990 ebbe 4854 c8bd
000000a0: b389 773e 84cc 7fbe bc56 93be 5acf fabe
000000b0: 55d0 83be f86f 363e ba3a a9be e21b e53e
000000c0: f036 80bd e1b3 30be 26d8 013f b572 0cbf
000000d0: d1fe cc3e eec3 bb3e 2a2e 293f b1c1 873e
000000e0: 3405 9d3d 9580 b03e 3c49 a53e 8148 c4be
000000f0: 8011 c13e 67b2 c83e e014 033e 77ae 093e
0.8063644 -0.7459523 -0.5340289 0.21633896 -0.5647466 -0.2686559 0.11427085 0.28850463
0.44557694 -0.51438403 0.18264489 0.2389862 0.44160172 0.5507899 0.23829785 0.61274236
0.32960472 -0.30984026 0.40543824 -0.4691577 0.35338676 0.6841818 0.3792188 0.6192608
0.24866249 0.3730768 -0.41195402 0.2561278 -0.5784805 0.1644883 -0.39267296 -0.44516551
0.53386503 -0.5937845 -0.17658208 0.4979867 0.76845664 0.41266897 -0.460089 -0.097817004
0.24173622 -0.2498036 -0.2877711 -0.48986322 -0.25744882 0.1781615 -0.33052617 0.44747835
-0.062604785 -0.17256118 0.5072044 -0.5486253 0.4003816 0.3667292 0.66086066 0.26514962
0.07667008 0.344731 0.32282436 -0.38336566 0.37708664 0.3919861 0.12800932 0.1344546

hh/upward/b f4 [256]
00000000: d2cf ab3f fbcb 69c0 9b00 b13d d873 b7c0
00000010: b6a2 1f40 8224 36bf 59a5 55c1 13ad a4c0
00000020: 8306 d740 0050 763f 2f31 63c0 aac6 55c0
00000030: 5da4 2cc0 6b43 83c0 fbfc c6c0 3216 3cbf
00000040: c669 3840 ed17 d73f c11b 93bf fdf7 59c0
00000050: 2797 00c1 76f4 8ec0 a75e 1bc1 6826 5ac0
00000060: 0154 11bf 49eb 18c1 2a07 46c1 da40 6dc0
00000070: 9f89 0e3f 523f 0441 501e 4b3d 2818 b9bf
00000080: aeff 083e 1fc3 bbbf f96d 2840 26e0 3c41
00000090: b9d9 6540 270c f2bf 3047 05c1 d393 613f
000000a0: d455 5840 cd45 03c0 18f6 47c0 c123 8240
000000b0: 63c7 4340 11be bebf e44f d540 643d 0a3f
000000c0: 02b8 fbbf ffb4 9fbf 2b3f 283f 5911 d7c0
000000d0: 02ab cd3f b1be 6140 c597 253f f64b a540
000000e0: 6b01 0fc0 f08d c640 f3ee 45c0 f79c e6bf
000000f0: eb46 dbc0 ce12 bd3e e58e a43f ca31 aec0
00000100: 985b 81c0 77ae 3740 29dc 58c1 dcb4 d83d
00000110: 8f09 a1c0 a6f7 2440 4c73 3bc1 11b7 3ec0
00000120: 6526 a040 33ac 1ac0 5cb7 a3c0 1a67 48c0
00000130: 37bd ef40 fc57 bd3f 425f 0641 df2f 21bf
00000140: 2547 3ec1 510c 0941 c8a6 4541 af84 6cc0
00000150: 1681 0440 604a d8c0 dbb1 d03f e9f7 b740
00000160: 4185 c940 1445 11c1 1955 5dc0 3f04 2440
00000170: ee90 1c3f 29c2 dbbe c1fe 68c1 57af d8c0
00000180: 75cf c43f bde9 9440 3b74 64c0 f44e 6640
00000190: 0dc4 a540 64e5 1dc0 19a5 85bf 47a4 7e40
000001a0: fa5d ac3d e032 963f fcd9 423f f7de 4d41
000001b0: 63d9 0340 dc42 a4c0 9d9d 0fbf d30e 0d40
000001c0: 0fd8 c23f 20bc 1cc0 9f9b 1fc1 e3e4 50bb
000001d0: b7dd aa40 2fbf eec0 cda8 afc0 6200 5bc0
000001e0: 498e adc0 a7b7 e140 6e96 9940 8f0a 0841
000001f0: fd35 0d40 5ee3 8ebf 4000 ccc0 f727 f13f
00000200: a9c1 c8c0 d644 2ebb b9f9 80be 217b c140
00000210: 22bd 0541 30d8 0240 b391 b13f 7a61 2640
00000220: e13c 7d40 2547 363f 6dd3 f1c0 d961 a63d
00000230: c6e4 8340 8d40 a740 d203 cebf 15d9 bd3f
00000240: 8c3e a53e 97d7 9340 c65e 88c0 b666 9a40
00000250: 4397 0a3f 7075 933e bc2a 5f40 3c54 abbe
00000260: 83ef 1fc0 bb6f 1540 03f1 9bbf 5b02 d5bf
00000270: daa0 9340 7268 9640 56c8 2740 7c8d 6cc0
00000280: 3302 13c1 044b 6dc0 5bbf 7cbe ed8d f040
00000290: 2e7b 62c0 f319 6e40 bb55 70c0 41d7 87c0
000002a0: 7122 d03f 8ce0 633f c878 06c0 70c1 57bf
000002b0: 7737 233f 9123 9c40 ccf8 6bc0 a4c2 c6bf
000002c0: 7fa6 4240 673e fa40 1829 debf fc0f 0741
000002d0: a232 2ac1 0367 3a41 bd98 a7c0 26f1 933f
000002e0: eecd aabf 6b63 a2c0 fc58 ccc0 e9d0 60c0
000002f0: 3983 7240 888c d3bf 51db d6c0 0e1c 9ac0
00000300: 2203 30c0 2c16 3240 8d42 79c0 dd56 2240
00000310: 7a78 c3be 63d6 373f e75b 60bd a765 9141
00000320: 6b07 3d3e a72a 3b40 4034 74c0 ca18 acc0
00000330: ff65 1e40 5a8d c540 fd8c 74c0 d15c 70c0
00000340: f8a9 473f a8c3 a340 97e9 fbc0 a584 4341
00000350: 86af 0dc1 3b3c febf a8b1 37bd 2e0c 9440
00000360: 8fd9 56bf 9359 5a40 c753 66c0 a804 f7bf
00000370: f7ca 1741 5a26 323f 254c 8fbf 87b2 d83e
00000380: a549 8040 1f7b 8e40 9e11 05c1 e64c c9be
00000390: 4d70 a0bf 85bc 3740 d2de 7d3f 0351 50c0
000003a0: 80fd 4ac0 836c 0ec1 d78e a5bf adfc 253f
000003b0: eec9 b440 0175 d340 05ea ca3f ee3d a4bf
000003c0: 9774 51bf 8218 8bc0 5f4f aa3f e40b cbbe
000003d0: 59c6 b9bf 42c6 f0c0 3707 2ec0 80fe 4cc1
000003e0: 72b6 8bc0 90b1 5240 52b2 77c0 28ca bac0
000003f0: d532 3940 32f3 ec3f f5b7 d4bd 3ef5 f240
1.3422797 -3.653075 0.086426936 -5.732891 2.494306 -0.71149457 -13.352868 -5.146127
6.719545 0.9621582 -3.549877 -3.3402505 -2.697532 -4.1019797 -6.2183814 -0.7347137
2.881456 1.6804177 -1.1492845 -3.405761 -8.036902 -4.4673414 -9.7106085 -3.4085941
-0.56768805 -9.557443 -12.376749 -3.7070832 0.55678743 8.265459 0.049589455 -1.4460497
0.13378784 -1.4668921 2.6317122 11.804724 3.5914137 -1.8909959 -8.32988 0.88116187
3.3802385 -2.0511353 -3.1243954 4.0668645 3.0590446 -1.4901754 6.6660023 0.53999925
-1.966553 -1.2477111 0.65721387 -6.7208676 1.6067812 3.5272639 0.64684707 5.1655226
-2.2344615 6.2048264 -3.0927093 -1.8016652 -6.852407 0.3692841 1.2856108 -5.443578
-4.042431 2.8700235 -13.55375 0.10581371 -5.032417 2.5776153 -11.715649 -2.9799235
5.004687 -2.4167602 -5.1161327 -3.1312928 7.4918475 1.4792476 8.398256 -0.6296367
-11.892369 8.565507 12.353218 -3.6955984 2.0703788 -6.759079 1.6304277 5.7490125
6.2975163 -9.079365 -3.458319 2.5627592 0.61158645 -0.4292157 -14.562196 -6.771404
1.5375811 4.6535325 -3.5695941 3.598569 5.180182 -2.467126 -1.0441009 3.9787767
0.08416362 1.1734276 0.7611387 12.866935 2.0601432 -5.1331615 -0.56099874 2.2040298
1.5222186 -2.4489822 -9.975493 -0.0031874708 5.339565 -7.460838 -5.4893556 -3.4218984
-5.423619 7.0536685 4.799613 8.502578 2.2064202 -1.1163137 -6.3750305 1.8840321
-6.27364 -0.0026591322 -0.25190523 6.0462804 8.358675 2.044445 1.3872589 2.5996995
3.9568408 0.7120231 -7.557059 0.08124132 4.1216764 5.2266297 -1.6094916 1.4831873
0.32274282 4.620067 -4.261569 4.825038 0.5413706 0.28800535 3.4869833 -0.33462703
-2.4989936 2.3349445 -1.2182926 -1.6641344 4.613385 4.7002497 2.6216025 -3.6961355
-9.188037 -3.7077036 -0.24682371 7.517325 -3.5387683 3.7203338 -3.7552326 -4.245026
1.6260511 0.89014506 -2.101122 -0.8427954 0.6375651 4.8793416 -3.6870604 -1.552815
3.041412 7.8201175 -1.7356291 8.441402 -10.637362 11.650149 -5.237395 1.1557968
-1.3344095 -5.074636 -6.3858624 -3.5127509 3.7892592 -1.6527262 -6.714272 -4.8159246
-2.7501912 2.7826033 -3.894687 2.5365517 -0.38177854 0.71811503 -0.054775145 18.174635
0.18459861 2.9244783 -3.815689 -5.378026 2.4749753 6.173505 -3.8211052 -3.755665
0.77993727 5.117634 -7.8722644 12.219884 -8.855352 -1.9862131 -0.04484716 4.626487
-0.8392572 3.4117172 -3.5988634 -1.9298296 9.487052 0.6958977 -1.1195112 0.42323706
4.00899 4.4525294 -8.316801 -0.3931648 -1.2534271 2.8708813 0.9916812 -3.2549446
-3.1717224 -8.901492 -1.2934216 0.6483868 5.6496496 6.6080327 1.5852667 -1.28314
-0.81818527 -4.3467417 1.3305472 -0.3965751 -1.4513656 -7.5242014 -2.7191904 -12.812134
-4.366021 3.2920876 -3.8702588 -5.8371773 2.8937275 1.8511717 -0.103866495 7.592437

hh/upward/W f4 [256, 64]
00000000: dcd3 64be 2752 d8be fc1f 96be 4277 efbe
00000010: 10df ea3d c178 00bf 994a fdbf d4af 85bf
00000020: 96c9 46bf b6a3 0a3f d14d 343f afbd 173f
00000030: 685f 9b3f 7685 1ebf 11cb da3f e6aa 1fbf
00000040: 789a 813d ce17 283f b01c b340 cdb7 6c3e
00000050: c1aa 7a40 2bf6 543f 5d9f 48bf 931e 74bf
00000060: 61ca bb3e 8193 67bd 7228 3bbf bdfa 02c1
00000070: 3960 0c3d f627 c2be ad7c 2c3e eb66 08bf
00000080: 5f5c 5f3f c80e e93d fbc7 10be 4874 2ebe
00000090: 9579 a5c0 3cdb b9bf 0398 e13f 30a2 ed3f
000000a0: b16b 6f3f e7cf aec0 dd5a 48c0 cc20 15bf
000000b0: 6dbc a73f db9f 18bf 5b94 f83f 9a69 1f3e
000000c0: 2001 e03c f3e0 27bf 2371 42bf ad52 e73d
000000d0: e138 ca3e 8829 8bbe e79a 1040 c3e4 29bf
000000e0: bb36 0a3f 2f0d 9c40 7c16 05bf 317b 53c0
000000f0: 1d19 a73c 8af8 35be 51ac 9cbf 8c6c e4be
00000100: ae52 0cbf 7d0f ccbd 58d3 0a3f 0ad4 20bf
00000110: b835 dabf 1c97 d4be 712b 0840 f388 043f
00000120: ab4b 5f3f ddf1 87bf 753f 12bc ab52 9e3f
00000130: 1dcc 69be 8077 063f 23de 2e3f 7fc4 133f
00000140: 429c 5cbf d946 8dbf 8aa7 32c0 b726 09bf
00000150: bcb6 3bbf 98ae b83e 8078 fbbf ad0c 4f3f
00000160: 84d0 08be fa61 0fbe 51da cc3f 8c13 9240
00000170: d8f7 15bf 7963 51bf ad77 e73f 484c 563f
00000180: 21d3 56be 3a74 73be 6e98 46bf 36d4 72be
00000190: 8c10 88c0 e907 633f cb62 f4be 2991 f140
000001a0: b5a5 623e addc 6540 aaee 43c0 8519 803f
000001b0: 74eb a1bd 408a b0bf e50f 5d3e a9d6 f5be
000001c0: 6e6c 4a3d 706a 64bf 9375 5a3f ffd9 8a3f
000001d0: d9ca 74be 4793 803e c013 383d 2705 47bd
000001e0: 893d 593f 3d7a 1cbe e2a8 d3be 69e2 0340
000001f0: 0ec8 82bd cf3f 87bf 7d71 923f f33b df3f
00000200: b21f 10c0 62d3 45bf fa2b 81be 3479 c03f
00000210: 55d7 923e b62e 2740 e86b fbbf fcef b8bf
00000220: b60f 7140 e8e5 18be 662d ebbe 5ca8 b0bf
00000230: 1dfc 0ac0 ec2d 3abf 8d14 febf 7e0f 833f
00000240: 0cae 71bf 6f39 58bf 0c09 3bc0 97a7 883e
00000250: 08c6 813f af03 573e 37a0 6dc0 a179 4a3f
00000260: bab7 ad3e b193 483f df36 013f 2bc1 5cc0
00000270: 7897 1a3f 2c34 713e c0c6 50c0 cc64 993f
00000280: 46e4 a33f 7c4a 6bc0 d35e a43e b9e7 80bf
00000290: 95a1 a5c0 b740 87be 4ba3 dfbf 82e3 6bc0
000002a0: 4a7f 8dbf 45c4 eb40 6ece cbbf 12f3 a7be
000002b0: bb50 1abe 4a21 9fbc b07d c1be 7b4b b1bf
000002c0: cd6a dabf 424e cbbd bd59 a3bf e249 c1bf
000002d0: 94ec 373d 5257 d73e 3cbc e13d cad6 9c3f
000002e0: 0111 4a3e 1239 6140 2c4e 70be 2fa5 ad3f
000002f0: 2dfc 19c0 70b5 41bf 0ad3 203f 9195 6a3f
00000300: 532b 56be b8ee 30be ce2e ac3f 8380 ec3d
00000310: 6785 073f 688c 8f3f 5678 7440 92ee e43e
00000320: b2af 28be c0c8 ea3c a94b 7ebe a918 8c3e
00000330: ebcb d0be 3895 de3e 6a9f 8040 766a 90bf
00000340: 6b58 00bf 3dbd c13e ebdf a140 258a 2ebf
00000350: 5dd5 2d40 f0fe 9bbd 1965 63c0 375b 383f
00000360: 98c9 09bf e9e9 cebf 130a c93e 49a9 2040
00000370: 6549 533e 49c6 963e 98b0 b93e 29ab f7bf
00000380: 3e12 533f 1e0d d3bc d36b 2c3f 7cfd ba3e
00000390: b6f9 24bf af8d 6f3e 49d9 b43b bbbb 3c40
000003a0: 7972 e53e 39ef 19bf eb7d 0fc0 aa1b 273f
000003b0: 88fe d33f 7854 0e3f dc92 843f 3e4c 533e
000003c0: d26a b2be 19c3 96bf 31aa 553f f690 9fbf
000003d0: c414 353f b70a 8c3f a707 c6bd 3ff3 e63e
000003e0: bf52 1640 ea1c 6abe 92b6 1abf f184 83c0
000003f0: 99e1 b73f 829c 1f3f 2f48 c93e fba1 27be
-0.22346443 -0.42250177 -0.29321277 -0.46770674 0.11468327 -0.50184256 -1.978839 -1.0444283
-0.77651346 0.54156053 0.7043124 0.5927381 1.2138491 -0.61922395 1.7093221 -0.62370145
0.06328291 0.65661323 5.597252 0.2311699 3.916672 0.8318812 -0.7836817 -0.9535915
0.3667784 -0.056537155 -0.7310859 -8.186215 0.034271453 -0.37921113 0.16844435 -0.5328204
0.8725032 0.113797724 -0.14138786 -0.17036545 -5.1710916 -1.452003 1.7624515 1.8565121
0.935237 -5.4628787 -3.1305459 -0.5825317 1.3104378 -0.5961892 1.9420274 0.15567628
0.027344286 -0.6557762 -0.7595388 0.11295066 0.3949652 -0.27180123 2.2594545 -0.6636469
0.5398976 4.8766093 -0.51987433 -3.304394 0.020397717 -0.17770591 -1.2240087 -0.44614065
-0.5481366 -0.09963892 0.54228735 -0.62823546 -1.7047644 -0.41521537 2.1276515 0.5177147
0.87224835 -1.0620686 -0.008926262 1.2368978 -0.2283177 0.5252609 0.68307704 0.57721704
-0.8617593 -1.1037246 -2.7914758 -0.535747 -0.73325706 0.36070704 -1.9646149 0.80878717
-0.13360792 -0.14002219 1.6004125 4.564886 -0.58581305 -0.8179241 1.8083397 0.83710146
-0.20978977 -0.23774806 -0.7757634 -0.23713765 -4.25202 0.88683945 -0.47731623 7.5489697
0.22133525 3.591594 -3.061442 1.0007788 -0.07906237 -1.379219 0.21588095 -0.48015335
0.049419813 -0.8922491 0.85335654 1.0847777 -0.23905505 0.25112364 0.04494071 -0.048588898
0.8485952 -0.15281005 -0.41339785 2.060694 -0.06385814 -1.0566348 1.1440884 1.744017
-2.2519345 -0.7727567 -0.25228864 1.5036988 0.2867991 2.612226 -1.9642305 -1.4448237
3.766584 -0.14931452 -0.45933074 -1.3801379 -2.1716378 -0.7272632 -1.9850022 1.0239103
-0.944062 -0.84462637 -2.9224272 0.2669036 1.0138559 0.20997499 -3.7129037 0.7909184
0.33929235 0.7835036 0.5047435 -3.44929 0.6038737 0.23555058 -3.2621307 1.1983886
1.2804039 -3.6764212 0.32103595 -1.0070716 -5.1759744 -0.2641656 -1.7471708 -3.685761
-1.105447 7.3677087 -1.5922372 -0.32802635 -0.15069859 -0.019425053 -0.37791204 -1.385116
-1.7063843 -0.09927036 -1.2761761 -1.5100672 0.044903353 0.42058808 0.11022231 1.2253048
0.19733049 3.5191083 -0.2346732 1.3566035 -2.4060166 -0.75667477 0.6282202 0.9163447
-0.20914964 -0.17278564 1.3451784 0.11547949 0.5293793 1.1214724 3.8198447 0.44713265
-0.16473272 0.028660178 -0.2483355 0.27362564 -0.40780577 0.4347322 4.0194597 -1.1282489
-0.50134915 0.3783969 5.0585837 -0.6817954 2.7161477 -0.07616985 -3.5530455 0.7201418
-0.5382323 -1.6165134 0.392655 2.5103323 0.20633467 0.29448155 0.36267543 -1.9349109
0.8244971 -0.02576309 0.67352027 0.36521518 -0.6444353 0.23393892 0.0055190665 2.9489582
0.44813898 -0.6013065 -2.2420604 0.65276587 1.6562052 0.5559764 1.0357318 0.20634553
-0.34847122 -1.1778289 0.83462816 -1.2466114 0.7073481 1.094077 -0.09669428 0.45107457
2.3488004 -0.22862592 -0.6043483 -4.109978 1.4365722 0.62348187 0.39312884 -0.16370384

hh/lateral/W f4 [256, 64]
00000000: 21c8 3340 6609 af40 469c d0bf 1bf1 8fbf
00000010: 4849 26c0 3f2a cc3e 525f 3d40 6839 7740
00000020: aa19 b340 2e78 dabe 86f6 e63f f2e5 cd3f
00000030: 797a 7740 d569 b840 24a5 6c40 2eb2 663f
00000040: a416 5141 f711 8f40 6667 f540 6a63 bdc0
00000050: 0ecd ea3f 5f3f 673f 7a00 76c0 18a6 e23e
00000060: 524f 0fc0 3e78 a340 7755 be40 48f1 9a3f
00000070: 37d4 7bc0 6592 933f e4c7 d4c0 d235 05c1
00000080: 3258 7a40 1ce0 523f 2de8 eec0 0db6 96c0
00000090: 817d 95c0 33ee 81bf 573c 00c0 585f 8e40
000000a0: b3ef 32c0 2068 0741 9b62 df40 af52 a8bf
000000b0: fd82 0740 e4f8 45c0 d71e 383e 1b79 993f
000000c0: 0604 ce40 568b 9cbf 5b36 d93f 344d 90c0
000000d0: cf00 4cbf 7a4b 9740 28d1 3840 fd6b 53c1
000000e0: e03c c7c0 590b 1bc0 a509 dd40 7112 0b40
000000f0: 0c3a 24c0 af05 3dc0 45e0 c03f 8564 9b3f
00000100: c821 98c0 46ca 22c0 cb7b 4840 8668 53c0
00000110: 70df 3340 6eba 2ac1 cf32 9c3f 101e 603f
00000120: b4f8 8840 755d 80c0 e25f e83e 2f23 69be
00000130: 48fd 5f40 2f4b 9b3f ccb9 893f 7899 e640
00000140: 495b b03e a498 d040 67e3 373e 17bb 8040
00000150: 5b81 a8be ddef 51c0 ca1e 13c0 9526 93c0
00000160: aa23 25c1 6e58 363f 2fa9 e8bf b75c 583f
00000170: c47c 1d41 daa5 f8bf 5dbd 0540 8b75 1c40
00000180: d495 7240 4575 95c0 ac85 b1c0 94fc 58bf
00000190: 9a2d 0440 3cae 0340 ecd3 89c0 c8e0 f5bd
000001a0: 04d3 8c40 696c 0141 61f6 c43e b28d 04c0
000001b0: 3f96 5940 a757 e6c0 6bd5 9540 ff32 0440
000001c0: 9119 0040 42ab 0dc0 5ae3 be3f a833 a93f
000001d0: bc20 3240 e82d 43c0 2948 073e 7afa ae40
000001e0: 7a5f aac0 37de 50c0 3efd 2241 56a9 5a40
000001f0: 4df1 aec0 d4cb 6b3e b247 ca3f 1451 b4be
00000200: ff5a 81c0 eff8 ea40 2584 15bf e20e 0f41
00000210: a20c c840 fe19 5f3f 852b 93bf c943 4bc0
00000220: f9de 703e c208 523f 1c11 1ac0 1bb8 e2bf
00000230: 4d8f 8841 148c 21c0 d4ef 9740 a8fb 12c0
00000240: e8b6 0cbd 46f9 0d41 2eb8 5640 d031 21c1
00000250: 9d94 42c0 6241 44c0 ede1 a53f 030d 03c1
00000260: a2c9 f8c0 ad8c 17c1 7e99 e63d a262 e940
00000270: dee8 98c0 551c 76c0 8595 2940 ddaf 2641
00000280: 13f9 e340 c4db 1441 9d4c 8a40 3c81 0140
00000290: 4b08 1c41 1791 7cc0 978f 67c0 137c c83f
000002a0: 432a 89c0 1dff 8740 af80 763f e241 07c1
000002b0: 5799 14c0 0ecd 0fc1 0d95 b8bf ce3f 87c0
000002c0: 113b 44c1 5f87 8ec0 617a 88c0 d54e 2d40
000002d0: 9fdd 503f ec70 b2c0 2a37 e9bc 626c d140
000002e0: d00a 24c0 9366 e4c0 89b8 ff40 5c35 29bf
000002f0: eb5a f4c0 14e2 12be ade5 8240 32ae 6a40
00000300: 127f 6ec0 afc0 c740 4393 7340 4648 95c0
00000310: 5e09 74c0 7fcc 0d40 25ba 9dc0 06dd 5640
00000320: 7fa0 7340 c5e6 5540 f8a2 b7c0 3a6f d2bf
00000330: c852 67bf d5a5 07bf ca11 5240 8c71 573d
00000340: 122a 4740 07e8 3f41 629c 20bf d611 32c1
00000350: fd98 09c1 d44c d43f e7f7 3fc0 b650 e5c0
00000360: 30dc 6140 86ca 3cbc fe75 c140 a201 4cc0
00000370: 9263 2941 2068 66bf b1fd ac40 c4d6 e23d
00000380: ad9b a640 b666 0341 a0c8 39c0 f793 8d40
00000390: ae2f 92bf 0685 01c1 47dd 1fbf 3b44 343f
000003a0: 8204 c640 77ab 6fc0 6478 d5bf 4f2b 1140
000003b0: f85e b3c0 852d 28c0 dec8 81c0 d4d1 00c0
000003c0: eee2 4940 d4fe cabf 21b7 4cc0 51c3 9e40
000003d0: d43e 013d a877 0fbe fecb 22be 093f 69c0
000003e0: a5a8 4540 4bd4 b93d 7825 8840 d8e7 ddc0
000003f0: 23d9 81c0 b348 3340 1506 28c0 6105 e43f
2.80909 5.4698973 -1.6297691 -1.1245455 -2.5982227 0.3987598 2.958943 3.8628788
5.596883 -0.42669815 1.8043983 1.6085799 3.8668501 5.762919 3.6975794 0.9011563
13.0680275 4.470943 7.668872 -5.9183855 1.8343828 0.9033107 -3.843779 0.44267344
-2.2392163 5.108428 5.9479327 1.2104883 -3.9348276 1.1529051 -6.6494007 -8.32564
3.911633 0.82373214 -7.465842 -4.709723 -4.6715703 -1.0150818 -2.0036829 4.4491386
-2.79588 8.462921 6.980787 -1.3150233 2.11737 -3.093316 0.17980514 1.1990083
6.437991 -1.2230022 1.6969713 -4.509424 -0.79688734 4.7279634 2.887766 -13.213864
-6.226181 -2.4225676 6.9074273 2.1730006 -2.566043 -2.953472 1.5068442 1.2140051
-4.7541237 -2.5435958 3.1325557 -3.3032546 2.8105125 -10.670515 1.2203006 0.8754587
4.2803593 -4.0114083 0.45385653 -0.22767328 3.499834 1.2132319 1.0759826 7.206234
0.34444645 6.518633 0.17957841 4.022838 -0.3291119 -3.280265 -2.2987542 -4.5984597
-10.321207 0.71228683 -1.8176631 0.8451647 9.84296 -1.9425614 2.0896828 2.4446743
3.7903948 -4.670565 -5.5475674 -0.84760404 2.0652833 2.0575094 -4.3071194 -0.12005764
4.4007587 8.088967 0.38469222 -2.0711484 3.3997953 -7.1981997 4.682302 2.0656126
2.0015604 -2.2135777 1.4913132 1.3218889 2.783248 -3.049677 0.1321112 5.4680758
-5.324155 -3.263563 10.186827 3.4165854 -5.4669557 0.23026973 1.580313 -0.35218108
-4.042358 7.3428874 -0.5840476 8.9411335 6.251542 0.87149036 -1.1497656 -3.1760123
0.23522557 0.82044613 -2.4072943 -1.7712435 17.069971 -2.5241747 4.748026 -2.2966099
-0.03435412 8.873358 3.3549914 -10.074661 -3.0403206 -3.0664907 1.2959572 -8.190677
-7.7746134 -9.471845 0.11259745 7.29329 -4.778426 -3.8454792 2.649751 10.417935
7.1241546 9.303654 4.321852 2.0235128 9.752025 -3.9463556 -3.618139 1.5662864
-4.286409 4.2498918 0.96290106 -8.453585 -2.3218591 -8.987562 -1.4420487 -4.2265387
-12.2644205 -4.454025 -4.264939 2.7079365 0.81588167 -5.5762844 -0.028468687 6.5444803
-2.56316 -7.1375213 7.9912763 -0.66097045 -7.6360984 -0.14344054 4.0905366 3.666882
-3.7265058 6.242271 3.8058631 -4.6650724 -3.8130717 2.2156065 -4.9289727 3.3572402
3.806671 3.34221 -5.7386436 -1.6440194 -0.9036069 -0.52987415 3.2823358 0.05259852
3.1119428 11.994147 -0.6273862 -11.1293545 -8.599851 1.6585946 -2.9995058 -7.1661024
3.5290642 -0.011522895 6.0456533 -3.1875997 10.586809 -0.9000263 5.405968 0.110761195
5.2065034 8.212576 -2.9028702 4.424312 -1.1420801 -8.094976 -0.6244702 0.7041661
6.1880503 -3.7448404 -1.6677365 2.2682683 -5.605343 -2.6277783 -4.05577 -2.012807
3.1544757 -1.5859017 -3.1986773 4.9613423 0.03155406 -0.14010489 -0.1589813 -3.6444724
3.0884182 0.09073695 4.254574 -6.9345512 -4.057756 2.8013122 -2.6253712 1.7814142
