code/python/spin_model/5_64_1_5_10_4950_210_use_train_spin_model.npz (npz, 126586 bytes, 6 tensors)

xh/b f4 [64]
-0.025159879 0.016618047 -0.27921683 -0.04397242 -0.5219667 0.006966135 -0.74762994 -0.01129214
0.002725045 -0.42688704 -0.0033908312 -0.21193697 0.010322233 -0.5188616 0.4728744 -0.0011842055
0.0066195847 -0.0074860025 0.0043713707 0.0022830898 0.014537327 -0.13169439 0.5135542 0.0009886229
0.010444376 0.009079175 -0.21022935 0.6558786 0.06749871 0.010633197 0.14163628 0.08981812
0.0011565008 -0.2261502 0.002482701 0.0018922172 1.125428 -0.755549 0.07707976 0.40303558
0.0010032121 0.2567267 -0.0071232053 -0.007570819 0.04872159 0.85644436 -0.6310357 -0.02047125
0.46854955 0.0044430327 0.0012154572 0.00031874128 0.016985603 -0.0011880917 -0.030118575 0.011920631
0.017041327 -0.20558187 -0.46349376 0.7633032 0.3037394 0.03636882 -0.03058224 0.028339813
00000000: 171c cebc 9222 883c 82f5 8ebe 6d1c 34bd
00000010: 9c9f 05bf 2d44 e43b ad64 3fbf ab02 39bc
00000020: ab96 323b f090 dabe b538 5ebb 0106 59be
00000030: 951e 293c 1dd4 04bf 981c f23e 5837 9bba
00000040: 1ae9 d83b 244d f5bb b73d 8f3b e49f 153b
00000050: f82d 6e3c e5da 06be 4a78 033f ae94 813a
00000060: e31e 2b3c d2c0 143c 5d46 57be a9e7 273f
00000070: c33c 8a3d dc36 2e3c 1a09 113e 90f2 b73d
00000080: ba95 973a eb93 67be d0b4 223b 4604 f83a
00000090: 060e 903f a96b 41bf fedb 9d3d ae5a ce3e
000000a0: 367e 833a af71 833e c769 e9bb a214 f8bb
000000b0: 4a90 473d f03f 5b3f 8e8b 21bf 53b3 a7bc
000000c0: bae5 ef3e dc96 913b fa4f 9f3a bb1c a739
000000d0: 6425 8b3c beb9 9bba 3bbb f6bc c04e 433c
000000e0: 419a 8b3c 0e84 52be 0e4f edbe d767 433f
000000f0: bb83 9b3e 79f7 143d 9b87 fabc e528 e83c

xh/W f4 [64, 5]
-0.32671645 0.108061746 -0.016648002 0.031077186 0.8332415 0.035437725 0.0061458545 -0.0025288754
-2.7311652 2.7953734 -0.08663748 -0.5761758 -0.13637148 -4.4152217 0.28490388 -0.008993166
0.01106578 -0.019225102 3.2880816 -3.3752832 -0.4309696 0.2751548 -0.7698976 -1.1805829
-0.003222598 -0.018541517 0.0038772325 -0.0097783245 0.05138851 -0.020514255 -0.36198235 0.9147694
0.06622056 0.037844703 -0.19873643 0.0013565953 -0.0074853934 -0.021144789 -0.012791334 0.029384946
0.012199404 -0.007099552 0.0076588313 0.03890176 -0.018820075 -0.49208766 1.100659 0.3593982
0.21392111 0.56425536 -0.0026827413 -0.014127316 -0.003055468 0.016908491 0.03516187 0.40707603
0.118895665 -2.446348 -0.24725796 -1.5484644 -0.00662428 0.0015576868 -0.018027788 0.031293217
-0.031469982 0.26910707 -0.61828566 -1.3969243 0.05550121 1.3291465 0.10973767 -0.24178971
0.06922127 -1.8062155 1.9564477 -0.0075291544 -0.013952227 0.019055396 0.01571246 0.019736934
-0.0020781604 0.0101467315 -0.018549737 -0.045864843 0.006077407 -0.014708343 0.0018856885 0.0027539753
1.3888037 -1.4136597 -0.008991254 0.021940656 0.0009244452 0.72274214 -0.75961787 -0.011320874
0.0052706692 -0.011765705 0.2441613 -0.22063707 -0.015325506 0.012524486 -0.026759397 -0.14703967
0.14848788 0.18368736 0.20140515 0.22446792 -2.7351646 2.7257462 1.0194936 -0.3765758
0.6611212 0.07128002 0.13184316 -0.0014495598 0.0011268378 -0.0037442204 0.029556584 -0.063661955
-0.008181721 -0.0041134004 -0.022923807 -0.0013826719 -0.0005312482 0.014147698 0.006253047 -0.0070603206
-2.2810304 2.3249605 -0.0027879516 0.13169193 -0.0020725564 1.2381866 -1.35483 -0.26646245
-0.8459183 -0.15781663 -0.1121269 -0.23973174 0.28063816 0.036787752 0.05006015 -0.19769329
0.60268354 -0.005982224 0.00056945346 0.012123959 0.010377615 -0.008179526 -0.048021022 0.15641025
0.22255592 0.7008247 0.7418156 -0.55357623 -0.6935364 -0.12121913 -0.77238816 -1.386545
-0.007017457 0.0022790043 -0.00015546303 1.4022318 -1.40599 -0.005238353 0.11584871 -0.006294352
-2.8895743 2.6103685 0.006470207 -0.008647804 -0.0033450262 0.30947638 -0.30878153 -0.0047552777
-0.00013811709 0.020559995 0.043978732 -0.045880526 0.089118235 -0.71144813 0.00094925484 2.0881023
-1.8788621 0.8477185 1.7948271 0.5504528 1.1161488 -0.28552595 -0.013385365 -0.08859222
-0.018829543 1.7231536 -1.9604287 -0.350747 -0.4389097 -0.3237944 -0.5091382 0.100027956
-0.013428889 -0.007434926 0.00670397 0.45470744 -0.4975656 0.02486289 -0.16360398 0.017092375
-0.16979326 0.28940606 -0.013219398 0.0010331854 -0.00031921704 1.5560126 -1.5809488 0.0040797414
0.0018346114 -0.018194955 -0.016382633 -0.0065632793 -1.4444038 -0.38413823 -0.20730625 1.0969751
-0.52313244 0.05708902 -0.6339396 0.051233735 -0.10004752 0.39636338 -1.206108 -0.0902213
-0.9761557 -1.9226389 0.5840689 0.025589902 -0.025473993 -0.005096408 0.05602057 -0.012875557
0.09413471 -0.021074517 0.041174848 1.6164627 -0.036356527 -0.014828486 -0.006018014 0.015358234
1.8752936 -1.8915944 0.016726699 -0.008887591 -0.016866574 -0.8490453 0.88031393 -0.01609228
00000000: 6147 a7be 7a4f dd3d 6461 88bc 9595 fe3c
00000010: 514f 553f 2627 113d 2a63 c93b 7dbb 25bb
00000020: 69cb 2ec0 66e7 3240 fe6e b1bd 4280 13bf
00000030: f7a4 0bbe 7f49 8dc0 ecde 913e 1258 13bc
00000040: 3f4d 353c f67d 9dbc ee6f 5240 a404 58c0
00000050: 0ca8 dcbe 17e1 8c3e 0218 45bf 571d 97bf
00000060: 3932 53bb 61e4 97bc 2b19 7e3b 4435 20bc
00000070: c27c 523d 830d a8bc c055 b9be 542e 6a3f
00000080: a59e 873d 0c03 1b3d 9081 4bbe c9cf b13a
00000090: 0848 f5bb d637 adbc be92 51bc b3b8 f03c
000000a0: 02e0 473c 5ca3 e8bb eff6 fa3b 7457 1f3d
000000b0: 8f2c 9abc eaf2 fbbe 65e2 8c3f 0a03 b83e
000000c0: 230e 5b3e 0a73 103f eed0 2fbb 4276 67bc
000000d0: 3f3e 48bb ad83 8a3c e505 103d 456c d03e
000000e0: 927f f33d f790 1cc0 3131 7dbe 1534 c6bf
000000f0: 7d10 d9bb 4c2b cc3a 03af 93bc 512d 003d
00000100: abe6 00bd 67c8 893e f847 1ebf 6ace b2bf
00000110: 3d55 633d 7921 aa3f 25be e03d b997 77be
00000120: e2c3 8d3d 1232 e7bf e16c fa3f 20b7 f6bb
00000130: e297 64bc 101a 9c3c 6bb7 803c 5aaf a13c
00000140: bf31 08bb 7a3e 263c 9ef5 97bc c6dc 3bbd
00000150: fc24 c73b 43fb 70bc 3529 f73a 0a7c 343b
00000160: 52c4 b13f cdf2 b4bf 0d50 13bc e4bc b33c
00000170: 7856 723a a105 393f 5176 42bf 307b 39bc
00000180: 94b5 ac3b f2c4 40bc 6b05 7a3e afee 61be
00000190: d517 7bbc 8033 4d3c 8636 dbbc 9191 16be
000001a0: 350d 183e 8a18 3c3e 273d 4e3e ebda 653e
000001b0: f00c 2fc0 a072 2e40 c47e 823f 8bce c0be
000001c0: 3d3f 293f 42fb 913d e501 073e 28ff bdba
000001d0: 67b2 933a 9861 75bb a620 f23c 3361 82bd
000001e0: a00c 06bc b4c9 86bb b5ca bbbc c53a b5ba
000001f0: 7743 0bba bfcb 673c 5ce6 cc3b 435a e7bb
00000200: 67fc 11c0 27cc 1440 11b6 36bb 40da 063e
00000210: bad3 07bb e67c 9e3f 126b adbf c46d 88be
00000220: 1a8e 58bf af9a 21be caa2 e5bd 3d7c 75be
00000230: ceaf 8f3e c1ae 163d df0b 4d3d 1c70 4abe
00000240: 7849 1a3f 8806 c4bb 6047 153a 92a3 463c
00000250: df06 2a3c 6b03 06bc b1b1 44bd 022a 203e
00000260: b3e5 633e 3f69 333f a1e7 3d3f 2cb7 0dbf
00000270: 9a8b 31bf bc41 f8bd 3bbb 45bf 4e7a b1bf
00000280: b2f2 e5bb 595b 153b ca03 23b9 557c b33f
00000290: 7bf7 b3bf 7da6 abbb 1742 ed3d da40 cebb
000002a0: c9ee 38c0 4710 2740 0804 d43b 85af 0dbc
000002b0: 3a38 5bbb b073 9e3e 9d18 9ebe 29d2 9bbb
000002c0: 86d3 10b9 6f6d a83c 0b23 343d 38ed 3bbd
000002d0: 9f83 b63d 7721 36bf 6ad7 783a 78a3 0540
000002e0: 8e7e f0bf 1404 593f e5bc e53f 7aea 0c3f
000002f0: f7dd 8e3f 7530 92be 4a4e 5bbc d66f b5bd
00000300: 6a40 9abc 4c90 dc3f 54ef fabf 1c95 b3be
00000310: c6b8 e0be 61c8 a5be e256 02bf 75db cc3d
00000320: d804 5cbc aea0 f3bb faac db3b 6acf e83e
00000330: ebc0 febe 42ad cb3c cd87 27be 4f05 8c3c
00000340: 49de 2dbe 082d 943e 2d96 58bc f36b 873a
00000350: 965c a7b9 6c2b c73f 885c cabf 5aaf 853b
00000360: 5877 f03a 960d 95bc df34 86bc c710 d7bb
00000370: 39e2 b8bf c4ad c4be 1748 54be ae69 8c3f
00000380: 02ec 05bf 2dd6 693d de49 22bf 77da 513d
00000390: b7e5 ccbd 24f0 ca3e bf61 9abf f2c5 b8bd
000003a0: 57e5 79bf 0819 f6bf 8a85 153f eaa1 d13c
000003b0: d6ae d0bc c5ff a6bb d375 653d 00f4 52bc
000003c0: b3c9 c03d 77a4 acbc f5a6 283d 40e8 ce3f
000003d0: 95ea 14bd 2ef3 72bc c332 c5bb 1aa1 7b3c
000003e0: 9f09 f03f c41f f2bf 6e06 893c 429d 11bc
000003f0: c52b 8abc 085b 59bf 415c 613f f5d3 83bc

hh/upward/b f4 [256]
0.8295876 -1.6892649 0.5416048 -1.3217648 0.5667179 0.3477262 0.51696634 0.11338412
-0.5661751 0.8279403 1.1400071 -0.12679154 1.2192675 0.47481233 0.9760469 1.1415132
-1.400308 0.5381363 0.5873424 1.7952048 0.98632306 1.7055727 1.1197989 -1.8431008
0.54778624 1.2758367 0.6294709 0.08289951 1.5003275 -0.34676296 0.657698 0.06873908
-0.9263013 0.3865008 -0.6664997 1.5596209 0.7130286 1.346421 0.28079626 0.47034672
0.49016607 3.1566005 0.08519215 1.3013247 0.23912951 0.9116961 0.85349274 1.2096676
-1.1152954 0.69388556 0.17628114 0.15153238 0.13895977 1.1176869 0.48170376 0.68308693
-0.18541339 -0.7972977 0.9263163 0.9054517 -0.87994564 -0.87205875 0.26864877 0.18963686
-1.6981684 0.054937407 1.5219775 1.1560196 0.07157898 0.8301172 0.6417437 -1.4380723
-0.18325636 1.2383635 -0.27246305 -2.2480772 0.63076717 0.3010041 2.5148218 0.12902744
1.1744411 0.8311161 1.2032284 0.84783304 -1.3747306 -0.09490791 0.91396534 1.1397401
-1.352583 1.019657 1.5609547 0.22384919 -0.5311426 0.587919 0.7782573 2.2862542
-0.14915596 -0.92894846 0.2815342 0.18319131 0.1506366 -1.6922612 0.3981352 1.2440203
0.3063879 0.20873071 0.41425455 0.7565014 0.099583745 0.41656294 0.16968746 -1.2768053
-0.14114955 -1.0984273 0.23127618 1.2381055 0.10457969 0.6219351 -0.89626795 0.00059299584
0.61267215 -0.8206622 0.037387993 0.99197525 0.5306688 0.87039196 1.2484502 0.7112719
0.6669175 1.4682666 0.9998278 0.5927212 -0.9141575 -0.41935423 0.7584635 -0.09146266
-0.2707975 1.3127316 -0.28546605 0.9098024 1.188834 0.62549514 -0.00545687 0.24678193
-1.4286866 -0.3332325 0.70392585 0.9653376 0.64898616 0.045846634 0.63750994 -0.30735472
0.22029723 0.049105387 -0.30955565 0.38336578 -1.6000855 0.4509393 1.0113543 0.31442738
-0.39546245 0.89632386 -0.009722501 0.6304131 1.0846345 1.2177731 0.7828133 -0.8192008
0.83641493 0.058119018 0.6789131 -0.3907348 -0.44826716 1.7308646 0.4641046 0.49277222
-0.88361555 0.6424591 0.8083265 0.15064949 -0.6089366 -1.0098435 0.1313373 0.2788916
0.75240606 -1.1290715 -0.19924343 0.82168007 -1.4067606 0.7188337 0.8108118 0.12288141
0.45256805 1.609161 -0.2397952 0.6621254 0.9673532 0.08518806 -0.4712669 0.136338
0.7908703 0.55163246 1.4838572 -0.11629142 -2.5760212 0.7313703 -0.31154418 -1.0054431
-1.6219796 0.3265888 -0.025628092 -0.030213917 0.30522564 -0.3787912 0.9389974 0.4634248
0.06455823 0.8286958 0.28403008 1.0799392 0.13172568 0.23118998 0.33873668 0.03514763
2.095973 0.1692748 -0.057941817 -0.08900946 -1.5944214 0.088399366 0.0150015615 0.7656709
0.2241978 0.46389455 0.9914836 0.71876353 -1.4612216 -0.8176478 0.504663 1.9151502
-0.7205902 0.7112667 0.051695343 2.2421546 -0.26228338 -0.35475388 0.34769952 -0.17395738
-1.5392925 1.287902 -0.03098534 0.3766169 -1.4976143 -0.13770378 0.96253943 0.5245975
00000000: da5f 543f d539 d8bf 9da6 0a3f 972f a9bf
00000010: 6d14 113f 2b09 b23e e857 043f ef35 e83d
00000020: daf0 10bf e5f3 533f c1eb 913f a4d5 01be
00000030: f510 9c3f 9a1a f33e 36de 793f 1b1d 923f
00000040: 4b3d b3bf 4dc3 093f 125c 163f 45c9 e53f
00000050: ab7f 7c3f 3550 da3f 9255 8f3f baea ebbf
00000060: b83b 0c3f 9e4e a33f 0125 213f 38c7 a93d
00000070: bb0a c03f ea8a b1be e55e 283f 13c7 8c3d
00000080: 1522 6dbf 6fe3 c53e b99f 2abf a8a1 c73f
00000090: 0b89 363f 8657 ac3f 87c4 8f3e 49d1 f03e
000000a0: 0cf7 fa3e be05 4a40 3979 ae3d cf91 a63f
000000b0: 5ede 743e ea64 693f 807e 5a3f 63d6 9a3f
000000c0: 00c2 8ebf 7ca2 313f 0b83 343e 4e2b 1b3e
000000d0: 784b 0e3e 5d10 8f3f e0a1 f63e c9de 2e3f
000000e0: 02dd 3dbe b41b 4cbf 1123 6d3f afcb 673f
000000f0: 1e44 61bf 3e3f 5fbf 558c 893e 2a30 423e
00000100: 955d d9bf 0c06 613d 29d0 c23f 73f8 933f
00000110: 0098 923d 9082 543f 5149 243f c112 b8bf
00000120: 8ea7 3bbe b282 9e3f 4780 8bbe 7fe0 0fc0
00000130: f579 213f 361d 9a3e d7f2 2040 c51f 043e
00000140: 1654 963f 06c4 543f 6303 9a3f 960b 593f
00000150: 2cf7 afbf 145f c2bd a2f9 693f 01e3 913f
00000160: 7121 adbf 1f84 823f 5dcd c73f b938 653e
00000170: f6f8 07bf dc81 163f df3b 473f fd51 1240
00000180: 57bc 18be 91cf 6dbf 4025 903e 8196 3b3e
00000190: 7b40 1a3e 049c d8bf 60d8 cb3e 0f3c 9f3f
000001a0: e0de 9c3e 81bd 553e 2c19 d43e 13aa 413f
000001b0: 90f2 cb3d bd47 d53e 8dc2 2d3e 5b6e a3bf
000001c0: 8289 10be 4499 8cbf aad3 6c3e 3e7a 9e3f
000001d0: e02d d63d 2437 1f3f d171 65bf 4773 1b3a
000001e0: 15d8 1c3f eb16 52bf 2724 193d 17f2 7d3f
000001f0: e9d9 073f 02d2 5e3f 37cd 9f3f ea15 363f
00000200: 1bbb 2a3f 29f0 bb3f b7f4 7f3f 94bc 173f
00000210: 3a06 6abf 99b5 d6be aa2a 423f c650 bbbd
00000220: f8a5 8abe 9707 a83f 9b28 92be cfe8 683f
00000230: b62b 983f 7320 203f 8bcf b2bb 67b4 7c3e
00000240: 34df b6bf 739d aabe 7c34 343f 5d20 773f
00000250: f523 263f aec9 3b3d da33 233f 995d 9dbe
00000260: 9995 613e bb22 493d 147e 9ebe 8548 c43e
00000270: 9acf ccbf 84e1 e63e 0f74 813f a0fc a03e
00000280: 0e7a cabe 7b75 653f 204b 1fbc c162 213f
00000290: 4ed5 8a3f fddf 9b3f 7466 483f 25b7 51bf
000002a0: 4a1f 563f 350e 6e3d 40cd 2d3f 640e c8be
000002b0: 4683 e5be f98c dd3f 1e9f ed3e a44c fc3e
000002c0: a134 62bf 3378 243f 7cee 4e3f dc43 1a3e
000002d0: 45e3 1bbf 8d42 81bf 497d 063e e1ca 8e3e
000002e0: af9d 403f 6a85 90bf 7806 4cbe a059 523f
000002f0: bb10 b4bf 7c05 383f 5d91 4f3f 40a9 fb3d
00000300: 00b7 e73e fdf8 cd3f df8c 75be 0d81 293f
00000310: 76a4 773f 1477 ae3d e549 f1be 309c 0b3e
00000320: 7a76 4a3f c937 0d3f 08ef bd3f 322a eebd
00000330: 88dd 24c0 153b 3b3f b882 9fbe 5cb2 80bf
00000340: 079d cfbf a636 a73e 01f2 d1bc 2d83 f7bc
00000350: 8946 9c3e ecf0 c1be 2262 703f 0446 ed3e
00000360: 1b37 843d 6825 543f 646c 913e 733b 8a3f
00000370: 19e3 063e 11bd 6c3e e56e ad3e f6f6 0f3d
00000380: 6c24 0640 6056 2d3e 6654 6dbd 974a b6bd
00000390: 0016 ccbf ba0a b53d 1cc9 753c 0203 443f
000003a0: 1c94 653e 9683 ed3e dfd1 7d3f e300 383f
000003b0: 4f09 bbbf 5e51 51bf 9831 013f a423 f53f
000003c0: 9978 38bf 9315 363f 7fbe 533d 767f 0f40
000003d0: 024a 86be 4da2 b5be ac05 b23e e221 32be
000003e0: 8907 c5bf f9d9 a43f f8d4 fdbc eed3 c03e
000003f0: d3b1 bfbf 3802 0dbe fc68 763f 064c 063f

hh/upward/W f4 [256, 64]
0.31031048 1.3609253 0.97974074 -2.1417117 1.2032123 -0.032408405 1.9812454 0.07904373
-0.07467966 1.7759827 -0.031278636 0.2148994 0.057814837 -0.65853053 0.75917053 -0.051034853
-0.043484494 -0.275815 -0.072878726 -0.030869247 0.066126116 1.3877242 -0.99495625 0.017211745
-0.008763006 0.88637894 -0.3321167 -0.42910048 -0.5379455 0.08836525 -0.25741357 -0.2787583
-0.48496538 2.1592767 0.00892866 -0.02848945 -1.2588208 0.18023005 -0.95246434 0.57212913
-0.14221115 -0.1711741 -0.32292938 0.00608894 -0.38022527 -0.6057138 0.917011 0.009920961
-0.3736136 -0.84841913 0.09082571 -0.0070828306 0.054816265 0.075155534 -1.1005768 0.1967704
0.115634695 0.036508948 1.0462577 -0.30596164 -3.768228 0.42617303 -0.26305652 -0.008259018
-1.4351655 -0.8755927 -0.123380624 2.3721397 0.22448677 -0.11517659 -2.5012836 -0.002871867
-0.032034066 -2.1923006 0.19294919 2.9396963 0.11334867 3.1099644 -0.6948821 -0.21108027
-0.16382866 0.5810859 0.2747151 -0.09607374 -0.076009564 -0.9765577 1.3434324 0.41088402
0.28313512 -1.0418622 0.7982472 0.41659412 1.5273923 -0.17800346 -0.9382066 -0.2176991
0.18790545 -0.37234923 0.5699803 -0.09061405 -0.018224338 -0.8382057 0.04980477 0.121746995
0.92807347 -0.21209626 0.807389 0.3894677 -1.0669188 -0.4546798 -0.12389068 -0.2232027
-0.012382215 0.11374709 -0.3752291 0.02920895 0.011972375 1.0476692 1.8588772 -0.5449671
-0.25409123 0.030985836 0.6392533 0.16494727 2.4394 -1.9068158 -1.6101526 0.10281494
0.9923923 0.3488718 -0.108299635 -1.3641173 0.5299157 -0.32330823 0.29933044 0.33872736
-0.1504358 0.73264635 -0.17112996 -0.71224326 -0.15515724 -0.061966076 0.08187842 0.060325477
0.19019276 -0.341346 -0.15504238 -0.38151246 -0.02384676 -0.2325913 -0.86410713 0.39995918
-0.0443337 0.50236565 -0.8162876 0.32383627 -0.7384508 -0.17651802 0.20877 0.2600715
0.08847153 -0.21009064 -0.28665277 0.049109835 -0.13488372 -1.0019732 -0.07792491 0.11599099
-0.04058531 -0.0068714544 -0.70711195 0.2564474 1.3272991 0.18389037 0.6033221 -0.27566338
-0.15777959 -0.13226055 0.4247082 0.07342098 0.13180101 0.33833098 -1.198395 0.23051399
-0.0091987075 -0.4599063 0.0074420664 0.14361331 -0.06263964 0.62908256 0.43061867 -0.20546131
-0.38149375 -0.42061082 -0.8662061 1.0176315 -0.47689202 0.14272606 -0.4429266 0.17048088
0.24830045 -0.2523893 0.22657773 -0.06933563 0.10897384 0.5912295 -0.31449923 0.22417605
-0.18145356 0.0792242 0.08351403 -0.002525446 -0.21053767 0.30659527 0.9279663 -0.064581
0.0730301 -0.3753892 0.30024445 -0.3444523 1.3630909 -0.07142725 0.51109254 -0.9347737
0.13855256 -0.741981 0.17220193 0.1513824 -0.37240192 0.38698596 -0.5435318 -1.1534507
-0.045574743 0.1269038 0.108634725 -0.028423479 -0.11835851 -0.11798975 -0.745276 -0.008534992
0.030884901 0.23045193 -0.06792053 0.030859407 0.038761344 -0.11463358 0.41387656 -0.14095704
-0.039877445 0.26894236 -0.18089852 -0.24470821 2.066835 -0.19455574 -0.1616066 0.15861759
00000000: 04e1 9e3e cd32 ae3f 4ad0 7a3f ce11 09c0
00000010: dc02 9a3f adbe 04bd 7399 fd3f aee1 a13d
00000020: a6f1 98bd 6753 e33f 071e 00bd 970e 5c3e
00000030: 40cf 6c3d 7595 28bf 0059 423f ec09 51bd
00000040: cc1c 32bd a037 8dbe 7141 95bd 81e1 fcbc
00000050: 216d 873d f2a0 b13f 74b5 7ebf a5ff 8c3c
00000060: b692 0fbc bbe9 623f 330b aabe 0fb3 dbbe
00000070: ccb6 09bf d7f8 b43d b6cb 83be 68b9 8ebe
00000080: 624d f8be 9731 0a40 8449 123c b562 e9bc
00000090: 0a21 a1bf 3a8e 383e b4d4 73bf 0e77 123f
000000a0: cd9f 11be 4348 2fbe 0057 a5be bb85 c73b
000000b0: e3ac c2be 0f10 1bbf 3cc1 6a3f 878b 223c
000000c0: 484a bfbe ff31 59bf d402 ba3d 1717 e8bb
000000d0: 0587 603d 25eb 993d b3df 8cbf 2e7e 493e
000000e0: e2d1 ec3d 688a 153d c6eb 853f 01a7 9cbe
000000f0: a62a 71c0 5a33 da3e 58af 86be d550 07bc
00000100: 81b3 b7bf d826 60bf fbae fcbd 23d1 1740
00000110: dcdf 653e b4e1 ebbd 0815 20c0 ef35 3cbb
00000120: 2736 03bd a74e 0cc0 7994 453e fc23 3c40
00000130: 5923 e83d a809 4740 cbe3 31bf 6d25 58be
00000140: b3c2 27be 0cc2 143f 75a7 8c3e 4fc2 c4bd
00000150: e7aa 9bbd afff 79bf 98f5 ab3f 645f d23e
00000160: 16f7 903e be5b 85bf ee59 4c3f d34b d53e
00000170: 9781 c33f 8a46 36be 4f2e 70bf 83ec 5ebe
00000180: 496a 403e 8fa4 bebe 3bea 113f dc93 b9bd
00000190: 354b 95bc a694 56bf 1600 4c3d 7d56 f93d
000001a0: 3996 6d3f c32f 59be 0cb1 4e3f 4f68 c73e
000001b0: cc90 88bf cacb e8be 66ba fdbd 408f 64be
000001c0: c6de 4abc 3cf4 e83d 071e c0be 9c47 ef3c
000001d0: c827 443c 061a 863f b0ef ed3f f782 0bbf
000001e0: 3f18 82be 02d6 fd3c 1ba6 233f f0e7 283e
000001f0: 211f 1c40 8a12 f4bf 7b19 cebf a490 d23d
00000200: 6c0d 7e3f 539f b23e 33cc ddbd 659b aebf
00000210: 8ea8 073f a888 a5be d741 993e ac6d ad3e
00000220: d80b 1abe b68e 3b3f b13c 2fbe 9355 36bf
00000230: 8ae1 1ebe 24d0 7dbd e0af a73d d917 773d
00000240: e4c1 423e e7c4 aebe 6ec3 1ebe 9a55 c3be
00000250: 485a c3bc 6a2c 6ebe 2036 5dbf 73c7 cc3e
00000260: 4197 35bd 099b 003f 39f8 50bf decd a53e
00000270: 1d0b 3dbf 24c1 34be cec7 553e 1728 853e
00000280: 9030 b53d 0022 57be 27c4 92be 6527 493d
00000290: f51e 0abe a840 80bf 1897 9fbd af8c ed3d
000002a0: c83c 26bd f029 e1bb 4a05 35bf 134d 833e
000002b0: f0e4 a93f c24d 3c3e 5173 1a3f c023 8dbe
000002c0: f990 21be 4f6f 07be 5a73 d93e bd5d 963d
000002d0: d8f6 063e b839 ad3e 0265 99bf dc0b 6c3e
000002e0: 2db6 16bc d778 ebbe 94dc f33b 5e0f 133e
000002f0: 3649 80bd 8e0b 213f 0d7a dc3e 7364 52be
00000300: 2653 c3be 4d5a d7be afbf 5dbf c041 823f
00000310: 312b f4be c826 123e 46c7 e2be 8a92 2e3e
00000320: 7942 7e3e 2c39 81be fe03 683e d7ff 8dbd
00000330: ad2d df3d d15a 173f 0b06 a1be 688e 653e
00000340: f6ce 39be 4c40 a23d 6709 ab3d f481 25bb
00000350: 3097 57be 0efa 9c3e 338f 6d3f 0b43 84bd
00000360: ce90 953d 0333 c0be a4b9 993e 0d5c b0be
00000370: c379 ae3f 7348 92bd f6d6 023f 544d 6fbf
00000380: b9e0 0d3e 78f2 3dbf b455 303e fd03 1b3e
00000390: 77ab bebe 0623 c63e e624 0bbf 46a4 93bf
000003a0: 95ac 3abd 12f3 013e e27b de3d 5bd8 e8bc
000003b0: f265 f2bd 9ca4 f1bd 68ca 3ebf 5ad6 0bbc
000003c0: 5502 fd3c 97fb 6b3e eb19 8bbd decc fc3c
000003d0: 37c4 1e3d 03c5 eabd a1e7 d33e 0b57 10be
000003e0: 8856 23bd d0b2 893e 763d 39be ca94 7abe
000003f0: 0647 0440 9f39 47be 337c 25be a66c 223e

hh/lateral/W f4 [256, 64]
-0.27685648 1.6183966 -1.0074384 0.920763 1.3038433 -0.067889735 0.068296246 -1.4774367
-0.97032446 -1.2005142 -0.47306222 -2.300753 -0.8922149 3.4356942 -0.82288533 0.87509996
1.1631513 -1.6068628 0.712679 0.89652395 0.7643264 -0.32004046 0.20738235 0.69993633
3.0695655 -1.1324658 0.5712443 0.5366057 -1.2908016 -1.6597365 1.6982944 -2.0107741
0.0011987013 1.8378569 -0.45458466 -0.41414535 0.20584105 0.36388886 -0.8228791 2.0315602
2.0005453 -0.18839046 -0.6031216 -1.1573812 -1.7243148 3.9737518 -1.173966 1.7905152
2.0773354 1.6478679 -0.57939935 0.5159688 0.4379781 2.7942443 2.4996676 -1.8440002
0.18386327 -0.53021127 -0.68050593 -0.06762481 -0.43534783 -0.56905353 -1.66138 -0.24529795
2.2065442 1.3446027 -1.4376243 -0.48979998 0.67034733 -3.2589488 1.1850398 1.9875001
-1.2373753 -0.89495814 1.1478008 0.20845677 0.3111335 -0.87745214 -0.5498878 0.9140645
0.94283867 -1.5799466 -1.9329754 -1.0678153 -0.80900544 3.0594819 -0.79050434 -0.6943802
-3.203841 2.2551622 -1.0661123 2.4177504 0.31785887 1.2314665 -2.306288 -0.18671489
-0.59345436 -1.0349996 0.5147947 1.0699782 0.6034759 -0.006457135 -0.92356634 0.6903449
-2.11238 -0.9497088 2.1430504 -0.772747 1.708664 -0.82774866 -0.19086075 -2.5249264
-0.6229981 -4.4201717 2.2488809 -0.8054485 -3.3524787 -0.58214676 -0.45557192 1.9492719
-1.4485407 0.8160482 -0.20921962 0.95107275 0.649431 -2.4878535 0.025059365 -1.388622
-1.9450117 1.7542372 2.838991 0.18357667 -0.34415329 0.84214526 0.75639874 -2.3198447
2.8741112 -1.3327408 -3.0278277 1.7551306 0.51534575 -1.4671794 1.3934526 -1.7815133
-1.5525508 -2.4973888 1.475015 -1.2411965 1.5216441 0.2605308 -0.9538776 0.6236974
-1.0973792 -2.0092905 -1.613402 -0.83076954 -0.6590917 -0.29563746 0.10046659 2.9447458
-0.28769082 1.8482695 -0.09287136 -2.2182574 2.5340567 0.26434034 -1.6660662 -0.44969633
-3.057304 -1.9390438 0.47866276 2.3312736 0.029418504 -1.3667034 -0.5106012 1.5491678
0.5269428 1.0421674 0.48258758 1.8820498 1.356906 -0.34538198 -0.3014844 -0.2061512
-0.36420333 -1.6396555 0.4153106 -0.4814077 2.8509219 -1.6247827 1.916542 -2.3028302
1.5015961 0.5587309 0.39069337 0.06627734 -0.66583437 -0.58899826 -0.10163263 0.81681776
-0.23619284 -0.5166886 0.3714382 1.2229561 -1.4723728 -1.0379566 0.0245245 -0.14156966
-0.6369327 1.4836584 -2.3479636 0.077491224 0.5010064 0.97580564 0.64806056 0.7145039
2.469865 -1.7520531 -0.6448368 -1.3654834 3.5452142 -2.26174 0.6097037 0.10792701
1.028643 0.9140692 -0.15284605 0.8402216 -0.90389705 1.1955452 -0.78719366 -0.7374272
0.48008057 -1.8127124 -0.5658287 0.5751567 -0.60622996 -0.835566 -1.4094907 -2.1618934
-0.6691743 0.9546347 -0.18214278 1.701783 1.1306925 1.1401857 2.0176806 -1.8006448
-0.50710607 0.616473 0.70375013 0.9944731 -0.81261677 -0.9845089 -0.25457636 2.1271665
00000000: 22c0 8dbe 9f27 cf3f bef3 80bf 20b7 6b3f
00000010: 56e4 a63f c609 8bbd e7de 8b3d a51c bdbf
00000020: 2f67 78bf 73aa 99bf 3635 f2be 8a3f 13c0
00000030: 3268 64bf 6ae2 5b40 9da8 52bf 8d06 603f
00000040: 24e2 943f aead cdbf 2272 363f 9882 653f
00000050: e5aa 433f 58dc a3be 0a5c 543e 072f 333f
00000060: c373 4440 a4f4 90bf 113d 123f fe5e 093f
00000070: fd38 a5bf 3f72 d4bf b661 d93f 86b0 00c0
00000080: be1d 9d3a e53e eb3f 52bf e8be dc0a d4be
00000090: ffc7 523e a44f ba3e 34a8 52bf 1505 0240
000000a0: ef08 0040 6ee9 40be 2d66 1abf 1125 94bf
000000b0: 59b6 dcbf f351 7e40 8544 96bf 9a2f e53f
000000c0: 10f3 0440 56ed d23f 8453 14bf 8816 043f
000000d0: aa3e e03e e6d4 3240 8efa 1f40 3308 ecbf
000000e0: a746 3c3e edbb 07bf a335 2ebf e07e 8abd
000000f0: e9e5 debe 7ead 11bf 1aa8 d4bf 632f 7bbe
00000100: 0538 0d40 f11b ac3f 1304 b8bf 10c7 fabe
00000110: e29b 2b3f 9e92 50c0 62af 973f 6766 fe3f
00000120: 5062 9ebf fa1b 65bf 23eb 923f b175 553e
00000130: e44c 9f3e b4a0 60bf 72c5 0cbf 2200 6a3f
00000140: e05d 713f b13b cabf bd6b f7bf 2cae 88bf
00000150: fb1a 4fbf 8dce 4340 7e5e 4abf e7c2 31bf
00000160: bb0b 4dc0 9454 1040 5e76 88bf 6cbc 1a40
00000170: 66be a23e b2a0 9d3f 399a 13c0 3032 3fbe
00000180: a0ec 17bf de7a 84bf 96c9 033f 0cf5 883f
00000190: 667d 1a3f 6096 d3bb d86e 6cbf 72ba 303f
000001a0: 3c31 07c0 1e20 73bf bd27 0940 bfd2 45bf
000001b0: 80b5 da3f 56e7 53bf 0071 43be 6598 21c0
000001c0: ce7c 1fbf 0c72 8dc0 aaed 0f40 df31 4ebf
000001d0: 038f 56c0 9207 15bf b940 e9be be81 f93f
000001e0: c869 b9bf 89e8 503f ab3d 56be 8179 733f
000001f0: 1c41 263f fe38 1fc0 4c49 cd3c 5ebe b1bf
00000200: 25f6 f8bf d88a e03f 07b2 3540 86fb 3b3e
00000210: dc34 b0be d596 573f 59a3 413f 5678 14c0
00000220: 70f1 3740 4097 aabf eec7 41c0 1fa8 e03f
00000230: b3ed 033f 89cc bbbf a85c b23f a108 e4bf
00000240: fcb9 c6bf 38d5 1fc0 4bcd bc3f 87df 9ebf
00000250: 3cc5 c23f 4b64 853e 5331 74bf a2aa 1f3f
00000260: ec76 8cbf 3798 00c0 f583 cebf 50ad 54bf
00000270: 3cba 28bf cb5d 97be 6dc1 cd3d b776 3c40
00000280: 364c 93be 1894 ec3f 5733 bebd eef7 0dc0
00000290: fc2d 2240 9e57 873e a841 d5bf 993e e6be
000002a0: deaa 43c0 9632 f8bf 4913 f53e 9633 1540
000002b0: 13ff f03c 23f0 aebf c3b6 02bf 214b c63f
000002c0: b9e5 063f be65 853f b815 f73e 02e7 f03f
000002d0: 19af ad3f e8d5 b0be 2a5c 9abe 4d19 53be
000002e0: dc78 babe 3be0 d1bf 97a3 d43e 127b f6be
000002f0: 8175 3640 e1f8 cfbf 4051 f53f 9261 13c0
00000300: 4d34 c03f fd08 0f3f f608 c83e 6abc 873d
00000310: 1f74 2abf 97c8 16bf c524 d0bd f81a 513f
00000320: 89dc 71be b445 04bf 262d be3e d389 9c3f
00000330: b676 bcbf c3db 84bf 9be7 c83c a3f7 10be
00000340: 050e 23bf 85e8 bd3f 0945 16c0 b8b3 9e3d
00000350: f541 003f 66ce 793f 4ce7 253f bae9 363f
00000360: 4512 1e40 4743 e0bf 0614 25bf 29c8 aebf
00000370: cae4 6240 59c0 10c0 8b15 1c3f d608 dd3d
00000380: 93aa 833f 7000 6a3f ad83 1cbe c318 573f
00000390: cc65 67bf a007 993f 8685 49bf 07c8 3cbf
000003a0: 1fcd f53e f606 e8bf 26da 10bf 783d 133f
000003b0: e331 1bbf a7e7 55bf 316a b4bf 765c 0ac0
000003c0: 024f 2bbf f162 743f a383 3abe 06d4 d93f
000003d0: 88ba 903f 9bf1 913f ae21 0140 877b e6bf
000003e0: b4d1 01bf 2dd1 1d3f f828 343f ca95 7e3f
000003f0: a707 50bf c608 7cbf d557 82be 7f23 0840

hy/W f4 [1, 64]
-1.3894459 -0.845599 0.98263395 -0.4358227 -0.7004092 -1.4935489 0.63580865 -0.65848917
0.6252257 -0.70716846 -0.6849081 0.29043308 0.97428745 -0.14287655 -0.6072619 0.91090673
-1.1487015 -0.9986778 0.6773174 -0.99420995 -0.46981514 0.82482225 1.0442466 -0.47910124
-0.93982923 1.3472699 0.8708256 0.91419387 -1.243453 -0.5520447 0.9755001 -0.85874075
0.6005331 -1.3263607 -0.87120616 -0.113808714 0.67745715 0.9996025 0.8751217 -0.8910296
-0.21303941 -1.0107436 -0.697451 0.41231996 -0.79767424 1.128788 1.2410777 0.9163437
-0.27671844 -1.0656761 -0.85693127 -0.38528708 0.68947065 -0.9087677 -0.5906329 1.0275398
-0.8553816 -0.66000587 0.579899 -0.7669247 0.8045282 1.0024824 -0.8831128 -0.97203696
00000000: 5dd9 b1bf 2d79 58bf e68d 7b3f 2724 dfbe
00000010: 044e 33bf 9c2c bfbf 5bc4 223f bf92 28bf
00000020: cb0e 203f fe08 35bf 2356 2fbf a5b3 943e
00000030: e76a 793f 3b4e 12be 8475 1bbf 2f31 693f
00000040: a708 93bf 59a9 7fbf ac64 2d3f 8b84 7ebf
00000050: 9c8b f0be 8d27 533f dfa9 853f c24c f5be
00000060: a698 70bf 5773 ac3f 6dee 5e3f 9c08 6a3f
00000070: 7829 9fbf cd52 0dbf 60ba 793f 6fd6 5bbf
00000080: 8abc 193f 30c6 a9bf 5e07 5fbf 8b14 e9bd
00000090: d56d 2d3f f3e5 7f3f fa07 603f 841a 64bf
000000a0: 0127 5abe 0c60 81bf 268c 32bf 9a1b d33e
000000b0: 6134 4cbf 207c 903f a2db 9e3f 8095 6a3f
000000c0: 0aae 8dbe 1368 88bf d95f 5bbf 5944 c5be
000000d0: 2681 303f 00a5 68bf b833 17bf 6d86 833f
000000e0: 4afa 5abf 25f6 28bf 4374 143f 2d55 44bf
000000f0: 8ff5 4d3f 5851 803f ae13 62bf 6ad7 78bf
