code/python/spin_model/5_64_1_5_10_4950_960_use_train_spin_model.npz (npz, 126844 bytes, 6 tensors)

xh/b f4 [64]
000000 67 e5 3a bc fb c6 e5 3d f6 0a 09 bf 9c bc b8 be
       -0.011407233 0.11219593 -0.5353235 -0.36081398
000010 ac 22 39 bb 10 de 10 bc 4e ba 40 bf fb 91 99 3b
       -0.0028249426 -0.008842006 -0.7528428 0.0046865917
000020 93 42 b0 bb 8e 17 58 bf 1c c7 93 3b 68 b0 8c be
       -0.00537903 -0.8441094 0.0045098197 -0.27478337
000030 13 14 de bb 81 bd 93 be 5f 7c 4a ba 2a 4b bc 3c
       -0.0067772954 -0.28855518 -0.0007724221 0.02298506
000040 13 b1 6f bc 88 22 dc 3b b6 bc 12 bc 34 62 64 bc
       -0.01462962 0.0067179836 -0.008956125 -0.013939429
000050 a0 b6 d5 3a 1a cc 84 3d e2 0f a0 3e da 8c 80 b9
       0.0016305037 0.06484242 0.31262118 -0.00024519005
000060 b4 f5 ba bb cc 7e 4c bc 7f e0 87 3c 59 b3 77 3b
       -0.0057055596 -0.012481403 0.01658654 0.0037796109
000070 b1 6e 39 bc 93 69 a3 bc 68 5f 5f 3c b0 77 bd 3b
       -0.011317895 -0.019947803 0.0136335865 0.00578209
000080 99 2f b3 3c ec d8 a0 3d e5 46 4c bc 18 28 2d 3c
       0.021873282 0.078538746 -0.012468074 0.010568641
000090 62 81 f9 3f 10 1c c2 bf c7 b7 fe 3b b0 6c 62 bc
       1.949261 -1.5164814 0.007773373 -0.013819858
0000a0 f0 41 44 3c d4 96 a7 3c 28 79 b5 3a 07 51 93 3a
       0.011978611 0.020457663 0.0013845311 0.0011239358
0000b0 69 ea b0 3e 71 7c 37 bc 9d 71 7c bf 82 ce f2 bc
       0.3455384 -0.011199103 -0.9861086 -0.029639486
0000c0 98 75 9d 3c 48 07 5a 3c 44 7b 8a bb b5 a0 78 3a
       0.019221112 0.0133074 -0.00422612 0.00094843964
0000d0 7c c4 12 bc 50 15 0b bc 05 be a3 bd dd bd 13 bc
       -0.008957978 -0.008488968 -0.07995228 -0.009017435
0000e0 b7 83 8a 3a f3 6c 66 be fa af 8f 3b b2 e1 84 3c
       0.0010567819 -0.22502498 0.0043849917 0.016220901
0000f0 c9 63 44 3f cf 8d 89 3d 5e 0c 6f bb db 8d 26 bc
       0.7671476 0.06716501 -0.0036475877 -0.010165657

xh/W f4 [64, 5]
000000 00 71 df bb bf bc 96 bc d5 50 88 3c fa 45 ab 3c
       -0.0068188906 -0.018400548 0.016640106 0.02090739
000010 b4 b7 16 3d e8 01 6b 3d 1b 58 06 bd 11 18 a4 3c
       0.036796287 0.057374865 -0.032798868 0.020031007
000020 b5 07 95 c0 79 0b 99 40 de cb 03 bf bb 2f 50 bf
       -4.657191 4.7826505 -0.5148295 -0.8132283
000030 72 83 13 be 31 be b6 c0 0b f9 e6 3d 09 18 52 be
       -0.14405611 -5.7107167 0.1127797 -0.20516981
000040 09 1b c3 3d 38 7f 0d be 93 59 bc 40 fc ba d1 c0
       0.09526641 -0.13818061 5.8859344 -6.5540752
000050 28 08 fa 3b f0 18 ed 3a 34 14 8b bc c1 10 0e bc
       0.007630367 0.0018089097 -0.016977407 -0.008670987
000060 e6 66 5f bb 24 ad 03 3d a3 87 8a bc cc b2 28 bc
       -0.0034088432 0.03214754 -0.01691038 -0.010296535
000070 58 e1 7e b9 26 6b 97 3b 61 8f 39 be 0f 4e 35 3f
       -0.00024307275 0.0046209274 -0.18121101 0.7082223
000080 58 16 f0 bd ab fb ad 3e 5a f3 01 bf fa 72 32 3b
       -0.11723012 0.3398107 -0.5076195 0.0027229176
000090 5a c4 59 ba 01 d9 aa bc 68 c5 1a 3b 3c 99 ec bc
       -0.0008307152 -0.020855429 0.0023616198 -0.028881662
0000a0 ef aa 5b 3b 82 3d 70 bc 1b 02 ca bb 78 ab 8a bc
       0.0033518632 -0.014663102 -0.006164802 -0.016927466
0000b0 e3 d1 8b 3b f1 9f 34 bf cc bc e3 3f 0b f6 19 bc
       0.004266964 -0.7055655 1.7791991 -0.00939704
0000c0 eb 8b 5e 3f cd 74 90 3f 2c 09 b9 3b a2 8d 1d bc
       0.8693225 1.1285645 0.0056468453 -0.009616287
0000d0 a6 8d ca bb ce 25 24 3d ff ae 35 3c 5b 6e e5 3e
       -0.0061814366 0.040075116 0.011089086 0.44810757
0000e0 0a 2a 62 3e 3f 0a 19 c0 41 1d c6 be 3f 29 da bf
       0.22086349 -2.3912504 -0.38694194 -1.7043837
0000f0 6f 7f 36 3c 32 5d 2f bc ba 18 99 3c b9 26 f9 bc
       0.011138781 -0.010703372 0.018688548 -0.030413972
000100 61 85 b3 3c 19 6d d7 3d 3f 11 f0 be 81 c8 e6 bf
       0.021914186 0.105188556 -0.46888158 -1.8029939
000110 e6 27 07 3f 8e 31 cf 3f 45 24 17 bc b0 f7 4a ba
       0.52795255 1.6186998 -0.009224956 -0.0007742597
000120 ec 28 93 bc 41 74 cf bd 94 3e 0a 3e c4 64 73 bc
       -0.017963849 -0.101295955 0.13500434 -0.014855567
000130 bb 01 91 bb ae 5d 94 3a 9a b2 37 bc e4 29 c0 bc
       -0.004425255 0.0011319423 -0.0112120155 -0.023457475
000140 b7 db 1c 3d 85 e8 43 3c b5 d3 c1 bb 14 43 ed bb
       0.038295474 0.011957292 -0.00591513 -0.0072406624
000150 2b 09 ff 3c 0d ef 0d 3d 0c fb a2 bc b8 05 e5 3b
       0.031132301 0.034651805 -0.0198951 0.006989207
000160 12 d4 ba bc f9 a1 3b bd 4b 6b 19 bc ba 54 92 bb
       -0.022806201 -0.045808766 -0.00936396 -0.0044656666
000170 df cb 60 bc 72 78 0c bb 52 d6 29 3d 6a d4 52 bb
       -0.013720482 -0.0021434096 0.041464157 -0.0032170066
000180 a9 a4 76 3c 94 ac cb ba 8a 10 a0 bc 03 a3 9e bc
       0.0150539065 -0.0015539103 -0.019539136 -0.01936484
000190 08 87 7b bc df c1 c4 3c 0d e9 b7 3c f4 e6 05 bb
       -0.015352018 0.024018226 0.022449994 -0.0020431848
0001a0 29 0e dc bc 23 e9 d1 3c f3 08 b1 bc a1 73 15 3c
       -0.02686222 0.025623864 -0.021610713 0.009121806
0001b0 6e 4b 79 c0 72 ee 7c 40 ef 66 74 3e 6b bb bc be
       -3.8952289 3.9520535 0.23867391 -0.3686174
0001c0 62 2b 50 3e 20 35 da be 22 ab 29 3e f4 54 92 bb
       0.20329049 -0.42618656 0.16569188 -0.0044656936
0001d0 17 1b 34 3b ce 83 4a 3c 06 c1 28 3d b2 19 30 bb
       0.0027481967 0.012360526 0.041199706 -0.0026870784
0001e0 d2 0f 21 bc 61 27 71 bb 4e 34 bc 3a fb aa 04 3c
       -0.009830432 -0.0036797153 0.001435885 0.008097406
0001f0 55 2e b6 3b 66 81 2d 3c 26 7f 36 3b 16 fa 02 3b
       0.0055597224 0.010589933 0.0027846782 0.0019985489
000200 51 e1 93 3c 53 f5 0f 3c ff d4 ef bc 9d 92 5b ba
       0.018051775 0.008786517 -0.02927637 -0.0008376034
000210 48 9e 14 3c 46 83 56 bc 61 85 09 3b cd b9 81 bb
       0.00907094 -0.013092821 0.002098404 -0.0039589168
000220 b8 3e 5d 3c 96 8f 3c 3c 6a e0 76 3c eb cd 89 3c
       0.013503723 0.011508843 0.015068153 0.016821822
000230 1c d4 11 3c c4 6c c2 bc 13 d0 b7 bc 4e 91 21 ba
       0.0089006685 -0.023733504 -0.022438085 -0.00061633147
000240 46 c9 46 3c 3b c3 33 bb dc d0 f1 3b 68 11 eb bb
       0.012132948 -0.00274296 0.0073796343 -0.007173706
000250 e0 0a 3f bc e9 b7 e4 3c 5a 62 1d 3c ea c1 60 3c
       -0.011660308 0.027919726 0.009605968 0.013718108
000260 93 8b f4 ba 3d 0c c0 ba 1d 7c cf bc 5d 7f 98 3b
       -0.0018657319 -0.0014652085 -0.025327737 0.0046538548
000270 b1 a6 22 3c 90 47 24 3c 51 59 11 3d e4 48 e6 bc
       0.009927438 0.010026827 0.03548557 -0.028110929
000280 74 fd c8 3c 52 e2 bc bc d0 05 ba 3a 68 a7 12 bd
       0.024534918 -0.023057137 0.0014192406 -0.035804182
000290 bf 3c bf 3b d2 73 72 3d 91 57 1e bd 15 47 a2 3c
       0.005836099 0.059192486 -0.03865773 0.019809285
0002a0 b3 34 99 c0 fa d2 99 40 7b 7c 9e 3b a0 13 71 bc
       -4.787683 4.807004 0.0048366166 -0.014714152
0002b0 67 20 82 3c e7 21 4a 3d 1f 12 91 3c c3 8b 5d 3c
       0.015884591 0.049348738 0.017708836 0.013522091
0002c0 78 21 44 bb f3 d3 bb 3c 27 06 45 bc 61 b5 30 bc
       -0.0029927175 0.022928214 -0.012025393 -0.010785432
0002d0 29 5d be 3d 85 20 b9 bf 03 0f f4 3d e2 f8 63 40
       0.09295113 -1.4463049 0.11916926 3.5620656
0002e0 f0 21 46 c0 c8 9e 4f 3f c8 bf 20 40 1f 8c 09 3f
       -3.0958214 0.81101656 2.5117054 0.5372943
0002f0 6b f4 be 3f 54 53 9b 3e 82 4c af bb 1d 17 73 3c
       1.491834 0.30337012 -0.0053496966 0.014837054
000300 5d 35 37 ba 01 d3 8c bc 53 72 34 bd 21 c5 82 ba
       -0.0006988848 -0.017190458 -0.04405434 -0.0009976962
000310 66 9f 8f bc 51 21 98 3c 30 3c 0b 3d b0 aa be 3c
       -0.017532062 0.018570574 0.033992946 0.02327475
000320 4a 8a f7 3a fb 35 32 3c 94 81 ad bb 47 15 ee bc
       0.0018885818 0.010877128 -0.005294988 -0.02906288
000330 1f ec e8 bc 07 b7 2e 3c 36 6c bc bc c4 b1 00 3d
       -0.028432904 0.010663754 -0.023000818 0.03141953
000340 c9 e4 66 3c 8a 0a 63 bd 50 02 92 39 0d 56 a8 bc
       0.014092633 -0.055429973 0.00027849013 -0.020548845
000350 37 f9 8c 3c 31 d0 00 bd b7 bd 02 3b e5 d5 7f 3b
       0.017208679 -0.031448547 0.0019949505 0.0039037403
000360 d1 69 3b 3a e7 59 c2 bb ce 98 85 bc 89 1a 8f 3b
       0.0007149252 -0.0059311274 -0.016308215 0.004367177
000370 91 4e ed bf 5d 73 99 be 38 d7 97 be d6 9b 2e 40
       -1.8539602 -0.29970828 -0.29656386 2.7282615
000380 24 d3 af be 9b a1 26 3c ff 07 1c bc aa 24 1c bc
       -0.34340775 0.010170366 -0.009523391 -0.009530226
000390 76 77 c4 3b 23 9b 3b bb d3 02 f0 bf a9 32 9e bd
       0.005995686 -0.0028626404 -1.8750862 -0.077245064
0003a0 f1 59 be bf 9c 4b 26 c0 81 1e fa bc c5 bc 8b 3c
       -1.4871198 -2.5983648 -0.030532124 0.017057786
0003b0 de e7 17 bd 65 07 3e 3c 4b 39 ae 3b e8 d5 07 3d
       -0.03708636 0.011598443 0.0053168884 0.03316298
0003c0 f3 c9 d2 3c af 5b 25 bb 46 71 c7 3a 2c a1 58 bd
       0.025731063 -0.002523165 0.0015216253 -0.05288808
0003d0 0a d1 6b 3c 56 b5 cb 3b 49 4f 48 3a 6c 95 84 b8
       0.0143931005 0.0062166853 0.0007641209 -6.3220825e-05
0003e0 b6 fa 78 bb 12 1e a8 3c 57 1d d6 bb 12 2f 8d 3b
       -0.0037991232 0.020522151 -0.0065342593 0.0043085897
0003f0 6a 2e fa 3b e1 f7 0f bc fb 7d 30 bd 16 44 0e 3c
       0.0076349275 -0.008787126 -0.043088894 0.008683225

hh/upward/b f4 [256]
000000 fc 00 23 40 6e 4d 9d c0 9f 3f 0a bf 3c 76 1a c0
       2.546935 -4.915702 -0.5400333 -2.4134665
000010 f1 cf b0 3e da e1 a6 3f c6 0f 4a bf 27 a0 06 bf
       0.34533647 1.3037674 -0.7893032 -0.52588123
000020 5f 1d 62 bf 1c 5e f2 3f bb 73 79 3f 00 fc ee be
       -0.88326067 1.893497 0.97442216 -0.46676636
000030 07 b6 1b 40 99 43 22 3f b0 c2 2b 3f c1 33 37 40
       2.432985 0.63384396 0.67093945 2.8625338
000040 54 c8 58 c0 33 04 c5 3f ff fa 45 3f 52 a2 50 40
       -3.387227 1.5391906 0.77336115 3.2599072
000050 09 ad 07 40 37 be bd 40 1d 52 9b 3f 83 be 56 c0
       2.1199362 5.9294696 1.2134434 -3.355378
000060 e4 be 8f 3f 70 d4 d0 3f 3a 6f 94 3e 82 4e 2e bf
       1.123013 1.6314831 0.2899111 -0.68088543
000070 7d 53 61 40 e0 fa c9 bf 43 a0 97 3d 9d 11 ed 3e
       3.5207207 -1.5779686 0.07403614 0.463025
000080 6c b7 03 c0 12 7a 77 3f f4 0c 73 c0 82 95 17 40
       -2.0580702 0.9667064 -3.7976656 2.3685002
000090 92 c3 14 40 81 7c 6d 40 7c cf 7e bf cf 48 4b 3f
       2.3244367 3.710724 -0.99535346 0.7940797
0000a0 2b fe 0b 3f 6a 3f ef 40 85 b6 3a be ae ed 09 40
       0.54684705 7.476491 -0.18233688 2.1551318
0000b0 50 b6 85 3e aa 41 08 40 d8 83 0e 3e 00 e1 09 40
       0.26115656 2.1290078 0.13917482 2.154358
0000c0 ce a5 e7 bf 23 30 fb 3f 5a c9 3f bf b3 8d 9b 3f
       -1.8097475 1.9624065 -0.74916613 1.2152618
0000d0 0a 27 f9 3d 8e da 32 40 3b e5 91 bf f1 37 c5 3f
       0.12165649 2.7945895 -1.139808 1.5407697
0000e0 f3 9d 38 bf 14 b8 9d bf 22 02 66 3e fe 14 bf 3f
       -0.7211601 -1.2321801 0.22461751 1.4928281
0000f0 5c b5 7e c0 bf 4b 04 c0 2e 04 85 bf cb 3b 9d 3d
       -3.9798193 -2.0671232 -1.03919 0.0767742
000100 98 f6 2f c0 35 26 ed 3e f1 ba e5 3f f1 62 f5 3f
       -2.749426 0.46318212 1.7947675 1.917082
000110 a7 67 75 be b7 71 09 40 a1 e2 58 3f a1 8f 2d c0
       -0.23965321 2.1475656 0.8472081 -2.7118914
000120 56 f1 5e bf 1e 32 30 40 d7 c7 f1 bf 2c 0e 86 c0
       -0.87087 2.753059 -1.8889111 -4.18923
000130 08 a2 bb 3f d6 95 aa 3f 05 e2 8d 40 51 04 6a 3f
       1.4658823 1.3326976 4.4338403 0.91412836
000140 c5 8c b3 3f 33 65 4f 3f 9f 32 78 3f 60 00 d2 3f
       1.4027334 0.8101379 0.9695224 1.6406364
000150 24 9d 44 c0 30 cb 2a 3e a6 6b 17 bd f2 dc 1b 40
       -3.072091 0.16679072 -0.036967896 2.4353604
000160 f1 60 15 c0 a2 33 15 40 14 b6 24 40 3b a0 ef 3e
       -2.3340418 2.3312764 2.5736132 0.46801934
000170 1c 14 2e bf 7d ed 65 3f 6a 29 1e 3d 01 88 c6 40
       -0.67999434 0.89815503 0.038613714 6.204102
000180 99 f2 10 3f 41 67 a3 bf b4 39 e7 be c6 9f 90 be
       0.56620175 -1.2765886 -0.45161211 -0.28246897
000190 da 46 30 3f a0 47 7f c0 68 e6 22 be 4c cb 24 40
       0.6885811 -3.9887466 -0.15908206 2.5749083
0001a0 48 61 0a 3f d3 68 bf bd e7 33 22 3f 2c 2f 08 40
       0.5405469 -0.093461655 0.63360447 2.1278791
0001b0 f0 f6 0b bf 81 af 8e 3f b6 95 4b c0 43 49 68 c0
       -0.5467367 1.114731 -3.1810126 -3.6294715
0001c0 2a e8 34 be 0c 12 fa bf bb 27 d1 bf 6b 07 49 40
       -0.17666689 -1.9536757 -1.634025 3.1410778
0001d0 75 54 38 3e 59 f1 11 40 c9 9a 56 c0 f5 52 03 bf
       0.18000968 2.2803557 -3.3531973 -0.5129846
0001e0 8b 34 c1 3f 8e 9b c3 bf 33 ee b3 bf ae cf fb 3f
       1.509416 -1.5281847 -1.4057068 1.9672754
0001f0 2f 59 2f 40 03 05 fd 3f f2 8a 17 3f ca 8e c2 3f
       2.7398183 1.9767154 0.5919639 1.5199826
000200 a4 7c bf 3f c2 de 89 40 31 0d ba be ee d9 c4 3f
       1.4959912 4.308442 -0.3633819 1.5379007
000210 35 04 08 c0 bd 78 5f bf 7b 49 6d 3e 44 8e 2b bf
       -2.1252568 -0.87293607 0.23172562 -0.67013955
000220 d2 83 52 bf d3 7a 3e 40 21 bf 1e c0 8b df 84 3f
       -0.8223239 2.9762466 -2.4804156 1.038072
000230 20 b4 0f 40 82 4d bb 3f c0 49 8c bf 8b 78 00 3f
       2.245369 1.4633029 -1.0960007 0.50183934
000240 09 31 48 c0 19 84 9d be b7 b4 bb 3d 1a 31 6c 3f
       -3.1279929 -0.30764845 0.09165328 0.92262423
000250 1b e6 2d 40 a1 a2 70 3e 3f ba 5a 3d 6b 86 58 bf
       2.7171695 0.23499538 0.053400274 -0.84580106
000260 56 43 50 3f 09 0a 9c 3e 08 eb 02 c0 00 6b d4 3f
       0.81352746 0.30476406 -2.0455952 1.6595154
000270 fd b0 8d c0 61 a1 30 3f 7c 3c 9d 3f 3c a0 aa 3f
       -4.427855 0.68996245 1.2284083 1.333015
000280 d5 1a 69 bf 33 18 b2 3f 8c 83 a9 bf 4b 60 ae 3f
       -0.9105657 1.3913635 -1.324327 1.3623136
000290 13 ab 89 40 86 08 d6 3f 6d 45 62 bf f3 95 bf bf
       4.302133 1.6721351 -0.88387185 -1.4967636
0002a0 6b 19 b3 bc 4e 6b a0 be 55 f4 4f 3e ab 55 06 c0
       -0.021862706 -0.31331867 0.20308049 -2.0989788
0002b0 ac d0 96 be 1d a8 50 40 4d 2e ab bd 6a 82 33 3f
       -0.2945608 3.2602608 -0.083584405 0.7012087
0002c0 80 7f d7 bf 04 d7 c0 3f 7f a3 48 3f 56 73 56 be
       -1.6835785 1.5065618 0.78374475 -0.20942435
0002d0 95 49 c1 bf 52 35 e5 bf fe 48 08 c0 8d e3 67 3f
       -1.510058 -1.7906897 -2.129455 0.9058159
0002e0 72 c7 ac 3f 9d 8c 00 c0 48 6e 1f c0 4e a6 73 3f
       1.3498366 -2.0085824 -2.491106 0.95175636
0002f0 89 a4 fe bf 43 c8 fa 3f e3 94 86 3f dd fd 83 be
       -1.9893962 1.9592365 1.0514187 -0.2577962
000300 cc e0 97 3f 2d 91 28 40 69 58 5d c0 e3 9f f2 3f
       1.1865478 2.6338608 -3.4585211 1.8955044
000310 79 25 06 40 76 f7 53 be f3 fe e5 bf b2 81 ab 3f
       2.0960371 -0.20699868 -1.7968429 1.3398955
000320 5d a1 f8 3f 26 33 80 3f 1e ed 03 3f c4 3a ee be
       1.9424244 1.0015609 0.5153369 -0.4652921
000330 f1 99 8b c0 c7 ea 46 3f c1 52 56 c0 34 9a 05 c0
       -4.3625417 0.7770199 -3.348801 -2.0875368
000340 c4 6c 71 c0 5e 10 e6 3f ae aa 4c bf 21 76 94 3e
       -3.7722635 1.7973745 -0.79947937 0.28996375
000350 25 26 94 3f 2a e6 0b bf fd b9 bf be 35 11 67 3f
       1.1574141 -0.5464808 -0.37446585 0.9026063
000360 a0 ea a4 be e4 4d 92 3f d7 57 a6 be 25 17 04 40
       -0.32210255 1.143002 -0.3248889 2.0639126
000370 2a 46 40 bc 4e 8c 30 3f 3d fc 64 bf 88 ab 0d be
       -0.011735478 0.6896409 -0.89447385 -0.13834965
000380 3b c7 b5 40 9b 53 b2 3e f3 24 0f c0 61 ab 3c be
       5.68057 0.3482941 -2.2366302 -0.18424751
000390 42 27 7c c0 cf eb 9e 3d ab 7f 31 bf 16 2f c5 3f
       -3.939896 0.07759821 -0.6933543 1.5404994
0003a0 e5 eb ef 3d 96 70 b4 3f 4c 54 01 3f c8 c2 af 3f
       0.11714915 1.4096859 0.5051925 1.3731318
0003b0 be 8d 3e c0 f9 4e 09 c0 ed a5 ec be 19 ff 63 40
       -2.9774013 -2.145445 -0.4622034 3.562445
0003c0 4a f3 8b bf 2b 30 88 3f 18 e5 3b bf 18 6d 7c 40
       -1.0933621 1.06397 -0.73396444 3.9441586
0003d0 a4 9a ae 3e b8 cc c4 be 0a 87 5b be a3 aa fb 3d
       0.34102356 -0.38437438 -0.21438232 0.12288406
0003e0 b5 37 64 c0 1a 1a 19 40 0e 9b 7e bf 89 3e 52 3f
       -3.5659 2.392218 -0.99455345 0.8212667
0003f0 9e 4b 5e c0 2e 82 9c bd 6b 72 f4 be 00 9a 6c 3f
       -3.4733653 -0.07642017 -0.47743544 0.92422485

hh/upward/W f4 [256, 64]
000000 f6 33 b0 3d f8 5a ef 3f 56 ae 00 40 30 8f 7d c0
       0.08603661 1.8699636 2.0106406 -3.9618645
000010 11 d1 56 bc c5 b1 82 3d f4 ee 19 40 ab ac d5 3c
       -0.013111369 0.06381563 2.4052095 0.026083311
000020 22 02 80 3d 0e 4c 41 40 94 9a fb bb ea 60 9a 3f
       0.06250407 3.020267 -0.0076783393 1.2060826
000030 c1 b0 13 3d 08 f2 c4 bf 42 75 56 be 15 dd 27 3d
       0.036057238 -1.5386362 -0.20943168 0.040982325
000040 39 73 c5 39 72 58 b5 3c f9 40 02 be 2e 15 19 3d
       0.00037660616 0.0221369 -0.12720098 0.037373714
000050 88 ab 9d 3d 43 5f 91 3f c0 d9 d9 bf e5 f1 81 bc
       0.076987326 1.1357197 -1.7019577 -0.015862415
000060 bf d9 d7 3a 99 14 ca ba 28 f3 ce bd 7a 54 26 be
       0.0016468092 -0.0015417516 -0.10104972 -0.16243163
000070 bb b6 66 3d 29 fe a6 3d 5a 5c c9 bd e9 30 7e bd
       0.05632661 0.08153946 -0.09832068 -0.062058363
000080 a3 d8 c7 bc d8 57 05 40 48 4a 16 be 58 bb 08 be
       -0.024395293 2.0834866 -0.14676774 -0.13352716
000090 80 5a 16 c0 ec a9 fc bd 3b 36 24 3d dc 86 06 3e
       -2.3492737 -0.123370975 0.04009078 0.13137382
0000a0 7d f7 b1 bd c3 8e 07 3e 49 a3 9a bd 89 40 77 bd
       -0.08689783 0.13238053 -0.075506754 -0.06036428
0000b0 81 0c b3 be 9a 98 ea 3d 2e ee 33 40 cf 14 7d 3d
       -0.34970477 0.11454888 2.8114123 0.061787423
0000c0 7e ed d2 3d 45 a7 30 be 4d 2c 50 bc 8a d7 ce bd
       0.10299204 -0.17251308 -0.012705875 -0.100997046
0000d0 60 b0 97 bd fb 8e 3b 3d 2c 6f 9e bf 6e 8a cc 3d
       -0.07406688 0.045790654 -1.2377677 0.09987341
0000e0 2b 45 5e bd 12 fd 36 3f 8f d7 9e bd a8 78 e7 3c
       -0.054265182 0.71479905 -0.07755958 0.028255776
0000f0 cc fe da c0 39 3e f3 3e 5b 17 0f be 68 d4 02 3d
       -6.843603 0.4750841 -0.13973753 0.031940848
000100 e8 fd be be 03 9b 0b c0 7f a1 bd bf 8b 88 9f 40
       -0.3730309 -2.1813362 -1.481491 4.985418
000110 6d 22 93 3d 58 ee 6a 3e 37 e4 32 c0 0d c5 87 be
       0.071843006 0.22942483 -2.7951791 -0.26517525
000120 a9 76 12 bd a4 89 b4 bf 67 85 e0 bd 30 66 90 40
       -0.035757694 -1.4104505 -0.109629445 4.512474
000130 d9 ba a2 bd 7e 2e 91 40 f5 96 bd bd cf 47 0a be
       -0.079457946 4.5369253 -0.092573084 -0.13503955
000140 14 d6 04 bc 49 fe 2f 3e 9a 13 4c 3e f5 59 90 3e
       -0.008107681 0.17186846 0.19929352 0.28193632
000150 e5 07 98 3d 30 fe 9c bf 0c eb 59 40 45 77 bc 3c
       0.07423381 -1.2265072 3.4049711 0.02300609
000160 6d 6d a4 be e3 4e 82 be 5e ea 90 3d 2d b8 bc 3e
       -0.32114735 -0.2545081 0.07075952 0.36859265
000170 3a ba b4 3d 2d 7c 2d 3e 5a e4 b0 bd a5 46 3c 3e
       0.088245824 0.169419 -0.086373046 0.18386324
000180 49 29 9d be 16 69 47 bf fa c6 1f 3f 23 58 00 bd
       -0.3069556 -0.77894723 0.6241299 -0.031334054
000190 69 ad 83 bf 77 56 14 c0 0e 4b f4 be 04 13 93 3c
       -1.0287296 -2.3177774 -0.47713512 0.017953403
0001a0 eb 0a e7 3e 06 72 a3 3d ec 0a 15 be 31 77 ee 3d
       0.45125517 0.079807326 -0.14554948 0.11643828
0001b0 d7 2d a1 c0 bc 10 bc 3e c7 c9 93 3e db 4a 5d be
       -5.0368457 0.36731517 0.2886488 -0.21610586
0001c0 c9 fa 08 bd d3 69 07 bd 23 2a 07 bc 23 41 47 be
       -0.033442292 -0.033059906 -0.008249792 -0.19458441
0001d0 41 69 88 bc b6 b8 8e bd 46 83 05 40 71 d3 71 be
       -0.016651751 -0.069688246 2.0861373 -0.23615815
0001e0 ec 39 a0 be b8 97 cf bf f5 88 0c bd a2 77 67 bd
       -0.3129419 -1.6218176 -0.0343103 -0.056510575
0001f0 dc 25 c2 40 c8 4c 33 c0 ce 80 a3 3e cd 72 83 3d
       6.0671215 -2.8015614 0.31934208 0.06418381
000200 83 f0 58 3e 61 3c fa 3e 2f 02 da 3e 95 7a 27 bf
       0.21185498 0.4887419 0.4257979 -0.6542142
000210 7e 9f 00 3f d1 44 75 3d 8f bb 8d bf 97 a0 6c 3e
       0.50243366 0.05988008 -1.1072863 0.23108135
000220 fa 57 79 bc 30 41 fe 3f b7 4e 80 be 76 91 55 c0
       -0.015218729 1.9863644 -0.25060055 -3.3370032
000230 f4 b7 29 bf 90 7c c0 3f 81 49 63 3e 7c f6 9b be
       -0.66296315 1.5038013 0.22196008 -0.3046149
000240 c7 24 12 3f 42 93 9b be a9 1e 16 3d 3a 28 69 bb
       0.5708737 -0.30385786 0.036650334 -0.0035576955
000250 dd a7 1b bf 0c 2c 5d 3e 8c b0 05 bf 99 92 b5 3e
       -0.60803014 0.21598834 -0.52222514 0.35463408
000260 39 01 1b 3f 12 06 a4 be 69 96 3d 3e 3d df af 3e
       0.6054874 -0.3203588 0.18514408 0.34350005
000270 ba 9f 86 3d b6 c4 31 3f f7 c6 dd 3e 2f 2f 49 bd
       0.06573434 0.6944078 0.4331586 -0.049117263
000280 96 2e 6f be a4 22 ef 3e 79 d6 b8 be ad 47 ed be
       -0.23357615 0.46706116 -0.3610113 -0.46343747
000290 21 2f ba be e5 82 03 bf 5d 6f 82 3e 48 ff 1f bf
       -0.36364082 -0.51371604 0.25475588 -0.62498903
0002a0 dd e1 cc 3d a8 ed cf be 94 8e b1 3e af 2a 87 be
       0.100040175 -0.40611005 0.3467909 -0.26399752
0002b0 bc c4 19 40 be 61 ab 3e a2 42 07 40 f6 f3 d2 3e
       2.4026327 0.3347301 2.113442 0.41201752
0002c0 d6 5c 63 ba be c2 aa be 1c c9 c5 bc 27 f2 9b be
       -0.00086731964 -0.33351701 -0.024143748 -0.30458185
0002d0 55 1e cb 3e 58 e8 de be 89 b2 6d bf 38 03 85 be
       0.3967158 -0.4353664 -0.9285055 -0.25979018
0002e0 17 95 09 bf 9e 23 9f be b7 6a a6 be 37 23 52 be
       -0.5374312 -0.3108186 -0.32503292 -0.20521246
0002f0 eb 5c 0d bf f5 6b 85 be a3 c6 6d 3e 67 23 07 3f
       -0.55219907 -0.26058927 0.23220305 0.52788395
000300 0f 00 17 3d 19 fc c4 be 42 b4 68 bf 16 95 60 3f
       0.03686529 -0.38473585 -0.9090005 0.8772749
000310 a0 43 28 3e a3 e7 61 3e dc 32 98 bd 51 c7 dd 3d
       0.16432047 0.22061019 -0.07431576 0.10829032
000320 16 8c 54 3c 97 67 01 be f6 26 50 3d e4 23 a5 be
       0.012972852 -0.12637173 0.050818406 -0.32253945
000330 63 5d b8 3d 25 a5 74 3f b0 0f af bc 55 dd b8 bb
       0.09002187 0.9556449 -0.021369785 -0.005641619
000340 db 54 d5 bc ea a6 5b 3d 87 cf 91 bd 89 b4 5c bc
       -0.026041439 0.05362598 -0.07119661 -0.013470777
000350 8e 5d 1c 3d 67 8b 0d be 35 69 9b 3f 07 8d 25 be
       0.03817516 -0.13822709 1.2141482 -0.16167079
000360 03 8c 32 3c ba 3a b1 3c 9d 20 d1 3c 2d c5 95 bd
       0.010897639 0.021634448 0.025528247 -0.07312999
000370 b4 e0 b3 bd b4 2e 8f bc 2b 9f 41 3e 80 95 74 bb
       -0.08783093 -0.017478324 0.18908374 -0.0037320554
000380 98 c7 9a 3c 7d 3d eb be 16 4c 46 bc 22 f0 00 3d
       0.018894002 -0.4594535 -0.012103101 0.03147901
000390 b1 93 13 bf f0 39 9c 3f 3b e7 6a bd dc 74 25 bd
       -0.57647234 1.2205181 -0.057349425 -0.04039465
0003a0 94 80 7e bd 1e 2a 20 3d fa f6 85 bd 7c 41 3a bc
       -0.06213434 0.039102666 -0.06541248 -0.011368152
0003b0 f6 81 69 be fb cb 97 3d c1 09 05 c0 7b b6 c4 3d
       -0.22803482 0.07411953 -2.0787203 0.09605118
0003c0 ac 8d f7 bd 32 9b 30 be aa 7a 6c 3b 36 66 aa 3d
       -0.12087569 -0.17246702 0.0036083856 0.083202764
0003d0 2b 3f 65 3d c9 85 fe 3d f7 44 5f 3e cb 23 d7 bc
       0.055968445 0.12427861 0.21803652 -0.026262185
0003e0 f7 7e f2 3b c5 d4 1f 3f 82 44 aa 3d 5b c2 2e bd
       0.0074003893 0.62434036 0.08313848 -0.04266582
0003f0 53 e0 19 40 bd a2 d7 bd 82 7e 0e bc 32 22 f0 bd
       2.4043167 -0.10529087 -0.008697154 -0.11725272

hh/lateral/W f4 [256, 64]
000000 e6 12 bf be 39 f6 4e 40 63 ee d7 bf 38 63 c2 3f
       -0.37319106 3.2337782 -1.6869625 1.5186529
000010 3f e8 02 40 4a 6e cb bf 01 f4 a5 3e 1b 95 0f c0
       2.0454252 -1.5893033 0.32412723 -2.2434757
000020 be 29 bf bf 5d 3b e2 bf 1d af 8b bf b5 0e 91 c0
       -1.4934614 -1.7674366 -1.0912815 -4.5330453
000030 a4 77 0a c0 da 6b c2 40 42 db 78 bf 79 0e b7 3f
       -2.1635523 6.0756655 -0.9720956 1.4301292
000040 c1 23 39 40 f8 a5 4c c0 3a 85 bc 3f 4e 8d 13 40
       2.8928072 -3.19763 1.4728158 2.3054996
000050 46 54 02 40 90 0d 19 bf 89 14 61 3f 5b 05 2b 3f
       2.0363936 -0.5978632 0.8792196 0.66805047
000060 ae 8d a5 40 b8 d6 6c c0 3f e4 b0 3f 4a 08 b3 3f
       5.173545 -3.7006054 1.3819655 1.3986905
000070 4a 2c 4a c0 75 b9 87 c0 35 43 45 40 54 23 65 c0
       -3.1589532 -4.241389 3.082227 -3.5802813
000080 9a 1a 57 3e 4c c5 64 40 d7 b1 1c be 87 72 62 bf
       0.21006241 3.574542 -0.15302216 -0.88456005
000090 45 4b 60 3d 5b 34 aa 3e fb 81 e3 bf 6d ed 5f 40
       0.054759283 0.3324307 -1.7774042 3.4988663
0000a0 20 44 7b 40 83 fd 0b bd 22 15 a2 bf bd 69 0f c0
       3.926033 -0.034177314 -1.2662699 -2.2408288
0000b0 21 e7 6f c0 c3 cc e5 40 3e b6 f4 bf 10 cd 6d 40
       -3.748482 7.1812453 -1.9118116 3.715641
0000c0 f6 f4 67 40 eb c7 24 40 c6 dd c5 bf 60 24 2c 3f
       3.6243262 2.574702 -1.5458305 0.67243004
0000d0 1d cc ea 3f 09 af a6 40 f4 36 8a 40 ed bb 78 c0
       1.834354 5.2088666 4.319208 -3.88647
0000e0 cf c2 29 3f e0 88 6b bf a1 8d 0b c0 d3 4a d1 be
       0.6631288 -0.9200573 -2.1805193 -0.408774
0000f0 e3 6e 4a bf e1 53 0b bd 29 f7 3d c0 e8 9e 0f bf
       -0.7907545 -0.03401554 -2.9682105 -0.56101847
000100 33 92 dc 40 94 56 36 40 ff 93 6c bf 31 34 71 3d
       6.8928466 2.8490343 -0.92413324 0.058887664
000110 20 a4 47 3f 01 44 a6 c0 5a 4a 0f 40 a0 1a 07 40
       0.7798481 -5.1958013 2.238913 2.111
000120 c7 cc f3 bf e8 f9 e2 bf cd d2 da 3e 2a ef fe 3f
       -1.9046868 -1.7732515 0.42738953 1.9916737
000130 0b 4a 17 3f f9 25 8c 3e 69 cd 62 be 6b 46 ab 40
       0.59097356 0.2737272 -0.2214867 5.352346
000140 cd cc 8e 3d 61 08 53 bf 3b 2c 83 c0 ea e0 b5 bf
       0.069726564 -0.8243466 -4.099149 -1.4209263
000150 ae 3c 38 c0 97 c4 5d 40 ac 3f 24 bf c1 1f 1d c0
       -2.8787036 3.465124 -0.64159656 -2.455063
000160 d4 9f aa c0 a9 98 7f 40 a5 05 af bf 60 8d 8f 40
       -5.3320103 3.9936926 -1.3673598 4.4860077
000170 86 76 0a bf 52 9a e4 3f a0 37 5d c0 3e ca e2 3f
       -0.540871 1.7859595 -3.45652 1.771797
000180 48 16 03 c0 93 db 32 c0 48 19 aa be 2c eb 31 40
       -2.048235 -2.7946517 -0.33222413 2.7799788
000190 bc 5e 94 3d 34 ce 75 3f 1c 5b 2a c0 1c 0a 04 bf
       0.07244632 0.96017766 -2.6618109 -0.51577926
0001a0 4e 1a 01 bf 08 8c 70 bf 6e 91 9b 40 d3 0b d9 bf
       -0.5043076 -0.9396367 4.8615026 -1.6956733
0001b0 11 85 4d 40 78 bc 5d bf 1b c2 20 bf 67 15 9e c0
       3.2112467 -0.86615705 -0.6279618 -4.9401126
0001c0 d5 ee bd bf d7 fe cc c0 6b 61 61 40 d5 6a 70 c0
       -1.4838511 -6.4061084 3.521571 -3.7565205
0001d0 a1 e8 a6 c0 9b f7 8b bf d2 9a 03 c0 87 85 50 40
       -5.215897 -1.0934938 -2.0563245 3.2581499
0001e0 13 a2 32 40 5e b9 09 40 ff 20 6b bf 08 ea 03 40
       2.7911422 2.151939 -0.91847223 2.0611591
0001f0 63 fd 08 3f 60 a5 92 c0 4a c4 f7 3f 5c ad b2 bf
       0.5351164 -4.5826874 1.9356778 -1.3959155
000200 87 2f 0a c0 9b b7 6e 40 57 fe e0 40 30 69 d7 3f
       -2.1591508 3.7299564 7.0310473 1.6828976
000210 4e ff c8 bf 88 52 55 3e bd 44 59 40 0a f1 47 c0
       -1.5702913 0.20832264 3.3948205 -3.1240869
000220 fe e1 56 40 71 db 72 bf b6 03 92 c0 85 50 6d 40
       3.3575435 -0.9486609 -4.562953 3.7080395
000230 2d 0f 90 3f 3c 48 c5 be 47 9e 93 3f 68 2d 1b c0
       1.1254631 -0.38531673 1.1532677 -2.4246464
000240 c6 34 39 bf e6 a2 4d 3e f2 14 d4 be 35 f8 7d c0
       -0.7234615 0.20081672 -0.4142223 -3.9682744
000250 8e 23 09 c0 fc 69 46 40 c8 bc 0b 3c 5a 43 d5 bf
       -2.142795 3.1002188 0.008528896 -1.6661179
000260 ad d6 25 c0 b6 b0 06 c0 fb 6d a0 bf 73 cd fe bf
       -2.5912278 -2.1045356 -1.2533563 -1.9906448
000270 d1 e5 53 40 b4 a2 d2 3f 1e 14 15 40 97 8f 67 40
       3.3109019 1.6455903 2.3293529 3.618139
000280 76 77 3d 3f d7 24 22 40 a2 b0 15 be 33 7a c4 c0
       0.7401041 2.5334985 -0.14618161 -6.139917
000290 df 3c a8 40 d7 cf 7d bf 0d 14 09 c0 37 82 5e bf
       5.2574306 -0.99145263 -2.1418488 -0.8691744
0002a0 57 ec 1a c0 21 b4 15 c0 d5 85 a6 3e cb a4 8b 40
       -2.420675 -2.3391192 0.3252398 4.3638663
0002b0 9f d0 51 c0 cb 37 b4 c0 b9 b3 e3 3e 6b 35 ad 3f
       -3.2783582 -5.6318107 0.44473055 1.3531927
0002c0 f0 6e 5b 3b f0 ed 0d c0 aa 4a e2 bf 98 84 09 3f
       0.0033482872 -2.2176476 -1.7679036 0.53717947
0002d0 3d c8 2a 3f a3 59 b3 bf 4e 62 15 c0 a5 2d 61 3e
       0.6671179 -1.401173 -2.334125 0.21990068
0002e0 06 a5 10 c0 62 3c 8f bf 5e cc 51 c0 aa f1 e4 bf
       -2.2600722 -1.1190302 -3.2780986 -1.788625
0002f0 67 5e a9 40 56 71 01 c0 05 cb 30 40 d1 31 cb c0
       5.2927737 -2.0225425 2.7623913 -6.349831
000300 a4 73 13 40 dc dd 12 bf 35 77 04 3f bd 07 00 be
       2.3039331 -0.5736978 0.51744395 -0.12502952
000310 4a 6c 6a 3e 5a da 0c bd 6c 2f 0c bf c4 c0 f4 3e
       0.22892871 -0.034387924 -0.5475986 0.47803319
000320 8e 48 47 bf 40 45 c2 be ef e1 d6 bb 17 b9 5d 3e
       -0.77845085 -0.3794346 -0.006557695 0.21652637
000330 b4 75 b9 bf cf ac 27 bf b6 11 0d 3c 6e 66 82 be
       -1.4489045 -0.6549806 0.00861018 -0.25468773
000340 03 4a e6 be 8c 9d 03 40 3b 1f fc bf 4e 18 8e bd
       -0.4497834 2.056491 -1.9697031 -0.069382295
000350 07 a8 ac 3f 69 61 6c 3f 1e 4d 6d 3f 75 bf 82 3f
       1.3488778 0.92336136 0.92695796 1.0214678
000360 2a 7c 9e 40 9e 5b cd bf 8e 10 ff bf ca d1 00 c0
       4.9526567 -1.6043584 -1.9926927 -2.0128045
000370 ea 91 89 40 28 6e 48 c0 a2 31 5b 3f 70 3f 70 be
       4.299062 -3.1317234 0.8562261 -0.234617
000380 02 86 27 3f 82 4d ff 3e b4 28 6b be d1 f4 e0 3f
       0.65438855 0.4986382 -0.22964746 1.7574712
000390 1e 91 03 bf f1 be db 3f 49 f0 72 bf a7 a9 70 bf
       -0.51393306 1.7167646 -0.94897896 -0.9400887
0003a0 7e 01 92 3f fa 88 ce bf e0 7a 63 bf c4 03 23 3f
       1.1406705 -1.6135552 -0.8885937 0.6367762
0003b0 ef f2 58 bf e7 e9 9a bf b4 48 df bf c0 43 2d c0
       -0.8474569 -1.2102631 -1.7444062 -2.7072601
0003c0 3a 12 99 be 28 87 de 3f fa 25 f4 bd be 7f 00 40
       -0.29896718 1.7384996 -0.11921306 2.0077968
0003d0 11 59 cd 3f f0 4b 68 3f 9f 42 62 40 d2 b2 4e bf
       1.6042806 0.9074087 3.5353162 -0.8074161
0003e0 33 0c 08 bf c1 c5 a2 3e ac a6 d1 3e ce 9a 2f 3f
       -0.53143615 0.317915 0.40947473 0.6859559
0003f0 83 93 bf bf 01 10 22 bf 17 26 52 bf 62 58 13 40
       -1.4966892 -0.6330567 -0.8208937 2.3022695

hy/W f4 [1, 64]
000000 80 00 b4 bf f3 f2 59 bf 51 90 77 3f 29 08 d2 be
       -1.4062653 -0.85136336 0.96704584 -0.4102185
000010 4f e5 26 bf ea 51 d6 bf af 7b 1d 3f f1 a8 32 bf
       -0.6519365 -1.6743748 0.6151685 -0.69789034
000020 da 69 1c 3f ac cd 3d bf de d2 28 bf a9 32 c5 3e
       0.61099017 -0.74141955 -0.6594676 0.38515213
000030 df 76 69 3f e2 09 4d be b4 3c 0a bf 08 79 7e 3f
       0.9119701 -0.20023301 -0.53998876 0.9940343
000040 c2 2a 96 bf 96 fa 84 bf c2 3c 28 3f b4 f9 79 bf
       -1.1731799 -1.0388973 0.6571771 -0.9764664
000050 c9 e0 04 bf d9 98 51 3f e9 0e 7e 3f 57 df 05 bf
       -0.51905495 0.8187385 0.992415 -0.52293915
000060 7d e1 6b bf c6 91 97 3f 89 f4 53 3f dd 9b 68 3f
       -0.9214094 1.1841362 0.82795006 0.9086283
000070 b3 39 a0 bf a7 54 21 bf 01 95 7a 3f 85 c4 5a bf
       -1.2517608 -0.63019794 0.9788361 -0.85456115
000080 3e 9c 0d 3f 02 90 98 bf 42 e8 6a bf 5c fc 18 be
       0.5531653 -1.1918948 -0.9176065 -0.14940017
000090 93 0e 3c 3f 34 cf 85 3f f3 1d 67 3f f8 0c 5e bf
       0.7345974 1.0453858 0.90280074 -0.8673854
0000a0 cf c7 2d be 94 01 81 bf 7e fb 3d bf ab 24 c7 3e
       -0.16970752 -1.0078607 -0.7421187 0.38895163
0000b0 0a b4 4a bf 70 61 82 3f fe 13 9f 3f 57 33 6a 3f
       -0.7918097 1.0185986 1.2427976 0.9148459
0000c0 2c a9 9b be d6 f1 86 bf c4 f0 6d bf 32 51 e7 be
       -0.30402505 -1.0542552 -0.92945504 -0.45179135
0000d0 10 2e 2f 3f 10 1b 6c bf de f9 16 bf 04 49 7c 3f
       0.6842966 -0.92228794 -0.5897502 0.98548913
0000e0 10 61 5a bf a1 26 35 bf 18 72 21 3f 9b 1c 4e bf
       -0.85304356 -0.7076207 0.6306472 -0.805124
0000f0 74 0c 4c 3f 21 02 77 3f 00 8b 55 bf bd 71 77 bf
       0.797065 0.96487623 -0.8341522 -0.96657926
