code/python/spin_model/5_64_1_5_10_29500_460_use_train_spin_model.npz (npz, 126391 bytes, 6 tensors)

xh/b f4 [64]
0	0xbe7226ff	-0.23647688
1	0x3d9e247c	0.077218026
2	0xbae308dc	-0.0017321366
3	0x3cbd4ab9	0.02310692
4	0xbc534bd0	-0.012896493
5	0xbd46a83b	-0.04850028
6	0xbe87d295	-0.2652785
7	0xbd1967c0	-0.03745246
8	0xbd6f3aa0	-0.05840552
9	0x3ae6c0fa	0.0017605119
10	0xbc817993	-0.015805041
11	0x3d6dd572	0.058064885
12	0xbdb03040	-0.08602953
13	0xbd80479e	-0.0626366
14	0xbd4c2fbc	-0.04985021
15	0x3e1d952c	0.15388936
16	0x3cdca9bc	0.026936404
17	0xbc771f35	-0.015083124
18	0xbfb5ff26	-1.421849
19	0x3de7af0a	0.11312683
20	0xbecd0597	-0.40043327
21	0xbdd43367	-0.10361367
22	0xbf8a8393	-1.0821403
23	0x3d9ac7b1	0.07557619
24	0x3dafb8e1	0.08580185
25	0xbbe11fa0	-0.006870225
26	0xbdafd00d	-0.085846044
27	0x3fab8e6e	1.3402841
28	0xbe404631	-0.18776776
29	0xbdeab36d	-0.11460004
30	0x3c9b919e	0.018990334
31	0x3d303d81	0.043027405
32	0x3ce51107	0.02796222
33	0xbca105d5	-0.019656101
34	0x3d1118db	0.035424095
35	0x3d41f5b7	0.047353473
36	0xbfda2e1c	-1.7045321
37	0xbd48e83d	-0.049049605
38	0x3df6dca3	0.12053802
39	0x3f09ee11	0.53878886
40	0xbdb5dded	-0.088802196
41	0x401b6512	2.4280438
42	0xbdee5bfd	-0.11638639
43	0xbe18421b	-0.14868967
44	0x3cadd3b1	0.021219106
45	0xbd3474da	-0.04405675
46	0xbe2141b4	-0.1574772
47	0xbba787ef	-0.00511264
48	0x3c841d98	0.016127393
49	0x3e16e5b6	0.14736065
50	0xbcf6722e	-0.030083742
51	0x3d0cb30a	0.034350432
52	0x39e662b7	0.00043942567
53	0x3daa44c2	0.08313896
54	0xbd2e19b9	-0.042505
55	0x3d8bcaa9	0.06825764
56	0xbdcd84e0	-0.100351095
57	0xbcdb16b2	-0.02674422
58	0x3db0b102	0.086275116
59	0x3dbe031e	0.09277938
60	0xbddc5303	-0.10758021
61	0x3dd20f17	0.102567844
62	0x3d81a030	0.063293815
63	0x3d0a6f48	0.033797532

xh/W f4 [64, 5]
0	0xbe037381	-0.1283703
1	0x3e076e6d	0.13225718
2	0x3de8dd0b	0.113702856
3	0xbcf64d2a	-0.030066092
4	0x3da85ee8	0.08221227
5	0x3e392933	0.18082123
6	0x3dc5d4f5	0.09659759
7	0xbdcd5f65	-0.10027961
8	0x3e1a5f38	0.15075386
9	0x3df61d56	0.12017314
10	0x3dec0003	0.1152344
11	0x3e0ea44f	0.13929866
12	0x3d6f0d85	0.058362503
13	0xbcc322d8	-0.023820326
14	0xbe1d2b5e	-0.15348575
15	0x3dcf72a6	0.10129289
16	0x3dc12545	0.09430937
17	0xbd2ba09d	-0.04190122
18	0xbcb9912d	-0.022652233
19	0xbb851dae	-0.004062376
20	0x3da22614	0.07917419
21	0x3da8981c	0.082321376
22	0xb947d057	-0.00019055732
23	0x3da0f865	0.078598775
24	0x3e418074	0.18896657
25	0xbe332ca1	-0.17497493
26	0x3d395b6a	0.045253195
27	0x3d1fc118	0.039002508
28	0x40290fe8	2.6415958
29	0xc022e7e8	-2.5454044
30	0x3fb77ab0	1.4334316
31	0xbda05633	-0.07828941
32	0x3fde9906	1.7390449
33	0x3fcbce44	1.5922322
34	0xbe8945f2	-0.26811177
35	0xbe0c2951	-0.13687636
36	0x3d3c3f2f	0.045958694
37	0xbd902603	-0.070385
38	0xbda572bb	-0.08078524
39	0xbd64c03e	-0.0558474
40	0x3dac9ccb	0.084283434
41	0x3d7bc008	0.061462432
42	0xbdc0930a	-0.094030455
43	0x3e8ad4e2	0.27115542
44	0xbe9e85bb	-0.30961403
45	0x3c7d94c6	0.015477365
46	0x3cedb800	0.029018402
47	0xbd77a451	-0.06045944
48	0x3d272862	0.040809996
49	0x3e2ff070	0.17181563
50	0x3d9339ee	0.071887836
51	0x3dc0ac09	0.09407813
52	0xbd97b211	-0.0740701
53	0x3e358832	0.17727736
54	0xbd78c4dd	-0.06073462
55	0x3e0db4aa	0.13838449
56	0x3de27e43	0.11059239
57	0xbe2e82a2	-0.1704202
58	0x3e2e720f	0.17035697
59	0xbd220fc1	-0.039565805
60	0xbd93b77c	-0.07212731
61	0xbc244073	-0.0100251315
62	0x3ba66f18	0.0050791614
63	0xba8a7a61	-0.0010565036
64	0xbe62d0de	-0.22149989
65	0xbe08c9b2	-0.1335819
66	0xbd50552a	-0.05086247
67	0x3d3f47b4	0.04669924
68	0xbe2cf771	-0.16891266
69	0x3dd37cdf	0.10326552
70	0x4042a02e	3.0410266
71	0xbfc615df	-1.5475425
72	0xbfc0ff3f	-1.5077895
73	0x40e35724	7.1043873
74	0xbfca0adb	-1.5784563
75	0x3d8a1e2a	0.067440346
76	0x3ccafde8	0.024779275
77	0xbe1090be	-0.14117715
78	0xc037fbf2	-2.8747525
79	0x40386c1b	2.8815982
80	0xbd3eaad3	-0.04654963
81	0xbd530e74	-0.051527455
82	0xbd6666e8	-0.056250483
83	0xbb229e6b	-0.0024813663
84	0xbe69634b	-0.22791784
85	0xbce6d138	-0.028175935
86	0x3e0193eb	0.12654082
87	0xba034c43	-0.00050086173
88	0x3f2ccfe4	0.67504716
89	0xbeb1a746	-0.34697932
90	0xbdd98b1d	-0.10622237
91	0x3f4d7ad0	0.8026552
92	0xbf9728a0	-1.1809273
93	0x40d50215	6.656504
94	0xc0b8a6f1	-5.7703786
95	0xbd027795	-0.031852324
96	0x3db90e59	0.0903594
97	0x3e6846dc	0.2268328
98	0x3dabd01c	0.08389303
99	0x3e10becc	0.14135283
100	0xbf620eba	-0.8830372
101	0xbfc7e943	-1.5618061
102	0xbf725c9b	-0.94672555
103	0xbee693f9	-0.4503477
104	0x401cf12c	2.45222
105	0xbc7df009	-0.015499123
106	0xbd49784c	-0.04918699
107	0x3d8e53ed	0.06949601
108	0xbccf20bc	-0.025284164
109	0xbe72cdfe	-0.23711392
110	0x3ea7dc22	0.32785136
111	0x3f948871	1.1604139
112	0xbea72a07	-0.32649252
113	0xc0d63d53	-6.694986
114	0x40d8e7a7	6.778278
115	0xbdae0539	-0.0849709
116	0xbd9644ee	-0.07337366
117	0x3c68ff21	0.014220984
118	0x3e18ebd7	0.14933716
119	0x3c20e5c9	0.00982041
120	0xbd2b650a	-0.041844405
121	0xbd6fef3f	-0.058577772
122	0xbcde5e0c	-0.027144454
123	0xbdd26f6a	-0.10275157
124	0x3e2c6995	0.16837151
125	0x3d01993e	0.031640284
126	0x3c82a312	0.015946899
127	0xbd5dd607	-0.05415919
128	0xbd6fcafc	-0.05854319
129	0xbe155638	-0.14583671
130	0x3c2577ba	0.010099346
131	0xbd87c087	-0.066285186
132	0x3dab296e	0.083575115
133	0x3f0eff3a	0.55858195
134	0xbf36aa4f	-0.7135362
135	0x3fbbb419	1.4664336
136	0xbfd3d148	-1.6548243
137	0x409ea97a	4.958188
138	0x3fee5155	1.861857
139	0x402fe2f3	2.748227
140	0x3d490c0e	0.049083762
141	0x3dbf7957	0.093493156
142	0xbc7566aa	-0.01497809
143	0x3f342011	0.7036143
144	0xbf63ad48	-0.8893628
145	0xbd6bace6	-0.057537936
146	0x3de2f4f0	0.11081874
147	0xbcf79746	-0.0302235
148	0x3d08a46d	0.033359934
149	0xbd1b0c3a	-0.037853457
150	0xbd861034	-0.06546059
151	0x3dbb3826	0.09141569
152	0xbc91a9bc	-0.017781131
153	0x3dfcd7e9	0.12345869
154	0xbe0c4109	-0.13696684
155	0x3d39b321	0.045336846
156	0xbd5fae09	-0.054609332
157	0x3d82f9f9	0.06395335
158	0xbdf53d96	-0.11974637
159	0xbd9a7f26	-0.07543783
160	0x3c9f6d07	0.019461168
161	0xbdb5f97b	-0.08885475
162	0x3d7d4f86	0.061843418
163	0xbe013692	-0.12618473
164	0x3ca99742	0.020702008
165	0xbda08df0	-0.078395724
166	0x3d98ea43	0.07466557
167	0x3da2b128	0.07943946
168	0x3cd753b8	0.026285037
169	0x3e11806d	0.14209147
170	0xbc86264c	-0.016375683
171	0x3da848ae	0.082169876
172	0xbdf220c6	-0.11822657
173	0x3f769cc4	0.96332955
174	0xbf6a12f9	-0.914352
175	0xbcfff96c	-0.031246863
176	0xbc921301	-0.017831327
177	0x3e119731	0.14217831
178	0x3f087501	0.53303534
179	0xbe8b341e	-0.271882
180	0x3f56b159	0.8386436
181	0x400fa532	2.2444577
182	0x4003db36	2.0602546
183	0x40621bdd	3.5329506
184	0xbfb33497	-1.4000424
185	0x3d66d709	0.056357417
186	0x3d978070	0.073975444
187	0xbd3731f0	-0.04472536
188	0xbde1a912	-0.11018576
189	0x3d37fb1e	0.04491722
190	0x3d9e950d	0.07743273
191	0xbd020661	-0.031744365
192	0xbd497110	-0.04918009
193	0x3f3dd1bb	0.7414815
194	0xbf588946	-0.8458446
195	0x408cdb9b	4.4018073
196	0xc027086e	-2.6098895
197	0xbf6b14a9	-0.918284
198	0xc0072726	-2.1117644
199	0x3fd0d5f4	1.6315293
200	0xbb8fd0a6	-0.0043888865
201	0x3a545fe6	0.0008101448
202	0x3d396aa2	0.04526771
203	0xbc010c5c	-0.007876482
204	0xbd37f45a	-0.044910766
205	0xbf357c6a	-0.70892966
206	0xc00b8fee	-2.1806598
207	0x3fbdd0b7	1.482932
208	0x3e95c2f4	0.292503
209	0xbf9da634	-1.2316346
210	0x3fe14504	1.7599187
211	0x405fc5b6	3.4964423
212	0xbefbe50f	-0.49198195
213	0xc051c057	-3.2773645
214	0xbf876ab2	-1.0579436
215	0x3ce27876	0.02764533
216	0x3d8e797f	0.06956767
217	0x3dbda986	0.0926085
218	0x3f0a54a9	0.5403543
219	0xbf1b3036	-0.6062044
220	0x3be2f2b0	0.0069259033
221	0x3d6be532	0.057591625
222	0x3bbda331	0.005787276
223	0x3fb928b3	1.4465545
224	0xbfc21035	-1.5161196
225	0xbd912141	-0.07086421
226	0x3d6b51db	0.05745111
227	0x3c97cd69	0.018530564
228	0x3a27cb76	0.00064008625
229	0x3daed172	0.08536042
230	0x3dc0d023	0.09414699
231	0xbf20c748	-0.6280408
232	0xc002f1c0	-2.0460052
233	0xbf7ec8c5	-0.995251
234	0x3ffb9911	1.9656087
235	0xbc9cf3d1	-0.01915923
236	0xbb29c789	-0.0025906286
237	0x3d0eac5e	0.03483235
238	0xbcc3b16a	-0.023888309
239	0xbe1d1640	-0.15340519
240	0xbd35cd6c	-0.04438536
241	0xbd8bc71b	-0.06825086
242	0x3d040288	0.032228976
243	0x3d52b243	0.051439535
244	0x3da66ab7	0.08125823
245	0x3db01f2e	0.08599697
246	0x3ca86915	0.02055792
247	0x3d5d5e61	0.054045085
248	0xbe2e7690	-0.17037416
249	0x3ed016da	0.40642434
250	0xbc17f528	-0.009274758
251	0x3d0b37cb	0.033988755
252	0x3d7ef31b	0.062243562
253	0x3f825f41	1.0185319
254	0xbf866a9c	-1.0501285
255	0x3d9254d3	0.07145085

hy/W f4 [1, 64]
0	0x3f832932	1.0246947
1	0xbfa299be	-1.2703168
2	0xbf07db83	-0.53069323
3	0x3f0b9a36	0.5453218
4	0xbf66a5b1	-0.90096575
5	0xbf026b81	-0.5094529
6	0x3f8d7633	1.1051697
7	0x3f15f7ac	0.5858104
8	0x3f6d16dd	0.9261301
9	0xbf6007cc	-0.875119
10	0x3f3fc5d5	0.7491124
11	0x3ef9003b	0.48632988
12	0x3ee564e4	0.44803536
13	0x3f4d1412	0.8010875
14	0x3eeecece	0.46642154
15	0x3f86e543	1.0538715
16	0x3f7ff7d0	0.99987507
17	0xbf0b29d5	-0.54360706
18	0x3f45826f	0.7715215
19	0xbf775ee7	-0.96629184
20	0x3f067943	0.5252878
21	0x3f39d950	0.7259722
22	0x3f5e8a56	0.86929834
23	0x3f90dd12	1.1317465
24	0x3f438aa6	0.76383436
25	0x3f4cecfd	0.80049115
26	0xbf6b0a14	-0.91812253
27	0x3f209fbd	0.6274374
28	0xbf997b96	-1.199084
29	0x3f00d3dc	0.5032327
30	0xbf4e17dd	-0.8050516
31	0xbf1a5603	-0.60287493
32	0x3f5b3e27	0.8564171
33	0xbf3012c9	-0.68778664
34	0xbf06c03a	-0.52637064
35	0x3f49c4fb	0.78816193
36	0x3f92bd89	1.1464092
37	0x3f4a3a40	0.7899513
38	0xbf2a2bba	-0.6647297
39	0xbf1f6915	-0.6226972
40	0x3ee791e8	0.45228505
41	0xbf29c3aa	-0.66314185
42	0xbf152c2d	-0.5827053
43	0xbf7dd8e8	-0.991591
44	0xbebcd563	-0.3688155
45	0x3f2920c5	0.6606563
46	0xbf1845f6	-0.5948175
47	0x3f3324d4	0.6997807
48	0xbf83773a	-1.027076
49	0xbf1247b0	-0.57140636
50	0x3f89a002	1.0751956
51	0xbfa7faf7	-1.3123463
52	0x3f25d945	0.6478465
53	0x3f768492	0.96296036
54	0x3f5aa87d	0.8541334
55	0x3f56cb04	0.8390353
56	0x3f21b43c	0.6316564
57	0x3f48d8d0	0.7845583
58	0x3f8d1b52	1.1023962
59	0xbf7086fd	-0.93955976
60	0x3f2e605f	0.681158
61	0x3f2651e2	0.64968693
62	0x3f478f79	0.77953297
63	0x3ea32278	0.31862235

hh/upward/b f4 [256]
0	0x3d9b72fd	0.07590292
1	0xc08789d0	-4.235573
2	0x3f605712	0.8763286
3	0xc0326a13	-2.7877243
4	0x3f52981c	0.8226335
5	0x3fb00c18	1.3753691
6	0xc10924f1	-8.571519
7	0xc016335d	-2.346885
8	0x4029ce13	2.6532028
9	0x3f368b33	0.7130615
10	0xc0309013	-2.7587936
11	0xbfc2260a	-1.5167859
12	0xbff4370b	-1.9079298
13	0xc06d5ec6	-3.7089095
14	0xc03b1a15	-2.923467
15	0xc01df3f5	-2.468015
16	0xbeb2d629	-0.34929016
17	0x3fdddd59	1.7333175
18	0x3d7eafb2	0.062179275
19	0xc053543a	-3.3020158
20	0xc0985458	-4.760296
21	0xc03cf341	-2.952347
22	0xc1073138	-8.449516
23	0xc0710fb6	-3.766584
24	0xbe3d6ff5	-0.1849974
25	0xc0d71f7d	-6.722594
26	0xc0a8f1d3	-5.2795196
27	0xc030b73f	-2.7611845
28	0x3e660630	0.22463298
29	0x40b6962b	5.705831
30	0x3e8055d7	0.2506549
31	0xbfdf890d	-1.74637
32	0x3f50db90	0.81585026
33	0xbf7da015	-0.9907239
34	0x401dd4ea	2.4661202
35	0x40f3e172	7.62127
36	0x4018c0a9	2.386759
37	0xbf1c67a7	-0.6109566
38	0xc08911b1	-4.2834096
39	0xbf1f2ca2	-0.6217748
40	0x401ddadc	2.466483
41	0xbfea6d16	-1.831454
42	0xbf123df9	-0.5712581
43	0x4073fdb2	3.8123593
44	0x3f492be4	0.78582597
45	0xc023b436	-2.5578742
46	0x40767ad5	3.851247
47	0x3f6f1098	0.93384695
48	0xbe5b8f22	-0.2144132
49	0x3ef324fe	0.4748916
50	0x3f363a44	0.71182656
51	0xc0617d14	-3.5232592
52	0x3f937ff2	1.1523421
53	0x408a692d	4.325339
54	0x3f933aec	1.1502357
55	0x4025eec7	2.5926988
56	0xc0016456	-2.021749
57	0x3fb8cf0d	1.4438187
58	0xc028d2b3	-2.63786
59	0xbffcd52c	-1.9752555
60	0xc08367c0	-4.106415
61	0xbe831b2a	-0.25606662
62	0x401e862a	2.4769387
63	0xc02bc378	-2.6838055
64	0xc02f6312	-2.7404218
65	0x403539c3	2.8316505
66	0xc10ceea0	-8.808258
67	0x3f1dee52	0.6169177
68	0xc01af445	-2.421159
69	0x3fca2885	1.5793616
70	0xc10ca368	-8.789894
71	0xc017584d	-2.3647645
72	0x404169c2	3.02208
73	0xbf82f6f5	-1.0231615
74	0xc0444a4d	-3.067035
75	0xbfed92d9	-1.8560439
76	0x4083caea	4.11852
77	0x3f8d3896	1.1032894
78	0x40a72ffe	5.2246084
79	0x3f40289b	0.7506196
80	0xc116f3a9	-9.434487
81	0x403f39e4	2.9879084
82	0x40fbe5e4	7.871813
83	0xbff51865	-1.914807
84	0x3f66d1f9	0.9016414
85	0xc0bb4cae	-5.8531103
86	0x3f873d3c	1.0565562
87	0x40350706	2.8285537
88	0x409949e5	4.7902703
89	0xc0e0c5e1	-7.024155
90	0xbfbbd2d0	-1.467371
91	0xbec6d469	-0.3883393
92	0x3f814c33	1.0101379
93	0x3f00006e	0.50000656
94	0xc12aa241	-10.664613
95	0xc085a313	-4.1761565
96	0x3f1a13af	0.60186285
97	0x40851afd	4.1595445
98	0xbfe3a04a	-1.7783291
99	0x3ec183af	0.3779578
100	0x401544ce	2.3323245
101	0xbe9765c2	-0.29569823
102	0xbf96fb59	-1.1795455
103	0x4032abf0	2.7917442
104	0x3f2a7653	0.665868
105	0xbea94c5a	-0.33066064
106	0x3e9b19ad	0.30293027
107	0x4122ac7d	10.167111
108	0x3f4f11fc	0.80886817
109	0xc071f535	-3.7805912
110	0xbf21364e	-0.6297349
111	0x3f916805	1.1359869
112	0x40051ce9	2.0798895
113	0xc008363a	-2.1283097
114	0xc0c27858	-6.0771904
115	0x3edf651c	0.43631828
116	0x404063f5	3.006101
117	0xc08464e2	-4.137315
118	0xc05a5924	-3.4116907
119	0xbe13b383	-0.14423947
120	0xc0881593	-4.2526336
121	0x4094f7ce	4.6552496
122	0x40ab267b	5.3484473
123	0x40b9222e	5.7854223
124	0x3fc78363	1.5586971
125	0xbfe4713c	-1.7847056
126	0xc085f023	-4.1855636
127	0x3f5b2161	0.8559781
128	0xc05e6283	-3.4747627
129	0xbf837364	-1.026959
130	0xbca58cc8	-0.020208731
131	0x40afa926	5.489398
132	0x40c762c8	6.2308083
133	0x3f602992	0.8756343
134	0x3ed18682	0.40922934
135	0x3f9e3699	1.2360412
136	0x407194a9	3.7746985
137	0x3eb85105	0.35999313
138	0xc0c2efa1	-6.0917516
139	0xbebe1ea0	-0.3713274
140	0x40715915	3.7710621
141	0x405a2ccb	3.408984
142	0x3e4c8e1e	0.19976088
143	0x3f5f453c	0.8721502
144	0xbe8cd1c6	-0.27503794
145	0x4052dbd9	3.2946684
146	0xc01a1096	-2.4072623
147	0x4059f738	3.405714
148	0xbde86483	-0.11347296
149	0x3f6f03b5	0.9336503
150	0x402a1d92	2.6580548
151	0x3b7c8561	0.0038531648
152	0xbebccd06	-0.3687517
153	0x3f8f74f8	1.1207571
154	0x3d173532	0.036915965
155	0xbf428ac2	-0.7599298
156	0x403999a6	2.900003
157	0x402cf4fa	2.7024522
158	0x3fce478c	1.6115584
159	0xc084b77b	-4.1473975
160	0xc0a4b2a6	-5.1468077
161	0xc09759f5	-4.729731
162	0x3fb89d4e	1.4423006
163	0x40a42fbf	5.1308284
164	0xbfbaa501	-1.4581605
165	0x40222463	2.5334709
166	0xc03a5a8e	-2.911777
167	0xc07c76c2	-3.9447484
168	0x3f211a7e	0.6293105
169	0x3eaf6cf3	0.3426281
170	0xbf0f0956	-0.5587362
171	0xbeb5bcce	-0.3549561
172	0xbf69ff48	-0.91405153
173	0x40994d73	4.7907043
174	0xbda87b20	-0.08226609
175	0xbff0f1be	-1.8823774
176	0x3fe76ad6	1.8079479
177	0x40c4bb96	6.1478987
178	0xbfae45a5	-1.3615004
179	0x40a6b1a3	5.209184
180	0xc0e84add	-7.2591386
181	0x411dae1f	9.85501
182	0xc00ddc16	-2.216558
183	0x3fb0cd8b	1.3812727
184	0xbf748fbf	-0.9553184
185	0xc07c0aac	-3.9381514
186	0xc0650dc4	-3.5789652
187	0xc07f9850	-3.9936714
188	0x403cd1f4	2.9503145
189	0x3f0725dd	0.5279215
190	0xc0b2d137	-5.588039
191	0xc08deb93	-4.4350066
192	0xbffcb3d1	-1.9742376
193	0x3fdf76ec	1.7458167
194	0xbfde37a9	-1.7360736
195	0x3ff10be8	1.8831758
196	0xbe9a37ef	-0.301208
197	0x3eaacbe2	0.33358675
198	0x3f5cc9a4	0.8624518
199	0x4137e78d	11.494031
200	0x3e92ae73	0.2864872
201	0x40872802	4.223634
202	0xc08b1463	-4.3462386
203	0xc040abcc	-3.0104856
204	0x3ff91aa5	1.9461256
205	0x404cab50	3.197956
206	0xc068449a	-3.629187
207	0xbfc6df92	-1.5536978
208	0x3f872f99	1.0561401
209	0x3fe148ea	1.7600377
210	0xc0abb710	-5.3660965
211	0x410ce5a7	8.806067
212	0xc0db4b46	-6.8529387
213	0xbfccf1cd	-1.6011292
214	0x3f69d030	0.91333294
215	0x405556eb	3.33343
216	0xbf93ba76	-1.1541278
217	0x3fa60254	1.296946
218	0xbfe2e9e0	-1.7727623
219	0xc04d441e	-3.2072825
220	0x40da3c6e	6.8198767
221	0xbf76929a	-0.96317446
222	0x3fcdf1ff	1.6089476
223	0x3f133371	0.5750037
224	0x403c2ffd	2.940429
225	0xbd9f95a1	-0.07792211
226	0xc099ca9c	-4.8059826
227	0xc0514a8e	-3.2701755
228	0xbf5da730	-0.8658323
229	0x3fae1e4c	1.3602996
230	0xbf417ba6	-0.755793
231	0xc066b1d4	-3.6046038
232	0xc02ba4f3	-2.6819427
233	0xc0c8cfdb	-6.275373
234	0xbfcb27c2	-1.5871508
235	0xbe7306c6	-0.23733053
236	0x40123e8f	2.2850683
237	0x4073ceb7	3.8094919
238	0xbe98e20f	-0.2985997
239	0xc0887586	-4.264346
240	0xbf305dea	-0.688933
241	0xc0b9f6d0	-5.8113785
242	0x3f7e6d67	0.99385685
243	0xbf0b0ca0	-0.5431614
244	0xbf373b86	-0.715752
245	0xc0aaf159	-5.3419614
246	0xbf7cabed	-0.9869984
247	0xc101ff20	-8.124786
248	0xc0007f11	-2.0077555
249	0x3fc9d0c1	1.5766832
250	0xc084e6aa	-4.153157
251	0xc0cca56b	-6.3951926
252	0x3fa2e9e7	1.2727631
253	0x3f58093d	0.84389096
254	0xbf1517cf	-0.58239454
255	0x409d11e8	4.908436

hh/upward/W f4 [256, 64]
0	0x3e7d3b73	0.2472971
1	0x3ce58db9	0.02802168
2	0xbf502b62	-0.81316197
3	0xbedcc00e	-0.43115276
4	0x3f452ec4	0.77024484
5	0x3ee4c5fb	0.44682297
6	0xbfcb285a	-1.5871689
7	0xbc5fa408	-0.013649948
8	0x3f62ec18	0.886415
9	0xbe87815d	-0.26465884
10	0xbf1bc2a9	-0.608439
11	0x3f0d016a	0.5508028
12	0xbe898bb4	-0.26864398
13	0x3df996c6	0.12186961
14	0x3fcc6ffc	1.5971675
15	0xbf7eddca	-0.99557173
16	0x3d0131d4	0.03154166
17	0x3ec4f692	0.38469368
18	0x407ca060	3.9472885
19	0xbe08f96f	-0.13376401
20	0x3ffcb592	1.9742911
21	0xbf6d6fd0	-0.9274874
22	0xc029c879	-2.6528609
23	0x3e9694d2	0.29410416
24	0x3e9db2ef	0.30800578
25	0x3dd053b3	0.10172214
26	0xbbfe3983	-0.007758321
27	0xc09a996a	-4.8312273
28	0xbf0cebbd	-0.5504721
29	0x3e1f90ad	0.15582533
30	0x3e82b386	0.2552759
31	0xbe65ad7c	-0.2242946
32	0xbe742eac	-0.23845929
33	0xbf77feee	-0.96873367
34	0xbe6a239a	-0.22865143
35	0x3ec3bfd4	0.3823229
36	0xc0612abd	-3.5182335
37	0xbf2b09e3	-0.6681196
38	0x3e4cb349	0.19990267
39	0x3f3099ea	0.68984854
40	0xbf07ad90	-0.5299921
41	0xc023ec91	-2.5613139
42	0xc013355b	-2.3001316
43	0x3ed32e8f	0.4124646
44	0x3ede3c18	0.43405223
45	0xbf974ee0	-1.1820946
46	0x40c4add3	6.146219
47	0x3db73d8c	0.08947286
48	0xbe1c0367	-0.15235673
49	0x3df3afbc	0.11898753
50	0x3ed2e351	0.41189054
51	0x3f1821fd	0.5942686
52	0x3e912c82	0.2835427
53	0x3dccef13	0.10006537
54	0x3f2fb45b	0.68634576
55	0x3e927ffa	0.28613263
56	0x3d191f35	0.037383277
57	0x40bb1a9a	5.8469973
58	0x3d8328e3	0.06404283
59	0xbe81e365	-0.253688
60	0xbecc8bb8	-0.39950347
61	0xbe56b0a9	-0.20965828
62	0xbf372c90	-0.7155237
63	0xbf233eac	-0.63767505
64	0x3e48eaed	0.19620867
65	0xbf18b180	-0.59645844
66	0xbe4a376d	-0.19747706
67	0x3dfed936	0.124437734
68	0xbf2f99af	-0.6859388
69	0x3eecb143	0.4622899
70	0x4031b2be	2.7765346
71	0x3e5b2aec	0.21403092
72	0xbf7fdf79	-0.9995037
73	0xbf1764b0	-0.5913801
74	0xbf06368e	-0.52426994
75	0x3deca1d9	0.115543075
76	0x3eefa939	0.46808794
77	0xbe1deb97	-0.15421902
78	0x3ef0ca4f	0.4702935
79	0xbe7e570c	-0.24837893
80	0x3ec26ead	0.37975064
81	0xbec7d123	-0.39026746
82	0xbfb5513d	-1.4165417
83	0x3f9660d0	1.1748295
84	0x3ec7b8a1	0.39008048
85	0x3cbf8bbe	0.023382064
86	0xbd60e7ca	-0.05490855
87	0x3c8260b4	0.015915252
88	0x3efeb1d1	0.49745038
89	0x3eb96afa	0.3621443
90	0xbcc39609	-0.023875253
91	0x4020d032	2.5127072
92	0xbf3f4be8	-0.747252
93	0x3bba5aa7	0.005687076
94	0xbde4e217	-0.11175936
95	0x3d04a81e	0.03238689
96	0x3eed9c62	0.46408373
97	0x3e680bc3	0.22660737
98	0x3dd6c3f1	0.104865916
99	0x3f280e58	0.65646887
100	0xc0917d88	-4.5465736
101	0xbcf15af0	-0.029462308
102	0x3f2af9b8	0.6678729
103	0x40a7ca26	5.2434263
104	0x3ee84ce3	0.4537116
105	0x4088dec5	4.2771935
106	0xc033b9fa	-2.808226
107	0xbde269a4	-0.110553056
108	0x3e97a859	0.29620627
109	0x3e9cfd3e	0.30661958
110	0xbd437903	-0.047722828
111	0x3f42d7dd	0.7611063
112	0x3e8aaac0	0.27083397
113	0xbdb00d79	-0.0859632
114	0xbe6aacd5	-0.22917493
115	0x3ec2d866	0.38055724
116	0x3e2e9c8e	0.17051908
117	0xbee65522	-0.44986826
118	0x3ed3faf2	0.41402394
119	0xbed9de0f	-0.4255223
120	0xbe0a0a6e	-0.13480541
121	0xbf9b5d2b	-1.2137808
122	0x3e970175	0.294933
123	0x3dfc251c	0.123117656
124	0xbe91dfa5	-0.2849094
125	0x3e7d0943	0.24710564
126	0x3e345566	0.17610702
127	0x3df2e5aa	0.11860211
128	0xbe2e956a	-0.17049184
129	0x3f5133cf	0.8171968
130	0x3e99190e	0.29901928
131	0xbfaade69	-1.3349124
132	0xbf8afbd8	-1.0858107
133	0x3d405dc9	0.04696444
134	0xc04dd1b0	-3.2159233
135	0xbf329c17	-0.69769424
136	0x3f521a54	0.82071424
137	0x3f1ce78c	0.6129081
138	0xbf95de17	-1.1708401
139	0xbf7309ad	-0.9493664
140	0xbf275151	-0.65358454
141	0xbf3ec0fb	-0.74513215
142	0xbed8a536	-0.42313546
143	0x3ecc9540	0.3995762
144	0xbe2c28be	-0.16812417
145	0x3ef1bd57	0.47214767
146	0xc02836a6	-2.6283355
147	0xbf1b23bb	-0.60601395
148	0xbd74b3c3	-0.059741747
149	0xbfceae78	-1.6146994
150	0xc088cc86	-4.2749662
151	0x3fa0b096	1.255389
152	0x3f718379	0.94341236
153	0x3cc3f06a	0.02391835
154	0x3e7d5dd0	0.24742818
155	0xc03859da	-2.880484
156	0x3fe2ff7d	1.7734219
157	0x3f980800	1.1877441
158	0xbbca2f7d	-0.006170212
159	0xbf9ad714	-1.2096887
160	0x3ed1d39e	0.40981764
161	0xbe123288	-0.14277089
162	0x3fa0f851	1.257578
163	0x3abecb1b	0.001455638
164	0xc0ad925a	-5.424115
165	0xbeba1033	-0.36340484
166	0x3ead0975	0.33796278
167	0xc007dae3	-2.1227348
168	0xbdb9ef0c	-0.09078798
169	0x40cfaa32	6.489526
170	0xbfae1c2e	-1.360235
171	0x3fbb9580	1.4654999
172	0x3f68a72d	0.9088009
173	0xbfd6bce7	-1.6776398
174	0x3f52d06f	0.82349294
175	0x3dfa3c00	0.12218475
176	0xbf4a72ec	-0.79081607
177	0x3f0160a3	0.5053808
178	0xbed84a14	-0.42244017
179	0x3e007590	0.12544847
180	0x3d98febf	0.07470464
181	0x3f65b67e	0.89731586
182	0xbd81b2b4	-0.06332913
183	0xbe8c972a	-0.2745908
184	0xbeaf4097	-0.34228966
185	0x402451e0	2.5674973
186	0xbf5c1383	-0.8596727
187	0x3f089341	0.5334969
188	0x3f71743c	0.94317985
189	0xbf3be5ef	-0.73397726
190	0xbe1c6372	-0.1527231
191	0xbde26aae	-0.11055504
192	0xbf04f723	-0.519396
193	0x3e935d11	0.28781942
194	0xbeaf0430	-0.34182882
195	0xbd431bd8	-0.047633976
196	0xbe2c847c	-0.16847414
197	0x3f075a65	0.52872306
198	0x4041e65b	3.0296848
199	0x3f673194	0.90310025
200	0xbe25fafc	-0.16209024
201	0xbecca2f5	-0.39968076
202	0x3ee241a1	0.44190696
203	0x3e6142a3	0.21998076
204	0xbeb7531e	-0.358056
205	0xbddd5494	-0.108071476
206	0x4036a9be	2.8541102
207	0xbed413c7	-0.4142134
208	0xbdc6d1f4	-0.09708014
209	0x3ec246b8	0.3794458
210	0x409d151f	4.9088283
211	0xbf243390	-0.6414118
212	0x404057f8	3.0053692
213	0x3e6b961a	0.23006478
214	0xc02c7cce	-2.6951175
215	0xbf061642	-0.5237771
216	0x3ea7400a	0.32666045
217	0xbdaf8742	-0.0857072
218	0x3e8c4661	0.27397445
219	0x403268e3	2.7876518
220	0x3f2b487d	0.66907483
221	0xbd885455	-0.0665671
222	0xbe617a06	-0.22019204
223	0x3f5afcaa	0.85541785
224	0x3d55238e	0.05203586
225	0xbdd39c3d	-0.103325345
226	0x3d57291f	0.05252945
227	0xbe9a125a	-0.30092126
228	0xbefad5e4	-0.4899131
229	0x3d9b6169	0.07586939
230	0x3e9730ed	0.29529515
231	0x3ffe1006	1.984864
232	0xbeaab245	-0.33339134
233	0x3e2948f5	0.16531737
234	0xbffe2f20	-1.9858131
235	0x3e4df23a	0.20111933
236	0x3d0093f8	0.031391114
237	0x3d494800	0.04914093
238	0x3fbd6186	1.4795387
239	0x3ed34511	0.4126363
240	0xbe0ec88b	-0.13943689
241	0xbd5298de	-0.051415317
242	0x3e7b65d6	0.24550566
243	0xbe69e60b	-0.2284166
244	0x3e4e7710	0.20162606
245	0xbe8e4789	-0.27788952
246	0x3ecbb871	0.39789155
247	0xbf1a7ccb	-0.6034667
248	0x3fac5e5b	1.3466295
249	0xbecbd898	-0.39813685
250	0xbdad8f25	-0.08474568
251	0xc00b669e	-2.1781383
252	0x3ee3f4d5	0.4452273
253	0xbee3062e	-0.44340652
254	0x3d3d8271	0.046266977
255	0x3c725b96	0.014792344

hh/lateral/W f4 [256, 64]
0	0x3f41c1c4	0.7568629
1	0x402a9ea7	2.6659334
2	0xc03a9f1a	-2.9159608
3	0x3f0aaae5	0.54167014
4	0xbfd0e38f	-1.6319445
5	0x3f74d218	0.9563308
6	0x3e73517b	0.23761551
7	0x4044061a	3.0628724
8	0x400444ae	2.0666919
9	0xbfca03d9	-1.5782424
10	0xbf209901	-0.62733465
11	0xbea750e1	-0.32678893
12	0x4047a7bc	3.1196127
13	0x405b80ac	3.4297285
14	0x400f37e1	2.2377856
15	0x3fe303d5	1.7735544
16	0x411d8002	9.843752
17	0x401eaa5a	2.4791474
18	0x4079f36b	3.905482
19	0xc0bdbae6	-5.9290648
20	0x3f467cb6	0.77534044
21	0x404f68fc	3.2407827
22	0xc01c0b37	-2.4381845
23	0x3e132956	0.14371237
24	0xbf31f313	-0.69511527
25	0x409beec3	4.8728957
26	0x40672179	3.611418
27	0x3fabe1d4	1.3428292
28	0xc08c2e70	-4.3806686
29	0x3f537cbe	0.82612216
30	0xc09e3500	-4.9439697
31	0xc08900c8	-4.2813454
32	0x3fb915f3	1.4459823
33	0x3f85e321	1.0459939
34	0xc0504d10	-3.2547035
35	0xc072e714	-3.795354
36	0xc066ce99	-3.6063597
37	0x3f14b982	0.5809556
38	0xbfe1da51	-1.764475
39	0x3f8bea93	1.0930961
40	0xc05b7e2b	-3.4295757
41	0x409905f8	4.7819786
42	0x4041a6bb	3.0258014
43	0xbf81e8df	-1.0149192
44	0x405c742f	3.4445913
45	0xbfd47e98	-1.6601133
46	0xbf3047c1	-0.6885949
47	0x3fd37dba	1.6522744
48	0xbfc5755e	-1.5426443
49	0xbfcc4a6f	-1.5960215
50	0x3ffddb97	1.9832639
51	0xc04b2c00	-3.1745605
52	0xbf15d5d4	-0.585294
53	0x3f085ee4	0.5326979
54	0x3fbf2e92	1.4936087
55	0xc101ac7a	-8.104609
56	0xc018c51f	-2.3870313
57	0xbf199619	-0.59994656
58	0x40200d23	2.5008018
59	0x3f78ab3e	0.97136295
60	0xbfae269f	-1.3605536
61	0xc03bc0c8	-2.9336414
62	0xbf854f07	-1.0414742
63	0x3f3d232a	0.7388178
64	0xc067da13	-3.6226852
65	0xbe87c910	-0.26520586
66	0x4006b445	2.1047528
67	0xbedf659d	-0.43632212
68	0xbe5d2d0a	-0.21599212
69	0xc0a8c8fd	-5.2745347
70	0xbff10632	-1.8830016
71	0x3d766afb	0.06016062
72	0x3f84d246	1.037667
73	0xbff1bf0a	-1.8886425
74	0xbba84e36	-0.0051362766
75	0xbe758278	-0.23975551
76	0x3f6c101f	0.922121
77	0xbf184375	-0.5947793
78	0xbf9083fb	-1.1290277
79	0x3fe9dbe3	1.8270229
80	0x3e8e0ecf	0.27745673
81	0x40ce39b8	6.4445457
82	0x3e88e15a	0.2673443
83	0x3fd7590a	1.6824048
84	0x3f21d595	0.63216525
85	0xbfb24c0d	-1.3929459
86	0xbfb57b40	-1.4178238
87	0xc010846e	-2.2580829
88	0xc09fcd90	-4.993843
89	0x3f96e707	1.1789254
90	0x3e910b9f	0.2832918
91	0x3ec74a33	0.38923797
92	0x40c7b04a	6.2402697
93	0xbfeb539d	-1.8384892
94	0x3fdd447f	1.7286528
95	0x3fd947a5	1.6974989
96	0x3fdd7beb	1.7303442
97	0xbffec81a	-1.9904816
98	0xc0717fac	-3.7734175
99	0xc06b18b1	-3.673382
100	0x3f9632df	1.1734275
101	0x3eaed895	0.34149614
102	0xbfedecc2	-1.8587878
103	0x3ed82737	0.4221742
104	0x3ff93ac0	1.9471054
105	0x40a9cf06	5.3065214
106	0x404b8c10	3.1804237
107	0xbff8c0d5	-1.9433848
108	0x400e5849	2.2241385
109	0xc0b2538d	-5.572699
110	0x408b3b81	4.3510137
111	0xbf953cd9	-1.1659194
112	0x3d6c3a48	0.05767277
113	0x3ed1dc4d	0.4098839
114	0x3f3354a8	0.7005105
115	0x3edc1be6	0.42990035
116	0x3fb8b3bb	1.4429849
117	0xbfa4acc8	-1.2865229
118	0x3fb491c4	1.4106984
119	0x3fd3cbda	1.6546586
120	0xc05fb09c	-3.4951544
121	0xbf81a185	-1.0127417
122	0x401854ae	2.3801684
123	0x4056aa63	3.3541496
124	0xc093e8c0	-4.622162
125	0x3f1dc50e	0.61628807
126	0xbee48620	-0.4463358
127	0xbf6a950c	-0.9163368
128	0xc040f7b8	-3.0151196
129	0x40ca6620	6.3249664
130	0x40173cf7	2.363096
131	0x40e790bf	7.236419
132	0x40c1c0c2	6.05478
133	0x3fc421eb	1.5322851
134	0xbf02f9a8	-0.51162195
135	0xc0590a10	-3.3912392
136	0xc0142043	-2.314469
137	0x4004e2da	2.076346
138	0xbf8d8ed2	-1.105921
139	0xbf7291af	-0.94753546
140	0x41184dd9	9.519006
141	0xc0675ff4	-3.6152315
142	0x3f180c18	0.59393454
143	0xbff6b528	-1.9274035
144	0xbf16e166	-0.5893768
145	0x4088a0b1	4.2696157
146	0x3ed4e263	0.4157897
147	0xc11069e3	-9.025851
148	0xbf888d9b	-1.0668215
149	0xc00e2fa3	-2.2216575
150	0xc01448f9	-2.316954
151	0xc0ddceaa	-6.9314775
152	0xc04dc4c7	-3.2151353
153	0xc0a9312b	-5.287252
154	0x3d5f0477	0.054447617
155	0x4070f001	3.7646487
156	0xc06f1603	-3.7357185
157	0xc058c0db	-3.386771
158	0x3f4ee082	0.8081132
159	0x40b050dd	5.509871
160	0x40827f4a	4.078038
161	0x4080a93a	4.0206575
162	0x401e4629	2.4730322
163	0x3e8e1ac1	0.27754787
164	0x3ff1aeee	1.8881509
165	0xbfbd71d6	-1.4800365
166	0x3e8ca9fd	0.2747344
167	0x3fd74efd	1.682098
168	0xc0b77ac5	-5.7337365
169	0x40806206	4.0119658
170	0x4016ae8b	2.3544033
171	0xc0a8da68	-5.276661
172	0xbf936795	-1.1515986
173	0xc10e0710	-8.876724
174	0xc04ff284	-3.249177
175	0xbff9414a	-1.947305
176	0xc0f9e42b	-7.8091025
177	0xc009489a	-2.1450562
178	0xbf157940	-0.5838814
179	0x406b7df3	3.6795623
180	0xbfa316b6	-1.2741306
181	0xc071437a	-3.7697434
182	0xbff5fd9e	-1.9218023
183	0x409bbe19	4.8669553
184	0xc08fa14e	-4.4884405
185	0xc01be16c	-2.4356337
186	0x40231df4	2.5487032
187	0x4000848c	2.00809
188	0xc0557705	-3.3353894
189	0x3e843899	0.2582443
190	0xbf1da3c0	-0.6157799
191	0x3fc223bf	1.5167159
192	0xbed96c54	-0.4246546
193	0x40c488f1	6.1417165
194	0x3fe1e17b	1.7646936
195	0xc0583c92	-3.378697
196	0xc0076b1e	-2.115913
197	0x4024e3a7	2.5763948
198	0xbfdd3c18	-1.7283964
199	0x409964be	4.7935476
200	0x3f1ab331	0.60429674
201	0x3f8f3051	1.118662
202	0xbf8f912d	-1.1216179
203	0xc00e0bb6	-2.2194648
204	0xbe8bfd0d	-0.273415
205	0xbe0ccbfb	-0.13749687
206	0x4071abb0	3.776104
207	0xbf0ed248	-0.55789614
208	0x3fc6bcef	1.5526408
209	0x41061b1d	8.381619
210	0xbec64591	-0.3872495
211	0xc0f85e0c	-7.7614803
212	0xc0967667	-4.7019534
213	0x3f8546c4	1.0412221
214	0xbfb21094	-1.3911309
215	0xc09cef77	-4.9042315
216	0x404150d2	3.0205579
217	0xbf0f7a6a	-0.56046164
218	0x403c6bfa	2.9440904
219	0xc0584790	-3.3793678
220	0x40f10776	7.5321608
221	0xbf0067ad	-0.50158197
222	0x402fc3ad	2.746318
223	0xc006bd6c	-2.1053114
224	0x40287cc7	2.6326158
225	0x407877a9	3.8823035
226	0xc0313abe	-2.7692103
227	0x407f492b	3.9888408
228	0xbef99210	-0.4874425
229	0xc01f5eae	-2.4901538
230	0xbe181bfe	-0.14854428
231	0x3efb03d0	0.49026346
232	0x3fffb9fc	1.9978633
233	0xc01bccf0	-2.4343834
234	0xc08b40dc	-4.3516674
235	0x40744cd3	3.817189
236	0xc096144a	-4.6899767
237	0xbf83c8c5	-1.0295645
238	0xc0471d68	-3.1111698
239	0xbf8400ab	-1.0312704
240	0x40698b4d	3.6491272
241	0x3e4d4996	0.20047602
242	0xbfbca0cc	-1.4736571
243	0x40a3ba29	5.1164746
244	0xbfb025d2	-1.3761542
245	0x3e137c75	0.14402945
246	0xbfbe0a0e	-1.4846818
247	0xbfe97869	-1.8239871
248	0xbe80eda6	-0.2518131
249	0x3ff3ae4c	1.9037566
250	0x3f58bde2	0.8466474
251	0xc083923b	-4.1116004
252	0xc01e5ec6	-2.4745345
253	0x3f35ee36	0.71066606
254	0xbeac32c9	-0.33632496
255	0x3fc66e8d	1.5502487
