code/python/spin_model/5_64_1_5_10_29500_260_use_train_spin_model.npz (npz, 126382 bytes, 6 tensors)

xh/b f4 [64]
00000000: 1a78 ce3c dccd e7ba a2b4 983d b92e a03c
00000010: 6c36 85ba d333 f23b 1d24 03bf a0ea 963c
00000020: 6449 8e3c fa5d e3bc b2cb 92bd 9ae8 533b
00000030: b804 2c3d 14bb 2a3d 222b 64bc 12fa eebc
00000040: 9112 98bd 22cd 913b a944 88bf fdad b13c
00000050: ee99 a2be 3d41 e83b 0011 6ebf ee9d a6bb
00000060: 4538 01be 5cd8 8d3c 32a6 febc c0ef 2f3f
00000070: 83ea 293d 1c35 e13c 4d70 613c 8fe1 1d3c
00000080: 7615 8ebd 86ef a8bc 07ce ac3d f775 44bd
00000090: d803 c4bf 890a 3bbd 25b7 0b3c c1b7 b83e
000000a0: 3116 99bd 51a4 e53f d102 16be 8d2a be3c
000000b0: a5c6 f83d a647 2abd 89c5 9cbe fedd 2abc
000000c0: 1f7d 01bd 4816 853b 4842 6b3d 42d5 95bc
000000d0: 0a03 19bf 963d c23c d750 07bd e659 9c3c
000000e0: 6227 b8bd f85e 5fbd 1e4e 3dbd cbc1 103e
000000f0: 8710 363d df66 2d3b c93e bbbb a23b 853d
0.025203753 -0.0017685252 0.07456328 0.01955353 -0.0010163314 0.007391432 -0.5122698 0.018422425
0.01736898 -0.027754772 -0.07167758 0.0032334686 0.041996688 0.041682318 -0.013926299 -0.029171977
-0.07425416 0.0044495026 -1.0645953 0.02168941 -0.31758064 0.007087855 -0.9299469 -0.0050847447
-0.12619121 0.017315082 -0.031085107 0.68725204 0.041483413 0.027491145 0.013759685 0.009636297
-0.06937687 -0.020622026 0.08437734 -0.047964063 -1.5313673 -0.045664344 0.008527552 0.36077693
-0.07474936 1.794077 -0.14649512 0.02321365 0.121472634 -0.041572236 -0.30619457 -0.010428904
-0.031613465 0.004061494 0.057436258 -0.018290166 -0.5977026 0.023711007 -0.03303608 0.019085836
-0.08991887 -0.05453393 -0.046217076 0.14136426 0.044449355 0.002645902 -0.0057142717 0.06505515

xh/W f4 [64, 5]
00000000: 0b7b 123c cc34 0d3d a902 8bbc b324 213e
00000010: 6fc1 543d 06de c53d ac8e 313d b296 e03c
00000020: 7dc4 9ebd 38c6 e4bd 3347 9e3c 3a05 88bc
00000030: 7035 81bd e0e4 ea3d 1a37 febc ae12 8b3d
00000040: 0328 323d e53a 303c b495 4b3d 01ed be3b
00000050: fb7e 88bd 4517 8a3c 2ccb 2fbc 20b5 5fbe
00000060: e995 8e3e 2f03 033d c629 f03c 6052 14bd
00000070: 8c20 4d40 033b 39c0 914a fe3f 631b 403e
00000080: ea6c 9c3f d0de df3f 6ec4 be3d 2143 a1bd
00000090: 1c73 82bd 1759 2dbc 7208 f03d 462a 27be
000000a0: 5294 a73d 0744 333a 98ad 703c f740 333f
000000b0: 1460 31bf 0b3c e0bd 1d20 a6bc 4a52 52bd
000000c0: c5fc c3bd 24c3 4f3d 93da 18bd 07a6 bbbc
000000d0: c77b cd3c e2bc eb3d fcab 23be db93 39bc
000000e0: 2edc f33c 6436 b93d 816d 733e f60d 003a
000000f0: 0f03 993c 5a7c 3ebd 0226 61bc 834c 9f3b
00000100: 7b38 afbd 0833 773d 9072 27bd 3fd2 4a3c
00000110: 1523 ccbe 0d04 c43e 26ec bd3f a087 88bf
00000120: 47c4 ebbf d86d ab40 91f1 0dc0 eba9 e0bc
00000130: a6c9 cd3c ad8f d93c f043 5ac0 6acd 4e40
00000140: 4252 73bd ef5a 913c 6929 983b 88cd 003d
00000150: 7fd7 ffbc 585c ccbc 497b 313d dab4 143c
00000160: 9f4f 723f d4d8 4ebf b567 1abd 430c 173f
00000170: d634 84bf 40df a140 236e 99c0 fb07 e4bc
00000180: ee47 cbbc 3c15 03bd f874 f43d ef89 2ebe
00000190: 6786 6dbf 0b83 aebf 81fe 3cbf ac14 35be
000001a0: 17fe 1440 7e9d 29bd be68 2b3d 6132 a93d
000001b0: 5a74 723d 08e6 09be f658 0f3c a0d2 563f
000001c0: deed 9abe ba69 abc0 dc58 ab40 b953 14bd
000001d0: 373f 1fbc df25 1c3c b788 363e 35db 65bd
000001e0: dc77 063b 44e3 d1bb f0e0 a5bc cb26 b1be
000001f0: 372f 9a3e 6df9 10bd fb16 7c3d 81ae 0ebd
00000200: dbfc 983e 4bd0 b1be 0bc8 3b3d 4ad0 ea3c
00000210: 2e5f ee3c c1d2 8e3f c4e9 82bf c495 cd3f
00000220: cae6 7fbf 8a41 5840 ce06 ef3f 198a 2540
00000230: 2552 213d 611e ccbc 42bd 47bd 2371 923f
00000240: a72b a2bf 9d4a cdbc d7e4 893d 4ddc 453b
00000250: 9af5 e23d a712 3f3d 57fb 8fbb f952 66bc
00000260: 559a ef3c 84da 043e 8914 b4bd 89b8 77bd
00000270: d6c0 ad3c e20d 3cbc cbd6 c2ba 9f6c 16be
00000280: a60c dfbc 18e7 aebb e603 07bd 8f78 ee3c
00000290: 165e 163c d430 833c 130c 1d3c 4119 46bd
000002a0: f922 9dbc 5540 d8bd d29e e03c 7a58 97bd
000002b0: 68d8 7bbd 32ac c53f 9468 cebf 7d53 8bbc
000002c0: 1b4b 043d 01a3 d0bc 45f1 3d3f 092f 48bf
000002d0: d5fe 063e 7810 0b40 0a92 6b3f 8ada 1840
000002e0: f814 f6bf 74ce 50bd 1f45 253d b0e8 29bd
000002f0: 05e5 533d 8108 7d3d 4e3a 6a3d 8a6f a0bd
00000300: ee45 f3bc 5748 853f 05cc 9dbf 5bf5 5f40
00000310: 1cfb 0bc0 d0ec 1ebf cf60 eebf 1bc2 ee3f
00000320: 30d8 d1bd 6d5f 0b3d c789 49bd 6ef8 823d
00000330: 1df2 f7bd 43b6 c8be 4d6a eabf dff9 8b3f
00000340: 0b49 b23e 2987 4cbf 0bfb ac3f 05e3 1340
00000350: 5a37 8bbe 60d5 19c0 9c69 10bf fa53 953c
00000360: c289 943c 90af fcbd e19a 913f 5801 8abf
00000370: 99d2 5db8 3bd4 15be 5100 d13b 3551 ef3f
00000380: bc31 ecbf c5c7 f93c c08a 313d 1ded 093d
00000390: c561 e2bc e368 b3bc 28cc 1b3d 9cb9 f6be
000003a0: 8f48 d5bf 2f4a 7bbf 2087 dd3f 94f3 cd3c
000003b0: 4382 dfb9 df3b 133c a6a0 393d ef0f 97bd
000003c0: c433 59bb 6b3c 93bc 6d5a 10bd b0d8 85bd
000003d0: f1ef 59bd 559f 8b3d e5ef 4cbd f6cc 64bd
000003e0: c995 0dbf 8217 163f 98f9 1abc 60b9 ec3b
000003f0: 8778 ab3c ee8d e03f 10a4 d5bf 6109 d83b
0.008940469 0.03447418 -0.016969042 0.15736656 0.051942285 0.09661488 0.043348953 0.027415607
-0.07752321 -0.1117062 0.01932106 -0.016604055 -0.063090205 0.11469436 -0.031032134 0.06790672
0.04349519 0.010756229 0.049703315 0.005826593 -0.066648446 0.016856799 -0.010729592 -0.21846437
0.27848747 0.031985458 0.029316794 -0.03621137 3.2051115 -2.8942268 1.9866506 0.18760447
1.2220738 1.7489872 0.0931481 -0.07874132 -0.063696116 -0.010580323 0.11720361 -0.1632472
0.08182587 0.0006838445 0.0146898255 0.70021003 -0.6928723 -0.10948952 -0.020278985 -0.05134801
-0.09569696 0.05072321 -0.037317824 -0.022906316 0.025083436 0.11510636 -0.15983576 -0.011326755
0.029768076 0.09043577 0.23772241 0.0004884893 0.018678216 -0.04650531 -0.013741972 0.004861416
-0.08555695 0.0603514 -0.04088074 0.012379228 -0.39870515 0.3828434 1.4837692 -1.066639
-1.8419274 5.3571587 -2.217869 -0.027424773 0.025120568 0.026557768 -3.4103966 3.2312875
-0.05940462 0.017743556 0.0046436084 0.03144601 -0.031230686 -0.024946377 0.043330465 0.0090763215
0.9465274 -0.80799603 -0.03769656 0.59003085 -1.0328624 5.058502 -4.7946944 -0.027835837
-0.024814572 -0.032002673 0.119363725 -0.17044805 -0.92783207 -1.3633741 -0.7382584 -0.17683667
2.3280084 -0.041409962 0.041847937 0.08261562 0.059192993 -0.13466656 0.008749237 0.8391514
-0.30259603 -5.356656 5.354597 -0.036212657 -0.009719661 0.009530514 0.1782559 -0.056117255
0.002051822 -0.006405266 -0.02024886 -0.3459991 0.30114147 -0.03539412 0.061545353 -0.03483439
0.29880413 -0.34729227 0.045845073 0.028663773 0.02909812 1.1158067 -1.022759 1.606133
-0.9996153 3.3790002 1.8673952 2.5865538 0.03938498 -0.02491683 -0.048764475 1.1440777
-1.2669572 -0.025059992 0.06733101 0.0030191124 0.11082001 0.046648648 -0.0043939757 -0.014057868
0.029248396 0.12973982 -0.08792979 -0.06047872 0.021210115 -0.011477919 -0.0014865039 -0.14689873
-0.027227711 -0.005337607 -0.032962702 0.029110221 0.009177705 0.016014494 0.009585398 -0.048363928
-0.019181715 -0.10559145 0.027419481 -0.073899224 -0.061485678 1.5443175 -1.6125665 -0.017007584
0.03229819 -0.025468351 0.74196273 -0.7819677 0.13183148 2.1728802 0.9201971 2.3883386
-1.9225149 -0.05097814 0.040349122 -0.041481674 0.051732082 0.061775688 0.05718451 -0.078337744
-0.029696431 1.0412701 -1.2327887 3.4993503 -2.1872015 -0.620801 -1.8623294 1.8652986
-0.102463126 0.034026552 -0.04920366 0.063950405 -0.12106726 -0.39201555 -1.831369 1.093563
0.34821352 -0.7989374 1.3514112 2.3107312 -0.27190667 -2.4036484 -0.5641115 0.01822852
0.018132094 -0.123381734 1.137539 -1.078166 -5.288664e-05 -0.14631741 0.0063782115 1.8696657
-1.8452678 0.030490765 0.043345213 0.033673394 -0.02763451 -0.0219006 0.038036495 -0.48188484
-1.6662768 -0.9816007 1.7306862 0.025140561 -0.00042630927 0.008986442 0.045319222 -0.07376086
-0.0033142427 -0.017973145 -0.035242487 -0.065354705 -0.05320734 0.068174995 -0.05003347 -0.05585953
-0.5530668 0.5862962 -0.009458922 0.007224247 0.020931495 1.7543314 -1.6690693 0.006592915

hy/W f4 [1, 64]
00000000: b6d6 943f 10b6 b9bf 982f 0ebf 2e66 253f
00000010: 6d84 75bf 4087 1ebf 2e0f 963f 04c9 0f3f
00000020: 4750 713f 72b6 79bf 2e68 503f cc53 263f
00000030: 0b68 073f 11af 6a3f 7792 0f3f b075 bb3f
00000040: fcec 8b3f 0674 1bbf f1fe 603f 1aec 78bf
00000050: b6f9 203f 93ff 4d3f 4d41 823f 3f16 9d3f
00000060: cdc6 5d3f 1422 6f3f b86a 65bf 1b31 2c3f
00000070: 126b 96bf ccf6 f83e ff1b 5cbf 7e84 36bf
00000080: 2b61 4e3f 06c6 49bf d345 02bf 9a36 513f
00000090: 6a3f b73f beb2 5e3f 466f 45bf 17c0 1cbf
000000a0: b213 f83e 94c6 3cbf 4c1d 10bf 2c47 95bf
000000b0: 3736 efbe 308a 453f c3b8 43bf b2c0 743f
000000c0: 219a 98bf b74a 1bbf 7343 983f ecee c9bf
000000d0: 94cf 403f d613 923f 0efc 7c3f d1f3 863f
000000e0: 553b 583f 243c 6d3f 4f6f 903f 50ac 8ebf
000000f0: 05fb 493f e493 363f 1f75 613f 86e0 ac3e
1.1628025 -1.4508686 -0.5554137 0.6460904 -0.9590519 -0.61925125 1.1723382 0.561661
0.9426312 -0.97544014 0.81408966 0.64971614 0.5289313 0.9167338 0.5608286 1.464529
1.0931697 -0.6072391 0.8788901 -0.9723526 0.6288103 0.804681 1.0176178 1.2272414
0.8663147 0.93411374 -0.89615965 0.6726243 -1.1751425 0.4862579 -0.8598022 -0.7129592
0.80617017 -0.78817785 -0.50887793 0.8172394 1.4316227 0.8699149 -0.77122915 -0.61230606
0.48452526 -0.73740506 -0.56294703 -1.1662345 -0.4672105 0.7716398 -0.764538 0.9560653
-1.1922036 -0.6066088 1.1895584 -1.5776038 0.7531674 1.1412303 0.98822105 1.0543157
0.84465533 0.9266989 1.1283969 -1.1146336 0.7889865 0.71319413 0.8806934 0.33765048

hh/upward/b f4 [256]
00000000: 4308 803e e554 6ac0 e983 c33f 08a1 01c0
00000010: 8302 993f 8ce1 cb3f cac2 ccc0 4cfb afbf
00000020: 18a5 1040 f9dd 883f 9def 00c0 621d 9cbe
00000030: 02cc a5bf c749 3ac0 058d f9bf 2c3d 28c0
00000040: e9df e6be 56d9 733f 02e6 98bd e198 27c0
00000050: 39c5 31c0 cc1f 17c0 21a5 cec0 4b5f 71c0
00000060: 765e 10bf 64cc b7c0 b018 16c0 9d66 08c0
00000070: 838f 433e ec4d 5140 fa4b 133f 03e6 cabe
00000080: ca1c 2a3f 2449 e1be f4ef 1540 0f7c b840
00000090: 7315 e33f 2c7a 5abf 9d7d 3ec0 0075 22bf
000000a0: 4b7e ba3f 20ab 0bc0 c5af 3f3f 7be3 5040
000000b0: c05c 893f 8ff1 efbf eeb3 5340 0fc9 933f
000000c0: b9fd debe f020 9a3f 63f8 8f3f 65c3 07c0
000000d0: 52fc f43e c670 1940 7656 7a3f 0fd9 0a40
000000e0: c65b bbbf 063f e93e e6ef 90be 53af b2bf
000000f0: 63e0 1ec0 056f a5be b279 0740 c2aa 29c0
00000100: f060 0ac0 44ba e93e 5b58 c4c0 2eb4 0abf
00000110: 28cc a7bf 30bf a93f 4d58 9dc0 f169 09c0
00000120: 2861 a23f 4888 4fbf e68e 42c0 9836 d6bf
00000130: 9205 7140 e0bc 673f 3ab9 6e40 7ec7 983c
00000140: c640 d7c0 27fa 0d40 1ea4 c540 77b4 00c0
00000150: 8bbd 403f 763b 80c0 56cc 9f3f 12ee 8b3f
00000160: 08a7 8940 22c0 92c0 7133 2dbf 1225 d83e
00000170: bbcc 86bd 96e5 943e ea88 e9c0 7bdd 4dc0
00000180: 6fdd bb3d e1a1 5d40 ec2c d6bf c5f4 d73e
00000190: 9b51 e03f dafa 42bf 41b2 a4bf 0ba6 1540
000001a0: 20a6 66be dd18 293e 4d14 943f b43f e040
000001b0: d334 f7be 1f01 43c0 40c7 e3be 4001 a33f
000001c0: c38f 713f 6345 78bf 7922 57c0 07c5 443f
000001d0: 3e65 0340 31f2 53c0 9a6a f3bf 90a2 59bf
000001e0: 4600 4dc0 2391 3040 d4d4 4d40 5245 7a40
000001f0: 978a 10be b9f0 02c0 7961 2ec0 52ed 01bd
00000200: e09d 11c0 8404 ecbe 939a d13f 3e7c a240
00000210: 6230 a740 cf25 fcbe 085f 743f c16e db3f
00000220: e810 b83f 2945 2a3f 39d7 55c0 3c5f 43bf
00000230: 4f75 ec3f f60a ed3f 0f7d 793f 19ec 5b3e
00000240: 662c 8bbf d36e 3840 481c 96bf 96c3 2b40
00000250: 4c52 403f 9e44 ab3f aaeb 5440 6ebc 85be
00000260: ae62 1dbf 99a6 0940 f139 213f 335c 87bf
00000270: 7631 f73f 3ad7 753f 5b0b bb3f 55c7 47c0
00000280: 8db7 64c0 868c 62c0 f523 cb3f f04f 9640
00000290: bd00 54bf e1e5 d03f 2730 11c0 1d48 1fc0
000002a0: 7a86 903f 2e24 55bf c5b3 06bf aed7 2cbf
000002b0: 5cc5 efbf e806 4440 a403 803e a768 82bf
000002c0: b9b4 0c40 2fed 8a40 e62d 253f 6354 3b40
000002d0: 6e97 92c0 b74c 0541 e551 06c0 e991 313f
000002e0: f92e 0bbf 0ada 2ac0 8ed1 10c0 87ef 4cc0
000002f0: 478d 0b40 06c0 843e 3fc3 8cc0 ea10 88c0
00000300: c22a 95bf b396 e03f e8cd 93bf 7dc0 af3f
00000310: 4114 0b3f 1cd7 02bf df78 753f af72 0b41
00000320: 696e 9fbe 3e27 1240 6f0c 0cc0 76ed 04c0
00000330: 4d42 9a3f 405f 0540 db3a 15c0 9335 afbf
00000340: c5c7 9f3f a200 c83f 2224 2cc0 e20b bb40
00000350: cde2 8bc0 e9dc dfbf 5215 b9be 8af6 0a40
00000360: 5606 e3be ba4e 643f 011e e2bf 031f 17c0
00000370: 195d a440 ab09 4bbf a9d6 e43e 4a4a 663f
00000380: 45fd 1740 bf55 ae3a 9b13 6dc0 aa46 2cc0
00000390: 7598 60bf 2dbf 5c3f 4bd0 f1bf 173c 17c0
000003a0: 552d abbf f14a 59c0 57d4 9abf c3ef 29be
000003b0: 9510 483f 4f22 5440 20bf 95bf f766 57c0
000003c0: 999c be3d 0766 60c0 c4ea 6a3f 83ff e4be
000003d0: 6635 d6be 9ed9 30c0 5a20 1fbf 5e06 e0c0
000003e0: dbff 49c0 89f6 c83e 7a51 c43d 15ae 8ac0
000003f0: 634d 663f 86fb 4c3e e64d e2be 1b68 3f40
0.25006303 -3.6614316 1.5274631 -2.0254536 1.1953892 1.5928206 -6.398778 -1.3748565
2.2600765 1.0692741 -2.0146248 -0.30491167 -1.2952883 -2.910753 -1.9496161 -2.6287336
-0.45092705 0.95253503 -0.074657455 -2.618706 -2.7776625 -2.3613157 -6.4576573 -3.7714412
-0.56394136 -5.7437 -2.3452568 -2.131263 0.19097714 3.270381 0.57537806 -0.3962861
0.6645018 -0.44001114 2.3427706 5.765144 1.7740921 -0.8534267 -2.9764168 -0.6345978
1.4569792 -2.1823196 0.7487758 3.2638843 1.073143 -1.8745593 3.307857 1.1545733
-0.4355295 1.2041302 1.1247677 -2.121301 0.47848755 2.3975081 0.9778818 2.1694982
-1.4637382 0.45555896 -0.28308028 -1.3959755 -2.4824455 -0.32311264 2.1168027 -2.6510472
-2.1621666 0.45649922 -6.1357856 -0.5418118 -1.3109179 1.3261471 -4.917029 -2.1470912
1.26859 -0.81067324 -3.0399718 -1.6735411 3.765965 0.90522575 3.7300553 0.018649813
-6.726657 2.218393 6.176284 -2.0110147 0.7528922 -4.0072584 1.2484233 1.0932028
4.3016396 -4.5859537 -0.6765662 0.42215782 -0.06582018 0.2908141 -7.297963 -3.216643
0.091730945 3.4630053 -1.6732459 0.42178932 1.7524904 -0.7616402 -1.2866899 2.3382595
-0.22524309 0.16513391 1.1568695 7.0077763 -0.4828249 -3.0469434 -0.44487953 1.2734756
0.9435999 -0.96980876 -3.361479 0.7686314 2.0530543 -3.3116572 -1.9016907 -0.85013676
-3.2031417 2.7588584 3.216115 3.910481 -0.14115368 -2.0459425 -2.7246993 -0.031720467
-2.275261 -0.46097195 1.6375297 5.0776663 5.224656 -0.49247596 0.95457506 1.7143174
1.4380159 0.6651178 -3.3412611 -0.7631719 1.84733 1.851897 0.9745645 0.21476783
-1.0872924 2.8817642 -1.1727381 2.6838126 0.75125575 1.3380315 3.3268838 -0.26120323
-0.614787 2.1507933 0.62979037 -1.0575012 1.9311969 0.96031535 1.461284 -3.1215413
-3.573703 -3.5398269 1.5870348 4.697258 -0.82813627 1.6320153 -2.268564 -2.4887764
1.1291039 -0.8325833 -0.52618057 -0.675166 -1.8732104 3.0629215 0.25002778 -1.0188187
2.1985304 4.341453 0.6452316 2.9270256 -4.580985 8.331229 -2.0987484 0.69363266
-0.5436855 -2.669558 -2.2627902 -3.2021196 2.180498 0.25927752 -4.3988338 -4.2520647
-1.1653674 1.754599 -1.1547213 1.3730618 0.5432778 -0.5110948 0.9588756 8.715499
-0.31138924 2.2836452 -2.188259 -2.0769935 1.2051483 2.0839386 -2.3317173 -1.3688225
1.248284 1.5625193 -2.6897054 5.8452005 -4.3714356 -1.7489291 -0.3614908 2.1712976
-0.4434077 0.8918263 -1.7665406 -2.3612678 5.1363645 -0.7931163 0.44695023 0.89957106
2.3748333 0.0013300701 -3.7043216 -2.691813 -0.8773263 0.8622921 -1.8891691 -2.3630426
-1.3373209 -3.395199 -1.2096051 -0.16595368 0.781503 3.314594 -1.1698952 -3.3656595
0.093072124 -3.5062273 0.91764474 -0.4472619 -0.41837615 -2.7632823 -0.6215874 -7.0007772
-3.1562412 0.3925059 0.09585853 -4.3337502 0.8996183 0.20017824 -0.44200057 2.990729

hh/upward/W f4 [256, 64]
00000000: 4903 573d 071a 043e 8e2b 78bd 07fa e6be
00000010: b13b d73e 112d ca3e 075f e53c cdd4 a7be
00000020: 4dfb 3e3c 1da2 54be e907 0c3f b3bc 593c
00000030: eb00 833d 2f07 2dbb e6e6 0140 941a 953e
00000040: 1b37 923e c02b adbc bb55 3a40 a1b8 01bd
00000050: 4599 fc3f 8162 2bbe 9885 5dbf e1c7 26bd
00000060: 6999 3e3f dfe4 9dbd 784e 153f 2f29 30c0
00000070: 7fba 17bf 10e8 833e 221a 89be 7fc9 ab3e
00000080: 06fa 633e a85d f93d fb1b e43e 730c 14bf
00000090: 2773 00c0 c909 03bf 841c 1bbd bd79 253f
000000a0: d624 0b3f 0ae2 c6bf 0319 f5bf d58d 143e
000000b0: 278e c2bf 8142 b63e bb0f b040 1e34 08be
000000c0: c0b7 5c3d 5233 543e 58c2 89be 6b8c 45be
000000d0: 59e9 c03f 9775 8dbe c12a 72bd 7c8b 73be
000000e0: 4d18 1c3e 51b5 cb40 4b38 8fbd ef68 b1be
000000f0: 4de1 e63e 6839 53bd 0bbf 2ebf 86bd fe3e
00000100: d52b d7be a936 5bbe 6b12 213e 7717 473d
00000110: 9232 38bd 3760 d73d fe38 0c3f 0a50 81bd
00000120: effd 95bc c678 14be d723 813e 4e9c 0fbf
00000130: b21b e03e 33fc 013e 02f0 85be 301b 39bd
00000140: b0b5 21be 0c7f 023f 3bcb b6bf d679 8fbe
00000150: 44af 333e 3d35 843e 5bec c4be b7fb c73e
00000160: 46d1 95be 5f13 02be 3d7e 1abf 9318 bb3f
00000170: d7af 823d dd91 99bd f062 a03e f6f6 45be
00000180: 6d6c a5be 83c7 39be db8f 3ebe c09f 853d
00000190: c177 b0c0 b0c2 5a3d d919 53be c157 9540
000001a0: 9eea 3f3d 19e9 5540 a22f e3bf 2fde 1c3e
000001b0: 9141 033f 666e d1be 888b 8e3e e4ba 54be
000001c0: edf6 ce3d 158a 64be 4326 f7bd 199c aabe
000001d0: 1e5f 4bbf 4cf5 033e 4da4 e2be 4ccc 17bd
000001e0: 8813 f1be dfa1 c1bf 51d4 17bd 7157 ba3e
000001f0: 1f65 843d c87c 453e 0d6c 14be 4a0c b73e
00000200: 8a3e fe3e 7d70 babe b1b0 5fbe 4d01 3cbe
00000210: b463 0f3b 077f 7c3d 8d73 72c0 223f 5cbf
00000220: 7a32 db3e 412e b73f 1049 5e3e 8671 1abd
00000230: 52eb 03bf 26e0 c4be a8ce b23d 0eae a03e
00000240: a927 29be be84 67be 64b0 07c0 5d9b 8e3e
00000250: c59a f83d 8a3e abbd 9402 4ec0 d215 8b3f
00000260: d71c efbe fe77 413f 3ef1 8f3f 2e5a 29c0
00000270: fa95 bd3d 6763 97be 150e 1e3e 8c5e 5abf
00000280: 760a 843f d1dc 793e cacb 47bf a834 5f3f
00000290: c762 86c0 b658 613d db3c f23e e6c4 07c0
000002a0: 42a1 de3e 44f5 8a40 8f32 10bf 208c f53e
000002b0: ac58 713f f023 3bbd daef 123f 8e1d 833f
000002c0: fd1c 5dbd a3e5 713d 9bd2 273f ebf0 b6be
000002d0: 53a2 2dbe 37df 213e d091 21bf 4e7e 1b3e
000002e0: 7d62 e0be f6b0 cd3f 9b68 f93e 608e c23e
000002f0: 146c 10be a0b4 cabe 63fb 20be 00ad 79bf
00000300: 9e55 883d 3167 033e 05be 543e 0dc9 63be
00000310: 7e8a a73d 4f54 243f d1c5 2240 90ee 193d
00000320: e471 723e 9935 7fbe bc61 203d 6801 8bbe
00000330: 6162 123c b339 89be 9093 2440 3d8b 16bf
00000340: b5bb 03bf 64ca b93e 016b 8240 e1c2 543e
00000350: d60e 1540 699c dd3e abd0 19c0 c708 863d
00000360: 0e3b b63e de56 d23e 61ef 03be 22a5 3340
00000370: d403 24be 6e3d 203f 7d0c fb3d 0a8a 67be
00000380: 905d 1f3e f772 36bf 315b 893c b897 f5be
00000390: 36ba 6fbf 9a6a 793e bbba a13d c286 cb3f
000003a0: 8c4d 6e3e b171 b23f 92ba b6bf 9479 e63c
000003b0: aa33 1c3f 95bb 053f bebe 933f 8a6b b83e
000003c0: 33bd 28bd b680 103f 9216 213e 5a8b 27be
000003d0: 5bb1 9b3f bc42 14bf ba9b b2be f490 9f3d
000003e0: b51f b53f b68f 2cbf a0d3 c43e 4f9c 02c0
000003f0: 90c6 7e3e a18d eabe 07a0 7dbd e645 4a3e
0.052493367 0.12900554 -0.060588412 -0.4511263 0.42037728 0.39487508 0.027999414 -0.32779542
0.011656594 -0.20764966 0.5469957 0.013289618 0.063966595 -0.0026401987 2.029718 0.2912184
0.28557667 -0.021139026 2.9114826 -0.031670216 1.9734274 -0.16736795 -0.8653197 -0.040717963
0.74452835 -0.07709669 0.5832286 -2.7525136 -0.59268945 0.25762987 -0.2677775 0.33552167
0.22263345 0.12176067 0.44552597 -0.57831496 -2.0070283 -0.51186806 -0.03786899 0.6463888
0.5435308 -1.5537732 -1.9148258 0.1450723 -1.5199631 0.35597613 5.50192 -0.13301131
0.053886175 0.20722702 -0.26906085 -0.19291846 1.5071212 -0.27628776 -0.059122805 -0.23783678
0.15243645 6.3658834 -0.06993159 -0.3465037 0.45093766 -0.05156842 -0.6826026 0.4975397
-0.4202563 -0.2140757 0.15729682 0.048606362 -0.044970103 0.105163984 0.54774463 -0.06314094
-0.018309562 -0.14499196 0.25222656 -0.5609788 0.4377113 0.12693863 -0.26159674 -0.045191944
-0.15791965 0.5097511 -1.4280771 -0.2802264 0.17547327 0.25821868 -0.38461575 0.3905923
-0.29261225 -0.12702702 -0.60348874 1.4616874 0.06381195 -0.07498524 0.31325483 -0.1933249
-0.32309285 -0.18142514 -0.18609564 0.065246105 -5.5146184 0.053408325 -0.20615329 4.666962
0.046854608 3.3423522 -1.7748911 0.15319131 0.5127192 -0.4090454 0.2784083 -0.20774418
0.10105691 -0.22318299 -0.12067845 -0.33322218 -0.7944201 0.12886542 -0.44265977 -0.037060067
-0.47085214 -1.5127524 -0.037067715 0.36394837 0.064646 0.19285882 -0.14494343 0.35751563
0.4965709 -0.36413947 -0.21844746 -0.18359871 0.0021879496 0.06164458 -3.7883027 -0.86033833
0.42811948 1.431099 0.21707559 -0.03770592 -0.51530945 -0.38452262 0.08730823 0.31382793
-0.16519035 -0.22609231 -2.120141 0.27852908 0.12138895 -0.08361538 -3.2189074 1.0866034
-0.4670169 0.7557372 1.1245496 -2.6461291 0.092571214 -0.29568025 0.1543506 -0.8530052
1.0315692 0.24400641 -0.7804533 0.8718972 -4.199558 0.055016242 0.47312054 -2.1213927
0.43482405 4.3424397 -0.56327146 0.4795847 0.9427593 -0.04568857 0.57397234 1.0243394
-0.053982724 0.05905689 0.65555733 -0.3573068 -0.16956453 0.15807806 -0.6311312 0.151849
-0.4382514 1.6069629 0.4871262 0.37999249 -0.14103729 -0.3959093 -0.15720896 -0.975296
0.06656955 0.12832333 0.20775612 -0.22244664 0.08180712 0.64191145 2.5433238 0.037581027
0.23676258 -0.2492279 0.039155707 -0.2714951 0.008934588 -0.26801834 2.5715065 -0.5880621
-0.51458293 0.36287224 4.075562 0.20777465 2.3290305 0.43283394 -2.403361 0.06544643
0.3559193 0.410819 -0.12884285 2.806954 -0.16017085 0.62593734 0.12258241 -0.22611251
0.15563035 -0.7126917 0.016767116 -0.47967315 -0.9364351 0.24357072 0.07896944 1.59005
0.2327177 1.3940946 -1.4275687 0.028134145 0.61016333 0.5223935 1.1542585 0.36019546
-0.04119606 0.564464 0.15731266 -0.16361752 1.21635 -0.5791433 -0.34884435 0.077913195
1.4150301 -0.67406785 0.38442707 -2.0407903 0.24880433 -0.4581118 -0.061920192 0.19753227

hh/lateral/W f4 [256, 64]
00000000: 1fb9 e03d 6a62 fc3f 9f75 41c0 2d39 e53f
00000010: 7d3f 97bf d295 f83f 52ed 113d 267c 3140
00000020: e3c1 823f 545b 5ebf ec13 46bf c0e7 123f
00000030: 2566 983f 8d8c fa3f 0d1a 2040 78de d23f
00000040: 8c14 e440 29f6 433f 3395 0340 53ef 99c0
00000050: ffd2 bd3f 4e32 0b40 6eda b1bf 4bd1 97be
00000060: 5b8d abbf a2f7 8640 d347 2640 efb0 473f
00000070: b6c7 f2bf ae9d 713f 0498 8ac0 016e 38c0
00000080: 6deb 9e3f 47d4 4c3e 5e8f 98bf 15b7 89c0
00000090: 9f07 3ec0 cbcc 11bf 9df7 6ebf 78cc f13f
000000a0: 85fb d2bf f0e6 8740 5f10 2540 85ce 14c0
000000b0: 56c2 b93f c0f3 e7bf 3d12 57bf 1972 d13f
000000c0: 6832 84bf 629c 15bf 1a9d c53f 15fe 32c0
000000d0: 8567 f2be 4c60 03be a2c4 953f 5e1a c2c0
000000e0: 2c46 f1bf 6d8c 313f ca89 5bbe 487d 313f
000000f0: 85a9 75bf 220b 34c0 10cf ab3e 344f e03e
00000100: a9ba 55c0 dfbf b4bf 7eea 9f3f ba1c d7bf
00000110: 6a58 dd3e 47cc 44c0 3578 bdbf 8da3 4ebf
00000120: f9ce 4dbc 933e 01c0 e661 07bf 8052 223e
00000130: b0a0 493f cdc6 efbe ef69 fabf a95b 62be
00000140: 9946 51be 451f a240 71e3 4b3f 2f36 ab3f
00000150: f69d a43f 449d 50bf 006c 8dbe 2164 9cbf
00000160: 2f02 6cc0 ead0 323e 836b 853f 8474 aa3e
00000170: 17e4 a440 4ad3 a5bf 60bf b23f 88c5 ef3f
00000180: 767e 9f3f 65e7 ccbf 790b 32c0 6884 40c0
00000190: 8cba 913f d44d fdbe 820a 8cbf d6d0 063f
000001a0: a1b0 aa3e f1db b640 e6dd 3940 c40f d5bf
000001b0: 0f22 3d3f 50cd 60c0 d71b 8140 4a55 8fbf
000001c0: fcbf a73e 6f20 b3be 71fa 483f f3f8 0a3f
000001d0: f626 fc3f 87dc c1bf 1a5b 553e 0804 853f
000001e0: 2cd1 63c0 5d11 fbbf 7985 5940 7fcb 2b40
000001f0: b12e 24c0 b6bf 06be 661d ec3e ad25 893d
00000200: 97a3 84c0 ffc5 4940 5773 2740 bfea b540
00000210: 3b93 8040 4ba8 ab3f 23ae c6bf b791 4ac0
00000220: e4c3 09c0 c12b 083f b716 473e c6fc a5bf
00000230: c3ea e640 7883 00c0 102a 81be 88ea aabf
00000240: 9d22 89bf e013 db3f b52a e63f 4463 cec0
00000250: 31dc 13be 8ebb 3ac0 3d5a ffbf 9935 9cc0
00000260: c549 44c0 2cc5 87c0 c53f b33f ab9b 3e40
00000270: 1691 69c0 e9f8 f2bf 7d41 c6bf ee0d 2140
00000280: fd90 213f 9a55 eb3f cac6 0940 fc86 583f
00000290: d31d 8e3f 50b1 95bf 5be5 85bf f1f0 ae3d
000002a0: 694c 60c0 c78e 4c40 d9e9 e83f 121d 5fc0
000002b0: dfed f4bf 9d47 c6c0 6dfd 29c0 54b6 8fbf
000002c0: ef55 8fc0 00a3 15c0 9a6b 4b3f 7683 3d3f
000002d0: fea7 97bf ff08 e1bf 2603 7dbf 461b 2740
000002e0: 405c 80c0 9e3f a03f 3877 283e ddaf e43f
000002f0: 37a9 e5bf ccda 25be 8d43 ddbe 09a3 0240
00000300: 543d 8d3e a1a3 c540 bb18 e13f 59e7 4abf
00000310: ce21 c1be 4344 5240 7644 d2bf 04c9 a740
00000320: ef35 cc3e ec26 d83f 79e9 19be 2dfa 34bf
00000330: 512d 8bbd 2f0a 8a3d 6ba5 0040 4207 83bf
00000340: c540 443f c231 f140 c703 553f b27b cdc0
00000350: 5816 5ac0 eb39 2f3f 40f1 42be 1881 f3bf
00000360: 7777 1b40 b44f 3dbf 7e00 8b3f b80f ecbe
00000370: 97ad 0041 ce3c 88bf 6ee8 0840 96c4 febf
00000380: d796 583f f81e 3b40 f001 2bc0 fa7d 5240
00000390: 232d 9bbf 987c d1bf 92bc 31bf 2d17 29be
000003a0: f3f4 c93f 37e2 88bf ae86 e1bf 2776 4340
000003b0: 1e3c 5fc0 c26b b3bf e220 0ec0 10f1 86bf
000003c0: 360d 5f40 31fe 3dbe 531f 9cbf 9d2c 8540
000003d0: 04a1 4dbf 2272 82bf e6cf acbe 5be6 23c0
000003e0: 5ce1 14be e583 513f bd81 b93f 1193 d8bf
000003f0: c979 fdbf b45a 48bf 4c8e 33bf 116f 353f
0.10972809 1.9717534 -3.022804 1.7908074 -1.181625 1.9420722 0.035626717 2.7732024
1.021542 -0.86858106 -0.7737415 0.5738487 1.1906172 1.9574143 2.50159 1.6474142
7.127508 0.76547486 2.0559814 -4.8104644 1.4830016 2.1749454 -1.3894784 -0.29651865
-1.3402513 4.2177286 2.5981338 0.78004354 -1.8967197 0.94381225 -4.3310566 -2.881714
1.2415596 0.20002852 -1.1918752 -4.303599 -2.9692152 -0.56953114 -0.9334658 1.8890524
-1.6483008 4.2469406 2.5791242 -2.325105 1.4512432 -1.8121262 -0.84012204 1.6362945
-1.0327883 -0.58441746 1.5438569 -2.796758 -0.47344604 -0.12829703 1.1700633 -6.0657187
-1.884954 0.693549 -0.21439281 0.6933179 -0.9596179 -2.8131795 0.33556414 0.43810427
-3.3395178 -1.4121054 1.2493436 -1.6805642 0.43231517 -3.074968 -1.4802309 -0.8071831
-0.012561553 -2.0194442 -0.52883756 0.15851784 0.78760815 -0.4683136 -1.9563578 -0.22105278
-0.20437087 5.066317 0.79643923 1.337591 1.2860706 -0.8148997 -0.2762146 -1.2218057
-3.6876333 0.17462507 1.0423435 0.3329202 5.152843 -1.2955105 1.3964653 1.8732157
1.2460468 -1.6008116 -2.7819502 -3.0080814 1.1385055 -0.4947344 -1.0940707 0.5266241
0.33337882 5.7143483 2.9041686 -1.6645436 0.73880094 -3.5125313 4.0346484 -1.1197903
0.3276366 -0.34985682 0.78507143 0.54286116 1.969939 -1.5145425 0.20835534 1.0391855
-3.5596418 -1.9614674 3.3987715 2.6842954 -2.5653498 -0.1315907 0.4611618 0.06696639
-4.1449695 3.1527097 2.6164148 5.6849055 4.0179725 1.3410734 -1.5521892 -3.1651437
-2.1525812 0.53191763 0.19442259 -1.2967765 7.2161574 -2.0080242 -0.25227404 -1.3352823
-1.0713688 1.711544 1.7981783 -6.4496174 -0.14439465 -2.9176974 -1.9949414 -4.8815427
-3.0670025 -4.242819 1.4003836 2.9782512 -3.6494803 -1.8982211 -1.5488735 2.5164752
0.6311186 1.8385499 2.1527581 0.8458097 1.1102852 -1.1694736 -1.0460619 0.0854205
-3.5046637 3.1962144 1.8196365 -3.4861493 -1.9135092 -6.196242 -2.656093 -1.1227517
-4.47924 -2.3380737 0.7946106 0.7402872 -1.1848142 -1.758087 -0.9883293 2.6110396
-4.011261 1.2519414 0.16451728 1.7866169 -1.7942265 -0.16196746 -0.432156 2.0412009
0.27585852 6.176224 1.7585672 -0.7925926 -0.37721103 3.2854164 -1.6427143 5.243288
0.39884898 1.6886878 -0.15030469 -0.7069424 -0.06795753 0.067402236 2.0100963 -1.023659
0.7666133 7.537324 0.8320889 -6.4213495 -3.4076138 0.6844775 -0.19037342 -1.9023771
2.4291666 -0.7394974 1.0859525 -0.46105742 8.04238 -1.0643556 2.1391864 -1.9903743
0.84605163 2.9237652 -2.6719933 3.288939 -1.212315 -1.6366148 -0.6942836 -0.16512747
1.5777878 -1.0694035 -1.7619226 3.0540864 -3.4880443 -1.401726 -2.220757 -1.0542316
3.4851813 -0.18553998 -1.2197059 4.161696 -0.80323815 -1.019108 -0.33752364 -2.5609348
-0.14539093 0.8184188 1.4492718 -1.6919881 -1.9802791 -0.782634 -0.70139 0.708726
