code/python/spin_model/5_64_1_5_10_29500_320_use_train_spin_model.npz (npz, 126374 bytes, 6 tensors)

xh/b f4 [64]
0	0xbd9a9613	-0.07548156
1	0xbd4776c3	-0.048697244
2	0x3b217d9f	0.0024641526
3	0x3c86c485	0.01645113
4	0xbd82ee95	-0.06393162
5	0x3ca0dcfc	0.019636624
6	0xbf02f692	-0.51157486
7	0x3ca61221	0.020272316
8	0xbb2f513e	-0.0026751305
9	0x3b139661	0.0022520053
10	0xbcaa9fab	-0.020828089
11	0xbd2c34c4	-0.04204251
12	0xbc26c026	-0.010177648
13	0xbd416109	-0.04721168
14	0x3d59a18d	0.053132582
15	0x3c895841	0.016765716
16	0xbcdb817a	-0.026795138
17	0x3bee2f99	0.0072688577
18	0xbf8ebc07	-1.1151131
19	0xbd0328a7	-0.03202119
20	0xbecca16c	-0.39966905
21	0xb915791a	-0.00014254861
22	0xbf658122	-0.89650166
23	0x3bbb1b6c	0.005710056
24	0x3d42caea	0.047556795
25	0xbd961497	-0.07328146
26	0xbd1583d0	-0.03650266
27	0x3f46d95c	0.77675414
28	0xbcb585e0	-0.022158563
29	0xbbdac196	-0.0066759093
30	0xbd297d73	-0.041379403
31	0x3d82e99a	0.06392212
32	0x3cf908b9	0.030399667
33	0xbc30600e	-0.010765089
34	0xbb1429d8	-0.0022607949
35	0x3bdbb6e1	0.0067051505
36	0xbfd7016e	-1.6797311
37	0x3cbc7232	0.023003671
38	0xbd7048cf	-0.058663186
39	0x3f0d318c	0.5515373
40	0x3dc37505	0.09543804
41	0x3fff7c5a	1.9959824
42	0xbdf5fc72	-0.12011041
43	0xbcf2b380	-0.029626608
44	0xbceed16a	-0.02915259
45	0x3da77cb4	0.08178082
46	0xbe1d19fb	-0.15341942
47	0xbd38225d	-0.044954646
48	0x3c2deca8	0.010615505
49	0x3d075ca2	0.033047326
50	0x3c85f819	0.016353654
51	0x3dac094a	0.08400209
52	0xbeae16a5	-0.3400165
53	0xbc964749	-0.018344538
54	0x3d5a9fc6	0.053375028
55	0xbd5b38d1	-0.05352098
56	0xbd75eb1e	-0.06003868
57	0xbe84b74c	-0.25921094
58	0x3d34b18f	0.044114646
59	0x3de8ae1b	0.11361333
60	0xbc6e8b51	-0.014559583
61	0x3d1eb37a	0.03874538
62	0x3d45abe5	0.048259635
63	0x3d8440d1	0.06457675

xh/W f4 [64, 5]
0	0x3d979903	0.074022315
1	0x3c5ce62c	0.013482612
2	0x3d1a8902	0.037728317
3	0xbdcedd84	-0.101008445
4	0xbdfa2670	-0.122143626
5	0xbd4297cb	-0.047508042
6	0xbda31d37	-0.07964557
7	0xbda2e3a6	-0.07953577
8	0xbdb3d14e	-0.08780156
9	0xbda0d004	-0.07852176
10	0xbb203d4f	-0.0024450605
11	0x3d72df27	0.059294846
12	0x3d81026e	0.062992916
13	0x3deb9df6	0.11504738
14	0xbd296861	-0.04135931
15	0xbcc0352c	-0.023462854
16	0xbd1c9ac3	-0.03823353
17	0x3d37edf2	0.044904657
18	0x3d09bee7	0.033629324
19	0x3c2fd90e	0.010732902
20	0x3d593974	0.053033307
21	0xbd562720	-0.052283406
22	0xbd0aff2f	-0.03393477
23	0xbe6906c5	-0.22756489
24	0x3e1e820d	0.15479298
25	0x3ca5128f	0.020150451
26	0x3ba1cec8	0.0049379803
27	0xbd265080	-0.040604115
28	0x40369c91	2.853306
29	0xc0352abc	-2.8307333
30	0x3fe84b6f	1.814802
31	0x3d56d045	0.052444715
32	0x3fa7036b	1.3047918
33	0x3fed17f4	1.8522935
34	0x3d8c7bc4	0.06859544
35	0x3b60e95e	0.0034318785
36	0x3dd61d0b	0.10454758
37	0xbc51b29e	-0.012798933
38	0x3e439798	0.19100797
39	0x3d94dc01	0.07268525
40	0x3d1a9153	0.03773625
41	0x3c79f472	0.015256034
42	0xbd9023df	-0.07038092
43	0x3ecea2ae	0.4035849
44	0xbf0a19e1	-0.5394574
45	0x3d893ecb	0.0670143
46	0x3c7fcf88	0.015613444
47	0xbcc82b0d	-0.02443459
48	0x3ad404ec	0.0016175783
49	0xbad70c9c	-0.0016406956
50	0x3cc92406	0.02455331
51	0xbb2b3ddc	-0.00261294
52	0xbcd091dd	-0.025460178
53	0x3e17834f	0.14796184
54	0xbdebd71b	-0.115156375
55	0xba179bea	-0.0005783426
56	0xbb933c19	-0.004493248
57	0xbcdb61f6	-0.02678011
58	0x3dc299fa	0.09502025
59	0xbddd79c4	-0.108142406
60	0xbddfc86e	-0.10926901
61	0x3c3af93e	0.011411963
62	0xbc2c1636	-0.010503342
63	0x3d6fadc8	0.05851534
64	0xbc655c1a	-0.0139990095
65	0xbb0f59d1	-0.0021873603
66	0xbd3662c5	-0.044527788
67	0xbd16eff8	-0.036849946
68	0xbe7c040e	-0.24610922
69	0x3ea93df0	0.33055067
70	0x400481fd	2.0704339
71	0xbf93c252	-1.1543677
72	0xbfe147ad	-1.7599999
73	0x40bd5cb0	5.9175644
74	0xc002f6fa	-2.0463243
75	0x3d5bf7ff	0.053703304
76	0xbb00299d	-0.0019556053
77	0x3d0cb38a	0.03435091
78	0xc0521813	-3.2827194
79	0x404cf6b0	3.2025566
80	0xbd93e534	-0.072214514
81	0xbc8ee9c9	-0.017445462
82	0xbc8944d6	-0.016756456
83	0x3ce98145	0.028504023
84	0xbd07e75f	-0.033179637
85	0x3a238070	0.0006237095
86	0x3b9c2ba5	0.004765945
87	0x3d7bfcaf	0.061520275
88	0x3f2f024c	0.6836288
89	0xbf327e74	-0.697242
90	0xbe7c88b1	-0.24661519
91	0x3f04a293	0.5181057
92	0xbf8d4e17	-1.1039456
93	0x40b37510	5.60804
94	0xc0a1ceb3	-5.056482
95	0xbd1f9413	-0.038959574
96	0x3d8a8517	0.06763666
97	0x3d9dce68	0.077053845
98	0x3cef5de4	0.029219575
99	0xbe38d172	-0.18048647
100	0xbf65b177	-0.89723915
101	0xbfc1d290	-1.5142384
102	0xbf4935f4	-0.7859795
103	0x3ddd2b6d	0.107992984
104	0x402a88e3	2.664605
105	0x3d9a7683	0.075421356
106	0xbc574898	-0.013139866
107	0xbcc7676a	-0.024341304
108	0x3cbd0f87	0.023078693
109	0xbd32fb91	-0.043696944
110	0x3d9d7304	0.07687953
111	0x3f588072	0.8457099
112	0xbdc73ed8	-0.09728783
113	0xc0b86494	-5.7622776
114	0x40bc92f9	5.892941
115	0x3c805819	0.015667008
116	0xbca79bab	-0.02045997
117	0xbda8f571	-0.08249939
118	0x3d8fa201	0.07013322
119	0xbdcaa566	-0.098948285
120	0x3d1fb282	0.038988598
121	0xbcc6fc28	-0.02429016
122	0x3dc2c3d5	0.09510008
123	0xbe4c60d3	-0.1995881
124	0x3e929f6b	0.2863725
125	0x3d6049c3	0.054757845
126	0xbced5df3	-0.028975463
127	0x3de7979f	0.11308216
128	0x3dd29146	0.10281615
129	0xbe81221a	-0.2522133
130	0xbc9b7db4	-0.018980838
131	0xba18f7a8	-0.00058352435
132	0xbe11d72b	-0.14242236
133	0x3f5bfb60	0.8593044
134	0xbf68d933	-0.9095642
135	0x3fca3e1a	1.5800202
136	0xbfa6ddac	-1.3036399
137	0x407c7360	3.944542
138	0x4003cb04	2.059266
139	0x403100ef	2.765682
140	0x3d647294	0.055773333
141	0x3d3100d5	0.043213684
142	0x3d4e6e54	0.050398186
143	0x3f7b7f71	0.98241335
144	0xbf71df4d	-0.94481355
145	0xbdc131d1	-0.0943333
146	0xbd336e21	-0.0438062
147	0x3cb87677	0.022517426
148	0x3d5cc30c	0.05389695
149	0xbd751201	-0.059831623
150	0x3d31e283	0.04342891
151	0x3a7744a4	0.00094325305
152	0x3d4e112a	0.050309338
153	0x3d709878	0.058739156
154	0xbd62047a	-0.05518005
155	0xbdf89e43	-0.12139561
156	0xbc36a82f	-0.0111484965
157	0xbcec7c5e	-0.028867897
158	0x3c84591f	0.016155777
159	0x3cb7a67c	0.022418253
160	0x3cc06b00	0.023488522
161	0xbc75fbde	-0.015013663
162	0x3b843376	0.004034455
163	0xbd96aacb	-0.07356795
164	0x3b8b39e2	0.0042488435
165	0xbd3c6502	-0.045994766
166	0xbcb5bcaa	-0.022184689
167	0x3c6efb84	0.014586333
168	0xbd611399	-0.05495033
169	0x3ce68b28	0.028142527
170	0xbcf2eccb	-0.029653927
171	0x3d5df249	0.05418614
172	0xbd901c06	-0.07036595
173	0x3fa7db91	1.3113881
174	0xbf9f546b	-1.2447637
175	0x3c8087e4	0.015689798
176	0x3d112fb8	0.0354459
177	0x3d8448cb	0.06459197
178	0x3f04e383	0.51909655
179	0xbf068532	-0.5254699
180	0x3ed4034f	0.41408774
181	0x400eb84b	2.2299984
182	0x3f96a14f	1.1767977
183	0x402dc21b	2.7149723
184	0xbfebfe86	-1.8437049
185	0x3d39227e	0.04519891
186	0xbc57e492	-0.013177054
187	0x3c25ac0f	0.010111823
188	0x3cee38f7	0.029079897
189	0x3d210f54	0.03932126
190	0xbd17a7c2	-0.03702522
191	0x3cee0d51	0.029059084
192	0x3cacced4	0.021094717
193	0x3f6da1d9	0.92825085
194	0xbf6d37c6	-0.9266323
195	0x405e7af0	3.4762535
196	0xc021371b	-2.5189884
197	0xbf4b530b	-0.7942359
198	0xbff85112	-1.9399741
199	0x3fe1813e	1.7617567
200	0x3cea17e3	0.028575843
201	0x3b02dfdb	0.0019969854
202	0x3e02e29a	0.12781754
203	0x3dd63f0d	0.10461245
204	0xbcdc872c	-0.026919924
205	0xbeceddb5	-0.40403524
206	0xbfe8ea32	-1.8196471
207	0x3fad9c96	1.3563411
208	0x3ebf135f	0.37319466
209	0xbf6a569f	-0.91538423
210	0x3fc3a682	1.5285189
211	0x4030e06e	2.763698
212	0xbeb85f6b	-0.36010298
213	0xc031d109	-2.7783835
214	0xbf3f2ba6	-0.7467598
215	0x3d46354f	0.048390683
216	0x3ca2f155	0.019890467
217	0xbdcf3305	-0.10117153
218	0x3f524ff7	0.82153267
219	0xbf5b8113	-0.85743827
220	0x3b8e30e8	0.004339326
221	0xbcc4359b	-0.023951342
222	0xbda7d906	-0.08195691
223	0x3fe7af80	1.8100433
224	0xbff6f76d	-1.9294258
225	0x3c071cb3	0.0082465885
226	0x3ce78382	0.02826095
227	0xb97b7916	-0.00023982333
228	0x3ccaf866	0.024776649
229	0x3e141039	0.14459313
230	0x3e1a8691	0.15090396
231	0xbed13801	-0.4086304
232	0xbff282cc	-1.8946166
233	0xbf8e9979	-1.1140586
234	0x3fd7b367	1.6851624
235	0x3d427522	0.047474988
236	0x3d3f09f4	0.04664035
237	0xbdbe076b	-0.092787586
238	0x3bbb8dfe	0.005723714
239	0xbde08830	-0.10963476
240	0x3caacd48	0.020849839
241	0x3d97fc57	0.07421177
242	0xbca60a59	-0.020268606
243	0x3bccdd12	0.0062519396
244	0x3cc94bb3	0.024572229
245	0xbcdeabf3	-0.027181601
246	0x3cf26278	0.02958797
247	0x3d12e0ac	0.035858795
248	0xbedeedcb	-0.43540797
249	0x3ef6a836	0.4817521
250	0xbb9b1a97	-0.0047333944
251	0x3cf9c562	0.030489627
252	0xbd8d7f03	-0.06908991
253	0x3fb41082	1.4067538
254	0xbfb43272	-1.4077895
255	0x3c5a3b29	0.013319769

hy/W f4 [1, 64]
0	0x3f717b1e	0.94328487
1	0xbfb455a3	-1.4088634
2	0xbf0852e1	-0.53251463
3	0x3f10b3f1	0.5652457
4	0xbf6f2cca	-0.9342772
5	0xbf1784a2	-0.59186757
6	0x3f91b1df	1.1382407
7	0x3f15dcf9	0.585403
8	0x3f7688f5	0.9630273
9	0xbf7be625	-0.9839805
10	0x3f46bdbb	0.77633256
11	0x3f2307fb	0.6368405
12	0x3f07c91f	0.5304126
13	0x3f61a2d5	0.88139087
14	0x3f0f0f1a	0.5588242
15	0x3fae9708	1.3639841
16	0x3f7fa814	0.9986584
17	0xbf15feb8	-0.58591795
18	0x3f481e8a	0.781716
19	0xbf81ede5	-1.0150725
20	0x3f17a887	0.5924153
21	0x3f3f1cfe	0.74653614
22	0x3f671663	0.90268534
23	0x3f9db575	1.2321001
24	0x3f5dc196	0.86623514
25	0x3f67639d	0.9038637
26	0xbf5d48e6	-0.8643936
27	0x3f284b4c	0.65739894
28	0xbf9b5f9f	-1.2138556
29	0x3efdb694	0.4955336
30	0xbf7340b0	-0.9502058
31	0xbf39a221	-0.72513014
32	0x3f56f729	0.83970886
33	0xbf30c6db	-0.6905343
34	0xbefa0f4a	-0.4883979
35	0x3f50623f	0.8139991
36	0x3fa318ec	1.274198
37	0x3f593f20	0.84861946
38	0xbf296c17	-0.66180557
39	0xbf0c43d7	-0.54791015
40	0x3f1f59a6	0.6224617
41	0xbf28643e	-0.6577796
42	0xbf14584c	-0.5794723
43	0xbf8c6be5	-1.0970427
44	0xbee1fa8b	-0.44136462
45	0x3f2f7efe	0.6855315
46	0xbf3364f4	-0.7007592
47	0x3f59153f	0.84798044
48	0xbf9e8826	-1.2385299
49	0xbf27a987	-0.65493053
50	0x3f938f9c	1.1528201
51	0xbfb1f961	-1.3904229
52	0x3f3e8cc4	0.7443354
53	0x3f8f92ef	1.1216716
54	0x3f66c99a	0.9015137
55	0x3f7e17bd	0.9925497
56	0x3f388167	0.7207245
57	0x3f66b8ad	0.9012554
58	0x3f86dc0f	1.0535907
59	0xbf850e93	-1.0395073
60	0x3f407e40	0.7519264
61	0x3f3f864b	0.7481429
62	0x3f507a48	0.81436586
63	0x3ead8ecf	0.33898017

hh/upward/b f4 [256]
0	0x3e7ad43c	0.24495023
1	0xc06f6386	-3.7404494
2	0x3f8c8bb0	1.0980129
3	0xc0074ae3	-2.1139457
4	0x3f8604f9	1.0470268
5	0x3fa3fcbe	1.2811506
6	0xc0e7a61e	-7.239028
7	0xbff610f5	-1.9223925
8	0x4003dafd	2.060241
9	0x3f911f80	1.1337738
10	0xc02c0cc6	-2.6882796
11	0xbf097a39	-0.5370212
12	0xbfb1071f	-1.3830298
13	0xc068c065	-3.6367428
14	0xc00afefa	-2.1718125
15	0xc0262433	-2.5959594
16	0xbf4b3684	-0.7938006
17	0x3feecc08	1.8656015
18	0x3e0da013	0.13830595
19	0xc03fbae6	-2.9957824
20	0xc072df91	-3.7948954
21	0xc02662eb	-2.5997875
22	0xc0ef3dab	-7.476278
23	0xc079fa5f	-3.9059064
24	0xbdf36af3	-0.11885633
25	0xc0c82113	-6.2540374
26	0xc04acec2	-3.1688695
27	0xc01fba52	-2.495747
28	0x3e94234c	0.2893318
29	0x40900151	4.5001607
30	0x3e92ab5a	0.28646356
31	0xbf7a6a48	-0.9781842
32	0x3ee9ad73	0.45640144
33	0xbef97111	-0.48719075
34	0x402d658d	2.7093232
35	0x40d05502	6.510377
36	0x3fe5babf	1.7947615
37	0xbf379c7b	-0.71723145
38	0xc05fef6a	-3.4989877
39	0xbf576dff	-0.84152216
40	0x3f9e2dda	1.2357743
41	0xc02cda18	-2.7008114
42	0x3f5e1bed	0.8676136
43	0x4077ffc7	3.8749864
44	0x3f07cd69	0.53047806
45	0xc0098ec8	-2.1493397
46	0x405cbdde	3.4490886
47	0x3fcbef7f	1.5932463
48	0xbee8ff60	-0.45507336
49	0x3f35e579	0.7105327
50	0x3f915525	1.1354109
51	0xc013d99f	-2.3101575
52	0x3f3b20a6	0.7309669
53	0x407cca1f	3.9498365
54	0x3f6fc8d9	0.93665844
55	0x400a7d47	2.1638963
56	0xc003ac59	-2.0573943
57	0x3f7b30a1	0.98121077
58	0xbf7a23a6	-0.97710645
59	0xbfdbd768	-1.7175112
60	0xc03338d3	-2.8003433
61	0xbe55675c	-0.2084021
62	0x4003a04a	2.0566583
63	0xc01ffc94	-2.4997911
64	0xc038a45b	-2.8850315
65	0x3f883e28	1.0643969
66	0xc0d4f1c8	-6.6545143
67	0x3eb03d87	0.34421942
68	0xbfce3d63	-1.6112484
69	0x3f5a5c9b	0.85297555
70	0xc0c96b43	-6.2943435
71	0xc0229217	-2.5401666
72	0x3fbe63b7	1.487418
73	0xbf10a6f9	-0.5650478
74	0xc03402bb	-2.8126667
75	0xbfbd9f3e	-1.4814222
76	0x408389f9	4.1105924
77	0x3f92cd67	1.1468934
78	0x4081f2dc	4.060896
79	0x3eda9761	0.42693618
80	0xc0f06139	-7.511868
81	0x40230433	2.5471313
82	0x40e4a2f7	7.144893
83	0xbffd2cab	-1.9779257
84	0x3f89fe0f	1.0780658
85	0xc09325ce	-4.598365
86	0x3f89ab0f	1.0755328
87	0x3fb254aa	1.3932087
88	0x408dc93a	4.430814
89	0xc0ac53e9	-5.385243
90	0xbf5bf48b	-0.8592002
91	0x3e138abf	0.14408396
92	0x3ee1bcfe	0.44089502
93	0x3ee33326	0.4437496
94	0xc106697b	-8.400752
95	0xc07aa2a1	-3.916176
96	0x3e917d1c	0.28415763
97	0x406776b0	3.616619
98	0xc0024bab	-2.0358684
99	0x3eafde09	0.34349087
100	0x3ff35f69	1.9013492
101	0xbf5befb0	-0.8591261
102	0xbfddeee0	-1.7338524
103	0x40250ad6	2.5787864
104	0x3e2a8e70	0.16655898
105	0xbe7f1ab8	-0.24912536
106	0x3f72e7e5	0.9488509
107	0x41059a21	8.350129
108	0x386d70e7	5.661035e-05
109	0xc0651f71	-3.580044
110	0xbf0284d4	-0.5098393
111	0x3fc80d10	1.5628986
112	0x3f9a31bb	1.2046427
113	0xbfa2eada	-1.2727921
114	0xc086c015	-4.2109475
115	0x3e6cd485	0.23127945
116	0x3ffc81bf	1.9727095
117	0xc05c82cb	-3.445483
118	0xc0227e0a	-2.5389428
119	0xbeb6a293	-0.3567091
120	0xc0534e45	-3.3016522
121	0x40205db5	2.5057194
122	0x4089bb4d	4.304114
123	0x407efec7	3.9843004
124	0x3f0b3574	0.5437844
125	0xc001e0c5	-2.0293438
126	0xc06a5eda	-3.6620393
127	0x3eecc19e	0.46241468
128	0xc04f92bd	-3.2433312
129	0xbf3a6707	-0.7281346
130	0x3fa11eea	1.2587559
131	0x40afbb05	5.4915795
132	0x40b5b80a	5.6787157
133	0x3e513833	0.20431595
134	0x3e96d2f6	0.29457825
135	0x3fbda1db	1.4815019
136	0x3ff544f5	1.9161669
137	0x3ecbc058	0.39795184
138	0xc083e4b3	-4.1216674
139	0x3c85b087	0.016319526
140	0x40278389	2.6174033
141	0x4019d509	2.4036276
142	0x3f06b44b	0.52618855
143	0x3ebf6852	0.37384278
144	0xbf7dd208	-0.9914861
145	0x403159e2	2.771111
146	0xbfd167aa	-1.6359761
147	0x40268f99	2.6025145
148	0x3f7ae6eb	0.980086
149	0x3f89139e	1.0709112
150	0x403d5e69	2.9588873
151	0xbf213caa	-0.6298319
152	0xbf0652cf	-0.52470106
153	0x3fdc2982	1.7200167
154	0x3eb5c441	0.35501292
155	0xbf32f95d	-0.6991175
156	0x4023d14c	2.5596495
157	0x3fd6fef4	1.6796556
158	0x3f8121fa	1.0088494
159	0xc0671117	-3.610418
160	0xc08131f8	-4.0373497
161	0xc081f119	-4.060681
162	0x3f4a38ac	0.78992724
163	0x40a0d5c1	5.026093
164	0xbf8c2cf3	-1.0951217
165	0x3fe6d02e	1.8032281
166	0xc01bb8e4	-2.4331598
167	0xc02fd08e	-2.7471042
168	0x3efd9ec4	0.4953519
169	0xbf2f443e	-0.68463504
170	0xbeba6afd	-0.3640975
171	0xbef026e3	-0.46904668
172	0xbfc79473	-1.5592178
173	0x405ec037	3.4804819
174	0x3e3ed94a	0.18637577
175	0xbfb2a011	-1.3955098
176	0x3fe93d7d	1.822189
177	0x409d0af1	4.9075856
178	0xbe3f16bb	-0.18661015
179	0x407f88e5	3.9927304
180	0xc0b75bf0	-5.729973
181	0x41104c8e	9.01869
182	0xc00136b2	-2.0189633
183	0x3f98c347	1.1934594
184	0xbea98dc9	-0.33115986
185	0xc04e276c	-3.2211561
186	0xc017b93a	-2.3706803
187	0xc07161d7	-3.7715967
188	0x400be796	2.18601
189	0x3f488394	0.7832577
190	0xc09b12fb	-4.846067
191	0xc08e58cd	-4.44834
192	0xbf69bd14	-0.91304135
193	0x3fed7b5e	1.8553274
194	0xbf770f71	-0.96507937
195	0x3fe92179	1.821334
196	0x3bb16028	0.005413074
197	0xbe562880	-0.20913887
198	0x3f24140d	0.64093095
199	0x41190785	9.564336
200	0x3ddb0667	0.106945805
201	0x40543723	3.3158653
202	0xc0356238	-2.8341198
203	0xc01e0481	-2.469025
204	0x3fbb6241	1.463936
205	0x4029b968	2.6519413
206	0xc03230c0	-2.7842255
207	0xbfd40886	-1.6565101
208	0x3f717de3	0.9433271
209	0x3fe54147	1.7910546
210	0xc06a0e6b	-3.65713
211	0x40ebdee9	7.3709607
212	0xc0ad447d	-5.4146104
213	0xbf90b4e0	-1.1305199
214	0xbf2d44c1	-0.67683035
215	0x3ffb7313	1.9644493
216	0xbf2ab73d	-0.6668585
217	0x3f62cc05	0.8859256
218	0xc0101855	-2.251485
219	0xc02321b2	-2.5489316
220	0x40b2c069	5.5859876
221	0xbfa782ff	-1.3086852
222	0x3edb1952	0.42792755
223	0x3f66f246	0.9021343
224	0x401db62f	2.4642446
225	0x3c96855b	0.018374136
226	0xc08b073e	-4.344634
227	0xc0409b69	-3.0094855
228	0xbf898d22	-1.0746195
229	0x3f8cfbe2	1.1014369
230	0xbfcc1a59	-1.5945541
231	0xc03cb3c1	-2.9484713
232	0xbff11e61	-1.8837396
233	0xc051387a	-3.269072
234	0xbf8dc963	-1.1077083
235	0x3e53e405	0.20692451
236	0x3faa2404	1.3292241
237	0x406d359c	3.706397
238	0xbf6f25bf	-0.9341697
239	0xc075906f	-3.8369405
240	0x3a6fd4de	0.0009148846
241	0xc090a5e6	-4.5202513
242	0x3f9bf552	1.2184241
243	0xbf3e70c0	-0.7439079
244	0xbf09088b	-0.5352866
245	0xc06f541c	-3.7395086
246	0xbf10f37b	-0.5662152
247	0xc0f78653	-7.735147
248	0xc03388c2	-2.805222
249	0x3f9192ab	1.1372885
250	0xbfb310ea	-1.3989537
251	0xc09d69ee	-4.919181
252	0x3f865e77	1.0497578
253	0x3ec148a7	0.37750742
254	0xbf380bcb	-0.71892995
255	0x40764030	3.8476677

hh/upward/W f4 [256, 64]
0	0xbdcc749f	-0.09983181
1	0x3cd35002	0.025794987
2	0xbe713490	-0.23555207
3	0xbe86ebe0	-0.26351833
4	0xbdcebd06	-0.10094647
5	0x3e3c2e0e	0.18376943
6	0xbeafeb9a	-0.34359437
7	0xbe84db17	-0.25948402
8	0xbe69a544	-0.2281695
9	0x3e61752d	0.22017355
10	0xbe8af1e9	-0.27137688
11	0x3e0c886e	0.13723919
12	0x3e9cd862	0.30633837
13	0x3ec08aee	0.37605995
14	0x40086ce9	2.1316473
15	0xbd94d0b0	-0.072663665
16	0x3f27b1c7	0.6550564
17	0x3f61515e	0.8801478
18	0x404a9977	3.1656168
19	0xbe2d01f2	-0.16895273
20	0x3fff17e8	1.9929171
21	0x3ebff7e6	0.3749382
22	0xbfa9574b	-1.3229765
23	0xbe675641	-0.22591497
24	0xbf1d0e57	-0.61350006
25	0x3de29494	0.11063495
26	0x3c5e9e9e	0.013587622
27	0xc052986d	-3.2905533
28	0xbdaca672	-0.084301844
29	0xbd68c749	-0.056830678
30	0xbedf3748	-0.43596864
31	0x3f00a239	0.5024753
32	0x3ea46fb2	0.32116467
33	0x3c6a0c57	0.014285169
34	0x3d8c5060	0.06851268
35	0x3f482c46	0.78192556
36	0xc024347c	-2.5657034
37	0xbe2743d5	-0.1633447
38	0x3f150008	0.5820317
39	0x3f03fd82	0.515587
40	0xbd8272c4	-0.06369546
41	0xbfa53514	-1.2906823
42	0xc0123c9c	-2.2849493
43	0xbe9fe63c	-0.31230342
44	0xbf398f48	-0.72484255
45	0xbe4caaea	-0.19987074
46	0x40b2df5f	5.589767
47	0xbee7cca5	-0.4527332
48	0xbd9c5fed	-0.07635484
49	0x3d4e4e73	0.050367784
50	0xbf06f5ff	-0.5271911
51	0x3d38a70e	0.04508119
52	0x3fca66c9	1.5812618
53	0xbe22a6ba	-0.15883914
54	0x3ee5431c	0.44777763
55	0x3f586104	0.84523034
56	0xbd4194b8	-0.04726097
57	0x40c9deec	6.308462
58	0x3e87e274	0.26539958
59	0xbe51f8e1	-0.20505096
60	0x3ddb0d0d	0.106958486
61	0x3dda3d8b	0.1065627
62	0xbe1ff676	-0.15621361
63	0xbeb33113	-0.34998378
64	0x3da4d500	0.08048439
65	0x3d97f4c4	0.07419732
66	0x3e9d18a9	0.30682877
67	0x3d8b1b0b	0.067922674
68	0xbc04b788	-0.008100398
69	0xbd127a20	-0.035761
70	0x3f796912	0.9742595
71	0xbf66015b	-0.8984582
72	0x3e491daf	0.1964023
73	0x3dd1b140	0.10238886
74	0xbcfde612	-0.030993495
75	0xbe81d348	-0.25356507
76	0xbb4fe7fd	-0.003172397
77	0x3eebeca7	0.4607899
78	0x3e4aa252	0.19788483
79	0x3e71859e	0.23586127
80	0x3ef2a5e7	0.47392198
81	0xbea6c472	-0.3257175
82	0xbfd5523a	-1.6665719
83	0xbeaff8ca	-0.34369498
84	0x3e2bfd16	0.16795763
85	0x3f25178c	0.64489055
86	0xbe92bd36	-0.2865998
87	0x3e4d6e1e	0.20061538
88	0x3dae049f	0.08496975
89	0x3e2972ad	0.16547652
90	0x3ec02f0a	0.37535888
91	0x3feed586	1.8658912
92	0x3d7d31e9	0.061815176
93	0x3f035f9b	0.5131776
94	0xbd918883	-0.07106116
95	0xbe6df0ef	-0.2323644
96	0x3d81f8a1	0.0634625
97	0xbb80449c	-0.003914429
98	0xbeb5d7f4	-0.35516322
99	0x3f4257af	0.75915045
100	0xc0b3af35	-5.6151376
101	0x3dda1c26	0.106499
102	0xbe70d4c3	-0.23518662
103	0x409d3727	4.9129825
104	0xbe82b82b	-0.25531134
105	0x405f0a0c	3.4849882
106	0xbfe73b35	-1.8064944
107	0x3e33bdd6	0.17552885
108	0xbec55186	-0.3853876
109	0x3d8e7152	0.06955208
110	0x3ea3c932	0.31989437
111	0x3f0b612e	0.5444516
112	0xbc9e0a24	-0.019291945
113	0x3df3e480	0.11908817
114	0xbe3e3be0	-0.18577528
115	0x3d3192f6	0.043353043
116	0xbf2d51ed	-0.67703134
117	0xbd9105bf	-0.07081174
118	0xbf17b117	-0.5925459
119	0xbed48cce	-0.41513675
120	0xbe3baf59	-0.18328609
121	0xbf8c7482	-1.0973055
122	0x3e3d0c92	0.18461826
123	0x3ec2b85c	0.3803128
124	0x3d498ee3	0.049208533
125	0x3e77949e	0.24177787
126	0x3e76297b	0.24039261
127	0x3d6029aa	0.054727234
128	0x3e37311b	0.17889826
129	0xbf14ee82	-0.58176434
130	0xbe9e214e	-0.30884784
131	0x3ebf18ee	0.37323707
132	0x3e68c2c9	0.22730555
133	0x3e52e01f	0.20593308
134	0xc09a1fc5	-4.816378
135	0xbdbbbda9	-0.09167034
136	0x3e3d8fdf	0.18511914
137	0x3f723d4d	0.9462479
138	0x3f77b5ca	0.96761763
139	0xbeed72ca	-0.4637664
140	0xbf22b202	-0.6355287
141	0x3f3382dd	0.70121557
142	0xbe498827	-0.19680844
143	0x3fa6d00c	1.3032241
144	0x3d61cc52	0.055126496
145	0xbd70734a	-0.0587037
146	0xc0095bc7	-2.1462266
147	0x3f17eeb3	0.593486
148	0x3e9f114b	0.3106788
149	0x3f655c6f	0.8959417
150	0xc0810187	-4.0314364
151	0xbd5f30c8	-0.05448988
152	0x3d85f69b	0.06541177
153	0x3f421e1b	0.7582719
154	0xbe8b9b81	-0.27267078
155	0xc0260d69	-2.5945685
156	0x3f19629c	0.5991609
157	0x3f1548f6	0.58314455
158	0x3febaf78	1.8412924
159	0xbf209f9f	-0.6274356
160	0x3f5afcff	0.8554229
161	0x3f2b1e68	0.6684327
162	0xbed9e350	-0.42556238
163	0x3f3639d3	0.7118198
164	0xc099df57	-4.808513
165	0x3ec879cd	0.39155427
166	0x3f0186b8	0.5059619
167	0xc0131262	-2.297997
168	0xbd17456a	-0.036931433
169	0x40a8c521	5.2740636
170	0xbf9d0ae7	-1.2268952
171	0x3f8662d4	1.049891
172	0x3e3d1dcc	0.18468398
173	0x3f70ecf3	0.94111556
174	0x3f46d0dd	0.7766245
175	0x3e06b04d	0.13153191
176	0xbeb1db5b	-0.34737667
177	0xbf02ec53	-0.5114185
178	0x3f0d26e9	0.551375
179	0x3e3a97a1	0.18221904
180	0xbc235d39	-0.0099709565
181	0x3f4c52a1	0.7981358
182	0x3e90f387	0.28310797
183	0x3d21162e	0.039327793
184	0xbe731a42	-0.23740485
185	0x3fe1d355	1.7642618
186	0x3f229cfd	0.63520795
187	0x3edc7af7	0.43062565
188	0xbda6cfd3	-0.08145108
189	0x3ede09eb	0.43366942
190	0xbee77983	-0.45209894
191	0x3f06fb3f	0.5272712
192	0x3e8fe04e	0.28100818
193	0x3e4f5474	0.2024706
194	0xbda274e7	-0.079324536
195	0xbe54896f	-0.20755552
196	0x3d9b52bc	0.0758414
197	0x3ea54fec	0.32287538
198	0x404b3cd4	3.1755877
199	0xbf46ca32	-0.77652276
200	0xbdc57f61	-0.09643436
201	0x3e52d9f6	0.20590958
202	0x3eb04619	0.3442848
203	0xbefbf2c1	-0.49208644
204	0x3dc66a62	0.0968826
205	0x3e3ca7c4	0.18423373
206	0x403f114d	2.985431
207	0xbeeee3ca	-0.46658164
208	0xbe26f051	-0.16302611
209	0xbf2e2d46	-0.6803783
210	0x40847f34	4.1405277
211	0x3e926d60	0.28599072
212	0x401b240a	2.4240746
213	0x3ee87258	0.45399737
214	0xc03e4f34	-2.9735842
215	0x3f010253	0.5039417
216	0xbe9e4484	-0.30911648
217	0x3ed7e494	0.4216658
218	0x3ea35cab	0.31906638
219	0x402ba9ba	2.6822343
220	0x3ede5ab8	0.43428588
221	0xbe8a30c5	-0.26990333
222	0x3e233601	0.1593857
223	0xbe1b11bd	-0.15143485
224	0x3b03f901	0.0020137432
225	0x3de9daf9	0.11418719
226	0xbd1907f4	-0.0373611
227	0x3e8720fa	0.26392347
228	0xbf41e3f9	-0.75738484
229	0x3ee74a00	0.45173645
230	0xbd31123d	-0.043230284
231	0x3fe7a92c	1.8098502
232	0xbeb94e2e	-0.3619246
233	0x3f99a7e2	1.2004359
234	0xbfbf5737	-1.4948491
235	0x3e29beae	0.16576645
236	0x3ec55729	0.3854306
237	0xbd8f63b8	-0.07001442
238	0x3fbc3a21	1.470524
239	0xbf1c69ed	-0.6109913
240	0x3f3d2cf1	0.738967
241	0x3c8a156a	0.016855914
242	0x3e62545b	0.22102492
243	0x3d1cce9e	0.038282983
244	0x3f8c9f75	1.0986162
245	0x3d71ef39	0.05906603
246	0xbb1e42f4	-0.0024148794
247	0x3dc91de2	0.09820153
248	0x3f6a2436	0.91461504
249	0xbf15fb5e	-0.5858668
250	0x3e1d0d42	0.15337089
251	0xbfe28867	-1.7697877
252	0x3e101e4b	0.14074056
253	0xbeac253f	-0.33622167
254	0xbe4c7c92	-0.19969395
255	0x3eb0d016	0.34533757

hh/lateral/W f4 [256, 64]
0	0xbf49a8f2	-0.78773415
1	0x3fb393ae	1.4029443
2	0xc01c392d	-2.4409897
3	0x3fa888ba	1.3166726
4	0xbf68b467	-0.9090027
5	0x3f951e0e	1.1649797
6	0x3ef9a327	0.48757288
7	0x40422641	3.0335848
8	0x3ee37afe	0.44429773
9	0xbfa49601	-1.2858278
10	0xbf3173b2	-0.6931716
11	0x3ec055ce	0.37565464
12	0x3fe71f1a	1.8056366
13	0x40234e0d	2.5516388
14	0x400fe848	2.2485523
15	0x3fab1474	1.3365617
16	0x40e87821	7.264664
17	0x3f6f3a59	0.93448406
18	0x4002553d	2.0364525
19	0xc09b0e1f	-4.845474
20	0x3fd5dfcd	1.6708924
21	0x4024198e	2.5640597
22	0xc0182628	-2.3773289
23	0xbf35d701	-0.71031195
24	0xbf79f59b	-0.9764039
25	0x4095d37d	4.6820664
26	0x402dc465	2.715112
27	0x3f771841	0.96521384
28	0xc02d26f1	-2.7055018
29	0x3f7fb425	0.99884254
30	0xc088f82f	-4.280296
31	0xc07e852f	-3.976879
32	0x3fefdbc4	1.8738942
33	0x3f15bad7	0.5848822
34	0xbff199fc	-1.8875117
35	0xc0713ac8	-3.7692127
36	0xc02bd313	-2.684758
37	0xbe3d61df	-0.18494366
38	0xbf180741	-0.5938607
39	0x3fe2f2a3	1.7730297
40	0xc0036821	-2.0532305
41	0x4088f54b	4.279943
42	0x404b0303	3.1720588
43	0xbfdeeda4	-1.7416272
44	0x40138061	2.3047106
45	0xbfbc898d	-1.4729477
46	0xbf9226be	-1.1418073
47	0x3f90cf76	1.1313312
48	0xbef9f101	-0.48816684
49	0xbf7002b8	-0.9375415
50	0x3f8078af	1.003683
51	0xc01d8cbb	-2.4617145
52	0x3da4f26f	0.08054053
53	0x3e5b33b8	0.21406448
54	0x3fd7dbfb	1.6864008
55	0xc0ca0d2f	-6.3141093
56	0xbfe3cc14	-1.7796655
57	0x3fe06f9c	1.753406
58	0x3fcf32fd	1.6187435
59	0x3f00d3fd	0.5032347
60	0xbf5d440d	-0.8643196
61	0xc047a69f	-3.1195447
62	0x3d07a95f	0.03312051
63	0x3ec306c3	0.38091096
64	0xc08307c4	-4.094698
65	0xbe1636cb	-0.1466934
66	0x3f5c4e8a	0.8605734
67	0xc02a9245	-2.6651776
68	0xbec2363c	-0.37932003
69	0xc045417b	-3.0821216
70	0xc003ded2	-2.0604749
71	0xbef8e25b	-0.48610196
72	0xbec3b61b	-0.38224873
73	0xc0364aac	-2.8483076
74	0xbe2623df	-0.16224621
75	0xbe81f832	-0.2538467
76	0x3eb99080	0.36243057
77	0xbef6dd7f	-0.48215863
78	0xbfd8c5dd	-1.6935383
79	0x3f43fc05	0.76556426
80	0xbee35a23	-0.44404706
81	0x40b19282	5.5491343
82	0x3f5d6a77	0.8649058
83	0x3f6b01c6	0.9179958
84	0x3f833389	1.0250102
85	0xbfbbdd21	-1.4676858
86	0x3f53a103	0.8266756
87	0xbfa67693	-1.3004936
88	0xc09cb1bd	-4.8966966
89	0x3ee6b9e8	0.4506371
90	0x3fe93882	1.822037
91	0xbeb8973e	-0.3605289
92	0x40ab9211	5.3615804
93	0xbf69562b	-0.91147107
94	0x3ff9e336	1.9522464
95	0x40024e69	2.0360358
96	0x3f305763	0.6888334
97	0xbf9cb92e	-1.2244012
98	0xc03bef69	-2.9364874
99	0xc031aa39	-2.7760146
100	0x3fa5f912	1.2966635
101	0xbf494bf9	-0.7863155
102	0xbfa33607	-1.2750863
103	0x3f65e9a1	0.89809614
104	0x3f0db106	0.5534824
105	0x40987859	4.764691
106	0x405b4397	3.4260004
107	0xc0088282	-2.1329656
108	0x3f217bb1	0.63079363
109	0xc039cc8b	-2.9031093
110	0x406f699e	3.7408214
111	0xbf27b53d	-0.6551092
112	0x3eeb1155	0.4591166
113	0xbec12dc5	-0.37730232
114	0x3f8294bd	1.0201641
115	0x3f2dc508	0.6787877
116	0x4000c863	2.0122306
117	0xbf67b1c1	-0.90505606
118	0xbced3e74	-0.028960444
119	0x3f23a777	0.63927406
120	0xc08d15d0	-4.4089127
121	0xbf859994	-1.0437493
122	0x405cb101	3.4483035
123	0x40350bb5	2.8288395
124	0xc06347f1	-3.551266
125	0xbea724f1	-0.32645372
126	0x3f8198a1	1.0124704
127	0xbf1257a6	-0.5716499
128	0xc04fa74d	-3.2445862
129	0x4089bac5	4.304049
130	0x40559650	3.3372993
131	0x40a52b37	5.1615252
132	0x4093ab8a	4.61469
133	0x3f852893	1.0403007
134	0xbf1669bf	-0.58755106
135	0xc038e97f	-2.8892515
136	0xc015d9ee	-2.3414264
137	0x3f7c74f9	0.98615986
138	0xbeabbe4a	-0.33543617
139	0xbf51f30b	-0.8201148
140	0x4105cd95	8.362691
141	0xc017ff16	-2.3749442
142	0xbea5512e	-0.32288498
143	0xbfac12f8	-1.3443289
144	0xbe9ad570	-0.30240965
145	0x3fce0509	1.6095287
146	0x3fb9ac20	1.4505653
147	0xc0edd8cc	-7.4327145
148	0xbf2acb77	-0.6671671
149	0xc03085d1	-2.7581675
150	0xbff94d0c	-1.9476638
151	0xc0c23bd5	-6.0698037
152	0xc0420869	-3.0317633
153	0xc09b55bc	-4.8542156
154	0x3fcda4f0	1.606596
155	0x401d3e40	2.4569244
156	0xc05fd98e	-3.4976535
157	0xbff91994	-1.9460931
158	0xbfbb3de5	-1.4628264
159	0x403c5ed4	2.9432878
160	0x3feadbc1	1.8348314
161	0x404cde54	3.2010698
162	0x3ff4f43b	1.9137033
163	0x3ee551a7	0.44788858
164	0x3fe2a9f9	1.7708122
165	0xc01856a4	-2.3802881
166	0xbfee05c1	-1.8595506
167	0xbe9cf523	-0.30655774
168	0xc095c72a	-4.680562
169	0x4059d0ea	3.403376
170	0x3f987eb1	1.1913663
171	0xc072c937	-3.7935312
172	0xbfc06dec	-1.5033545
173	0xc0d24796	-6.5712385
174	0xc0553e9a	-3.331946
175	0xbfb3d4ae	-1.404928
176	0xc0988e0f	-4.767341
177	0xc031f155	-2.7803547
178	0x3e055b23	0.13023047
179	0x3f754f77	0.9582438
180	0xbfd9b60e	-1.7008684
181	0xc0335954	-2.8023272
182	0xc003aadd	-2.0573037
183	0x403dfcc8	2.9685535
184	0xc096efd0	-4.716774
185	0x3eb1c6f6	0.34722108
186	0x3fc672d9	1.5503799
187	0x3fc3a887	1.5285805
188	0xc0028113	-2.039128
189	0xbf3100a6	-0.69141614
190	0x3dd99b0f	0.10625278
191	0x3ffc248c	1.9698653
192	0xbe164671	-0.14675309
193	0x40d4110f	6.6270823
194	0x3f8335bb	1.0250772
195	0xbfc5c250	-1.5449924
196	0xbf6e29ec	-0.9303272
197	0x4041f6cf	3.030689
198	0xbf41bed0	-0.7568178
199	0x40c256f1	6.073113
200	0x3d947d7e	0.07250498
201	0x3f66b2dc	0.9011667
202	0xbea4faab	-0.32222494
203	0xbfe4f9dc	-1.7888751
204	0xbe2ea4b4	-0.17055017
205	0x3ca3237b	0.01991438
206	0x40449634	3.0716677
207	0xbfcde2fe	-1.6084898
208	0x3f765f9c	0.9623964
209	0x40f0ce24	7.5251637
210	0x3d044c65	0.032299418
211	0xc0bdef35	-5.93545
212	0xc04fd7cb	-3.247546
213	0x3ed87ae0	0.42281246
214	0xbf1e788f	-0.6190271
215	0xbfd896d8	-1.6921034
216	0x40364758	2.8481045
217	0xbead5b47	-0.33858702
218	0x40301090	2.751011
219	0xbfb5b185	-1.41948
220	0x40f04abe	7.509124
221	0xbf8947cf	-1.0725039
222	0x40183c4d	2.3786805
223	0xc032e6b4	-2.795331
224	0x3eeb920d	0.46009865
225	0x4074b89c	3.8237677
226	0xc05710e5	-3.3604062
227	0x405e3fa5	3.4726346
228	0xbf6f0432	-0.93365777
229	0xc012fc40	-2.296646
230	0xbea39836	-0.31952065
231	0xbe7ae72e	-0.2450225
232	0x40059df5	2.087766
233	0xbfe68c55	-1.8011576
234	0xc06739b0	-3.612896
235	0x402a8d57	2.6648767
236	0xc085d0ee	-4.181754
237	0xbfbf0146	-1.4922264
238	0xc01e856d	-2.4768937
239	0xbf978640	-1.1837845
240	0x40816555	4.0436196
241	0x3e1767b0	0.14785647
242	0xc0157a19	-2.3355772
243	0x40863fd2	4.1952906
244	0xbf43f687	-0.76548046
245	0xbeaffdc7	-0.34373304
246	0xbe64683a	-0.22305384
247	0xc00611be	-2.094833
248	0xbea668be	-0.32501787
249	0x3f3a3b33	0.7274658
250	0x3fae70c3	1.3628162
251	0xbfffcad2	-1.9983771
252	0xc0133053	-2.2998245
253	0xbf4a824d	-0.79105073
254	0xbf0e74da	-0.5564705
255	0x3f16e010	0.5893564
