code/python/slip_model/10_128_4_5_10_4950_800_use_train_slip_model.npz (npz, 500211 bytes, 7 tensors)

hy/b f4 [4]
000000 a4 c4 24 be 7c 17 fc bd 6d af 2b bd d8 36 fd bc
       -0.16090637 -0.12309167 -0.041915346 -0.03090994

hy/W f4 [4, 128]
000000 32 0c 78 3e f4 67 e3 bd cd 80 c4 be a4 9a 38 bf
       0.24223402 -0.11103812 -0.38379517 -0.7211096
000010 fe 3b 20 3d ff 70 40 3e d7 29 b2 bd ed 52 dd 3e
       0.039119713 0.18793105 -0.086993866 0.4322733
000020 5a a8 82 bd b0 e6 49 3d 51 06 95 3c 64 b9 bb 3d
       -0.06379767 0.049292266 0.018191488 0.0916622
000030 4c 69 d7 be 46 a1 84 be e3 17 03 40 c1 2e 84 3d
       -0.42072523 -0.25904292 2.048333 0.0645423
000040 b9 aa 5d bf e0 94 15 3d 77 cf ed bd 96 5a 02 be
       -0.8658863 0.03651893 -0.116118364 -0.12729868
000050 22 4d 62 bd a7 db f6 bd 14 a3 1b 3e 71 2e 90 3d
       -0.05524934 -0.12053614 0.15198928 0.07040108
000060 bb bf f5 bf e8 4c 9c bd 5e 74 da bd 8b 9b cf bd
       -1.9199136 -0.07631856 -0.106667265 -0.10137089
000070 93 aa a6 bf 34 af 1d c0 07 0a 21 be 71 7a 77 3e
       -1.3020805 -2.4638186 -0.15726481 0.24167801
000080 76 9b 08 3d 5a 5b d8 be 23 d2 a5 3d 60 3d ae bd
       0.033351384 -0.42257196 0.08096721 -0.085078
000090 85 63 17 bd 79 7f 94 3c 67 da f9 3f bf 8e 9b 3f
       -0.036960144 0.01812719 1.9519776 1.2152938
0000a0 96 b1 27 bf 55 85 4d 3d 3d 52 ff 3d cb 17 67 3e
       -0.6550535 0.050175983 0.124668576 0.2256767
0000b0 39 b7 c6 3d e2 ff 87 3e 22 8d 8b bc 1c fa b5 be
       0.09702916 0.2656241 -0.01703507 -0.3554238
0000c0 39 05 c7 be 12 75 d0 bf 9b 30 c0 be 64 2d b4 3d
       -0.38871172 -1.6285727 -0.37537083 0.0879772
0000d0 ef c0 8f 3e 60 a1 cf bc 80 26 fa bd 07 f9 f4 bd
       0.28076884 -0.025345504 -0.122143745 -0.11961561
0000e0 65 0c 06 3f c2 47 43 3e 79 09 00 3f 8c da 14 bf
       0.5236266 0.19070342 0.50014454 -0.58145976
0000f0 b7 d5 ae 3d c8 08 93 3e 5f 41 37 3f 30 19 bd bf
       0.085368566 0.28717637 0.71584123 -1.4773312
000100 c0 32 ee 3e 69 e1 8d 3f 11 ee d9 bf 6d 90 bd 3e
       0.46523094 1.1084415 -1.7025777 0.3702425
000110 4f 75 0d 3e 3b 32 53 be 97 23 97 be c4 17 01 bf
       0.13814281 -0.2062463 -0.2951934 -0.5042689
000120 4c 0c 12 be 47 cc b9 3e e5 c5 7c 3e 1f 36 0e 3e
       -0.14262503 0.36288664 0.24684866 0.13887833
000130 af 86 0e 3e 23 a1 7a 3f de 74 b0 be 16 af 84 be
       0.13918565 0.97902125 -0.34464163 -0.2591483
000140 54 33 c5 3e e2 22 f0 be 4b ad 8c bd d3 06 14 c0
       0.38515723 -0.46901613 -0.068689905 -2.3129165
000150 c1 73 c1 bf 17 fa 85 be d1 c6 ae bf e8 9e 66 be
       -1.511345 -0.26167366 -1.3654424 -0.22521555
000160 24 1e 99 3e b2 4f cf bd 84 ab 20 be ae 7a 82 be
       0.29905808 -0.101226225 -0.15690428 -0.25484222
000170 35 7d 5c 3f e9 ae 97 be f8 62 81 3e e1 3e 0a 3e
       0.8612855 -0.29625633 0.2527082 0.13500549
000180 20 70 1b be 5a 67 33 bf 78 00 42 3f 77 13 23 40
       -0.15179491 -0.70079577 0.75781965 2.548063
000190 f6 d6 40 3e fb cd a9 3c c5 39 37 3d 78 3f 39 3d
       0.18832001 0.020728102 0.044732828 0.045226544
0001a0 ae f1 22 be 29 c9 ce 3e f4 94 0c 3f 37 b3 02 bd
       -0.15912506 0.40387848 0.54914784 -0.031909194
0001b0 91 fb 2f bf ee f2 46 3e cb 11 a9 bf ab 96 48 bf
       -0.68743235 0.19428608 -1.3208555 -0.783549
0001c0 2d d0 ee be e7 d2 9e 3d 90 17 c3 bf 27 dc e0 bc
       -0.466432 0.0775507 -1.5241566 -0.027448727
0001d0 15 00 e6 bd 26 69 24 be 52 d9 31 3e 84 8e a1 3d
       -0.112304844 -0.16055736 0.17368057 0.07888511
0001e0 94 bb 28 3e 46 c1 3c bb e4 a1 30 c0 de 75 fe 3d
       0.16477805 -0.0028801723 -2.759881 0.12424825
0001f0 99 68 e3 3d 3e 8f e6 3d b8 3d 67 3d 34 1f 17 3f
       0.11103935 0.1125779 0.056455344 0.5903199
000200 c5 ef 80 3e be 60 51 be b0 a8 c7 be 30 1d 36 bf
       0.2518293 -0.2044706 -0.38995886 -0.71138287
000210 1e df 17 3d 17 fb 37 3e c2 33 d6 bd f6 fb db 3e
       0.037078016 0.17966877 -0.10459091 0.42965668
000220 96 ff d1 bd db ef 72 3d 54 56 59 3c a9 d6 d7 3e
       -0.10253827 0.059310775 0.013265211 0.4215596
000230 2c 09 c2 be 0b 60 69 be d8 87 0d 40 5b db c7 3d
       -0.37897623 -0.22790544 2.2114162 0.097586356
000240 43 63 83 bf e5 c2 de 3d 72 91 17 be 8b b6 00 3d
       -1.0264667 0.10877017 -0.14801577 0.031424087
000250 e3 42 39 bd f8 48 1d be cc a5 32 3e 03 e4 57 3d
       -0.045229804 -0.15359867 0.17446059 0.052707683
000260 54 95 df bf 0e bb 5c bd 6c 9e 0c 3e cc e8 31 be
       -1.7467446 -0.053889327 0.13732308 -0.17373961
000270 46 fe a4 bf 3d d8 26 c0 ac 4f 57 be af 37 76 3e
       -1.2890098 -2.6069481 -0.21026486 0.24044679
000280 d1 86 12 3d 39 5f d4 be 95 4c b9 bd 36 43 0b be
       0.035773102 -0.414789 -0.0904781 -0.13599858
000290 bb 3d 07 bd c0 cd 73 3e 41 8f 07 40 b7 30 9c 3f
       -0.033017855 0.23808956 2.1181185 1.2202367
0002a0 50 d6 3c bf cf 39 f2 bd 70 92 07 3e ea 01 5e 3e
       -0.73764515 -0.11827432 0.13239455 0.21680418
0002b0 6e 07 07 3e d1 c4 a0 3e 2e d6 04 bd 6b 2c b7 be
       0.13186428 0.3140016 -0.03243082 -0.35776076
0002c0 89 81 bd be b7 90 3e bf 88 80 23 bf 4a 0b 4c 3e
       -0.3701289 -0.7443957 -0.63868 0.19926181
0002d0 1c aa 90 3e 3c 1f be bd 2c b8 18 be 4b aa 0e be
       0.28254783 -0.09283301 -0.14914006 -0.13932149
0002e0 f9 9e f3 3e 5c 4c 19 3e 10 ba 02 3f f7 94 1b bf
       0.47582224 0.14970535 0.5106516 -0.6077418
0002f0 69 f0 48 3e ac a4 af 3e 5f 27 38 3f 46 13 c8 bf
       0.19622959 0.34305322 0.71935076 -1.5630882
000300 69 80 f1 3e 4e 8b 1a 3f b3 05 c6 bf 45 4f 8f 3e
       0.47168282 0.6036881 -1.5470489 0.27990165
000310 d7 55 10 3e 73 82 2f be 2e 81 4c be 65 44 d2 bd
       0.14095245 -0.17139606 -0.19971153 -0.102669515
000320 21 db 81 be 52 25 b0 3e a6 18 63 3c 8a af 25 3e
       -0.25362495 0.34403473 0.013860857 0.16180244
000330 88 ec 09 3e 50 7e 19 3f 35 af bb be a6 f0 80 be
       0.13469136 0.5995836 -0.3665711 -0.251836
000340 97 87 e1 3e 54 3c ba be 51 6e 67 bd 97 fe 30 c0
       0.4404876 -0.36374152 -0.05650169 -2.765539
000350 c4 53 04 c0 69 f3 86 be 15 e0 a6 bf 59 ff 5f be
       -2.0676126 -0.26357582 -1.3037134 -0.21874751
000360 16 6c ce 3e 20 b0 69 be 98 b1 2b be 48 0b 58 3d
       0.40316838 -0.22821093 -0.16766965 0.052745134
000370 6c 08 0a 3f b7 9a 9e be 86 7a 86 3e 00 c8 c0 bd
       0.539191 -0.30977413 0.26265353 -0.09413147
000380 0a 45 33 be 47 4b 51 bf f2 b6 59 3f 2d e5 17 40
       -0.17506805 -0.8175549 0.8504478 2.3733628
000390 30 c2 da 3d 62 7a 8f bc 70 34 2f 3d 05 99 48 3d
       0.106815696 -0.017514411 0.042774618 0.048974056
0003a0 a6 d0 20 be 53 2d ca 3e 23 74 99 3d bf 7f 9d bd
       -0.15704593 0.39487705 0.074928544 -0.07690381
0003b0 fb 73 46 bf 1b 2c 43 3e 6b f1 c5 bf 10 71 7a bf
       -0.7752072 0.19059794 -1.54643 -0.9782877
0003c0 dd c0 07 bf 25 68 99 3d f1 8a c6 bf a7 61 ce 3d
       -0.5302866 0.07490567 -1.5511152 0.100772195
0003d0 da 7e 3b be f3 41 d0 bd 15 6c f7 3d 2d 14 e0 3d
       -0.18310109 -0.10168829 0.12081162 0.10941348
0003e0 58 71 4e 3e f4 bb 61 3d e0 6a 2e c0 fa 2b 3e 3e
       0.20160425 0.055110887 -2.7252731 0.18571463
0003f0 4b 8c 28 3e 10 5b c6 3d c4 e7 64 3d 2c 49 0c 3f
       0.16459768 0.096853375 0.05588509 0.5479915

hh/lateral/W f4 [512, 128]
000000 aa bd 13 3d 0d 8e 7a 3d d9 af b4 3e c2 66 87 be
       0.03606955 0.061170626 0.3529041 -0.26445585
000010 25 cd f8 bd 6a 21 20 3e e5 81 76 3d 93 92 1a 3e
       -0.12148503 0.15637746 0.06018247 0.15094976
000020 1c 45 bb 3a c4 44 c4 be fe 41 c2 be dd eb 0f bb
       0.0014287564 -0.38333714 -0.37940973 -0.0021960654
000030 3c c8 c1 bc 9d 7a 8c 3e c2 be 05 bd 77 76 6c 3e
       -0.02365505 0.27437297 -0.032652624 0.23092066
000040 09 7e 98 be 9c 85 1c 3e 60 a3 da 3e fe fc 9b 3d
       -0.29783657 0.15285343 0.4270277 0.07616614
000050 7c 0e c1 3e 46 5c f1 bd 1f 8c 44 be 85 2e ad 3e
       0.37706363 -0.11785178 -0.19194077 0.33824554
000060 a8 3a 28 be e4 5c 12 be cb 14 3c 3d e5 e3 22 be
       -0.16428626 -0.14293247 0.045918267 -0.15907247
000070 3b e7 14 3f aa 17 a9 be 2d 7e 00 3f 1a 8d fa be
       0.5816533 -0.33025867 0.5019253 -0.48935777
000080 77 eb 5b be 35 61 9c 3e 24 2a 7c 3e 4b 23 45 be
       -0.21476541 0.30542913 0.2462545 -0.19251744
000090 7f a3 04 bd bf 81 de bd fe 55 57 bc c2 f0 b3 3e
       -0.032382485 -0.10864591 -0.013143061 0.3514462
0000a0 e6 5d f3 be cb 12 22 be 93 de 88 bc e5 a5 10 bd
       -0.47532576 -0.15827481 -0.016707694 -0.03531446
0000b0 28 86 13 3e c8 68 8b 3d 0e e6 3d be da 08 9c be
       0.14406645 0.06807095 -0.1854479 -0.30475503
0000c0 9c 41 12 3e 87 9b a5 3e a5 68 fa 3d 96 1d b8 3e
       0.1428284 0.3234522 0.122269906 0.35960072
0000d0 02 c8 f0 be 50 80 7c be 74 da 93 3e 3e b5 32 3e
       -0.47027594 -0.24658322 0.28877604 0.17451951
0000e0 24 0f 23 be 63 e1 ae be 05 14 62 be 84 42 a7 be
       -0.15923744 -0.3415633 -0.2207795 -0.32667935
0000f0 9c fe 0d be ba 5f ee be 60 0e 8b 3e d7 ae 12 3e
       -0.13866657 -0.4655741 0.27159405 0.14324509
000100 b9 22 c8 ba 0c fb 86 be a0 17 23 be b5 eb 8b 3d
       -0.0015269137 -0.2636341 -0.15926981 0.06832067
000110 02 83 85 be 85 24 68 bb 96 9e b3 bd 33 e3 f9 be
       -0.26076514 -0.0035422158 -0.08770482 -0.48806152
000120 81 b3 85 be f8 85 48 3d 08 f7 3c bd 2a 2f 76 3e
       -0.26113513 0.048955888 -0.046134025 0.24041429
000130 9c 4f 01 bf f4 ab 17 be 77 e8 bf 3d d8 42 a8 3e
       -0.505121 -0.14811689 0.09370511 0.32863498
000140 8c 17 a4 3e 8c 2a d6 3e f3 65 04 3f d2 00 9b 3d
       0.32049215 0.41829336 0.5171806 0.07568516
000150 e4 70 a3 3e c3 40 2d be 9f 03 dc 3c e6 e0 92 be
       0.31922066 -0.16919236 0.026857195 -0.2868721
000160 51 ac 8e be 21 73 b6 3e b1 3e 3c 3e 1a 20 f9 bd
       -0.27865842 0.3563471 0.1838329 -0.12164326
000170 10 31 18 3f ca fb b5 3e bd 02 ae 3d 26 9c 61 3e
       0.59449863 0.35543662 0.08496616 0.22032222
000180 98 ae 19 3e a5 ee 4a 3e 3b b3 ca 3d e0 b7 5f be
       0.15008008 0.19817598 0.09897467 -0.21847486
000190 b5 b3 ca be e3 7d 4b be 07 5f 58 3e 47 7c 62 3e
       -0.3959023 -0.1987224 0.2113 0.2211772
0001a0 ac 30 58 bd 0e a3 34 3e 6b 65 85 3e b5 c6 19 be
       -0.052780792 0.17640325 0.26053938 -0.15017207
0001b0 ef 20 0b 3e a6 8d ed be d3 bf e8 3c 45 dc 76 3d
       0.13586782 -0.46397132 0.028411781 0.06026866
0001c0 c3 2d 08 bd e9 03 fc be bc 09 0a 3f 9e bb b2 3c
       -0.033246767 -0.49221733 0.53921103 0.021817978
0001d0 b7 0b 06 be 1b 86 eb 3d 1a a6 89 3d 25 bd 57 3e
       -0.13090406 0.11500188 0.067211345 0.21068247
0001e0 53 67 b8 3d a2 dd 82 3d 78 5b ea 3e 8b c8 97 be
       0.090040825 0.06389929 0.4577291 -0.2964519
0001f0 ac dd a6 3b 3f aa 21 be da 51 9d 3e 57 f5 34 be
       0.0050923433 -0.157876 0.3072651 -0.17671715
000200 23 43 21 c0 cc 94 b6 40 41 4b 2c c1 3d 4b e2 40
       -2.5197227 5.7056637 -10.768373 7.0716844
000210 a9 b8 a7 41 4a 2f 3c 40 95 6a 93 40 a7 c9 c3 be
       20.965166 2.9403863 4.6067605 -0.38239786
000220 47 8d c1 3e 1d 38 96 c0 37 50 df bf f0 8d c6 3f
       0.378031 -4.69435 -1.7446355 1.5512066
000230 b7 24 28 40 c4 7b 62 c0 91 73 06 3f 29 21 4f c0
       2.627241 -3.538804 0.5252009 -3.236399
000240 b7 ae cb bd ee 69 94 40 ee 15 b4 40 6f ad 6b 3d
       -0.099454336 4.637931 5.627677 0.057538446
000250 7f a0 70 40 6c 86 30 be b0 3a 24 c1 6e 53 bb bf
       3.759796 -0.17238778 -10.264328 -1.4634836
000260 d2 19 f1 be e9 8e 2d 3f e8 17 b9 be 18 44 aa 3f
       -0.47090012 0.6779619 -0.36151052 1.330203
000270 36 bd 2e 3f b6 6d d4 bc b3 49 dd c0 1a 81 55 bf
       0.6825746 -0.02593122 -6.9152465 -0.8340012
000280 d7 d9 6e 40 91 bb 97 40 2e 4d fc 3e 72 c1 04 c0
       3.732046 4.7416463 0.49277633 -2.074307
000290 05 3f ae c0 41 70 15 3f 19 e8 1b 3e 1b e3 d8 bd
       -5.445193 0.5837441 0.15225257 -0.10590192
0002a0 aa bd 0b 3f fa 94 e1 be 53 42 af c0 ee 2f 87 c0
       0.5458628 -0.44058973 -5.476846 -4.224601
0002b0 b5 3d bd c0 f2 fd 80 bf 60 49 61 41 6d e4 2c 3e
       -5.9137826 -1.0077498 14.080414 0.16884013
0002c0 4b 6e 67 3f 3d 13 66 be 8c b1 b5 3d 9b bf 85 3f
       0.9040267 -0.22468276 0.08871755 1.0449098
0002d0 62 14 40 3c 8e 67 9b be bf 2f c9 3f ff ad a1 bf
       0.01172361 -0.30352443 1.5717696 -1.2631224
0002e0 7e fc 38 3d 1c 56 96 40 2d dc 30 be de 98 6a 3e
       0.04516267 4.6980114 -0.1727149 0.22909877
0002f0 d4 35 98 3f 68 68 bf 3e e5 57 41 3f 08 7a 8c bf
       1.1891427 0.37384343 0.7552474 -1.0974741
000300 69 d1 ea 3f 98 0a 19 3f 1e 7d fe bc 75 7b 4b 40
       1.8345157 0.5978179 -0.03106552 3.1794102
000310 7c 53 39 c1 c8 0f 5b c0 3a a5 1c 40 d4 67 41 40
       -11.582882 -3.4228382 2.4475846 3.0219622
000320 ef 0e ae 37 f8 0e ab be b2 58 69 bf 1c e8 36 40
       2.074937e-05 -0.33409858 -0.91150963 2.8579168
000330 ce 37 fe c0 c0 1f a1 3e 6f 83 8b 40 65 05 77 c0
       -7.944312 0.31469536 4.359794 -3.8597043
000340 89 3b 04 3e f5 d4 ba 3d a9 84 a2 40 14 1a 4e be
       0.12913336 0.091226496 5.078694 -0.20127136
000350 88 27 e2 be 48 01 90 3d 50 59 d3 bd 61 dd e2 bd
       -0.44170785 0.070314944 -0.103197694 -0.11077381
000360 f7 02 ad 3e 5f e6 02 bf 72 e2 90 be 07 78 09 3e
       0.33791324 -0.5113277 -0.28297764 0.13424693
000370 18 47 85 40 fa 35 3f c0 6d d0 15 3e 2f 95 41 3f
       4.1649284 -2.9876695 0.1463029 0.7561826
000380 86 cf 43 41 a5 ca 54 3f eb f7 14 3e c7 63 b6 3f
       12.238165 0.8312171 0.14547698 1.42492
000390 88 d6 89 3f f6 ef 76 c0 83 6b 9f c0 bd 8c e6 c0
       1.0768595 -3.858396 -4.981874 -7.20468
0003a0 97 74 85 40 1d 5d cd 3e 10 2b 6f 40 a0 46 87 bf
       4.170482 0.40110102 3.7370033 -1.0568428
0003b0 03 21 55 be b4 17 7d 40 b9 eb 80 be a7 f3 6f 3e
       -0.20813374 3.9545717 -0.25179842 0.2343279
0003c0 03 e5 97 3b ad a1 b8 40 44 b4 49 3f fe 4a 5d 3e
       0.0046354546 5.769736 0.7879069 0.21610638
0003d0 5e 68 89 bf 88 c7 85 40 d0 cf 5d 3f ef b7 a5 40
       -1.0734975 4.180607 0.8664522 5.178703
0003e0 1e a8 32 c0 6a 3b 0f c0 09 ec 2c be 0f 52 54 bf
       -2.791511 -2.2380013 -0.16886915 -0.8293771
0003f0 31 58 3f 3e a6 df 28 c0 d8 7a c9 c0 3b 5a 21 c0
       0.18685986 -2.6386504 -6.2962456 -2.5211322

hh/upward/b f4 [512]
000000 3f d4 d1 3d f8 ab f4 3e f8 14 1c 3f d2 21 c9 c0
       0.10245561 0.47787452 0.60969496 -6.2853785
000010 e9 2c 99 3d 4a 51 2c 3f 2d 21 b8 3f 34 ee 5f c0
       0.07479269 0.6731154 1.4385124 -3.4989138
000020 09 e8 ee 3f df 1d 8f 3f 4f ca 1a 3e e9 e8 7a 3f
       1.8664562 1.1180991 0.15116237 0.9801164
000030 8c b4 21 bf 5f aa 30 bf a1 d6 9a be 79 ba a5 c0
       -0.6316612 -0.69009966 -0.30241874 -5.179013
000040 29 0a 60 3c 3e f5 02 bf a9 69 93 3e 81 10 7c c0
       0.013674297 -0.5115546 0.2879155 -3.9385073
000050 f8 a2 b0 bf 24 6d 1b 3f 82 8c c7 3e 95 92 57 be
       -1.3799734 0.6071341 0.38974386 -0.2105201
000060 f9 49 14 c0 cc 4c 04 be d0 e5 39 bf 58 34 a3 bf
       -2.317015 -0.1291992 -0.7261629 -1.2750349
000070 f9 a7 bb be d2 b7 37 3f 60 06 ac bf 0d 45 fd bf
       -0.3665159 0.7176486 -1.3439445 -1.9786698
000080 13 9c 08 3e b5 5a 1a bf bd 51 8b bf f1 b5 f6 bc
       0.13340788 -0.6029466 -1.088432 -0.030116053
000090 54 f4 a6 bf dc cc 9a bf da 14 5c 3f e0 6f 86 bf
       -1.3043313 -1.2093768 0.85969317 -1.0502892
0000a0 84 ea 8a 3e 6a 24 64 40 9e 88 92 bf 7c 41 97 3e
       0.27132046 3.5647225 -1.1447942 0.29542148
0000b0 04 31 e6 bd 8e ca b9 bf 70 f9 58 3e 94 7c 96 bf
       -0.11239818 -1.451494 0.21188903 -1.1756768
0000c0 21 cd ef 3e 8c 72 06 3f 78 c4 78 40 d5 74 fc bd
       0.46836188 0.52518535 3.8869915 -0.123269714
0000d0 0b 90 8b 3d 8d 1a b3 3f b1 f4 ce bf 02 9d 59 bf
       0.068145834 1.3992478 -1.6168424 -0.850052
0000e0 8a e8 d7 bf 0f a9 cb 3f b9 2d d9 3f 89 0a 8c 3f
       -1.686784 1.5910968 1.6967078 1.0940715
0000f0 22 53 f1 3e 44 b6 08 c0 58 b2 31 c0 52 b0 da bf
       0.47133738 -2.1361246 -2.7765102 -1.7085059
000100 61 22 07 bf 30 76 94 bd b3 ca a1 3e b7 80 05 bf
       -0.52786833 -0.07249105 0.3159996 -0.5214953
000110 1c 88 24 be de 8e a0 bf 18 a9 f3 bc eb bf fe c0
       -0.16067547 -1.25436 -0.029743716 -7.9609275
000120 ea 1e af bf 84 f4 85 be 4e 03 10 3f 34 67 87 be
       -1.3681309 -0.26163113 0.5625504 -0.26445925
000130 14 49 63 bf 60 63 e0 3e 6f bb 94 3f 4f d8 be 3f
       -0.88783383 0.43825817 1.16197 1.4909762
000140 db 60 40 3e 3f 25 24 40 cd 27 37 40 3e fe 0c bf
       0.18786947 2.5647733 2.8618042 -0.5507544
000150 21 74 f0 3f 41 fb 8e 3f 38 ff 3c 3f 78 c8 9c bf
       1.878544 1.1170427 0.7382693 -1.2248678
000160 0a 11 7f bf 20 d1 a4 bf 55 51 2c 3e e2 13 e0 bf
       -0.99635375 -1.287632 0.168279 -1.7506068
000170 13 63 71 3f 64 ac e9 3f 7f a5 1d 3f bf fb 58 bf
       0.942918 1.8255734 0.6158065 -0.84759134
000180 24 6e 98 3f 2a 8b e5 bf 55 e6 a6 3f 78 69 1a bf
       1.1908612 -1.7933095 1.3039042 -0.6031718
000190 78 02 a7 bf 61 c6 bf 3f ff ba 19 3f ca 29 8f 3e
       -1.3047628 1.4982415 0.6005096 0.2796157
0001a0 f5 39 88 bf a7 29 52 bf 36 5d 28 3f 96 0a 64 bd
       -1.0642687 -0.82094806 0.6576723 -0.055674158
0001b0 a6 2a 1b bf 0f c6 f2 3d 94 14 b6 bf e9 99 3e c0
       -0.6061195 0.11854183 -1.422503 -2.978144
0001c0 ab 1d 90 bf eb 79 c4 be 68 e3 17 3f ba 92 5a bf
       -1.1259054 -0.38374266 0.5933137 -0.85380137
0001d0 ce e7 4a 3f 22 12 12 3f d1 69 1a 3f bb 4e cf bf
       0.79259956 0.5705892 0.60317713 -1.6195902
0001e0 96 51 b9 3f 50 d9 ac bf df 6f 58 c0 ab 9b bf be
       1.4478023 -1.3503819 -3.381828 -0.37423453
0001f0 f9 de d3 3f 37 89 92 3f 01 0a c6 3f 76 15 8e 3e
       1.6552421 1.1448125 1.5471803 0.27750748
000200 08 28 dc bf 5a 33 ac 3e 3c ce a4 3e df f4 fe 3f
       -1.7199717 0.33632928 0.32188594 1.9918479
000210 b1 f8 f3 be 1f ce 44 40 d1 a3 c1 3f 16 4c de bf
       -0.47650674 3.0750806 1.5128118 -1.736697
000220 c3 0a 8a be a7 ca 35 be 33 b5 2b 3f 38 3c 46 bf
       -0.26961336 -0.17753087 0.67073363 -0.77435637
000230 08 18 27 3e 4a 14 ac bf 99 68 e6 bd 77 5d d2 bf
       0.16317761 -1.3443692 -0.11250419 -1.6434773
000240 06 a2 ae 3e cb 42 71 40 d4 42 a8 be a4 63 5e c0
       0.3410799 3.7697017 -0.32863486 -3.4748316
000250 49 87 23 3e 66 f7 97 3d 38 6e 58 3f d8 b4 07 c0
       0.15969576 0.074202344 0.8454318 -2.1204128
000260 8c 7a ad be 3e 0d ae bf 57 19 74 3f b0 24 20 3f
       -0.33882558 -1.3597791 0.95351166 0.6255598
000270 ac 14 c0 3f cb d5 4f 3f d4 6f 9f 3f fe 69 d1 3e
       1.5006309 0.811856 1.2456002 0.40901178
000280 51 62 8b bf 7e 0f 85 3f c4 99 5d 3f f2 70 cc 3f
       -1.0889379 1.0395353 0.8656275 1.5971968
000290 63 7e e9 be 4c bc f7 be d4 cc 28 3f 65 23 14 3f
       -0.45604238 -0.48385847 0.6593754 0.5786651
0002a0 e3 33 4b 40 30 85 3e 40 1b ee 93 bf 03 5c 40 c0
       3.175042 2.9768791 -1.1557039 -3.005616
0002b0 4d 39 16 40 1a 2d 3a bf c6 b7 21 c0 b8 47 38 bf
       2.3472474 -0.7272507 -2.5268416 -0.71984434
0002c0 7f 47 00 3f 31 62 92 c0 b2 43 ee be ca 8c d2 bf
       0.50109094 -4.5744863 -0.46536022 -1.6449215
0002d0 7d 41 9f bf 01 05 94 bf 16 36 9a bd be 3e 0e bf
       -1.244186 -1.1564027 -0.07529847 -0.55564487
0002e0 01 94 02 bf 28 28 8a bf 0c d0 76 3f fd 4d 93 bc
       -0.51007086 -1.0793505 0.96411204 -0.017981524
0002f0 98 e3 68 bf 6f bd 95 3f 54 6b f2 3f 98 d9 cb 3e
       -0.9097228 1.1698436 1.8939004 0.39814448
000300 d9 48 d3 3e f0 1c 24 be f2 70 cf 3d af 5c 06 c0
       0.41266516 -0.16026664 0.101289645 -2.099407
000310 e1 be 51 be 58 94 c1 bf b3 98 95 3e a1 86 e1 bd
       -0.20482971 -1.5123396 0.29218063 -0.110120066
000320 db 1d 29 3f 90 3c be bf bb b9 c4 3f bf 85 49 c0
       0.6606118 -1.4862232 1.536918 -3.1487882
000330 55 ac 5c 3e d5 48 75 3f 29 c0 5c 3f 8d 5b f4 3e
       0.21550114 0.9581426 0.86230713 0.47726098
000340 50 7d 91 bf 13 5d 08 bf 3b e0 79 3f 15 54 87 bf
       -1.1366367 -0.5326702 0.97607774 -1.0572535
000350 23 0a 3c 3c 6d ae e8 3f 7d 75 99 bf 63 7d 9c 3d
       0.011477026 1.817823 -1.198898 0.07641103
000360 45 05 4f 3f 6b 97 7e bf 18 7b 61 be ff c3 94 c0
       0.80867416 -0.99449795 -0.22019613 -4.6489253
000370 78 df 38 bf 0e 7b 1c 3e 27 58 5f 3f 32 89 48 bf
       -0.72215986 0.15281317 0.87243885 -0.78334343
000380 f8 a0 57 3f db b7 49 bf 2c c9 3f 3f 22 94 39 be
       0.84229994 -0.78796166 0.7491634 -0.18122914
000390 e6 3b 9d be bd cb be bf d2 5f cd bd a9 1e 10 c0
       -0.3070976 -1.4905926 -0.10028042 -2.2518713
0003a0 bf 75 25 bf 12 27 3b 3c e7 89 e8 be 43 2e b8 be
       -0.6463279 0.011422889 -0.4541771 -0.35972795
0003b0 ad 97 89 bf 91 b7 0d 40 23 c2 e2 3f 5c eb 1b 3f
       -1.0749413 2.214329 1.7715496 0.60906005
0003c0 0c 4e 4f 3f d0 90 eb bf ba 35 0e 3f a6 12 a4 bf
       0.80978465 -1.8403568 0.5555073 -1.2818191
0003d0 4f 8e 52 bf e6 de 68 bf 7f 45 d5 3f 5a 2a b1 be
       -0.82248396 -0.90965116 1.6661834 -0.34602624
0003e0 12 db 37 3f 7f ed b9 be 6a 9b fb 3e 54 df 1f c0
       0.7181865 -0.36314008 0.4914201 -2.4980059
0003f0 59 8b 1b 3f d9 1d ed be 5b 7c 95 bf 97 f8 6f be
       0.607595 -0.46311834 -1.1678575 -0.23434673

hh/upward/W f4 [512, 128]
000000 b9 0e b0 be 9b dd 36 3e 9e 18 dc 3d 84 76 43 bf
       -0.34386232 0.17857973 0.10746883 -0.76352715
000010 45 f3 98 3d 9d 51 1f 3e ff 6b b4 bc c9 fe 97 3e
       0.07468275 0.15558477 -0.022024153 0.29686573
000020 7d f7 e9 bc df 59 94 3d f1 b6 df be 35 71 a1 bf
       -0.028560394 0.07243704 -0.4369426 -1.2612673
000030 59 5e aa bf 16 ea f4 3d 86 89 16 3c f2 ca 35 3f
       -1.3310043 0.11958711 0.009188062 0.71012795
000040 07 f7 71 3d 69 59 20 3f b4 75 f7 3e 16 8c 17 3f
       0.059073474 0.6263643 0.48331988 0.5919813
000050 f9 04 b2 3f ce 5e 8f 3e bc e1 de 3d 11 e4 b4 3e
       1.3907768 0.28002018 0.10882899 0.3533025
000060 92 58 00 3f 76 c4 cd be 3f 8d 1d be 69 e3 25 3f
       0.5013515 -0.4018895 -0.15385912 0.64800125
000070 9f 4f e6 be e1 7f 0a 3d 0f 2e e5 3c 45 58 ee be
       -0.4498262 0.03381336 0.027976064 -0.4655172
000080 8e 11 4d 3e 5f ff 17 3f 14 93 da be 77 5b 6f 3f
       0.20026228 0.5937404 -0.42690337 0.9349894
000090 f0 56 21 bf 7f 5a 05 bf 5f 28 85 3d 31 f7 b2 be
       -0.6302328 -0.5209121 0.06501841 -0.34954217
0000a0 67 f2 fc 3d ee 85 d7 bd ea ce 9d 3e e8 f2 fc 3e
       0.12350922 -0.10523592 0.30821925 0.49404073
0000b0 76 50 01 3f 1c dd 08 be 08 a1 f2 3c 9a 2c 94 be
       0.505134 -0.13365597 0.029617801 -0.28940278
0000c0 2a 21 91 be 9d 6d 5e 3e 18 f4 bb 3d 51 b1 b5 3e
       -0.28345615 0.21721502 0.091774166 0.35486844
0000d0 eb 58 51 3f 6e 4d 3d 3e 83 89 0d bd 4b 5a d7 3d
       0.81776303 0.18486568 -0.03455497 0.10515269
0000e0 61 83 c7 bd fa 7e 19 3e 3d 95 e1 3e 7e 2d 06 3f
       -0.097418554 0.14989844 0.44059172 0.52413166
0000f0 7d b4 b4 3e 2d ba 7a be 6c 78 11 bf 4c 0c 33 3d
       0.35293952 -0.24485083 -0.56824374 0.0437129
000100 01 17 64 be 76 72 cd 3e 98 ea 0e bf 79 f4 48 3f
       -0.222744 0.4012639 -0.5582671 0.78498036
000110 75 83 55 3f f1 b8 9b bd 9e 42 78 be e2 10 14 3e
       0.8340371 -0.07603634 -0.24244162 0.14459565
000120 a9 38 04 3e 38 3d d9 3e f1 ee 97 3f 3b 2b 87 3e
       0.12912239 0.4242952 1.1869794 0.2640017
000130 fa e3 1d 3e a2 de 4d 3f 95 0e 39 be b6 33 ff be
       0.15418997 0.80417836 -0.18071969 -0.4984414
000140 24 97 86 be 8d a8 f3 be 91 77 dd 3e c0 b8 34 3d
       -0.26287186 -0.47589532 0.43255284 0.044121504
000150 d6 1b 15 bd 66 3e 02 bf ae 55 2a bd 15 32 c3 3e
       -0.0364035 -0.5087646 -0.041585617 0.38124147
000160 83 64 17 bf d8 91 76 3d 5a e0 b7 bd bf e4 1f 40
       -0.59137744 0.06019768 -0.089783385 2.4983366
000170 d0 2b 88 3d 31 b8 b1 bd b9 40 42 be b9 40 c2 3e
       0.066489816 -0.0867771 -0.18970002 0.37940004
000180 66 f8 54 3e 3f 4b a8 3f f9 cc 73 3d d9 22 a3 3e
       0.20797881 1.3147963 0.05952165 0.31862524
000190 4b 19 d4 be a7 da b8 3d 71 cf 3c be 35 1e 39 3f
       -0.41425547 0.090260796 -0.18438508 0.7231172
0001a0 f6 34 de bd e0 45 0f 3e 46 44 7b be de dc 01 3e
       -0.10849945 0.13991499 -0.24537763 0.1268191
0001b0 6a c8 22 bf 13 45 7d 3e ee f6 ba ba a9 4f fe 3c
       -0.6358706 0.24733381 -0.0014264265 0.031043844
0001c0 ad e9 00 bf 33 ce 69 3f 50 c6 e4 3e 18 b3 a4 3e
       -0.5035656 0.9133026 0.4468255 0.32167888
0001d0 de 83 93 bd 0e 0a 7a be fe 3a 43 be d8 53 1f 3e
       -0.07202886 -0.24417898 -0.19065472 0.15559328
0001e0 e8 cf dc 3e b0 c3 8f 3c 72 23 23 3e d8 e7 9c bd
       0.4312737 0.017549366 0.1593149 -0.07661408
0001f0 64 6e cd bc 01 cf 03 3d c6 d2 94 3f f6 e8 81 bd
       -0.025077052 0.032179836 1.1626823 -0.06343262
000200 cf 28 21 be d2 b2 d6 be c6 30 e4 bd 1a 2b 61 3f
       -0.15738223 -0.41933304 -0.11142115 0.8795639
000210 d9 0a 89 3e 27 71 21 bf 5c bd 82 bf c6 1c f4 3e
       0.2676609 -0.6306328 -1.0214038 0.47678202
000220 20 90 3d 3f 3e d7 53 bf 1a 4e 02 3d 6a 98 19 bf
       0.7404804 -0.8275031 0.031812765 -0.5999819
000230 9a 73 0b bf c9 3b a1 3d 2c 34 f8 be 3e 46 b8 be
       -0.5447327 0.07872731 -0.48477304 -0.3599109
000240 24 08 fd be dc 43 bb 3e f4 5e 09 bf fd 91 8d be
       -0.49420273 0.3657521 -0.5366051 -0.27650443
000250 69 f1 01 3f 48 68 06 40 81 b3 e0 3e 21 43 0c bf
       0.5075899 2.1001148 0.4388695 -0.5478993
000260 54 d6 95 bf e9 70 1c bf 50 66 36 3e fb d0 27 3f
       -1.1706033 -0.6110979 0.17812467 0.65553254
000270 63 bd b0 3e 4c ab bb 3f 2f 2a 87 bf 56 61 65 bd
       0.3451949 1.4661651 -1.0559748 -0.05600103
000280 05 86 fd be fe 79 77 3f 30 e2 2e bf 5a c3 87 3f
       -0.4951631 0.9667052 -0.68313885 1.0606492
000290 5b de 74 bf 2c b7 8b 3e 2b 61 8d be 07 3e d3 3e
       -0.9565179 0.27288187 -0.27613196 0.4125826
0002a0 75 b6 80 3f 51 58 56 be 97 15 27 c0 be 61 45 be
       1.0055681 -0.20932128 -2.6106927 -0.19275567
0002b0 3b 1d 56 3e ad 89 87 be 73 28 cd be 75 82 c5 bf
       0.20909588 -0.26472226 -0.40069923 -1.5430437
0002c0 9f 53 1a bf 24 37 ae bd 95 34 a2 3f 0a 05 03 bf
       -0.60283846 -0.08506611 1.2672297 -0.51179564
0002d0 33 29 2c bf fa 3a 4a 3f 50 f7 51 3f eb d9 e5 3e
       -0.67250365 0.7899624 0.82017994 0.4489282
0002e0 01 1c ed be d5 26 4d 3f 9e 38 86 3e 64 2c 95 3e
       -0.46310428 0.8013738 0.2621507 0.2913543
0002f0 b7 8f 03 40 15 d4 e0 bf 8c 42 26 bf ae 6a 87 40
       2.0556467 -1.7564722 -0.6494529 4.2317724
000300 35 34 72 3e 1b 3a 7a bf 98 99 7f 3e 92 ee 24 bd
       0.23652728 -0.9774491 0.24960935 -0.04026658
000310 33 8f 24 3f f3 78 cf 3f 58 e3 24 bf 79 02 f3 bf
       0.64281005 1.6208786 -0.644094 -1.898513
000320 7f 5d 4d 3f 0f ed cd 3e a4 10 cf 3e 39 b3 88 be
       0.8022079 0.40219924 0.40442383 -0.26699236
000330 ae 6f a9 3e e7 b4 14 be bf 97 fc bd 6c b6 a1 be
       0.33093017 -0.14522134 -0.12333631 -0.3158449
000340 3e 7d 8b be 3c 26 9d 3f a0 00 51 c0 17 6e bc 3f
       -0.2724399 1.2277293 -3.2656631 1.4721097
000350 bf b1 39 bf 42 22 1c be 51 4e f0 be fa f8 9b 3f
       -0.72536844 -0.15247443 -0.4693475 1.2185357
000360 3c 2b 5a 40 a7 61 37 3f ed df ae 3f 56 c6 40 3f
       3.4088888 0.7163338 1.3662087 0.75302637
000370 2f 0b 80 3f 29 60 35 bf 87 b1 aa 3d f7 4e 9b be
       1.0003413 -0.70849854 0.08334642 -0.30333683
000380 c6 62 21 be da 2c a9 3e dc d9 f9 3e 6e 9c b4 3e
       -0.15760335 0.33042032 0.48799026 0.35275596
000390 8c 0d 5b 3f 8c 02 e4 3e bb 61 92 bf 29 05 fd 3b
       0.85567546 0.44533193 -1.1436075 0.0077215624
0003a0 da 11 8a 3f 7e f0 40 bf 02 2b 3a 3d 51 94 b3 bc
       1.0786698 -0.7536696 0.04545117 -0.021921309
0003b0 a2 8f 69 bf 0a 93 a5 3e dc d0 2d 3f 81 91 b0 3f
       -0.9123479 0.32338744 0.6789682 1.3794404
0003c0 94 5f 5c bf 0d e9 a6 3e 23 4a 85 3f cb 4b 0c 3e
       -0.8608334 0.3259968 1.041325 0.13700788
0003d0 38 35 22 3f 27 97 b7 3e 10 2c d1 3e 86 f0 4b 3f
       0.63362455 0.35857508 0.4085393 0.79663885
0003e0 bc 0f 3a 3f cb 32 ac 3e 1a 2c 14 3f 90 ab 53 bf
       0.7268026 0.33632502 0.57879794 -0.8268366
0003f0 ac 22 61 3f 4d a1 e9 3f af 57 e1 3e 94 64 41 be
       0.8794353 1.825235 0.4401221 -0.18886024

xh/b f4 [128]
000000 3b 8a 94 3d 9a 9c 89 3f 63 07 ce be f9 4a 90 3d
       0.07252928 1.0750916 -0.4024001 0.0704555
000010 55 dc c7 bf eb 15 ba be cf b0 65 bf 72 04 1b 3f
       -1.5614115 -0.36344847 -0.89722914 0.6055366
000020 9b 88 3f bf 8b db 28 bf ee ea f8 be 09 fb 00 3e
       -0.7481782 -0.65959996 -0.48616737 0.12595762
000030 5e e5 db 3e 36 d0 52 3e 8d be 30 bf d8 ef 27 bf
       0.4294843 0.20587239 -0.6904076 -0.6560035
000040 8c 1b 01 3d ad 55 3e 3e 04 90 ba be fd 2e da 3d
       0.03152041 0.1858737 -0.36438 0.106534936
000050 fe 7b 94 be dc 35 b7 3e b8 4d 4a 3d 72 0f f9 be
       -0.2900085 0.3578328 0.049390525 -0.48644596
000060 f5 cd 0d bf 57 4f 76 3e 31 30 36 be 88 d6 11 be
       -0.5539239 0.24053703 -0.17791821 -0.14241993
000070 ed 69 b4 be 01 c3 21 3e a9 ff 47 3e 6a da b5 3f
       -0.35237065 0.15797044 0.1953112 1.420728
000080 78 66 91 3f be a9 5a 3e 84 50 45 be e1 8d a2 be
       1.1359396 0.21353814 -0.19268996 -0.3174887
000090 95 e1 b9 3e 2a b2 94 be 44 d1 70 bf 11 b1 65 3e
       0.36304918 -0.29042178 -0.94069314 0.22430827
0000a0 a5 68 55 bc 77 cc 08 3d ca 7d be bf 6a dd d0 be
       -0.0130254375 0.033398118 -1.4882138 -0.40793926
0000b0 60 7d 2c be 44 c8 60 3e 8c cb ae be 63 5c 5d bf
       -0.16844702 0.21951395 -0.3413967 -0.86469096
0000c0 59 54 c6 be d1 15 79 3e 95 90 05 bf c8 fb ae be
       -0.38736227 0.24324729 -0.5217374 -0.3417647
0000d0 f3 0e 08 bf ed 29 dd 3d 4d e7 60 3f 8b 1a 82 bf
       -0.5314781 0.10799012 0.87852937 -1.016435
0000e0 49 f2 0c 3f 8a 03 5a be de 18 0d 3f b9 52 a3 be
       0.550572 -0.21290413 0.5511607 -0.3189905
0000f0 93 be d5 be d5 95 f5 bc ce 8e 3c 3e fd a0 38 bf
       -0.4174696 -0.029978672 0.1841385 -0.7212065
000100 66 ba 5e 3f d4 b0 df 3f 2e 2a 00 be 50 70 05 3d
       0.8700317 1.7475839 -0.1251609 0.032577813
000110 79 0f e8 be 0c ac f9 3e c3 ab 2e 3e b3 87 27 bf
       -0.45324305 0.48764074 0.1705771 -0.65441436
000120 9c 21 11 3f 91 e2 0a 3e e9 6a 4c be 86 2e 02 bf
       0.5669191 0.1356299 -0.19962658 -0.5085224
000130 f0 40 e1 3e 4b db 34 be 1c 28 41 3e 7d fa a7 3e
       0.43994856 -0.17661779 0.18862957 0.32808295
000140 ce 61 81 bd 1b 0c b6 3e cc 4e 74 bf c8 64 f2 3d
       -0.06317483 0.3555611 -0.95432734 0.11835629
000150 2f 0f e5 be d9 dd 5c 3f 16 f6 ac be d1 3c 14 3f
       -0.44738147 0.8627601 -0.337815 0.579053
000160 17 04 15 bf 4e 3a 91 bf c0 5b a5 be 6a ae ad be
       -0.58209366 -1.1345918 -0.32296562 -0.3392213
000170 05 e3 ba 3f 19 2a 07 bf ff 53 6e be 0c d7 c7 be
       1.4600531 -0.5279861 -0.2327423 -0.39031255
000180 92 28 4a be 5e 45 07 be 62 55 8b be 3e b7 23 3c
       -0.19742039 -0.13210055 -0.2721358 0.009992419
000190 0f 9b 5a 3e 77 56 c7 be 5b d3 8a bf 8e c6 ba 3e
       0.21348213 -0.38933155 -1.084575 0.3647961
0001a0 f0 65 01 40 47 2c 8f bf 77 16 86 bf 09 0d 98 3d
       2.0218468 -1.1185387 -1.0475606 0.07424361
0001b0 ed 73 8c 3e e0 ef 25 3f fb 6c f2 be 38 20 62 be
       0.27432194 0.64819145 -0.4734877 -0.22082603
0001c0 9f 57 c9 3e 6c 3f f4 be ec fd 2f 3f c9 eb b0 be
       0.39324662 -0.47704637 0.6874683 -0.3455489
0001d0 6f 6b 5f 3e 0f c8 54 bf 6f 75 e6 bf 3e 4e 0e 3f
       0.21818326 -0.83117765 -1.8004588 0.5558814
0001e0 cb e5 df 3f 13 1e 17 3f 4c 3e 5e bd c6 3f 61 be
       1.7492002 0.59030265 -0.05425863 -0.21996984
0001f0 c2 4c c8 3e c1 29 71 3f 90 7a d1 be 7a 1c 2e bf
       0.39121062 0.94204336 -0.4091382 -0.680122

xh/W f4 [128, 10]
000000 b7 c3 4d 3f 8e 8c 1a bf 9e e2 a2 3f f0 e8 de 3e
       0.8037676 -0.6037072 1.2725408 0.43537092
000010 36 da bb bf 60 cf bb 3f d7 df 6e 3f 8a cc 91 3e
       -1.4675968 1.4672661 0.933103 0.28476363
000020 3e 92 2f 3f ba c6 c9 3e 78 b5 a1 c0 b7 3e 89 bf
       0.6858252 0.3940943 -5.053402 -1.0722264
000030 00 c4 e8 3e 24 63 b2 be 0d f8 51 3f c8 ac 4c 40
       0.45462036 -0.34841263 0.8201912 3.1980457
000040 bb 15 2c 40 6e 52 11 40 96 24 ff 3f ae 0a 0c 40
       2.6888263 2.270656 1.993304 2.1881518
000050 0c 10 d3 40 25 1a 48 bf a4 47 02 40 70 f8 17 3f
       6.595709 -0.78164893 2.0356226 0.5936346
000060 6a 82 e7 3f 57 87 ad 3f 5d a7 14 c0 17 2c 00 c0
       1.8086674 1.3556927 -2.322715 -2.002691
000070 88 a6 12 bf ab 6a 9d bf e0 ee a8 be ab cb 4b be
       -0.57285357 -1.2298177 -0.32994747 -0.19901912
000080 83 05 63 be 66 9b 45 be 59 ad 00 40 c7 59 1d bf
       -0.22170071 -0.19297561 2.0105803 -0.61465114
000090 df c3 9b 3d 38 29 46 3d d3 fe 46 3e 05 b3 c4 3e
       0.07605719 0.048379153 0.19433145 0.3841783
0000a0 a6 3a 60 40 8c f9 94 be 04 dd 5e be 1d 8c 92 be
       3.5035796 -0.2909664 -0.21763998 -0.28622523
0000b0 19 24 4d bd 29 ea a8 bf 48 aa 0d c0 3b fb de bf
       -0.050083254 -1.319646 -2.2135181 -1.742042
0000c0 2d 62 66 bf 5f b3 0a c0 aa cf e3 3f 50 53 01 40
       -0.89993554 -2.167198 1.7797749 2.02071
0000d0 fe e6 30 40 33 40 72 3f d7 ec 02 40 a3 33 67 3f
       2.7640986 0.9462921 2.0457056 0.90313166
0000e0 3c 63 0a be f5 2c 02 bf c6 c4 2e 3f b5 35 7f 3d
       -0.13514417 -0.5084985 0.68269 0.06230708
0000f0 71 97 3a 40 e7 b0 b0 be fd 8f aa 3f 3d 1b a5 3e
       2.9154932 -0.34509966 1.3325192 0.32247344
000100 bf a0 1b bf 71 35 6d 3f b5 c9 1a bf 64 ed c2 be
       -0.60792154 0.9265967 -0.6046403 -0.3807174
000110 85 ff 9a be 55 63 4d bf 30 c7 36 3e e2 11 2f be
       -0.3027307 -0.80229694 0.17849422 -0.17096666
000120 16 ac 6c 3f ae 43 6d 3e 57 6f 56 bd ed ad c3 3f
       0.9245008 0.23170349 -0.052352276 1.5287453
000130 cc fd 69 3f db 6b 6c 3f 20 b9 46 3f 27 f0 8a 3f
       0.9140289 0.92352074 0.7762623 1.0854539
000140 88 f4 9f 3e 80 06 2e c0 a5 9c 5c 40 30 87 2e 3e
       0.3124125 -2.7191467 3.4470608 0.17043757
000150 8e af bc be d5 4c 14 3e 26 cf 85 3f 1a c8 41 3f
       -0.36852688 0.14482434 1.0453842 0.75695956
000160 25 3c 9d 3f bb 58 65 3f 04 4d a0 bf 0a 3c 35 3e
       1.228398 0.89588517 -1.2523503 0.17698684
000170 89 58 a4 be cc 82 63 be a1 9c 8f bf a8 dd 30 3f
       -0.32098797 -0.22217864 -1.1219674 0.6908822
000180 b5 44 55 3e c4 cb f1 3e db fb 27 bf 45 ec 12 bf
       0.20826991 0.47225773 -0.65618676 -0.5739177
000190 6c ca c5 bb 01 04 ec bc 33 77 fe 3f b4 0f c8 3e
       -0.0060360935 -0.028810503 1.9880127 0.3907448
0001a0 bf fc 84 3f 9d 36 45 be f8 21 9a 3f 05 03 86 3f
       1.0389632 -0.19259115 1.2041616 1.0469671
0001b0 0d e2 c1 3e 98 a9 42 3f 79 88 89 3f ad a3 a9 bd
       0.37867776 0.7604003 1.0744773 -0.08283172
0001c0 34 ea e0 3e 31 6a 4c 3e ee ac fa 3e 83 9a 2d bf
       0.43928683 0.19962384 0.4896006 -0.6781389
0001d0 ad 2c 3b be 30 20 ed 3e ac ec 37 3e bb 4d 56 be
       -0.18278761 0.4631362 0.17961377 -0.2092809
0001e0 df ae 34 be cb 22 8c 3e fc 55 3b c0 c6 02 6d bd
       -0.17644833 0.27370295 -2.927123 -0.057863973
0001f0 11 0a dc bd 56 fa dc be 4f 61 16 bf 51 9c be be
       -0.107441075 -0.4315974 -0.5874223 -0.37228635
000200 ca 2a 25 bf b5 19 b2 be 50 a2 03 c0 bc 1c 04 3f
       -0.64518416 -0.34785238 -2.0567818 0.51606345
000210 e4 48 a4 bf 76 2b b9 be dd 58 fe bf 8f cb 65 3f
       -1.2834744 -0.3616597 -1.9870869 0.8976373
000220 32 66 45 3f 34 c7 14 be 79 4a 72 3e c6 b9 0b be
       0.7710906 -0.14529115 0.23661222 -0.13645086
000230 83 56 8a 40 f0 ed 96 bd 19 8a 0a 40 ad 93 0e bf
       4.3230605 -0.07369602 2.1646788 -0.55694085
000240 fd de 7d be 80 fe cd 3f b3 57 3c c0 aa 0b 09 c0
       -0.24792095 1.6093292 -2.9428527 -2.141337
000250 1c 5d c6 bf 29 aa 19 c0 20 0e 8f bf 10 8a 48 3e
       -1.5497165 -2.4010108 -1.1176186 0.19583917
000260 9f e9 62 bf 65 c5 35 bd a5 30 b5 bf c3 e6 6f 3f
       -0.8863773 -0.044377703 -1.415547 0.9371149
000270 dd 2e ae bf ab b6 b1 bf 90 55 ac bd f4 68 63 bf
       -1.3608052 -1.3883871 -0.08414757 -0.8883202
000280 86 dc 4b 40 a6 d9 e4 3e 2c 66 4b bf ba fe 45 bf
       3.1853347 0.44697303 -0.79452777 -0.77341807
000290 f2 66 b3 3f 7e 49 f0 3f 5c cd 0c c0 6f 9d e1 bf
       1.4015791 1.8772428 -2.2000341 -1.762617
0002a0 e7 fd d3 bf a6 f4 fe bf 0a d7 12 3e 8f dd ec 3c
       -1.656186 -1.9918411 0.14339843 0.028914241
0002b0 e9 e1 0a be b3 1d 02 bc 19 ee cb 3e 6e ad 97 be
       -0.1356274 -0.007941651 0.39830092 -0.29624504
0002c0 47 80 41 3d 4b a2 61 bd b1 80 31 bd 8e a7 8c 3e
       0.047241475 -0.055086415 -0.04333562 0.27471584
0002d0 85 33 c4 3e 5b 58 4f 3c 2f d2 5c 3e e0 de 87 bc
       0.38320556 0.012655343 0.21564554 -0.016585767
0002e0 90 de 85 3e b3 8d ec 3e df e0 1a bf 60 d0 29 bc
       0.26146364 0.46201858 -0.60499376 -0.010364622
0002f0 5f ff 72 3d 80 66 c2 be 54 02 1f c0 10 31 d9 3d
       0.059325572 -0.37968826 -2.484517 0.10605061
000300 a4 af 9c 3d 47 43 2b 3e 5b 33 80 3f e9 44 7d bf
       0.07650688 0.16724883 1.0015672 -0.98933274
000310 4f e4 8f 3f fd 6e 3a 3f f3 37 af 3e 16 c9 1d 3e
       1.1241549 0.72825605 0.34222373 0.1540874
000320 49 e6 48 3f 24 45 2e 3f 72 59 38 40 1d 40 e0 3e
       0.7847639 0.6807425 2.8804593 0.43798915
000330 57 69 b9 bd 44 79 3b 3e 77 76 a8 bd 11 71 15 3f
       -0.09053295 0.18307978 -0.082257204 0.5837565
000340 a9 b3 a6 3e 64 00 34 3f 0b 12 6c bf 0b 1b c3 3f
       0.32558945 0.70313096 -0.9221503 1.5242628
000350 78 4f 44 be 0a df 7e 3d 70 bc 73 3e 57 d9 cc 3d
       -0.1917094 0.062224425 0.23802352 0.10002392
000360 09 e8 a9 bd f5 28 f3 be 63 01 ab 39 55 cb ac bb
       -0.0829621 -0.47492185 0.00032616695 -0.0052732625
000370 fa 3a d7 3f 44 1b db bd 55 6e 33 3f a2 2a 11 3e
       1.6814873 -0.1069856 0.7009023 0.1417642
000380 49 16 55 3f c1 8b a7 be 51 7e 87 3e 45 83 52 3e
       0.8323713 -0.3272381 0.2646356 0.20557888
000390 c6 8e 13 3f 54 fc fb 3e 42 aa bc 3e 7a 4d 4c bf
       0.5763973 0.4921595 0.36848646 -0.7980572
0003a0 31 5e af 3f 08 ef ed 3e 23 fb aa be 5f 8a 23 be
       1.370062 0.4647143 -0.33394727 -0.15970753
0003b0 2e 9a 09 3f c4 29 df 3e 08 b8 8d 3f f8 8e 0f 3f
       0.53750885 0.43586552 1.1071787 0.5607753
0003c0 5e 8c a2 3f 0a 72 08 40 93 da 1d 40 4a cf 83 3f
       1.2699087 2.1319604 2.4664657 1.0297635
0003d0 60 4c a5 3f 0b 19 d2 3d 67 cd a2 3e a1 44 c4 3d
       1.2913933 0.10258683 0.31797335 0.095834024
0003e0 bd 74 a2 3d fe 8d 98 3e 61 33 0c bf 3c 10 0e be
       0.07932422 0.2979583 -0.547659 -0.1387338
0003f0 ca 7a b4 bf dd 77 9d be 39 23 48 bd 37 6e e6 3e
       -1.4099972 -0.3075551 -0.048861716 0.45005962
