code/python/slip_model/10_128_4_5_10_29900_100_use_train_slip_model.npz (npz, 498632 bytes, 7 tensors)

hh/lateral/W f4 [512, 128]
00000000: 1822 98c0 8192 7cbf 6f15 b7bf bf9b fdbf
00000010: b96c 603f c4a2 ef3d 8df6 16bf 5c8c 04bf
00000020: 35df 513c cdcc 1ac0 ccef a4bf 9dc1 e23d
00000030: ef3b 8340 9d93 94bf 1d28 ce3f 3082 b43e
00000040: 215e aabe 35fc 4ebf e396 d83f f7db 983f
00000050: a16b 1fbf 9941 393f 9af4 bbbd 0559 3840
00000060: 4059 2340 d3e0 ef3e c772 3e3f b900 3cc0
00000070: 3734 33be 45f3 2540 b561 a7bf c1c0 0ac0
00000080: c243 1440 7965 98bf 4aac 0a40 6a42 3abf
00000090: f4d9 e2be fa0f 5ebf f734 96be 3b57 60bf
000000a0: 8d13 f73f e387 803e 3bd1 8cc0 d369 ec3f
000000b0: 6c9f 63be cd57 50bf fc6b 1140 acae 99c0
000000c0: f087 1ec0 a05b 2b40 4040 8fbf 9361 3a3f
000000d0: edb9 cb3f e8aa cf3f 05e9 193f 25e0 4cbf
000000e0: bd05 73be 3007 cc3f fa22 9bbf 77b2 9a3f
000000f0: 99b3 5b3e f8b4 0f40 f78b a0bf 27ce bc3f
00000100: 8108 863f 5911 81be 71fb df3f 2402 573f
00000110: 9f29 5740 681a 2340 7b55 08bf 8a95 8dbf
00000120: 65d4 eebd a223 b73d 270a 2c40 aba2 353f
00000130: b601 7b3e 4f53 4fc0 91c2 6240 d899 743f
00000140: e7bc 4c3f d166 c43d 4c8f 363f 52e8 293f
00000150: ad24 4240 386a 1dbf 6994 d3bf eba1 f63f
00000160: 9972 ea3f 6c56 28bf 82d7 76bf 05f1 df3e
00000170: c5ab 06c0 a50e 253f d99c c7be 2770 6cbf
00000180: 2550 ecbf 0727 f23e 5b79 80bc e1d1 d1bd
00000190: 8907 d63f 215d 09bf b80d 453f 13af 84bf
000001a0: 677c d0be a4da d5be 5891 9640 e331 de3f
000001b0: 17d5 febf 30a8 0040 40ce 8a40 0321 4d3f
000001c0: 223f f33d 132f cc3f 0a34 1040 2606 4b3e
000001d0: 2bc1 62bf 3a79 263e d9aa abbf 36be ca3c
000001e0: afd7 6abf ee92 1940 df8e b0be ad82 89be
000001f0: 65db 1e3f a176 57c0 a15b b0be ce5b 1540
00000200: 3e2e 0340 432a 373f 69a5 6abe d10d 4340
00000210: ba3a 28c0 3d59 653e 9a02 f13e 65ec 44bf
00000220: fecc 14c0 d38f ffbf 3a69 38be fe41 5940
00000230: b0ce f03f 9767 b93e c85b 2541 918a 7fbe
00000240: bcef 10c0 1718 0a3e 58f2 4840 87cb 07be
00000250: b1d7 dfc0 f545 07c0 1fc7 8b3f b305 f0bf
00000260: a9dd 1ac0 5a17 29c0 56b3 7f3e 5ce4 31be
00000270: 908e 3e40 28a3 4b3f 9c35 9fbf 2a61 d33f
00000280: a0a7 bebf faad 8b3e 9452 8840 962e 5ec0
00000290: cb07 9f3f 3a02 7740 176d ae3e 69ff b4c0
000002a0: 66fc 1c40 ed7c 2340 9b6e 57c0 889c 0ec0
000002b0: 20e8 043f f620 1b40 c0d4 843f 5fdc 863f
000002c0: ede1 3bbf e518 6ac0 a9b4 13c1 b60a 06be
000002d0: a340 1540 bd61 24bf 4c89 b4bf 0145 6840
000002e0: 069d be40 ebad debe d89d 07c1 32e6 20c0
000002f0: 0ec4 bb3f 6f10 3b3e f6c5 23c0 fdef 183f
00000300: e6c4 783f eae0 e93f 933c c3c0 0600 f63e
00000310: c86c ddbf 1b52 af3d 39a7 9ebe 027f 0940
00000320: 067c a13f 2a5a 3ebf 7f88 513f fe47 b13f
00000330: 6e2d 1abf 3ed4 e2be b4f9 edbf e8df 26c0
00000340: 88ec 9b3f c14a 7dc0 ee1e 96c0 4f19 f2bf
00000350: 1fad be3f 90b8 40bc 14ce 2c40 1e84 4240
00000360: b2bf 3540 d73e 15bf 7208 bbc0 4c35 75c0
00000370: d505 5040 64c0 ac3f d12b 623f f88f 98bf
00000380: 6659 1c3f d50f d5be 2493 3540 ee18 013f
00000390: 2ef4 373e e76f eabf d0ff 323e 8cd5 adbf
000003a0: 50de a2c0 35a5 bbbf 8f72 143e b569 26bf
000003b0: d7f1 ab3c 105b d73d d2e5 183f 63a7 98be
000003c0: 0e5b 42c0 05de d7bf ac76 75c0 4409 9240
000003d0: 6ff3 37c0 9ef5 81bf 62d3 7d40 7de8 0840
000003e0: 90c3 cfbf f892 ddbf 84e4 413f d491 493f
000003f0: 0361 3c40 9274 b0bf 972a 87c0 d514 7240
-4.754162 -0.9866105 -1.4303416 -1.9813155 0.876659 0.11700967 -0.58969957 -0.5177667
0.012809564 -2.41875 -1.288568 0.11072085 4.101066 -1.1607548 1.6105992 0.35255575
-0.3327494 -0.8085359 1.6921047 1.1942128 -0.62273604 0.7236572 -0.091775134 2.8804333
2.5523224 0.46851215 0.74393886 -2.937544 -0.17500387 2.592973 -1.3076693 -2.1680148
2.3166356 -1.1905967 2.1667657 -0.7275759 -0.4430691 -0.8674313 -0.29337284 -0.87633103
1.9302841 0.25103673 -4.400541 1.8469795 -0.22228783 -0.81383973 2.2722158 -4.8025723
-2.477047 2.6774673 -1.1191483 0.72805136 1.5916115 1.6224031 0.60121185 -0.8002952
-0.23732658 1.5939693 -1.2120049 1.2085713 0.2145523 2.2454205 -1.2542714 1.4750413
1.0471345 -0.25208548 1.7498609 0.8398764 3.3619153 2.5484867 -0.5325543 -1.1061261
-0.11661605 0.08942343 2.6881196 0.70951337 0.24512371 -3.2394598 3.5431254 0.95547247
0.7997574 0.09589923 0.71312404 0.6637012 3.0334885 -0.614902 -1.6529666 1.9268163
1.8316222 -0.6575687 -0.9642259 0.4373857 -2.104234 0.6447547 -0.38986853 -0.9235863
-1.8461958 0.472954 -0.015682867 -0.10245109 1.672105 -0.5365773 0.7697406 -1.0365928
-0.4071991 -0.41768372 4.705242 1.7358974 -1.990878 2.0102654 4.337677 0.80128497
0.11877276 1.5951866 2.2531762 0.19826564 -0.88576 0.16257182 -1.3411514 0.024748903
-0.9173536 2.3995929 -0.34484002 -0.2685751 0.6205352 -3.3666155 -0.34444907 2.3337283
2.0496974 0.7154886 -0.22914661 3.0477183 -2.6285844 0.22397323 0.47072297 -0.7692321
-2.3250117 -1.9965767 -0.18008891 3.3946528 1.8813076 0.36211845 10.334908 -0.24955203
-2.2646322 0.13485752 3.1397915 -0.13261233 -6.9950795 -2.1136448 1.0920142 -1.8751739
-2.419779 -2.6420503 0.24970755 -0.17372268 2.9774513 0.7954583 -1.2438235 1.6514027
-1.4894905 0.2728117 4.2600803 -3.4715934 1.2424253 3.859511 0.34067604 -5.656178
2.4529052 2.5544999 -3.3661258 -2.228304 0.51916695 2.4238868 1.0377426 1.0536002
-0.7339161 -3.6577694 -9.2316065 -0.13090023 2.33207 -0.64211637 -1.41044 3.6292117
5.956668 -0.43492064 -8.476036 -2.51405 1.4669206 0.18267988 -2.5589576 0.59741193
0.97175443 1.8271763 -6.1011443 0.48046893 -1.7298822 0.08560582 -0.30986956 2.148377
1.2615974 -0.7435633 0.818489 1.3850095 -0.6022557 -0.44302553 -1.8591828 -2.6074162
1.2181559 -3.9576876 -4.6912756 -1.8913974 1.4896582 -0.011762753 2.700078 3.0393138
2.8398252 -0.5829901 -5.844781 -3.831378 3.250356 1.3496213 0.8834811 -1.1918936
0.6107391 -0.4161364 2.8371058 0.50428665 0.17964241 -1.83154 0.17480397 -1.3580794
-5.0896378 -1.4659792 0.14496826 -0.65005046 0.020989342 0.10515416 0.5972568 -0.29815206
-3.0368075 -1.686463 -3.8353682 4.563631 -2.874233 -1.0153081 3.9660268 2.13919
-1.6231556 -1.7310476 0.7573931 0.7873814 2.9434211 -1.3785574 -4.223949 3.7825215

hh/upward/W f4 [512, 128]
00000000: 56a6 283f 4bc4 4e3f 1c03 1d3f 2930 433f
00000010: 0614 14bf 5655 93be 55e3 2ebe e33f 35bf
00000020: d7fe 76bf aeb8 e8be 2a86 08be 33b9 0dbf
00000030: d008 3bc0 ffde 873e 380f aebf 532f 78be
00000040: 44d4 a43e 9ee6 d93f 5d72 843f 362f 09bf
00000050: 787f 41bf 530d 1ebf da8e a9bf 7a5c babf
00000060: 7268 a33f e537 223f 6fca e6be 9a26 85bf
00000070: d324 e73e da54 f53e 44ed 6e3f 0103 1abc
00000080: 6b79 123e f643 21bf 2123 77bf a980 81bd
00000090: 3724 3ebf 0576 62bf d0e2 6a3e f846 a53e
000000a0: 282f 84bf dd31 abbf 46fd 1b40 64bb 573f
000000b0: d34b 9a3f 5c44 d4bf 4af1 56be 624f 233f
000000c0: de6b 33be bb4e 683f 63d9 6dbd a0c4 c83e
000000d0: 8729 5c3f 7af6 43be 7b64 2540 7c3d 67bf
000000e0: de53 52be 9637 a73e 4d6d 24bf 583e c53e
000000f0: 29c6 8bbf 5011 71bf 295f 613f f0fe d1bf
00000100: 2610 323f ea75 163f 9bb5 1bc0 8dff d9bd
00000110: 63f0 123f e40b a53e ce9a 303f c66f d63f
00000120: efd1 97be 9da6 843e 1d64 563f d187 d43e
00000130: 1308 89bf e1fe 45bf 7797 913f 86a8 233f
00000140: 43c2 e3bd c899 833f 9550 633f 8199 b9be
00000150: 38b3 71bf 02cf 30bf eed6 363f 45f7 1d3f
00000160: 5326 87bf cea9 983c 4731 90be eb5c b7bf
00000170: 3c29 973f fb48 a3bf 6679 99be dd10 c23e
00000180: 080f 413e ecef c3bf ddfa 2abf e702 bf3e
00000190: ef0e eabe f248 0dc0 8eef 49bf 744f 943c
000001a0: b2eb b2be afc0 613e 8c9f f1bf 68b6 d0bf
000001b0: 23b8 4e3e c4f0 13bf 5de2 da3e 2bd3 01bf
000001c0: a3f4 6f3e 9d18 f53c d851 273f 8e9b d33e
000001d0: c4d5 5a3d 71b3 fb3e b0c9 d33d 39a9 7f3c
000001e0: e8f8 c43f 7175 e13c 2162 5cbf dfb1 313f
000001f0: a191 7440 374f 4cbf bbed bb3f 9a44 94bf
00000200: 6606 a2bf d559 ecbe c7a0 93bf 1087 16c0
00000210: 2955 c4bf 472d 523f 8c58 44c0 c848 b93d
00000220: 9347 cfbe 06cc 5a3f fbcc c93e 85a4 26c0
00000230: b2d6 8c40 b204 1440 b916 2f40 a997 623f
00000240: f315 a1be fff0 aabf d099 9abf 5d14 333f
00000250: 788b 963f 0a4e e83f a411 2840 e151 3240
00000260: 8207 8cbf 215f 953f faf9 d73e 7816 ab3d
00000270: 8d42 2440 34ab d6bf 5269 97bf 8537 a6be
00000280: 4772 b0be 88f7 e3bf 0103 14c0 5624 5ebf
00000290: bd44 cdbe 47e0 d83f 7beb 2d3e a284 9140
000002a0: 8a13 5340 0f48 21bf a173 81c0 418a 91bf
000002b0: 1ce4 1cc0 e2d7 333f f42d 22bf 8b76 77bf
000002c0: aa7a 39be 42fe e93f d6e7 8c3f dbf1 363d
000002d0: 2d44 fcbd c00a fd3f 502f 0cbd 27a9 3abf
000002e0: 70e3 6dbe 96e5 b63e 7dd9 84be 7ab2 c1bf
000002f0: 3935 693f fa9d 5b40 fce6 8d3f f852 c3bf
00000300: b1df 2340 55ce 6dbe a947 7b3e 8b08 8e3e
00000310: 4a70 07bb 79bd 3cbf 4fec adbf 1916 c1bf
00000320: dd03 4bbf 4caf 1abe 4b66 aabf 51fd 3e3c
00000330: 4f4b a9be 99d1 80be e381 03bf d905 63c0
00000340: a917 8140 8584 85be f9b0 0ec0 5dff 9b3f
00000350: fc28 1040 68fe 283f 6229 f0bf 7270 0a40
00000360: 1536 3140 582f 3ec0 58a9 afbf 6915 963f
00000370: ee25 a2be 5b3e b0bf 8f79 76be be59 92bf
00000380: 7e56 ae3f b4b4 763f a230 0c40 6192 9240
00000390: 10ad 8d40 4dda c93f 4b01 8cbf 9435 923f
000003a0: ca84 13bf 6e53 f43e 31f0 6440 ff4a 853f
000003b0: b079 4e3f 6236 da3f 1b0f e7bd b3e4 3940
000003c0: ba42 bd3d 9070 2f40 7ff4 dbbf f1cb 9cbe
000003d0: 1590 4abf 4492 f3bf 73f3 07c0 90c8 6dbf
000003e0: dcd1 9e3e 011b 893f fbd9 b53f 1c14 a8bf
000003f0: 2d5b 45bf 228f 623f 3f37 96bf 1163 ad3f
0.6587881 0.8076827 0.6133287 0.7624536 -0.57843053 -0.28776044 -0.17078908 -0.7080061
-0.96482605 -0.454534 -0.1333243 -0.55360717 -2.9224129 0.2653732 -1.3598394 -0.24236803
0.32193196 1.7023504 1.0347401 -0.53587663 -0.75585127 -0.6173908 -1.324672 -1.4559472
1.2766249 0.6336654 -0.4507632 -1.0402405 0.45145282 0.479163 0.9333079 -0.00940013
0.1430413 -0.62994325 -0.9653798 -0.06323368 -0.7427401 -0.88461334 0.22938085 0.32280707
-1.0326891 -1.3374592 2.4373336 0.8427031 1.205439 -1.6583362 -0.20990482 0.63793004
-0.17521617 0.90745133 -0.058068644 0.39212513 0.86000866 -0.19136992 2.5842578 -0.9032819
-0.20539805 0.32659596 -0.6422928 0.38524127 -1.0919849 -0.9416704 0.8803583 -1.6405926
0.6955589 0.5877367 -2.4329593 -0.106444456 0.5739805 0.32235634 0.68986213 1.675286
-0.29652354 0.25908366 0.8374651 0.4150987 -1.0705589 -0.7734204 1.1374348 0.6392902
-0.11121037 1.0281305 0.88794833 -0.36249927 -0.9441409 -0.6906587 0.71421707 0.6170543
-1.0558571 0.018635657 -0.28162596 -1.4325231 1.1809459 -1.2756647 -0.29975432 0.3790349
0.1885339 -1.5307593 -0.66789037 0.37306902 -0.45714518 -2.2075772 -0.78881156 0.018104292
-0.34945446 0.22046159 -1.8876815 -1.6305666 0.2018743 -0.57789254 0.42750826 -0.5071284
0.23433165 0.029918963 0.6535926 0.41329616 0.05342652 0.4916034 0.10341203 0.015604311
1.538846 0.02752182 -0.8608723 0.69412035 3.8213885 -0.7980837 1.4681925 -1.1583436
-1.2658203 -0.46162286 -1.153344 -2.3519936 -1.5338489 0.8210034 -3.0679045 0.09047085
-0.40484294 0.85467565 0.394142 -2.6037915 4.401208 2.3127866 2.735762 0.88512665
-0.31462058 -1.3354796 -1.207819 0.69952947 1.1761312 1.8148816 2.6260767 2.7862475
-1.0939791 1.1669656 0.42182904 0.08353895 2.566562 -1.6770997 -1.1829016 -0.32464233
-0.34462187 -1.7809916 -2.3126833 -0.86774194 -0.40091506 1.6943444 0.1698436 4.5474405
3.2980676 -0.6300058 -4.045365 -1.1370317 -2.4514227 0.70251286 -0.6335137 -0.9666526
-0.18113199 1.8280718 1.1008251 0.044664245 -0.12317691 1.9768906 -0.03422481 -0.72914356
-0.23231292 0.35722035 -0.2594718 -1.5132592 0.91096836 3.4315171 1.1086116 -1.5259695
2.560528 -0.2322324 0.24539055 0.27740893 -0.0020666295 -0.7372661 -1.3587741 -1.5084869
-0.7930277 -0.15105933 -1.3312467 0.011657075 -0.33065268 -0.2515991 -0.51370066 -3.547232
4.034138 -0.26077667 -2.2295516 1.2187306 2.2525015 0.66013193 -1.8762629 2.163113
2.768926 -2.9716396 -1.3723555 1.1725284 -0.31669563 -1.3769029 -0.24069808 -1.1433637
1.3620145 0.9636948 2.1904683 4.5803685 4.427376 1.5769745 -1.0937895 1.1422601
-0.57624495 0.47719902 3.5771601 1.0413512 0.8065443 1.7047846 -0.11282178 2.9045837
0.09241243 2.7412453 -1.7183989 -0.30624345 -0.791261 -1.9029012 -2.124234 -0.9288416
0.31019485 1.0711366 1.4207147 -1.3131137 -0.7709225 0.88499653 -1.173561 1.3545858

hh/upward/b f4 [512]
00000000: d605 15c0 6d90 1e40 e215 833f ae9d 0640
00000010: 431d a03e 7061 ef3e cb61 9a3d 30e6 a13f
00000020: b183 c1bc 4d69 98be cff1 27be e898 d1bf
00000030: 5417 7dbf 216b d9bf 3a88 463f 65fd 8f3f
00000040: 1eeb 0b40 9061 e7bf 4457 6f3f 8dd0 6240
00000050: a85e 82be fc23 a8bf a59e 863f bc00 d6be
00000060: 7699 76be b8d9 16c0 96ca 733f cfac da3e
00000070: 6baf 8dbf f76e 02c0 1b99 9d3f 41eb 73bf
00000080: 5a19 bebf 27fa b8bf 4333 a33e 9ba5 dabf
00000090: 4731 13bf 6de2 cd3e e4b2 3f3f f611 373e
000000a0: badf 85bf b951 c9bf fda8 e9be cfaf 1ec0
000000b0: 12fb db3f faf2 5140 b55d 4abf a025 4abf
000000c0: c480 43be a702 d1c0 0c7f 75c0 ffed 8dc0
000000d0: 73ca 81bf b66a d1be a4ba 9cbd f6ef 4abe
000000e0: 25d8 d83f ecfe e1bd df0d e73f 97f7 033f
000000f0: fcd4 06bf c4e7 fcbe 6395 5b3e 4f31 4abf
00000100: 7f1b 0dc0 8389 b43f 4714 0fbf a292 dc3f
00000110: 6a11 113f 0d3f f8bf 3980 3b3e 108a 51c0
00000120: 62ea 95bf f46e febf 12f4 343f 3a97 3bc0
00000130: b08e 053f 4961 c83f 684d ca3d 2351 3ec0
00000140: 6703 f4bf e981 84bd f041 aa3f 9a9f 843e
00000150: 9eb3 f2be 5299 a23d ddaf 78bd b609 afbf
00000160: 39ec 103e 8b22 cebf abe0 8a3e 71af a7bf
00000170: 0b04 b7bf f7c1 19bf e356 cebd fe69 e9bf
00000180: 0520 7ebf 9ffc afbf 5f27 ea3f 4536 b4bf
00000190: 7c46 893f fe00 d7bf 713a 063f 64b7 4a3f
000001a0: 7da1 823e e7e2 38be 7306 38bf 1a49 84c0
000001b0: bd9a f4bf fc87 c2bf 5756 04bf 0490 89c0
000001c0: 3cfd 0fbf f59d 32bf 034a 5bbf 93ea 173f
000001d0: c822 dbbf db74 7dc0 2402 dc3f 2d9f 413e
000001e0: 1f3c ab3f c93f 68be 6bf9 8b3e 3e92 3abe
000001f0: eaba a53e 5d7b d5be 9afe 4d3f ffc3 9f3f
00000200: 88e4 593d 25c7 9cbf 5963 9cbe 0446 47c0
00000210: ebb6 bd3f b8d7 eabd 3f4c 363f 4bcb 97c0
00000220: 05f4 c9bf b48d fabe 20d2 ab3e c73b 73bf
00000230: a5a8 6cc0 b339 c43f 1e19 74bf 6449 373f
00000240: be37 6abd 40bc c8bf 18dc 753f 1080 4ec0
00000250: c659 753f c221 61bb 4182 b63f c7ee e73e
00000260: 83a5 fcbf 833f f03e aef3 b03f 9930 6d3f
00000270: 7f44 0c40 7b4a 0b40 14ce 99bd 147f fbbe
00000280: f748 13c0 5b9d 4040 d267 78bd f587 13bf
00000290: e39c e03f a96a 963f 4e85 74be 94f5 8a3f
000002a0: be6f 53be 3af8 d93d 1747 f03c 04ce 9dc0
000002b0: 5aa1 97bf 25db 80bf e5c2 743e 81fc 9fbd
000002c0: 9199 ec3f ee29 563f 8e27 6ebe 1ab4 10be
000002d0: 3958 acbf 8a68 723f 53e2 023e 5bc3 afbf
000002e0: a59d 76be 8432 06bf 5ed2 a73f 7454 b4c0
000002f0: 63d8 4f3f b7f0 fabe c96b 1e40 9d44 903f
00000300: 16e5 8c3f 5a4c 263f b8b8 c03e 6bcb c0bf
00000310: 2c07 d5bf 1e62 083f aae7 4c40 e8f0 6840
00000320: e6a3 9dbf 0156 9fbf 07ee 9140 688f 613f
00000330: 1c06 bf3e 09e5 89c0 5789 5dbf dc69 58c0
00000340: 61c3 30c0 1843 75c0 f1a7 d5bf 43bc 07c0
00000350: 6010 8bbf 6e34 033e 8a92 a23e 7a26 d53d
00000360: c55c 80bf d2a4 0bbe 24f0 9ebd 0977 9abf
00000370: 153d a13f f882 883f 38ca a53f 01bd 61bf
00000380: 27e8 0abf d263 293f 74f3 97be d223 7abf
00000390: 6822 5dbf 468b 51bf 96ad ff3e 034c c8bd
000003a0: d4ac 0b3c d508 223f 618f 0640 7a55 33c0
000003b0: 4fd1 353f dd1b 0ac0 1ecb 173e 70ba 21c0
000003c0: d868 78be d35f 86c0 5bde 863f d7f4 a2c0
000003d0: 274c 46bf fb10 d5be a880 06bf 9d27 8cc0
000003e0: cf59 063e a026 c53f d290 88bd 9959 46bf
000003f0: e560 c2bf ef51 c9be 7e0b c7be c5c3 cebf
-2.3284812 2.477565 1.0241053 2.103374 0.31272325 0.46754026 0.07538184 1.2648373
-0.023622366 -0.29767838 -0.16400836 -1.6374788 -0.9886372 -1.6985818 0.77551615 1.1249205
2.1862254 -1.8076649 0.9349253 3.543979 -0.25462842 -1.3135982 1.0517164 -0.41797435
-0.24081978 -2.3570385 0.95230997 0.42709967 -1.1069158 -2.0380228 1.2312349 -0.95280844
-1.4851487 -1.445134 0.31875047 -1.7081789 -0.57497066 0.40211812 0.7488234 0.17877945
-1.0458901 -1.5728065 -0.4563674 -2.4794805 1.7185996 3.280455 -0.79049236 -0.7896366
-0.19092089 -6.531574 -3.8358793 -4.4353023 -1.0139908 -0.40901726 -0.076527864 -0.198181
1.6940962 -0.110349506 1.8051108 0.5154967 -0.5266874 -0.49395573 0.21443705 -0.7898149
-2.2048032 1.4104465 -0.55890316 1.7232249 0.56667197 -1.9394242 0.18310632 -3.2740517
-1.1712153 -1.987761 0.7068492 -2.9311051 0.5217085 1.5654689 0.09878045 -2.9737022
-1.9063538 -0.06470091 1.3301373 0.25903016 -0.47402662 0.079394 -0.06071459 -1.3674839
0.14152612 -1.6104292 0.27124533 -1.3100415 -1.4298109 -0.6006159 -0.10075166 -1.8235471
-0.9926761 -1.3748969 1.8293265 -1.4079062 1.0724635 -1.6797178 0.52432925 0.7918608
0.2551383 -0.18055306 -0.7188484 -4.1339235 -1.9109722 -1.5197749 -0.51694244 -4.29883
-0.5624578 -0.69772273 -0.8565981 0.59342307 -1.7119989 -3.9602573 1.7188153 0.18908377
1.3377723 -0.22680582 0.27338728 -0.1821985 0.32369167 -0.4169568 0.80466616 1.2481688
0.05319646 -1.2248274 -0.30544546 -3.1136484 1.4821447 -0.11466926 0.7121009 -4.743566
-1.5777594 -0.48936236 0.3355875 -0.9501309 -3.6977932 1.5330108 -0.95350826 0.7159636
-0.057182066 -1.5682449 0.9603896 -3.2265663 0.9584011 -0.0034352397 1.42585 0.4529936
-1.973801 0.46923456 1.3824365 0.9265228 2.1916807 2.176421 -0.075100094 -0.4912039
-2.3013284 3.0096042 -0.060645886 -0.5762933 1.7547878 1.17513 -0.23878977 1.0856194
-0.20648095 0.106430486 0.029330773 -4.9313984 -1.1846116 -1.0066878 0.23902471 -0.07811833
1.8484365 0.8365773 -0.23257276 -0.14131203 -1.3464423 0.94690764 0.12781648 -1.3731493
-0.24083574 -0.5242083 1.3111074 -5.635309 0.81189555 -0.49011776 2.4753287 1.1270939
1.1007411 0.64960253 0.3764093 -1.5062078 -1.6642814 0.53274715 3.2016397 3.6397038
-1.2315643 -1.2448121 4.560306 0.88109446 0.3730935 -4.3092084 -0.8653769 -3.3814611
-2.761925 -3.83222 -1.6691877 -2.1208656 -1.0864372 0.12812969 0.31752425 0.104077294
-1.0028311 -0.13637093 -0.07760647 -1.2067577 1.2596766 1.0664968 1.2952337 -0.8817902
-0.54260486 0.6616794 -0.29677927 -0.9771091 -0.86380625 -0.8185314 0.49937123 -0.09780123
0.008525092 0.63294727 2.1025012 -2.802092 0.71022505 -2.1579506 0.14823577 -2.5270042
-0.24258745 -4.1991973 1.0536608 -5.0923877 -0.7745995 -0.41614518 -0.52540064 -4.3798356
0.13120197 1.5402412 -0.06668247 -0.77480465 -1.518582 -0.39320323 -0.38875955 -1.6153494

hy/W f4 [4, 128]
00000000: 18f5 28bd 3833 ddbd 95f3 56be cac4 6e3d
00000010: 5ef8 ab3d 5cd0 963d 8922 553d 1cbc ec3e
00000020: b64d 4bbd 1e0d 26bd f47a 48bd 319c f23d
00000030: 043c bf3d 1196 5cbd da67 d63d b5e6 6cbe
00000040: e29b 583b dfbd 8a3d de59 3bbe f546 ad3d
00000050: 4413 8bbc abec 8040 b912 99be 86aa 53bc
00000060: ca91 0dbd dad2 a0bd c888 bbbb df02 fa3e
00000070: 7c5b 1ebd 5687 53be 619e b83d ea7a 5cbc
00000080: b6a4 a8be d803 01bc 96c4 903d 1b84 0abd
00000090: d5d7 2fbf ae2a 8fbd 2a76 57bb 8452 ad3e
000000a0: 6728 64b9 910d 4dbd 4273 3c3d 7490 603d
000000b0: 3ebb f93d f3af e63d a6b7 743e 5ab5 a93c
000000c0: 58d6 103e aea4 a53b 6048 553c dfdf aabd
000000d0: 13c7 8d3e 4b82 1bbe f9e6 80bd 85a8 0b3d
000000e0: 786c ecbb f4b7 f7bd f64c a9bd 266f ba3d
000000f0: 6486 903e 4754 85bc 4a33 dfbd 591b 933e
00000100: 5ade 183f d9a1 a9bd eb59 343d a231 7e3d
00000110: 392a 56bd d0b3 6abe f84f e1bd bf82 0bc0
00000120: 2242 10c0 b126 65bd 50bc 433e e09b 10bc
00000130: b9cd 2c3e 9ffb 323e c5cb 2f3b 54ed 6bbd
00000140: 98ab 10be 46ef bb3d c42a 833e 34d5 c83f
00000150: a9b1 93be 914e 313e b9f7 403d ef9e d33c
00000160: e4f8 2c3d 809b 86be bbaf 36be e0c7 f4bc
00000170: 1fd5 21bd 6f3b c6bd 06a0 dbbe e0fa 453d
00000180: 23b6 c73d e06a 083e 009c ecbb ad64 e5bf
00000190: 3af1 70be e139 843c 2cbe 253e 67ad c63e
000001a0: ea2e 80bd 021f 21bd 230d fb3d 4ece 843e
000001b0: f678 903c c005 80bd 326a e9bc 8714 373d
000001c0: 9f2d 70bd c188 1d3a 37dd d73d 4966 163e
000001d0: 7b89 6dbc 1d50 45bd 4bab 2abf 913a 5abf
000001e0: bf7c 6a3d b32b 7cbc 3332 7540 5657 abbe
000001f0: 43ef ebbc 89a2 f03c 7841 79bf 9e29 60be
00000200: d42b 45bd 4a5a 0cbe 53da 6abe 2187 be3d
00000210: 6e3f d63d d243 4a3e 0106 083e c522 c33e
00000220: 8449 5dbd 42c9 36bd 0394 9ebd 1686 ad3d
00000230: 8da6 503e bd83 d1bd 7af7 c63d 167e 8dbe
00000240: 6164 1fbd ba5b ab3d a709 65be 0b2b 733d
00000250: 44c7 a9bc 3e61 7a40 0d64 23bd a573 893d
00000260: c3d9 7ebe 00d0 54bd 4def b63d 906b 003f
00000270: 1e39 943b 6ff7 d33a c218 2b3e b549 72bb
00000280: 4f47 99be 6bbe 233d a369 7f3d ef64 1abd
00000290: f73f 97bf 5118 95bd 7a97 deba 7309 ac3e
000002a0: 703d c7ba e0cb 67bc 6003 e03d 6952 1d3e
000002b0: 15b7 36bd 28dc 453e 1cf5 823e 8735 c23b
000002c0: 3499 563e 1be4 88ba 844a f4b9 f54f 1dbe
000002d0: 0002 133f ec90 14be eacd 26bc 09a2 c33c
000002e0: e07e a9ba 6a55 2abd bb5b a1bd 3817 043e
000002f0: 4fef 103e 2011 f7bd 15b1 1cbe 9f4b 8b3d
00000300: 94c8 313f 8e8a 91bd fc8f 5d3d df8c e13d
00000310: a3a4 4cbd e51f 9dbd d2ae bc3d e4b5 0fc0
00000320: a194 17c0 2ddb 5dbd 359e 353e 13c3 b2bd
00000330: 5303 323e 7b0c 7c3e f8c7 1abd 3f1f 9fbc
00000340: 367b 31bd 90c3 883d bf85 843e 7cb2 dd3f
00000350: e17f 50be 0f68 843e 7743 7a3d 1cc1 b639
00000360: 66ee 873d ff1b 81be c271 22be fe10 f7bc
00000370: f11d 95bc c891 97bd c438 e0be 48d1 b23d
00000380: d4d1 b93d 04d9 e83e f632 09be ebda cabf
00000390: cf41 cabd 438f ddbc 7d19 3f3e 4090 b13e
000003a0: 2b5a c1bd d860 45bd 2c5c 2a3d d3c6 143e
000003b0: c686 bb3c 5ed3 fdbd 9482 bebd 32cb 9a3d
000003c0: c0d2 8dbc 1d7c 5dbc 2e15 dc3d 5118 403e
000003d0: f51a 4bbc a59e 45be cb7f 1fbf e63f 36bf
000003e0: 1d09 343d a80d 42be cc6a 9640 5763 9bbe
000003f0: 4813 debc c9bf 233d 6500 9cbf 2b26 05bd
-0.041249365 -0.10800785 -0.20991357 0.05829314 0.08396982 0.0736396 0.05203489 0.46237266
-0.049634658 -0.040539853 -0.048945382 0.118461974 0.09337619 -0.053854052 0.10469027 -0.23134883
0.0033051898 0.06774496 -0.18296 0.084607996 -0.01697696 4.02889 -0.29897097 -0.012919074
-0.034562863 -0.07852717 -0.0057230927 0.48830315 -0.038661465 -0.20657095 0.090145834 -0.013457039
-0.32938164 -0.007874452 0.07068746 -0.03381739 -0.6868871 -0.069905624 -0.0032876828 0.33852017
-0.00021758825 -0.050061766 0.046008356 0.05482526 0.12193917 0.112640284 0.23898181 0.020716358
0.14144266 0.0050550317 0.013017744 -0.08343481 0.27690944 -0.15186422 -0.062940545 0.03409626
-0.007215079 -0.12095633 -0.08266632 0.09103231 0.28227532 -0.016275538 -0.108984545 0.28731802
0.5971428 -0.08282823 0.044031065 0.062059052 -0.05228636 -0.22920156 -0.11001581 -2.179855
-2.2540364 -0.055945102 0.19114804 -0.008826226 0.16875352 0.17478798 0.0026824337 -0.05759938
-0.14127958 0.09176497 0.25618565 1.5690064 -0.2884648 0.17315127 0.047111247 0.025832621
0.042229548 -0.26290512 -0.17840473 -0.029880464 -0.03950989 -0.09679305 -0.42895526 0.048334956
0.09751537 0.1332202 -0.007220745 -1.7921349 -0.2352952 0.01614088 0.16185826 0.3880417
-0.06258948 -0.039336212 0.12258365 0.25938648 0.017635804 -0.06251097 -0.02849302 0.04469731
-0.058637258 0.00060094526 0.1054024 0.14687456 -0.01449811 -0.048172105 -0.6666762 -0.85245615
0.057247873 -0.015391278 3.831189 -0.3346507 -0.028800612 0.029374378 -0.9736552 -0.21890876
-0.0481375 -0.13706318 -0.22934847 0.093031175 0.10461317 0.19752434 0.1328354 0.38112465
-0.054025188 -0.04462553 -0.07743075 0.084728405 0.20376034 -0.10230205 0.09715171 -0.27635258
-0.03891409 0.08367105 -0.22366963 0.05936722 -0.0207249 3.9121852 -0.039890338 0.067115106
-0.24887757 -0.051956177 0.08932362 0.5016413 0.0045234105 0.0016171763 0.16708663 -0.0036970202
-0.29937217 0.03997652 0.062356602 -0.037693914 -1.1816396 -0.072800286 -0.0016982399 0.3360096
-0.0015200805 -0.014147729 0.10938144 0.15363468 -0.044608194 0.19322264 0.2557763 0.005926791
0.2095688 -0.0010443957 -0.00046594825 -0.15362532 0.57424927 -0.14508408 -0.01018093 0.023880975
-0.0012931488 -0.041585363 -0.07878824 0.12899482 0.14153789 -0.12063813 -0.15301926 0.06801533
0.6944668 -0.07106505 0.054092392 0.11013197 -0.049961697 -0.07672099 0.09213032 -2.2454767
-2.3684466 -0.0541641 0.17736132 -0.08728614 0.1738408 0.24614136 -0.03778836 -0.019424079
-0.043330394 0.066779256 0.2588329 1.7320094 -0.20361282 0.2586064 0.061099496 0.00034857623
0.06637268 -0.25216672 -0.15863708 -0.03015947 -0.018202754 -0.074008524 -0.4379331 0.087313235
0.09073225 0.4547807 -0.13398346 -1.5848058 -0.09875833 -0.027045852 0.18662067 0.34680367
-0.09441026 -0.04818806 0.04159181 0.1452897 0.022891413 -0.12393831 -0.093022496 0.07558288
-0.017312407 -0.01351836 0.10746227 0.18759276 -0.012396564 -0.192988 -0.6230437 -0.7119125
0.043954004 -0.18950522 4.7005367 -0.30349228 -0.027108803 0.039977822 -1.218762 -0.032507103

hy/b f4 [4]
00000000: 9fe1 103c cc5d a03a 6693 24bd 1c37 42bc
0.008842855 0.0012234985 -0.040179633 -0.011853959

xh/W f4 [128, 10]
00000000: d65c 0bc0 9365 f0be 81cb 47bf ab45 31be
00000010: 37b3 663e f868 adbe 37b8 45be cb1c 91be
00000020: 7578 7040 d48e 1440 9d48 a83e 18b2 8fbf
00000030: 464c b7be f259 31be 1ee2 11be ea1c 073f
00000040: c3cc 403e 5c3a 89be b38c 0a40 37c2 423e
00000050: 7d77 46c0 f2ba d3be 4625 5cbe aacc f83e
00000060: 855d 9c3d 49cc e3bf 42ab 083f a6a6 693e
00000070: f657 6e40 44a9 4f40 655d 97c0 1968 963d
00000080: c01e 393d 9e2d bc3e 0674 233f b5b1 17bf
00000090: bf8c da3f 7ab1 c33f a588 613f 99f4 a640
000000a0: 1ba8 0840 8f99 133f 34f5 2cbf 06e9 26bf
000000b0: 2be6 0abf 9355 083f 57b9 bbbf 6841 3fbf
000000c0: 314e 2340 ba52 d93f 4005 f23f 706c 4e3f
000000d0: 29a9 983f b684 cf3e 76ee 7a3e 2684 853e
000000e0: 69d6 db3d 865c 2cbf b0d0 e6bf fac4 dbbf
000000f0: 2c3d f6bf 9a4c 203c 5955 0bbf 655f 2bbe
00000100: f416 22bf 7166 2a3f a832 533f 24ed 0f3f
00000110: 989a 7240 e1e0 1a40 df6e b43d 8331 163e
00000120: e4a7 1ebf d002 28be dbfe 133c 4409 1fbe
00000130: 4c24 ffbd aa22 a63e 8419 273f d882 cd3e
00000140: 13e0 cb3e db00 80be 160e 78be 0746 3bbd
00000150: f7d1 833f 2784 86bf 0359 8ebf a2c0 223e
00000160: f7f1 f33f cf19 3b3f ced3 3240 7fcb 1ebf
00000170: 5992 6cbf eeb0 c9be 0d6c f4be 6459 a33f
00000180: 43f2 1cc0 f22c 46c0 e5d8 8140 d5c2 b53f
00000190: e6ed 1240 a976 3c3f d1b6 c93e 29e9 3fbe
000001a0: 02b7 95bf c67c 2940 eb8b e3be e698 c1be
000001b0: 27ec 63bf 424e 993f 1a4e bc3f 58b7 6340
000001c0: d61b 0940 39c6 5fbf a35e 28bf ca08 413e
000001d0: c8df 873f 6706 a93e c513 f0be 5595 28bb
000001e0: f278 35bf 5ac4 4fc0 ec4c 173f 0d5d 9fbe
000001f0: f960 56bf e7c7 1a3e f77b e4be 835d 973e
00000200: 9db4 213f 1077 8e3f e148 ffbf ef65 353f
00000210: f803 ad3f e8b6 7d3e 0018 efbe 3ded 4dbf
00000220: c90b 56bf 34b5 f7be 2780 d63f 86cc 893e
00000230: 4cdf 0040 7286 583e 7c7a 203f 3e5d 94be
00000240: 4a61 67be a7a0 ce3f bf0b 63be f923 4b3e
00000250: a07d d3bf 65d2 9b3e f3ce f23f b188 203e
00000260: 9acf 8b3f d6a5 2abe d2f4 aabe db80 8a3f
00000270: 1eb6 293e 6db8 d63e 0939 7dbf 37b0 86bf
00000280: e03b 15c0 125a c5bf 18bd 35bf c9c6 35bf
00000290: 9a5f 92be ff7c 99be 0508 593f 4606 2d3f
000002a0: 27a1 e33e 873f aabf a714 8bc0 846f 32bd
000002b0: 29cc a8be 808b 113d afd0 323d 814d 153e
000002c0: 09d6 0040 534a 0f40 ab03 1940 037c 5240
000002d0: c8e3 00bd bc0b d53e 438b b83f 35cb 57be
000002e0: 9597 49be a5d7 393f f319 333f 688b 843f
000002f0: 7f32 9bbf fbeb 853f e1f9 23c0 ae57 12bf
00000300: ec93 7d3e a3aa bebd d0e4 e93d bc85 efbe
00000310: 943f 073f 28b7 943f 3839 4e40 1d2c 2d40
00000320: 2bc4 4440 efa0 da3d 3105 1b3e cc37 ab3d
00000330: fc28 66bd 840d db3e 6f72 eebf 6878 a7bf
00000340: 3f30 52bf 77a3 85bf 0d6a 2440 950c 92bc
00000350: b9b5 853e 37d4 5bbe ce7f 6fbe 6f0f 613f
00000360: 5b6a 97bf 9af4 d7bf aa9e f83f ff66 243f
00000370: cbeb d83f 2fc7 e53e 7dd2 3c3e 3b12 23be
00000380: 1467 49bf 21d8 ea3f f3d1 c7bf 7653 adbf
00000390: f242 e0bf 44b2 b6be ffb2 6840 4b0a 8b3d
000003a0: b74b f3be 4f94 8abe b58f e0bd 56d8 a33f
000003b0: 6c93 27c0 1267 c7bf 939f ff3f be26 9d3f
000003c0: 672d 98bf 2812 b4be 76b4 cb3e eea7 1d3f
000003d0: c4b7 6b3c dd82 0cbf 25ad 663f 50b5 063f
000003e0: 769e cf3f f143 0540 5835 ec3f 48a4 3b3f
000003f0: 19a7 883f 6d6e 533e 1e50 9d3e 7f60 513f
-2.1775413 -0.46952495 -0.780449 -0.17311732 0.22529303 -0.33869147 -0.19308554 -0.2834228
3.757352 2.3212175 0.328679 -1.1226225 -0.3580038 -0.17319468 -0.14246413 0.52778494
0.1882811 -0.26802337 2.1648376 0.190194 -3.101043 -0.41353565 -0.21498594 0.48593646
0.07635025 -1.7796718 0.5338632 0.22817478 3.7241187 3.2447062 -4.7301507 0.07344074
0.04519534 0.36753553 0.6384891 -0.59255534 1.7074202 1.5288537 0.8809913 5.217358
2.1352603 0.57656187 -0.6756165 -0.65199316 -0.5425746 0.53255576 -1.4665936 -0.74709177
2.5516474 1.6978371 1.8907852 0.8063421 1.1926624 0.40530938 0.24505028 0.26077384
0.10734255 -0.6732868 -1.8032436 -1.7169487 -1.9237418 0.009783888 -0.54427105 -0.16735609
-0.63316274 0.66562563 0.8249917 0.5622122 3.7906857 2.4199755 0.088102095 0.14667325
-0.6197493 -0.16407323 0.00903293 -0.15530878 -0.12458095 0.32448322 0.6527331 0.40138888
0.39819393 -0.25000653 -0.24224123 -0.04572108 1.0298451 -1.050908 -1.1120914 0.15893796
1.9058217 0.73086256 2.7941775 -0.6202926 -0.9241081 -0.393928 -0.47738686 1.2761655
-2.4522865 -3.0964932 4.0577264 1.4200083 2.2957702 0.7361856 0.3939729 -0.18741287
-1.1696475 2.6482406 -0.44442686 -0.37811965 -0.89032215 1.1977007 1.4711335 3.5580654
2.142324 -0.8741184 -0.65769404 0.18851009 1.0615168 0.33012697 -0.46890083 -0.0025723774
-0.7088767 -3.2463593 0.5910175 -0.3112568 -0.8374172 0.15115319 -0.44625828 0.2956353
0.6316622 1.1130085 -1.9944116 0.70858663 1.3516836 0.24776804 -0.46697998 -0.8044012
-0.8361173 -0.48380435 1.6757859 0.26913851 2.013629 0.21145037 0.62686896 -0.28977388
-0.22595707 1.6142777 -0.2217245 0.19837941 -1.6522713 0.30433956 1.8969406 0.15677144
1.092273 -0.16664824 -0.33389908 1.0820574 0.16573378 0.4193758 -0.98915154 -1.0522527
-2.3317795 -1.5418112 -0.7099166 -0.7100645 -0.28588563 -0.29978177 0.8477786 0.675877
0.44458887 -1.3300637 -4.346271 -0.04356338 -0.32968262 0.03553343 0.043656047 0.14580347
2.0130637 2.2389114 2.3908489 3.288819 -0.03146723 0.41610515 1.4417499 -0.21073611
-0.1968673 0.7259467 0.6996147 1.0355043 -1.2124785 1.046264 -2.5621264 -0.5716504
0.24763459 -0.0930989 0.11420596 -0.4678172 0.5283139 1.1618395 3.2222424 2.7058175
3.0744731 0.10675227 0.15138699 0.08360252 -0.05619143 0.4278375 -1.8628672 -1.308362
-0.8210487 -1.044051 2.5689728 -0.017828265 0.26115206 -0.21467672 -0.23388597 0.87914175
-1.1829332 -1.6871521 1.942342 0.6421966 1.6946958 0.44878528 0.1843967 -0.15924923
-0.7867291 1.8347207 -1.5610946 -1.3541095 -1.752043 -0.3568288 3.635925 0.067890726
-0.47518703 -0.27066275 -0.1096491 1.2800395 -2.618373 -1.557833 1.9970573 1.2277448
-1.1888856 -0.35170102 0.39786118 0.61584365 0.014387075 -0.5488718 0.9010795 0.5262041
1.6220233 2.0822718 1.8453779 0.7329755 1.0675994 0.20647593 0.30725187 0.81787866

xh/b f4 [128]
00000000: c194 9b3f 8dbf 643f 9a7c be3f 84ba 783f
00000010: 48e8 3a3f dd84 c6bf ae1e a43f 2eb2 433f
00000020: 1af8 3f3f bcc0 f93d c61e e9bd 7aba 20bf
00000030: ec45 543e 4c97 113f 5af4 86bf 4233 80bf
00000040: b8cd ab3e e98f 953f 90ab 31bf b93c 5f3f
00000050: e3d0 4ebf 4678 f43b a8d4 97bf 4294 98be
00000060: 6bab 813f 71fa d8bf 60ab 963f cb45 adbf
00000070: 43dd 453f 0695 ff3e d2df 083f bef5 603f
00000080: b5fc 4d3f c670 763f f9d5 ec3f b356 bf3f
00000090: e6e9 393f 8c25 c8bf 04c8 8cbf 3bb6 4abf
000000a0: f3ba c1bf b68e 373f a29b ac3e e0b8 9fbe
000000b0: 1e9a 06bf 1c85 25bf 91d2 edbe f09f 543e
000000c0: 4f16 09bf 2622 a23e d14d e2be 7a64 643f
000000d0: 967c 7bbf 910c 9abf 42f4 f9bf 7191 183e
000000e0: 1062 7d3f 7a78 863f 38a2 0d3e 4cbd ba3f
000000f0: 0ce2 8dbf ab8a 87bf 16fb 8d3f 57ab 44bf
00000100: 2d55 de3e 18c2 713f 5a8e 0740 4c62 0d3e
00000110: e5cb b23e 237c b5bd 83cf 67be 0cdf 393d
00000120: 6a48 54bc 8553 853e 8433 313f b4e5 293f
00000130: c667 1d3f 00f5 663f e544 7cbd 2867 943f
00000140: c124 77bf 0e48 a2bf 27e2 44be 26f4 76bf
00000150: 956b c83e f979 843e 38f7 ba3f fdbc e93b
00000160: fa3d 9cbf 6112 8bbf f703 453f acc9 d4bd
00000170: 5ac4 2b3f 1a65 b53e 73d4 93bf c99d 1b3f
00000180: a905 4bbf b7ca e6bc 9a5c adbf 8e41 cdbf
00000190: 0a3e a7bf 0719 8e3e 6ade 11be 6dc5 35bf
000001a0: a735 383f 109d 6dbf 130a 933e bd63 66bf
000001b0: f9b0 b3be 6d27 88bf 0672 953e 8b12 fabf
000001c0: abd4 e93f 25f6 a5bf 1c41 5e3f 8e65 7ebf
000001d0: bb9c f5be a44f d53f 93bf a63f b4a2 23bd
000001e0: 0b82 183f dcdb dbbc 3d62 22bd 76bb b03f
000001f0: 57ec 703e d24e c9bf 4a53 053e 2b47 f3bf
1.2154771 0.89354783 1.4881775 0.971596 0.73010683 -1.5509297 1.2821863 0.76443756
0.7498795 0.12194964 -0.11382823 -0.6278454 0.20729798 0.56871486 -1.054332 -1.0015643
0.33555388 1.1684543 -0.6940241 0.8720203 -0.80787486 0.007460627 -1.1861773 -0.29800612
1.0130438 -1.6951429 1.177105 -1.3536924 0.77290744 0.49918383 0.5346652 0.8787497
0.80463725 0.9626583 1.8502799 1.4948334 0.72622526 -1.5636458 -1.099854 -0.7918431
-1.5135177 0.71702135 0.33712488 -0.31195736 -0.52578914 -0.64656234 -0.46449712 0.20764136
-0.53549665 0.31666678 -0.44199994 0.89215815 -0.9823698 -1.2035085 -1.9527667 0.14899231
0.98977757 1.0505517 0.13831413 1.4589019 -1.1084609 -1.0589193 1.109225 -0.76823944
0.4342436 0.9443679 2.1180634 0.13807029 0.34921184 -0.08861568 -0.22637753 0.04537873
-0.012956718 0.26040283 0.6921923 0.66366124 0.6148647 0.9021759 -0.06158914 1.1593981
-0.96540457 -1.2678239 -0.19226895 -0.9646629 0.3914458 0.25874308 1.4606695 0.007133125
-1.2206414 -1.0864984 0.76959175 -0.10390028 0.67096484 0.35428697 -1.1549209 0.60787636
-0.7930551 -0.028172834 -1.3543885 -1.6035631 -1.3065808 0.2775347 -0.14245 -0.7100437
0.71956867 -0.92817783 0.28718624 -0.8999594 -0.35095957 -1.0637032 0.29188555 -1.9536909
1.8268026 -1.2965742 0.868181 -0.9937371 -0.47971138 1.6664929 1.3027214 -0.039950088
0.5957343 -0.026838236 -0.03964447 1.3807209 0.23527656 -1.5727179 0.13020054 -1.9006094
