code/python/slip_model/10_128_4_5_10_29900_140_use_train_slip_model.npz (npz, 498587 bytes, 7 tensors)

hh/lateral/W f4 [512, 128]
-5.399558 -1.6136357 -1.2563407 -2.8574646 1.538768 0.14895505 -0.6492054 -0.5402134
-0.8389867 -3.663348 -1.1522827 0.07462201 4.4846196 -3.8044152 2.13917 0.3502216
-0.51519424 -1.0008309 0.96233124 1.3833481 -0.9648821 0.7519952 -0.07374196 3.3070197
2.3968556 2.3626158 1.1353325 -3.6118193 1.5742218 2.6436775 -1.2378438 -1.6451592
2.3902345 -0.8844316 2.3185244 -1.8103353 -0.12212813 -2.0851943 -1.368776 -0.5043288
0.8562631 1.6157101 -4.558998 1.3373792 -0.12585905 -2.3570907 2.0362833 -4.9175377
-2.9759433 2.5148787 -0.90596867 0.7871779 1.7950838 1.4934713 0.9189732 -1.5741055
-1.0956427 2.0826464 -1.6209488 0.9739217 -0.31282312 3.2103157 -1.4258162 1.3872674
1.1607841 1.196861 2.136759 0.70875895 3.9960938 2.5083916 -1.426786 -1.0716264
-0.16590147 0.20728807 3.4867887 0.4711634 0.11808005 -4.2244716 3.9068475 0.86032635
1.156649 -1.0748606 0.6404235 0.6669092 4.689569 -0.5107226 -2.4058828 0.67489314
1.1698816 -1.1812869 -0.5481371 0.6581673 -2.485202 -0.049705863 -0.69221467 -1.0649449
-2.6766474 0.2670318 0.14271829 -0.13175601 1.9606161 -0.9649689 0.8634835 -0.90401995
-0.78213537 -0.31738842 6.012677 2.122538 -2.4144108 2.1116283 5.0538235 1.4729236
-0.5074558 1.1648968 2.2016933 0.046892073 -1.215422 -0.8144616 -1.3360627 0.07152745
-0.7794539 2.6958869 -0.3500709 -0.44326112 0.205527 -6.3142757 -0.27864382 3.6629121
2.5808375 1.3606012 -0.2010901 2.4097292 -0.9530612 -0.22676778 0.38677052 -0.8185715
-1.8433062 -1.8816772 0.37328157 3.9399073 2.079095 0.8063005 11.123818 -0.4183299
-2.7385159 0.104229696 2.1899204 0.75834054 -7.1318603 -1.7054652 1.3160514 -2.1493177
-2.6039214 -3.2999911 0.16958031 -0.19337937 2.591361 1.7385682 -0.7443864 2.6460454
-1.7502912 -0.14292923 2.9397242 -4.194868 0.663985 7.657517 0.06983327 -5.3097434
2.3188362 2.256305 -3.1583087 2.185414 -0.47131082 1.1125371 0.9440843 2.1260726
-0.96297926 -4.2346 -9.549857 -0.15142597 2.4884267 -0.56277454 -1.1794709 4.5084705
5.0875173 -1.4744786 -7.0407095 -2.5648444 1.5172572 0.186023 -2.0133982 0.4627523
1.0342932 1.1312217 -5.6569653 0.16574618 -2.5140827 0.035808023 -0.65867 2.949961
1.5706676 -0.9721216 1.1107597 1.4103537 -0.24917777 -0.58094543 -1.6807305 -2.6815166
1.0808053 -4.4867687 -5.4989653 -2.8174644 1.3155197 -0.13849914 3.5366185 2.1528203
2.5906596 -0.95867914 -5.833303 -3.6726456 4.389327 1.7716227 1.1257243 -0.44848
1.3417028 -0.57570374 3.2001317 0.5003253 -0.2487878 -2.3950763 0.37897453 -1.7812983
-4.707359 -1.7077531 0.22724223 -0.6443392 0.47469082 0.13446869 0.03903711 -0.8174377
-4.6085005 -0.36480868 -4.132656 4.202675 -3.1047087 0.038343493 4.084429 2.877129
-1.8085214 -1.9974912 0.82170373 0.94981796 5.1677413 -3.4020584 -3.6749244 3.9209332
00000000: 2ec9 acc0 9d8b cebf c6cf a0bf b3e0 36c0
00000010: 5af6 c43f ac87 183e 5332 26bf 6d4b 0abf
00000020: d5c7 56bf 4b74 6ac0 007e 93bf 6dd3 983d
00000030: 0182 8f40 8a7b 73c0 29e8 0840 3f50 b33e
00000040: c5e3 03bf 3a1b 80bf 575b 763f 8d11 b13f
00000050: 8302 77bf c282 403f 0606 97bd 36a6 5340
00000060: 1566 1940 1935 1740 9352 913f 0c28 67c0
00000070: 1a80 c93f 0332 2940 aa71 9ebf 9494 d2bf
00000080: 9af9 1840 1c6a 62bf b462 1440 11b9 e7bf
00000090: 501e fabd d373 05c0 0d34 afbf b11b 01bf
000000a0: 0f34 5b3f 97cf ce3f 50e3 91c0 3e2f ab3f
000000b0: 32e1 00be 93da 16c0 7752 0240 785c 9dc0
000000c0: db75 3ec0 c6f3 2040 90ed 67bf 7e84 493f
000000d0: 4ec5 e53f 112a bf3f d441 6b3f 4a7c c9bf
000000e0: 053e 8cbf 144a 0540 407b cfbf ef52 793f
000000f0: 5a2a a0be d075 4d40 2581 b6bf fa91 b13f
00000100: 9394 943f be32 993f a9c0 0840 3a71 353f
00000110: 00c0 7f40 7d89 2040 eca0 b6bf 0e2b 89bf
00000120: 13e2 29be 5343 543e 8c27 5f40 543c f13e
00000130: f4d3 f13d df2e 87c0 ca09 7a40 593e 5c3f
00000140: 130d 943f 0895 89bf cbf2 233f 90ba 2a3f
00000150: f310 9640 b7be 02bf fcf9 19c0 ccc5 2c3f
00000160: aebe 953f 6934 97bf b752 0cbf a77d 283f
00000170: 8d0d 1fc0 6098 4bbd fb34 31bf 1d50 88bf
00000180: 314e 2bc0 64b8 883e be24 123e 0ceb 06be
00000190: 78f5 fa3f 3408 77bf 410d 5d3f da6d 67bf
000001a0: 063a 48bf bc80 a2be da67 c040 aad7 0740
000001b0: b585 1ac0 eb24 0740 ecb8 a140 c388 bc3f
000001c0: a0e8 01bf 571b 953f 8be8 0c40 e711 403d
000001d0: f392 9bbf 8e80 50bf 1a04 abbf fc7c 923d
000001e0: 4a8a 47bf 6989 2c40 7e3c b3be 1ff3 e2be
000001f0: ab75 523e 8c0e cac0 67aa 8ebe 276d 6a40
00000200: 712c 2540 2e28 ae3f 90ea 4dbe 0139 1a40
00000210: d2fb 73bf d035 68be c906 c63e e78d 51bf
00000220: 75f1 ebbf ccda f0bf c31e bf3e 7127 7c40
00000230: e40f 0540 b669 4e3f 29fb 3141 562f d6be
00000240: d843 2fc0 6176 d53d a827 0c40 9b22 423f
00000250: 3338 e4c0 af4c dabf 5f74 a83f 6c8e 09c0
00000260: a6a6 26c0 0e33 53c0 76a6 2d3e 3e05 46be
00000270: dcd8 2540 6789 de3f 1b90 3ebf cf58 2940
00000280: 8b09 e0bf 0a5c 12be 7124 3c40 5c3c 86c0
00000290: ecfa 293f 610a f540 bf04 8f3d 6be9 a9c0
000002a0: d067 1440 4d67 1040 bb21 4ac0 d3dd 0b40
000002b0: a74f f1be 9e67 8e3f 82af 713f 9311 0840
000002c0: cf85 76bf d881 87c0 37cc 18c1 690f 1bbe
000002d0: 6242 1f40 fe11 10bf e7f8 96bf 6445 9040
000002e0: f1cc a240 b7bb bcbf 7e4d e1c0 6926 24c0
000002f0: 7c35 c23f d07c 3e3e 84db 00c0 dfed ec3e
00000300: b863 843f dfcb 903f dc05 b5c0 5eb9 293e
00000310: bbe6 20c0 6fab 123d 999e 28bf 29cc 3c40
00000320: a30b c93f f6dc 78bf 602d 8e3f 7886 b43f
00000330: 7528 7fbe d7b8 14bf 2d22 d7bf f89d 2bc0
00000340: d457 8a3f 9c93 8fc0 86f7 afc0 5651 34c0
00000350: f362 a83f b8d2 0dbe f557 6240 cfc7 0940
00000360: 5ecd 2540 ff6b 75bf 6baa bac0 a00c 6bc0
00000370: 5e75 8c40 88c4 e23f bc17 903f 2c9f e5be
00000380: ebbc ab3f 5261 13bf f5ce 4c40 5215 003f
00000390: 3bc2 7ebe ee48 19c0 f308 c23e 9501 e4bf
000003a0: afa2 96c0 a797 dabf 30b2 683e 6af3 24bf
000003b0: ad0a f33e 29b2 093e 60e5 1f3d 9943 51bf
000003c0: d678 93c0 34c8 babe b83e 84c0 507c 8640
000003d0: 8cb3 46c0 110e 1d3d a4b3 8240 e222 3840
000003e0: a17d e7bf cbad ffbf 2d5b 523f 4527 733f
000003f0: 235e a540 53bb 59c0 f631 6bc0 92f0 7a40

hh/upward/W f4 [512, 128]
1.12556 0.91024065 1.1243894 1.2811767 -0.46824583 -0.748132 0.5299416 -0.5693444
-0.2675911 -0.3647565 -0.41631123 -1.2871968 -3.484842 0.5933275 -1.412751 0.063805096
0.8560399 2.2110255 1.2612091 -0.39684808 -0.61458015 -0.265017 -1.8506728 -0.7158417
1.5833526 0.17043291 -0.047415074 -1.2316122 1.1135004 0.74976164 1.6043864 -0.2216023
0.08114634 -0.39178282 -1.4688303 0.42024258 -0.82886225 -0.4997815 0.23320554 0.049268525
-0.87302154 -0.64175713 2.2459104 0.5725656 0.28972065 -1.9116201 -0.44128627 1.0155902
-0.79277194 1.9215639 -0.11358233 0.6680671 0.47480422 0.32306993 2.2297833 -1.3806477
0.21059626 0.21715268 -0.43353117 0.32031426 -1.7149239 -0.7692163 1.1684815 -2.1892483
1.0618025 1.0249472 -3.263724 -0.34089112 0.6011579 0.44012216 0.25069436 1.7692577
-0.41467753 0.25712278 0.3973595 0.53853166 -1.9719844 -1.0576929 0.24189697 -0.73447984
0.5312541 1.8704014 0.5353501 -0.91516834 -1.4250025 -1.5428087 1.0020285 0.8538263
-1.6291007 -0.32006297 0.18844874 -1.1085324 2.1534617 -1.366748 -1.2533963 -0.16244571
-0.6127989 -1.2425948 0.27018294 0.28194386 0.39695516 -2.6987453 0.08897504 0.07923405
-0.52872074 -0.50638497 -2.3332577 -1.48389 0.048115604 -0.22328272 -0.37173486 -0.85839623
-0.45784876 -0.10583333 1.040309 0.8766032 1.7461787 0.4564668 0.5432515 -0.0015735318
2.2999787 1.3132077 -0.5241606 -0.104146 4.2148595 -1.150804 2.1069405 -1.3356568
-2.348577 -1.4045496 -2.0620914 -3.504957 -1.3906223 0.8181826 -4.2361135 -0.7806594
-0.7193389 -1.0213115 1.4343041 -1.8190528 5.684993 3.1618223 3.5912275 2.0950265
-1.290668 -1.9980967 -0.73162454 -0.087202534 0.7174226 0.4671079 2.8231902 1.7151917
-1.554878 1.6985587 -0.8270335 0.8273717 0.9617278 -2.3553202 -2.986673 -1.2557842
-0.35241964 -2.2656713 -4.4556484 -2.0054593 -0.97682726 2.2301621 0.7330351 3.7872217
3.8309903 -0.5694596 -3.1232326 -0.880796 -1.4418837 1.0374856 0.10186236 -0.90278554
1.2200253 0.58559674 0.5377664 -0.34465688 0.2986295 0.6220951 0.4309305 -0.8777017
-0.71136945 -0.4608665 -0.7370243 -2.2513473 2.3345542 4.0769777 0.10369988 -1.0213214
0.9170787 -0.87772894 1.1589631 -0.5486937 -0.3439066 -1.7267395 -0.52759665 -0.14337115
0.86687857 0.7210761 -0.75035745 -0.72875106 0.98973167 -0.74499816 1.3338689 -2.1614685
3.2890027 0.41241282 -1.9854866 2.2445507 2.643977 0.46328807 -4.222985 1.9268361
4.8376513 -3.5980368 -0.83035916 0.38837105 -1.8504565 -1.6116701 0.9798044 -0.81018925
2.6379657 1.0647824 1.195091 7.49727 4.869957 0.19839557 -1.9270048 2.0701716
-0.44968805 0.5852021 4.597379 1.9025769 2.390472 4.3268957 0.75225806 3.3986802
1.8700496 3.2980363 -2.402544 -0.5422218 -1.7418857 -3.7095933 -3.7327178 -0.049652286
-0.9294732 -0.17555553 -0.07510952 -2.6718848 -2.331971 1.9758759 -1.4926059 1.3898746
00000000: 5a12 903f 8805 693f feeb 8f3f 99fd a33f
00000010: ebbd efbe 9485 3fbf 41aa 073f 8ec0 11bf
00000020: b301 89be 5dc1 babe bf26 d5be ddc2 a4bf
00000030: a707 5fc0 50e4 173f 06d5 b4bf 3fac 823d
00000040: 6e25 5b3f 7181 0d40 4d6f a13f ac2f cbbe
00000050: 2055 1dbf 4fb0 87be d9e2 ecbf 6741 37bf
00000060: 4cab ca3f f785 2e3e 4f36 42bd 78a5 9dbf
00000070: 2e87 8e3f 61f0 3f3f 895c cd3f b7eb 62be
00000080: 0d30 a63d c297 c8be a202 bcbf 092a d73e
00000090: 5130 54bf 5ce3 ffbe 6fcd 6e3e cbcd 493d
000000a0: 577e 5fbf 324a 24bf ffbc 0f40 a993 123f
000000b0: 4456 943e f8af f4bf 46f0 e1be dcfe 813f
000000c0: 1af3 4abf cef5 f53f da9d e8bd 7206 2b3f
000000d0: 8a19 f33e 6c69 a53e c5b4 0e40 10b9 b0bf
000000e0: 8ca6 573e 465d 5e3e ccf7 ddbe 3b00 a43e
000000f0: a082 dbbf 5ceb 44bf cd90 953f a51c 0cc0
00000100: 25e9 873f 7831 833f dbe0 50c0 4889 aebe
00000110: 7ce5 193f b157 e13e 035b 803e 0977 e23f
00000120: 9d50 d4be 99a5 833e b472 cb3e 36dd 093f
00000130: fc69 fcbf 7b62 87bf d7b3 773e df06 3cbf
00000140: 4500 083f 5069 ef3f b40c 093f 7948 6abf
00000150: 7b66 b6bf c17a c5bf 7842 803f 5c94 5a3f
00000160: 5f86 d0bf 4bdf a3be b5f8 403e 64e4 8dbf
00000170: 51d2 0940 99f1 aebf 4a6f a0bf 2b58 26be
00000180: 64e0 1cbf 590d 9fbf 6b55 8a3e f25a 903e
00000190: b53d cb3e 3eb8 2cc0 8c38 b63d 7645 a23d
000001a0: 3e5a 07bf 72a2 01bf 1854 15c0 1cf0 bdbf
000001b0: de14 453d 3aa4 64be 0854 bebe dbbf 5bbf
000001c0: 276b eabe 25bf d8bd d828 853f 1169 603f
000001d0: c982 df3f 04b6 e93e 8812 0b3f f73e ceba
000001e0: da32 1340 3117 a83f 642f 06bf 804a d5bd
000001f0: 21e0 8640 8c4d 93bf 1dd8 0640 cdf6 aabf
00000200: 164f 16c0 48c8 b3bf 4ef9 03c0 3751 60c0
00000210: e9ff b1bf 6a74 513f 3e8e 87c0 4bd9 47bf
00000220: 9826 38bf 56ba 82bf 4797 b73f b9d6 e8bf
00000230: 76eb b540 4c5b 4a40 acd6 6540 ea14 0640
00000240: 9c34 a5bf a2c1 ffbf bf4b 3bbf 3e97 b2bd
00000250: 02a9 373f c428 ef3e 26af 3440 678b db3f
00000260: 3e06 c7bf 5f6a d93f 78b8 53bf a2ce 533f
00000270: cb33 763f 91bd 16c0 a725 3fc0 89bd a0bf
00000280: 5970 b4be c200 11c0 ac94 8ec0 7259 00c0
00000290: 5a11 7abf faba 0e40 30a8 3b3f d761 7240
000002a0: f22e 7540 1bc8 11bf 0be3 47c0 d97b 61bf
000002b0: a58f b8bf 54cc 843f 379d d03d f41c 67bf
000002c0: ca29 9c3f abe9 153f 0fab 093f de76 b0be
000002d0: f7e5 983e a041 1f3f eca2 dc3e 0fb1 60bf
000002e0: 4f1c 36bf b2f6 ebbe a0ad 3cbf 1316 10c0
000002f0: 5669 1540 9a76 8240 9a60 d43d a9ba 82bf
00000300: abc5 6a3f d8b2 60bf e758 943f 3177 0cbf
00000310: 8714 b0be cd05 ddbf 9310 07bf e3cf 12be
00000320: c1eb 5d3f 7198 383f 6d17 40bf 6e8f 3abf
00000330: 0e5f 7d3f 33b8 3ebf 37bc aa3f 8055 0ac0
00000340: 057f 5240 c627 d33e 6d24 febf b8a6 0f40
00000350: eb36 2940 1834 ed3e b122 87c0 91a2 f63f
00000360: 0ace 9a40 3c46 66c0 6b92 54bf 92d8 c63e
00000370: c2db ecbf 354b cebf 76d4 7a3f 9068 4fbf
00000380: 6ed4 2840 ca4a 883f bef8 983f a3e9 ef40
00000390: b0d6 9b40 3528 4b3e 18a8 f6bf b17d 0440
000003a0: 833d e6be cecf 153f bb1d 9340 a487 f33f
000003b0: 7efd 1840 ee75 8a40 fc93 403f fa83 5940
000003c0: c95d ef3f 0713 5340 48c3 19c0 0ccf 0abf
000003d0: 1cf6 debf fa69 6dc0 d9e4 6ec0 3260 4bbd
000003e0: f5f1 6dbf d4c4 33be 05d3 99bd 2900 2bc0
000003f0: 033f 15c0 80e9 fc3f b60d bfbf 69e7 b13f

hh/upward/b f4 [512]
-3.4538505 4.180995 0.22661316 2.954028 0.20767076 -0.60604364 -0.36617893 1.4018135
-0.39009663 0.52106655 -0.2388214 -1.506524 -1.9701359 -1.4855232 0.38480332 0.9302119
2.7627623 -2.5646415 0.92715156 4.419464 -0.30764922 -1.6358461 1.3056328 -0.26395738
-0.2940038 -2.4420924 1.7121589 0.055348195 -1.46042 -2.6581073 1.6371735 -1.1846052
-1.8604138 -1.9750236 -0.0922536 -2.7870152 -0.74049985 0.06716576 -0.18601717 -0.03229829
-1.2866199 -1.7050226 -1.1251893 -2.410571 2.3728566 3.9873257 -1.0168747 -0.55795896
0.09638151 -8.51636 -4.8744855 -5.287866 -1.6768218 -0.037573256 0.08009663 0.2687714
1.5550915 -0.40130842 1.6011578 -0.1098748 -0.6161169 0.120968215 -0.17458223 -0.28394526
-3.4825912 3.8929954 -0.8670382 3.3292031 0.37554488 -2.5055444 0.07074208 -3.9975047
-1.4731712 -1.3364486 0.46867856 -4.3878455 0.6865973 1.5720378 -0.28059614 -3.327509
-2.1340942 0.46709478 0.89415747 -0.14611469 -0.24366331 -0.45845664 0.34585553 -1.6933299
0.42843574 -1.7240245 0.40739036 -1.7873203 -1.5843912 -1.3594545 -0.001665925 -2.3235781
-1.5547595 -1.6009351 0.9340846 -2.2792826 0.8116928 -2.3907857 0.95885926 1.0742639
0.35119644 -0.09253248 -0.877747 -4.621004 -2.3885255 -1.5551049 -1.1817689 -5.767229
-0.8633272 -0.6070616 -0.95562077 1.493023 -2.0636942 -4.706897 1.188181 0.89775795
2.338029 -0.2852339 -0.56821215 0.18926977 0.6003828 -1.6098652 0.06968042 0.16258548
-0.38348413 -1.7330934 -0.48555285 -3.6885602 1.718204 0.044844188 0.74393094 -5.692
-1.8856043 -0.80137503 -0.61509824 -1.999932 -4.6057897 1.9592036 -0.6885897 1.5903767
0.25131297 -1.9996213 1.284482 -3.8443396 1.4547114 1.6957315 1.2573488 1.5166372
-2.0444434 -0.05541931 0.4760214 0.9356509 3.0038307 2.5974584 0.5104284 -1.1287837
-2.4951403 3.388213 -1.2326868 -0.29598868 2.1845946 0.7502403 -0.040518835 3.0241754
-0.29953423 -0.7958068 -0.253698 -6.405393 -0.055093486 1.3589046 1.2637427 1.8439105
2.045795 0.616904 -0.196964 0.9828327 -1.8554552 0.1780584 -0.4920721 -1.2761545
-0.006264743 -0.9677787 1.3046991 -5.972091 1.1372541 -1.4278122 1.9400939 -0.021526093
1.5548755 0.0839771 0.56009966 -1.8070724 -2.1988487 2.002716 3.819747 4.969891
-1.4859016 -1.238961 5.1919265 2.4652174 0.33839604 -4.5652957 -1.0644686 -3.9309127
-3.0637064 -5.0429153 -2.457137 -2.4296622 -1.2310473 0.24992475 0.89268357 0.3124653
-1.2675978 -0.9558121 -0.098192655 -1.3072541 2.2184095 1.6717051 0.55835855 -0.5494665
-0.111570194 0.09982752 -0.33361384 -1.3112228 -1.1340728 -0.70319545 1.0839753 0.7017606
-1.0786778 0.37383816 1.7778274 -3.7528832 1.1913906 -2.2343209 -0.17814298 -3.663583
-0.15634213 -5.779877 1.4384257 -6.833641 -0.96672547 -0.093946785 -0.9479436 -5.719773
0.26256183 0.8679103 0.4134081 -0.5844959 -1.4501699 -0.40509415 -0.18663253 -2.0738156
00000000: e30b 5dc0 b6ca 8540 480d 683e cb0e 3d40
00000010: a5a7 543e ad25 1bbf ce7b bbbe a06e b33f
00000020: bfba c7be 9e64 053f 998d 74be c7d5 c0bf
00000030: 6a2d fcbf a025 bebf f104 c53e 5e22 6e3f
00000040: 19d1 3040 1623 24c0 ce59 6d3f 406c 8d40
00000050: 3384 9dbe 6863 d1bf fa1e a73f 6c25 87be
00000060: ab87 96be 3e4b 1cc0 0628 db3f cab4 623d
00000070: 0bef babf 6e1e 2ac0 e78e d13f 25a1 97bf
00000080: 0a22 eebf 93cd fcbf 75ef bcbd 755e 32c0
00000090: 6691 3dbf 348e 893d 497b 3ebe 364b 04bd
000000a0: f6af a4bf 2e3e dabf 3406 90bf cc46 1ac0
000000b0: e2dc 1740 5830 7f40 f328 82bf 66d6 0ebf
000000c0: ab63 c53d 0343 08c1 c9fb 9bc0 3336 a9c0
000000d0: 19a2 d6bf 6ae6 19bd b409 a43d 689c 893e
000000e0: 3d0d c73f 4c78 cdbe bdf2 cc3f 0a06 e1bd
000000f0: d6b9 1dbf 2fbe f73d afc5 32be 4661 91be
00000100: c6e2 5ec0 d626 7940 37f6 5dbf aa11 5540
00000110: 6b47 c03e d75a 20c0 39e1 903d 1ed7 7fc0
00000120: e090 bcbf bf10 abbf a3f6 ef3e 3b69 8cc0
00000130: d7c4 2f3f 8938 c93f 4caa 8fbe e8f5 54c0
00000140: 0095 08c0 0c27 ef3e 81e7 643f 179f 15be
00000150: e082 79be d4ba eabe fa13 b13e 09bf d8bf
00000160: ee5b db3e d6ac dcbf 7895 d03e e9c6 e4bf
00000170: 55cd cabf 9b02 aebf 2b5b daba 81b5 14c0
00000180: 5c02 c7bf 71eb ccbf 2b20 6f3f c4df 11c0
00000190: 19cb 4f3f a202 19c0 cd77 753f 7b81 893f
000001a0: 05d0 b33e ab81 bdbd 07b4 60bf 44df 93c0
000001b0: 9add 18c0 ad0d c7bf 3444 97bf 248d b8c0
000001c0: 0303 5dbf 6468 1bbf 90a3 74bf 611b bf3f
000001d0: 9113 04c0 e69e 96c0 5116 983f 77d3 653f
000001e0: 44a2 1540 2e0a 92be 5a76 11bf efcf 413e
000001f0: b0b2 193f 1010 cebf 9cb4 8e3d cf7c 263e
00000200: 0858 c4be 01d6 ddbf 629a f8be 5f11 6cc0
00000210: 1cee db3f 8aae 373d 4272 3e3f dd24 b6c0
00000220: 7b5b f1bf ea26 4dbf 1477 1dbf c6fd ffbf
00000230: a162 93c0 2fc7 fa3f 6a47 30bf 7791 cb3f
00000240: 18ac 803e 97f3 ffbf e869 a43f a909 76c0
00000250: fc33 ba3f bb0d d93f cef0 a03f 2b21 c23f
00000260: 29d8 02c0 5cff 62bd 14b9 f33e d186 6f3f
00000270: c33e 4040 c23c 2640 70ab 023f fc7b 90bf
00000280: 61b0 1fc0 7bd8 5840 aec8 9dbf d48b 97be
00000290: 66d0 0b40 c00f 403f 14f7 25bd 178c 4140
000002a0: 8d5c 99be ffb9 4bbf b4e4 81be fbf8 ccc0
000002b0: b5a9 61bd 96f0 ad3f 52c2 a13f 4205 ec3f
000002c0: 4eee 0240 6ced 1d3f eeb0 49be ec9a 7b3f
000002d0: 8e7f edbf f154 363e e0f0 fbbe 0859 a3bf
000002e0: 7948 cdbb 58c0 77bf 6100 a73f 5f1b bfc0
000002f0: 8b91 913f 8dc2 b6bf ff54 f83f 7d57 b0bc
00000300: 2906 c73f 30fc ab3d b162 0f3f 264e e7bf
00000310: f0b9 0cc0 802c 0040 bc76 7440 5909 9f40
00000320: 0632 bebf 4696 9ebf 4324 a640 1fc6 1d40
00000330: 3f42 ad3e e716 92c0 8240 88bf 1394 7bc0
00000340: c413 44c0 905f a1c0 bc41 1dc0 967f 1bc0
00000350: f592 9dbf 46ec 7f3e e986 643f 74fb 9f3e
00000360: a540 a2bf 1ab0 74bf 3b19 c9bd 1a54 a7bf
00000370: 6cfa 0d40 6ffa d53f 96f0 0e3f d6a9 0cbf
00000380: ea7e e4bd 5f72 cc3d 6fcf aabe 26d6 a7bf
00000390: 4c29 91bf 9e04 34bf b4bf 8a3f 95a6 333f
000003a0: 1d12 8abf b767 bf3e d98f e33f 3d2f 70c0
000003b0: 7d7f 983f 1dff 0ec0 1d6b 36be 2578 6ac0
000003c0: 2718 20be c1f4 b8c0 551e b83f 30ad dac0
000003d0: 527b 77bf 2c67 c0bd 6fac 72bf 6108 b7c0
000003e0: 816e 863e 5f2f 5e3f 3aaa d33e 86a1 15bf
000003f0: 2b9f b9bf 8068 cfbe 991c 3fbe 65b9 04c0

hy/W f4 [4, 128]
-0.04044767 -0.18289308 -0.06753938 0.05929113 0.026399173 -0.10861048 0.059127938 0.20814537
-0.32292295 0.07253049 -0.11329787 0.036689233 0.15446714 -0.0015169757 0.04101578 -0.072411925
-0.025190044 0.05828999 -0.13866797 0.137283 -0.0035483865 5.6063547 -0.048558936 -0.040504284
-0.04144115 -0.07678846 0.008669662 0.569249 0.023808192 -0.12503281 0.036117468 -0.035242483
-0.0568018 -0.07276142 0.0643355 -0.039643526 -1.0714455 -0.041127056 0.1250205 0.2604435
-0.022307772 -0.105675995 0.07942889 0.06813242 0.11940736 0.04817169 0.22682673 -0.104176216
0.064095594 -0.031955753 -0.07022983 -0.027852915 0.40215254 -0.3202487 0.08620906 0.08026224
-0.0029756806 -0.11922951 -0.12318282 -0.026606916 0.3336521 -0.15409407 0.3052189 0.26357767
0.6541163 -0.062232506 0.028069409 0.17008598 -0.06099289 -0.009957519 0.06481913 -2.5260768
-4.079004 0.14316845 0.15504889 -0.04225321 0.2419577 0.024753155 -0.10865237 -0.06960562
-0.104153425 0.034983095 0.37131977 1.3293812 -0.1088797 0.1607967 0.15822385 0.019688863
0.11070383 0.0169358 -0.27568936 -0.07529823 -0.05892152 -0.05363452 -0.2938939 -0.010422217
0.079563394 0.11920063 -0.027242504 -1.7838304 -0.08176118 -0.003041244 0.063353054 0.24225374
-0.01630257 0.07102185 0.14207226 0.27770337 0.33856633 -0.05416765 -0.030095993 0.082562506
-0.12694748 -0.009005275 -0.1459502 0.14810693 0.002305382 -0.09780771 -0.30605635 -2.035149
0.1638036 -0.06489621 3.9321191 -0.058550123 0.0051923017 0.050536644 -0.54760724 -0.13345362
-0.029606266 -0.2721984 -0.006528916 0.07209957 0.041233122 0.13003856 0.064502746 0.53383726
-0.12819597 0.10252785 -0.037817854 0.023369754 0.25777173 -0.039271396 0.027817281 -0.062578626
-0.04253496 0.18092103 -0.24735646 0.13528194 -0.008496293 5.7733407 -0.093896545 0.0026530952
-0.08212899 -0.03258054 -0.19268174 0.5706424 0.048959836 0.0222651 0.11939002 -0.058528632
-0.119018406 0.02579798 0.06400081 -0.038983963 -1.1610032 -0.040790774 0.49823233 0.2665393
-0.0035943699 -0.09198817 0.07159876 0.05529965 0.0048712753 0.089354545 0.206062 -0.16092408
0.051905297 -0.023220401 -0.10086075 -0.22718784 0.6127475 -0.30937213 0.032005735 0.06268503
-0.0021055473 -0.1378022 -0.12318641 -0.10329412 0.26381814 -0.16075684 0.31618208 -0.02668638
0.66589016 -0.07215538 0.042754695 0.11728126 -0.054117613 0.06796104 0.13995244 -2.612178
-4.19772 0.12806024 0.16539796 -0.05902842 0.27491626 0.0096144 -0.14932315 -0.039032973
-0.04736644 -0.0063548028 0.4196645 1.4171164 -0.04903406 0.11981272 0.12568696 0.006125533
0.07222506 0.03624118 -0.27616215 -0.028104736 -0.03063116 -0.049857404 -0.31542853 -0.0012621349
0.07106117 0.49647635 -0.17078537 -1.698727 -0.0038193923 -0.0094981855 0.093605906 0.25076038
-0.030288225 0.04762621 0.037230346 0.07776428 0.3215271 -0.062036052 -0.071165614 -0.039939083
-0.13460778 -0.029647311 -0.15123782 0.2288539 0.002416216 -0.14272591 -1.2693783 -2.0014107
0.1913801 -0.11416586 4.877165 -0.1326999 0.016235648 0.047163125 -0.65706325 -0.04024518
00000000: 75ac 25bd 5348 3bbe 1652 8abd 42db 723d
00000010: 1443 d83c 2c6f debd 2330 723d 0f24 553e
00000020: 2856 a5be de8a 943d b708 e8bd 7347 163d
00000030: a22c 1e3e 42d5 c6ba 2a00 283d b44c 94bd
00000040: 5a5b cebc 7cc1 6e3d fafe 0dbe ea93 0c3e
00000050: 0c8c 68bb 4267 b340 bce5 46bd d2e7 25bd
00000060: 32be 29bd 4543 9dbd 330b 0e3c 4dba 113f
00000070: 6609 c33c 9a08 00be e9ef 133d 6c5a 10bd
00000080: 01a9 68bd f003 95bd 55c2 833d 4061 22bd
00000090: 2025 89bf d874 28bd 6005 003e da58 853e
000000a0: cabe b6bc a86c d8bd 9dab a23d 0389 8b3d
000000b0: d98b f43d ae4f 453d 4445 683e 575a d5bd
000000c0: 8d44 833d 09e4 02bd a8d4 8fbd cc2b e4bc
000000d0: f0e6 cd3e a3f7 a3be 608e b03d 8760 a43d
000000e0: a303 43bb 9a2e f4bd 4647 fcbd bff6 d9bc
000000f0: 73d4 aa3e d6ca 1dbe a745 9c3e a7f3 863e
00000100: 2a74 273f 83e7 7ebd d1f1 e53c 052b 2e3e
00000110: aed3 79bd dd24 23bc e4bf 843d 3eab 21c0
00000120: 3387 82c0 c09a 123e 23c5 1e3e b411 2dbd
00000130: c2c3 773e 21c7 ca3c 2285 debd 648d 8ebd
00000140: 644e d5bd 6f4a 0f3d a01d be3e 2a29 aa3f
00000150: 52fc debd e4a7 243e 6f05 223e 8a4a a13c
00000160: b1b8 e23d f2bc 8a3c 2827 8dbe f535 9abd
00000170: b157 71bd dfaf 5bbd 4379 96be f2c1 2abc
00000180: 22f2 a23d 761f f43d ac2b dfbc 8e54 e4bf
00000190: 6872 a7bd 9c4f 47bb 3fbf 813d 5d11 783e
000001a0: f88c 85bc e773 913d 647b 113e 232f 8e3e
000001b0: 9158 ad3e e6de 5dbd df8b f6bc 8816 a93d
000001c0: 85fe 01be dc8a 13bc f873 15be 58a9 173e
000001d0: e415 173b 694f c8bd 6bb3 9cbe e23f 02c0
000001e0: 22bc 273e 4ee8 84bd d7a7 7b40 41d2 6fbd
000001f0: 2f24 aa3b 83ff 4e3d fd2f 0cbf 11a8 08be
00000200: d788 f2bc 975d 8bbe 84f0 d5bb f0a8 933d
00000210: 10e4 283d d428 053e 041a 843d 8fa9 083f
00000220: ce45 03be 1ffa d13d e5e6 1abd ed71 bf3c
00000230: a8fa 833e 0bdb 20bd 11e1 e33c 3929 80bd
00000240: 2339 2ebd 5d43 393e 034b 7dbe 5987 0a3e
00000250: 0934 0bbc 35bf b840 d54c c0bd 8ddf 2d3b
00000260: 3e33 a8bd 2c73 05bd 5d4e 45be 9f15 123f
00000270: 1c8a 483d 4d65 b63c c182 f43d b8bb 6fbd
00000280: ecbf f3bd 4956 d33c db12 833d a6ad 1fbd
00000290: c19b 94bf 3a14 27bd 4f18 ff3e d777 883e
000002a0: 858f 6bbb 4b64 bcbd 5fa2 923d e381 623d
000002b0: 389f 9f3b 84ff b63d eb01 533e 48c9 24be
000002c0: a69a 543d b638 bebc 1590 cebd eea3 68be
000002d0: 05dd 1c3f 0666 9ebe 7218 033d 0261 803d
000002e0: 39fd 09bb 051c 0dbe 2849 fcbd de8b d3bd
000002f0: 2c13 873e 719d 24be 9ee2 a13e 659d dabc
00000300: c777 2a3f 33c6 93bd 8c1f 2f3d 2831 f03d
00000310: 6eaa 5dbd 282f 8b3d b14f 0f3e ed2d 27c0
00000320: b953 86c0 3922 033e 155e 293e c9c7 71bd
00000330: d3c1 8c3e b785 1d3c 2be8 18be 0ae1 1fbd
00000340: 5003 42bd f33b d0bb 44de d63e 1264 b53f
00000350: f0d7 48bd 5f60 f53d 15b4 003e b2b8 c83b
00000360: bbea 933d a271 143d 2065 8dbe e73b e6bc
00000370: 33ee fabc 4737 4cbd d97f a1be 386e a5ba
00000380: 8588 913d 2632 fe3e 5ce2 2ebe e36f d9bf
00000390: c54e 7abb 479e 1bbc 74b4 bf3d aa63 803e
000003a0: 031f f8bc b313 433d d97e 183d e142 9f3d
000003b0: 339f a43e 8419 7ebd 47bf 91bd 2a97 23bd
000003c0: 9fd6 09be ebde f2bc 16de 1abe ad58 6a3e
000003d0: 6159 1e3b be26 12be fd7a a2bf 1d17 00c0
000003e0: 25f9 433e cacf e9bd bc11 9c40 7ce2 07be
000003f0: 9f00 853c 1f2e 413d 4c35 28bf 21d8 24bd

hy/b f4 [4]
0.07566752 0.050759744 0.06981969 0.06675857
00000000: 93f7 9a3d 73e9 4f3d a0fd 8e3d b8b8 883d

xh/W f4 [128, 10]
-2.3845685 -0.32492676 -1.0082266 -0.06384883 0.45767123 -0.21442328 -0.4989585 -0.5958611
4.752401 2.9315357 0.5648074 -0.70868015 -0.045837615 0.17270862 -0.4211254 0.3759471
0.20506324 -0.28462905 2.892646 0.19979353 -2.7630155 -0.37465113 -0.6115611 0.93826777
0.33524194 -1.4560814 0.8718173 0.52241075 4.6577954 3.8611653 -5.2457204 0.5277037
-0.33008924 0.48761538 0.5201421 -0.8448485 2.0210094 1.7863644 1.2266945 6.428276
2.3844283 -0.10688549 -0.83040285 -0.6489892 -0.7457058 0.39500374 -2.0585551 -1.4386456
2.5561688 1.6009012 2.019526 1.1430537 1.1612597 0.80408365 0.11274398 0.33795676
0.28511626 -0.5546108 -1.7999525 -2.3963902 -1.7251157 -0.50393903 -0.8577392 -0.004427284
-0.57559156 0.94899195 1.1495621 0.9331464 4.8098817 3.0589478 0.40535986 -0.15360014
-0.7463569 -0.0008493983 0.32643154 0.01003913 -0.015109624 0.51049906 1.0712944 0.859107
0.83169997 -0.3772574 -0.15263897 0.036686495 1.2072848 -1.211684 -1.4216834 0.026584398
2.6299381 0.8698292 3.424266 -0.98986995 -1.1204759 -0.48516333 -0.76270425 1.6122036
-2.853216 -3.6412966 4.5466475 1.218314 2.6120172 0.14996426 0.20600167 0.2958596
-1.5593519 2.9133205 -0.54024225 -0.42269647 -0.6535536 2.1948185 0.4820675 3.2666624
3.0541406 -0.6608976 -1.457723 -0.79208446 0.12685294 -0.4230463 -0.8977564 -0.7019179
-0.3438166 -3.2898836 1.0672739 0.1993365 -0.87176937 0.034217168 -0.3507314 0.45095918
1.3343592 1.9045502 -1.6935358 1.3621883 0.8927842 0.39424303 -0.25457197 -0.6898203
-0.90116686 -0.46399918 3.4563842 1.1698562 1.4955475 0.30668718 0.91669923 0.10826278
-1.0385525 0.995062 -0.38150647 0.18778056 -1.6913681 0.5726482 1.4879733 0.04288945
0.6656291 -0.30363563 -0.8654502 0.50246906 0.049092874 0.4529362 -0.79846346 -1.3945036
-2.2748888 -1.6473122 -1.0522346 -0.23056261 -0.81805944 -0.77078706 1.20226 1.0387211
0.34196484 -1.688173 -5.004714 -0.16570255 -0.37162268 0.4597342 -0.20069064 -0.24394208
2.3778715 2.6156516 3.095844 3.9688377 -0.23197706 -0.49659923 1.7812372 0.5165128
-0.49549782 0.38279685 0.783346 1.2058429 -1.0467446 1.6646297 -2.6159053 -0.22416376
0.12945884 0.15811701 0.55802643 -0.14662912 0.75051963 1.4726727 4.4809327 3.4962113
3.7201364 1.1143932 0.3041049 -0.5020027 0.50075716 1.1429728 -2.2680082 -1.6849598
-0.58848244 -1.0485886 3.4785197 0.53496283 0.6849858 -0.72707707 -0.7238982 0.90172076
-1.5239542 -2.102457 2.515179 0.64120764 1.0856463 -0.07684907 0.37139803 0.1546949
-1.3523276 1.4436026 -2.2291322 -1.923 -2.2751272 -0.28198278 4.191813 -0.30113122
-0.0989817 -0.25068924 -0.30138004 1.5596704 -3.600394 -2.4640107 1.9884136 1.0523854
-0.1399958 0.6544593 -0.04214688 0.14558677 0.7155523 0.5430314 1.8510774 1.2954768
2.6009877 2.9645512 0.98174495 1.496036 0.88639444 0.17451505 0.55715394 1.0109891
00000000: c59c 18c0 cd5c a6be 920d 81bf 2dc3 82bd
00000010: e253 ea3e c791 5bbe 7d77 ffbe 5a8a 18bf
00000020: ab13 9840 489e 3b40 3897 103f 106c 35bf
00000030: 39c0 3bbd 87da 303e c09d d7be 237c c03e
00000040: 19fc 513e e6ba 91be 1d21 3940 ad96 4c3e
00000050: 3fd5 30c0 46d2 bfbe 458f 1cbf 5132 703f
00000060: d5a4 ab3e e060 babf 6b2f 5f3f b6bc 053f
00000070: a90c 9540 551d 7740 f1dc a7c0 9717 073f
00000080: 7501 a9be b9a8 f93e 0828 053f fe47 58bf
00000090: 3858 0140 97a7 e43f 5304 9d3f 70b4 cd40
000000a0: 799a 1840 c8e6 dabd 4895 54bf 2824 26bf
000000b0: 93e6 3ebf ee3d ca3e 5ebf 03c0 8a25 b8bf
000000c0: 4598 2340 55ea cc3f ea3f 0140 954f 923f
000000d0: 28a4 943f 6dd8 4d3f 51e6 e63d ab08 ad3e
000000e0: c2fa 913e f9fa 0dbf d864 e6bf 755e 19c0
000000f0: 97d0 dcbf 2602 01bf cc94 5bbf c012 91bb
00000100: f859 13bf 23f1 723f da24 933f afe2 6e3f
00000110: 8dea 9940 cdc5 4340 548b cf3e 5b49 1dbe
00000120: 3f11 3fbf 28aa 5eba 0922 a73e 2a7b 243c
00000130: 5b8e 77bc 11b0 023f 2d20 893f 70ee 5b3f
00000140: 4aea 543f e227 c1be 644d 1cbe 9444 163d
00000150: 4f88 9a3f 7618 9bbf b9f9 b5bf 86c7 d93c
00000160: e850 2840 20ad 5e3f 2d27 5b40 1e68 7dbf
00000170: c16b 8fbf 5467 f8be 9640 43bf b05c ce3f
00000180: 179b 36c0 010b 69c0 237e 9140 b7f1 9b3f
00000190: 4a2b 2740 3b90 193e 1af2 523e e97a 973e
000001a0: d898 c7bf d873 3a40 514d 0abf ac6b d8be
000001b0: 4a4f 27bf e877 0c40 8dd1 f63e ff10 5140
000001c0: 0a77 4340 9630 29bf ab96 babf 0cc6 4abf
000001d0: bde5 013e 8699 d8be 5dd3 65bf e4b0 33bf
000001e0: bb08 b0be 748d 52c0 6e9c 883f de1e 4c3e
000001f0: 472c 5fbf 4d27 0c3d 1193 b3be 1fe4 e63e
00000200: 48cc aa3f 4dc8 f33f c8c5 d8bf 305c ae3f
00000210: 818d 643f 39da c93e 4257 82be 1098 30bf
00000220: dfb2 66bf 4d91 edbe 6635 5d40 d9bd 953f
00000230: 1a6e bf3f 1a06 9d3e cdac 6a3f e0b8 dd3d
00000240: 4aef 84bf 62bc 7e3f d154 c3be 8c49 403e
00000250: c07e d8bf 1399 123f e975 be3f d9ac 2f3d
00000260: ab66 2a3f 2176 9bbe 258e 5dbf d0a1 003f
00000270: 9c15 493d 41e7 e73e 1a68 4cbf 187f b2bf
00000280: c797 11c0 20db d2bf a0af 86bf 9b18 6cbe
00000290: 586c 51bf 4d52 45bf a8e3 993f d0f4 843f
000002a0: 0416 af3e 0e16 d8bf 9e26 a0c0 eead 29be
000002b0: 5445 bebe 4862 eb3e d981 4dbe f4cb 79be
000002c0: 0c2f 1840 d666 2740 4f22 4640 7001 7e40
000002d0: 658b 6dbe 4142 febe 95ff e33f 2f3a 043f
000002e0: e4b1 fdbe f3fd c33e 5d89 483f 0f59 9a3f
000002f0: bafb 85bf 9612 d53f fe6a 27c0 2f8b 65be
00000300: dc90 043e 6de9 213e d2da 0e3f f225 16be
00000310: 0e22 403f 8a80 bc3f cd63 8f40 edc1 5f40
00000320: b716 6e40 70a4 8e3f a3b3 9b3e 4083 00bf
00000330: 9f31 003f ef4c 923f 0c27 11c0 c3ac d7bf
00000340: c9a6 16bf 2738 86bf 11a0 5e40 53f3 083f
00000350: 3b5b 2f3f b921 3abf 6451 39bf 2cd7 663f
00000360: ee10 c3bf a88e 06c0 b1f8 2040 2f26 243f
00000370: 75f6 8a3f 0c63 9dbd e227 be3e 5768 1e3e
00000380: 1219 adbf f8c7 b83f 1aaa 0ec0 dd24 f6bf
00000390: af9b 11c0 0c60 90be 5523 8640 df2d 9abe
000003a0: ebb6 cabd 575a 80be 7c4e 9abe 48a3 c73f
000003b0: db6c 66c0 5ab2 1dc0 5684 fe3f 91b4 863f
000003c0: 0f5b 0fbe a58a 273f 35a2 2cbd b314 153e
000003d0: 6f2e 373f 1b04 0b3f 1bf0 ec3f 2fd2 a53f
000003e0: 9576 2640 35bb 3d40 a353 7b3f 1c7e bf3f
000003f0: bfea 623f 13b4 323e a4a1 0e3f 1768 813f

xh/b f4 [128]
1.6034555 0.9920899 1.3239375 1.0257789 1.1870489 -1.9833775 1.2810014 0.74200577
1.0635229 0.007509265 -0.2078787 0.4868964 0.09812462 0.3205647 -1.0096354 -0.8851392
0.19580455 1.3750646 -0.65326184 0.8827264 -1.0653459 -0.20288709 -0.92860657 -0.10521722
0.2767437 -1.3725662 0.6902264 -1.5227985 1.150201 0.88933355 0.6183019 1.1922157
1.1692872 1.2079371 1.8376548 1.5483879 0.501137 -1.662864 -1.502271 -0.8953029
-1.803653 0.28044283 -0.004940279 -0.20935673 -0.40519863 -1.226867 -0.19111204 0.123675495
-0.2921869 0.8150836 -0.3091968 1.4849602 -0.08437929 -1.4754263 -1.3999078 0.15323249
0.5807488 1.1556027 -0.37173563 1.5689723 -1.1922837 -1.363485 0.011538778 -0.7097079
1.0470172 0.6550414 1.2071148 0.30327046 0.04249356 -0.09140802 0.08723233 0.7334076
0.30511633 0.1377905 0.57296586 0.38612622 0.6436691 1.3310175 0.001963982 1.2817172
-1.2334418 -1.1639193 -0.2820791 -1.0853121 0.6963947 0.14907002 1.9176025 0.20741929
-1.2870252 -1.2220458 1.1253378 -0.092364065 0.6716055 0.111779384 -1.2977313 0.6871692
-0.9435065 -0.47722784 -1.1250293 -1.9505026 -2.3962548 0.3557129 0.04020326 -1.2461371
0.9472905 -1.1245095 -0.07267747 -1.6026484 -0.9414009 -1.6399312 0.3045428 -1.8308796
1.1490133 -2.053538 0.4345237 -1.223277 -0.49434656 1.8541197 1.7868751 -0.51619136
0.7343097 0.05698682 -0.30589077 1.8424991 0.1312179 -1.7333525 -0.4249201 -0.83438295
00000000: 083e cd3f 9bf9 7d3f c976 a93f b94c 833f
00000010: 38f1 973f 50df fdbf dbf7 a33f 17f4 3d3f
00000020: 8521 883f 4810 f63b 27de 54be 7c4a f93e
00000030: 90f5 c83d 0e21 a43e bc3b 81bf 7c98 62bf
00000040: fd80 483e 1e02 b03f 2b3c 27bf 5bfa 613f
00000050: 415d 88bf a2c1 4fbe 29b9 6dbf 207c d7bd
00000060: 5ab1 8d3e 40b0 afbf adb2 303f 10eb c2bf
00000070: c939 933f 5dab 633f 0949 1e3f 869a 983f
00000080: 34ab 953f af9d 9a3f 4638 eb3f 9331 c63f
00000090: 844a 003f bad8 d4bf 6b4a c0bf 9232 65bf
000000a0: 1ade e6bf 3496 8f3e 10e2 a1bb 9c61 56be
000000b0: 3276 cfbe fa09 9dbf e0b2 43be 9449 fd3d
000000c0: 8599 95be 52a9 503f 0b4f 9ebe 2d13 be3f
000000d0: 0dcf acbd c5da bcbf 2e30 b3bf fae8 1c3e
000000e0: f4ab 143f caea 933f 2254 bebe 16d4 c83f
000000f0: c19c 98bf ad86 aebf 250d 3d3c 6baf 35bf
00000100: a904 863f cbb0 273f bd82 9a3f 4446 9b3e
00000110: ba0d 2e3d 2134 bbbd dda6 b23d 9ac0 3b3f
00000120: 3538 9c3e f418 0d3e e4ad 123f 56b2 c53e
00000130: 80c7 243f c85e aa3f 26b6 003b 4f0f a43f
00000140: 6ce1 9dbf 4ffb 94bf ac6c 90be 82eb 8abf
00000150: ec46 323f d0a5 183e 0074 f53f b965 543e
00000160: 3ebd a4bf ff6b 9cbf 120b 903f 5f29 bdbd
00000170: 57ee 2b3f 97ec e43d 0f1c a6bf 52ea 2f3f
00000180: a489 71bf 3557 f4be f600 90bf 12aa f9bf
00000190: 3d5c 19c0 0020 b63e 2cac 243d 6c81 9fbf
000001a0: a181 723f edef 8fbf edd7 94bd 9523 cdbf
000001b0: a6ff 70bf 44e9 d1bf 09ed 9b3e 435a eabf
000001c0: de12 933f 2b6d 03c0 e479 de3e 5794 9cbf
000001d0: fe1a fdbe cb53 ed3f 53b8 e43f 1e25 04bf
000001e0: b8fb 3b3f 036b 693d b79d 9cbe 03d7 eb3f
000001f0: fc5d 063e 7fde ddbf 218f d9be 1f9a 55bf
