code/python/slip_model/10_128_4_5_10_4950_220_use_train_slip_model.npz (npz, 499772 bytes, 7 tensors)

hy/b f4 [4]
0	0xbe9ff398	-0.31240535
1	0xbe73aa6e	-0.23795483
2	0xbe6ceb12	-0.23136547
3	0xbe4d4d96	-0.20049128

hy/W f4 [4, 128]
0	0x3e950036	0.29101723
1	0xbd1ee7fd	-0.03879546
2	0xbe67615d	-0.22595735
3	0xbf4c360d	-0.79769975
4	0x3d286d80	0.041120052
5	0x3ddfcdad	0.109279014
6	0xbdf486d1	-0.11939777
7	0x3f04a5bc	0.5181539
8	0xbb08ec27	-0.002089271
9	0x3ed3793b	0.4130343
10	0x3d4816ed	0.04884999
11	0x3d94d171	0.0726651
12	0xbf162855	-0.5865529
13	0xbeb57bfc	-0.35446155
14	0x3d4d6a86	0.050150417
15	0x3da2f318	0.07956523
16	0xbd6708f5	-0.056405026
17	0x3d15fec1	0.036619905
18	0xbd8fd4d1	-0.070230134
19	0xbe0f5825	-0.13998468
20	0xbd6e5342	-0.05818487
21	0xbe0c64b1	-0.13710286
22	0x3e616c9c	0.22014087
23	0x3da693e2	0.08133675
24	0xbf7ac7bd	-0.97961026
25	0x3d4691ee	0.048479013
26	0xbe68ecc2	-0.22746566
27	0xbdb9817c	-0.090579
28	0xbf05d638	-0.52279997
29	0xbfd9b923	-1.7009624
30	0xbe230e38	-0.15923393
31	0x3e96c54d	0.29447404
32	0x3cdd507e	0.02701592
33	0xbede2fc0	-0.43395805
34	0xbebb7d13	-0.36618862
35	0xbe8cfffb	-0.27539048
36	0xbc6cb78a	-0.014448056
37	0x3d985363	0.0743778
38	0x3f7e7381	0.99394995
39	0x3da1c511	0.078989156
40	0xbfb0e9e7	-1.3821381
41	0xbed215c9	-0.41032246
42	0x3e152b6c	0.14567345
43	0x3e8de747	0.27715513
44	0x3de5fce9	0.112298794
45	0x3e03246a	0.1280686
46	0xbc1c0faa	-0.009525219
47	0x3da9dd96	0.08294217
48	0xbeeb4c17	-0.4595649
49	0xbf2c7a02	-0.6737367
50	0xbe2112c8	-0.1572982
51	0x3e35541e	0.1770787
52	0x3e8b9e56	0.27269238
53	0x3efec393	0.49758586
54	0xbe043436	-0.12910542
55	0xbdb3edf2	-0.08785619
56	0x3db19767	0.08671456
57	0x3e1c5f1a	0.15270653
58	0x3f01cf27	0.50706714
59	0xbe0753dc	-0.13215584
60	0xbdcc79e7	-0.099841885
61	0x3edea1d4	0.4348284
62	0x3f303c1c	0.6884172
63	0xbea725d2	-0.32646042
64	0x3f0315f4	0.5120537
65	0x3e73b8ad	0.23800917
66	0xbf8abe4e	-1.0839326
67	0x3e98382c	0.29730356
68	0x3dd968d6	0.10615699
69	0x3cff357a	0.03115343
70	0xbe86e91e	-0.2634973
71	0xbef6bb69	-0.48189858
72	0x3e9c78ff	0.30561063
73	0x3ed3a73f	0.41338536
74	0x3e84100f	0.25793502
75	0x3e4ce71c	0.20010036
76	0x3e2424be	0.16029641
77	0x3f8f0fc0	1.1176682
78	0xbec2648d	-0.3796734
79	0xbe59d041	-0.21270849
80	0xbd91e56e	-0.07123838
81	0xbf7169e3	-0.94302195
82	0xbd2a691b	-0.041604143
83	0xbff8be4d	-1.9433075
84	0xbee9bd01	-0.4565201
85	0xbe95a448	-0.292269
86	0xbece954b	-0.40348276
87	0xbe5e8daf	-0.21733736
88	0x3fa3f15b	1.2808031
89	0xbd94a957	-0.072588615
90	0xbe40a273	-0.1881197
91	0xbe37138d	-0.17878552
92	0x3f445f86	0.7670826
93	0xbea2c1d7	-0.31788513
94	0x3edcba49	0.43110874
95	0x3f4b4998	0.7940917
96	0xbe2ab9bc	-0.16672415
97	0x3e10e4d0	0.14149785
98	0x3e56e5cf	0.20986103
99	0x3fcad56d	1.5846382
100	0x3ea95d17	0.33078834
101	0x3c494707	0.012285001
102	0x3d05141e	0.03248989
103	0x3d8dbe55	0.069210686
104	0xbe200418	-0.15626562
105	0x3ed5a370	0.41726255
106	0xbf03a01e	-0.51416194
107	0xbe3cd8ff	-0.18442152
108	0xbea190cd	-0.31555787
109	0x3e355d73	0.1771143
110	0xbfa74c89	-1.3070232
111	0x3f290c79	0.66034657
112	0x3ee6c5f2	0.45072895
113	0x3dd95f0a	0.106138304
114	0xbf165e8c	-0.5873802
115	0xbc865154	-0.016396202
116	0xbdf07aad	-0.117421485
117	0xbd2a48c0	-0.041573286
118	0x3f2fccfc	0.68672156
119	0x3db881ce	0.09009133
120	0x3e11ec28	0.14250243
121	0xbd2767e4	-0.040870562
122	0xc0368a46	-2.8521895
123	0x3e471040	0.19439793
124	0x3bcb39b4	0.006201947
125	0x3df1eb03	0.11812403
126	0x3d8a7059	0.0675971
127	0x3f131f70	0.57469845
128	0x3e8d4d37	0.27597973
129	0xbe24a38f	-0.16078018
130	0xbe74f95b	-0.23923247
131	0xbf497ac0	-0.78702927
132	0x3d1b6c98	0.03794536
133	0x3e00fef9	0.12597264
134	0xbdf9c36b	-0.12195476
135	0x3f014214	0.5049145
136	0xbd3d29b3	-0.046182346
137	0x3f059001	0.5217286
138	0x3ccb9e10	0.024855644
139	0x3eedafb5	0.46423116
140	0xbefd8727	-0.49517176
141	0xbeadc406	-0.33938617
142	0x3d84c6d0	0.06483233
143	0x3dc851a2	0.09781195
144	0xbe47eb19	-0.19523276
145	0x3e77fbe0	0.24217176
146	0xbdcf826b	-0.10132297
147	0xbe560ffd	-0.20904537
148	0xbd593009	-0.053024326
149	0xbe229bd6	-0.15879759
150	0x3e7473d2	0.23872307
151	0x3d93e663	0.07221677
152	0xbf79077d	-0.9727705
153	0x3da9565a	0.082684234
154	0xbeae2ad1	-0.3401704
155	0xbe10e44f	-0.14149593
156	0xbf0e6f10	-0.5563822
157	0xbfd4d358	-1.6626997
158	0xbe69e8d4	-0.22842723
159	0x3e99ce2b	0.30040106
160	0x3ccefeb2	0.025267933
161	0xbedb3b89	-0.4281886
162	0xbf01561f	-0.50522035
163	0xbe5a0620	-0.21291399
164	0xbc08f452	-0.008359032
165	0x3e4fc18d	0.20288678
166	0x3f88483c	1.0647044
167	0x3e0c575c	0.137052
168	0xbfaf13f8	-1.3677969
169	0xbe2d9b68	-0.16953814
170	0x3e1c377a	0.15255538
171	0x3e5bb3fe	0.2145538
172	0x3e0d6281	0.13807108
173	0x3e2f4d75	0.17119391
174	0xbca96291	-0.020676883
175	0x3e7c8788	0.24661076
176	0xbee630e2	-0.4495917
177	0x3d4ea4f2	0.050450273
178	0xbee68138	-0.4502046
179	0x3e9c809f	0.3056688
180	0x3e84ad94	0.2591368
181	0x3f095e80	0.5365982
182	0xbe1560bd	-0.14587684
183	0xbe07cf3f	-0.13262652
184	0x3e670e26	0.22563991
185	0x3dc96aab	0.098347984
186	0x3f03d916	0.5150312
187	0xbe3d2dea	-0.18474546
188	0xbddb251e	-0.10700439
189	0x3f1905b8	0.5977435
190	0x3f302f23	0.68821925
191	0xbe8f113d	-0.2794284
192	0x3f03dbf1	0.5150748
193	0x3e271d8e	0.16319868
194	0xbf870b5b	-1.055034
195	0x3e5030f5	0.20331176
196	0x3de0948e	0.109658346
197	0x3c763065	0.015026187
198	0xbe1f45e3	-0.15554003
199	0xbdbba49f	-0.09162258
200	0x3eaab813	0.33343562
201	0x3ec90d45	0.39267936
202	0x3df50b3e	0.11965035
203	0x3e3acf56	0.18243155
204	0x3e23aec1	0.15984632
205	0x3f5c02fb	0.8594205
206	0xbec9f0a5	-0.3944141
207	0xbe59d2fb	-0.21271889
208	0xbe7e0a3e	-0.24808595
209	0xbf6c811e	-0.9238452
210	0xbd06b713	-0.032889437
211	0xbffdf062	-1.9838984
212	0xbf4bf42e	-0.79669464
213	0xbe6021f5	-0.21887954
214	0xbef5c5f0	-0.48002577
215	0xbe5dfae1	-0.21677734
216	0x3fa821e3	1.3135341
217	0xbe28842b	-0.16456668
218	0xbe4e2ce7	-0.20134316
219	0x3e3f6192	0.18689564
220	0x3ef59123	0.47962293
221	0xbea97c3a	-0.3310259
222	0x3ee02592	0.43778664
223	0x3eb6c872	0.35699803
224	0xbe3e712e	-0.18597862
225	0x3e5e73cb	0.21723859
226	0x3e818751	0.2529855
227	0x3fa8a1b5	1.3174349
228	0x3e4eb8b6	0.20187649
229	0xbc1f8da8	-0.009738363
230	0x3d054e57	0.032545414
231	0x3da088e7	0.07838612
232	0xbe2c24bb	-0.16810887
233	0x3ed559b4	0.4167
234	0xbf182078	-0.59424543
235	0xbe4e097d	-0.20120807
236	0xbe8fd20b	-0.28089938
237	0x3e47fd8a	0.19530311
238	0xbf97858d	-1.1837631
239	0x3f3db9e6	0.74111784
240	0x3ede8f46	0.43468684
241	0x3dd8621f	0.1056559
242	0xbf27af15	-0.6550153
243	0x3d8d5917	0.06901758
244	0xbe3323f2	-0.17494181
245	0xbb38a5cb	-0.0028174992
246	0x3f2aba81	0.6669083
247	0x3dc95649	0.09830911
248	0x3e378188	0.17920506
249	0x3ceae786	0.028674852
250	0xc02dafd8	-2.7138577
251	0x3e1de472	0.15419176
252	0x3dae8f27	0.08523398
253	0x3dc69135	0.09695665
254	0x3d843e88	0.064572394
255	0x3efdc8d1	0.49567273

hh/lateral/W f4 [512, 128]
0	0x3d5f077e	0.054450504
1	0x3e060518	0.1308788
2	0x3d98f3de	0.07468389
3	0xbe191aee	-0.14951679
4	0xbd7743c6	-0.06036737
5	0x3e1e048d	0.15431423
6	0x3e473bfc	0.19456476
7	0xbd314250	-0.04327613
8	0x3d58c92a	0.05292622
9	0xbea0e302	-0.31423193
10	0xbe77b56c	-0.241903
11	0xbabb06bc	-0.0014268975
12	0x3ce9c57d	0.028536553
13	0x3eba9791	0.3644376
14	0x3e3b32ab	0.18281047
15	0x3e6cfedd	0.23144098
16	0xbe914e74	-0.28380167
17	0x3d80ac95	0.062829174
18	0x3e91b695	0.28459612
19	0xbc1f0dd8	-0.00970789
20	0x3ed481b5	0.4150521
21	0xbe034394	-0.12818748
22	0xbe12b3e2	-0.14326432
23	0x3e934b62	0.2876845
24	0xbe3af2a5	-0.18256624
25	0xbd1dad11	-0.038495127
26	0x3d5cc8c3	0.0539024
27	0xbe2cc575	-0.16872199
28	0x3f16028b	0.5859763
29	0xbea94709	-0.33062008
30	0x3ea0d057	0.3140895
31	0xbee7a650	-0.45244074
32	0xbeb777d3	-0.35833606
33	0x3e02efc2	0.12786773
34	0x3e74490d	0.23855992
35	0x3d0dc4a8	0.034611374
36	0xbd048902	-0.032357223
37	0xbdcafbb6	-0.09911291
38	0xbb0ac8f1	-0.00211769
39	0x3e7652f2	0.24055079
40	0xbeaf3183	-0.34217462
41	0xbe0f21e1	-0.13977768
42	0x3d7d556b	0.06184904
43	0xbb9c5558	-0.004770916
44	0x3dfec546	0.12439971
45	0x3d6dcf62	0.058059104
46	0xbe3ee347	-0.18641387
47	0xbe4993e2	-0.19685319
48	0x3dbccbbe	0.09218548
49	0x3ea2972f	0.3175597
50	0x3dfa6a39	0.122272916
51	0x3ec7d076	0.3902623
52	0xbe7692cb	-0.24079435
53	0xbe814cb0	-0.2525382
54	0x3e65c49f	0.22438286
55	0x3d7187e1	0.058967475
56	0xbe293693	-0.16524725
57	0xbeab90dd	-0.3350896
58	0xbe01900d	-0.12652607
59	0xbe5f8f83	-0.21832089
60	0xbe4150c2	-0.18878463
61	0xbed17489	-0.40909222
62	0x3e8c2e9a	0.27379304
63	0xbda1e3c5	-0.07904772
64	0xbac78e9c	-0.0015224996
65	0xbe86aeee	-0.26305336
66	0xbe1f0b3f	-0.15531634
67	0x3c250b08	0.010073431
68	0xbe2cd7aa	-0.16879144
69	0xbcf0fb42	-0.029416684
70	0x3cac1a85	0.02100874
71	0xbee53bd7	-0.44772217
72	0xbe69275e	-0.22768924
73	0x3e3f1f89	0.18664373
74	0xbd60dd06	-0.054898284
75	0x3ea2bf6a	0.31786662
76	0xbed0bb6d	-0.40767995
77	0xbe17abf1	-0.14811684
78	0x3dfcc1b2	0.12341632
79	0x3e4deb59	0.2010931
80	0x3eafb11d	0.34314814
81	0x3ed9e47d	0.42557135
82	0x3f09eebc	0.53879905
83	0x3d8ec442	0.06971027
84	0x3ea3ed76	0.32017106
85	0xbd35cf54	-0.044387177
86	0x3b9ef08d	0.004850453
87	0xbe766a3c	-0.24063963
88	0xbe806296	-0.25075215
89	0x3e9bd3a7	0.30434915
90	0x3e440027	0.19140683
91	0xbe050464	-0.12989956
92	0x3f03483f	0.51282114
93	0x3ea9daf3	0.33174857
94	0xbaeaeb2d	-0.0017922871
95	0x3e567753	0.20943956
96	0x3e572fec	0.21014374
97	0x3e4bc60b	0.19899766
98	0x3dfaf3c7	0.12253528
99	0xbe5f9480	-0.21833992
100	0xbe7f01c0	-0.24903011
101	0x3c9a4c4f	0.018835215
102	0x3e8fe5c1	0.28104976
103	0x3e2c0080	0.16797066
104	0x3c2ff03f	0.0107384315
105	0x3e5f5552	0.21809891
106	0x3e2f1128	0.17096388
107	0xbddafc15	-0.10692612
108	0x3dfe0e97	0.124051265
109	0xbea347d5	-0.3189074
110	0x3ce3b836	0.0277978
111	0x3d813576	0.06309025
112	0x3c2955d5	0.010335405
113	0xbece0f4b	-0.40246043
114	0x3f178273	0.59183425
115	0x3bcefcee	0.0063167727
116	0xbdc73741	-0.09727336
117	0x3df407e7	0.1191557
118	0x3d420479	0.047367547
119	0x3df8cb37	0.12148135
120	0x3d3eed3c	0.046612963
121	0x3e00a85e	0.12564227
122	0x3ecc679a	0.39922792
123	0xbe489b37	-0.1959046
124	0x3d486e3f	0.048933264
125	0xbe19f2da	-0.15034047
126	0x3ec11de6	0.37718123
127	0x3c105973	0.008810389
128	0x3ed8e6b2	0.42363507
129	0x405b5598	3.4270992
130	0xc03b1b41	-2.9235384
131	0x406ff9e5	3.7496274
132	0x40ebf646	7.3738127
133	0x3fca72a2	1.5816233
134	0x3f92e3a0	1.1475716
135	0xbf091976	-0.53554475
136	0x401b05e0	2.4222336
137	0x3f2e5f7c	0.6811445
138	0x3ee13ef7	0.4399335
139	0x3fae1507	1.3600167
140	0x3fbc802e	1.4726617
141	0xbfed9468	-1.8560915
142	0x3f01bf36	0.5068239
143	0xbfb8cebb	-1.4438089
144	0xbd7259ac	-0.05916755
145	0x3fa86e0d	1.3158585
146	0x402e1dbe	2.7205653
147	0x3e36a20e	0.17835256
148	0xbef5a564	-0.47977746
149	0x3e32142e	0.1739051
150	0xbf75c86f	-0.9600896
151	0x3e9759a3	0.29560575
152	0xbea021d2	-0.31275803
153	0x3f29f22e	0.6638516
154	0xbe315d7e	-0.1732082
155	0xbf0ba2e7	-0.54545444
156	0x3f4ee903	0.808243
157	0xbda872a9	-0.08224995
158	0x3da8e7fc	0.082473725
159	0xbf2ef5c8	-0.6834378
160	0x402c9444	2.6965494
161	0x40418097	3.0234735
162	0x3ee64587	0.4497492
163	0xbe2a485e	-0.16629168
164	0xbfa75c4e	-1.3075044
165	0x4043a2c3	3.0568092
166	0x3dffe3dd	0.12494633
167	0xbe0b2489	-0.13588156
168	0x3f0aad23	0.54170436
169	0xbe5f7bb4	-0.21824533
170	0xc0694d57	-3.6453454
171	0xbe678e16	-0.22612795
172	0x3fa0efc2	1.2573168
173	0xbf6aed03	-0.917679
174	0x40787261	3.8819811
175	0x3e7d68f0	0.24747062
176	0x3cf762d5	0.030198494
177	0xbe3302b9	-0.17481507
178	0x3da9d0da	0.082917884
179	0x3ec36acd	0.3816742
180	0x3e7747ad	0.24148436
181	0xbef3348a	-0.47501022
182	0x3fe55dd7	1.7919263
183	0x3ef1ffdc	0.47265518
184	0xbd2aeb83	-0.041728508
185	0x3e09ee11	0.13469721
186	0xbf2a8a11	-0.6661692
187	0x3e882b88	0.26595712
188	0x3dd4a69d	0.103833415
189	0x3e510aa9	0.20414223
190	0x3f38567f	0.7200698
191	0xbf13a709	-0.5767675
192	0x3e52e55b	0.20595305
193	0x3ede2743	0.4338933
194	0x3eaed8e3	0.34149846
195	0x403c97b4	2.9467592
196	0xc08712c6	-4.2210417
197	0xbf211d67	-0.6293549
198	0x40776f0d	3.866153
199	0x3fac4255	1.3457743
200	0xbe06270c	-0.13100833
201	0xbf065d93	-0.5248653
202	0xc003a32a	-2.0568337
203	0x3fe1527d	1.7603298
204	0xc0bb83f4	-5.8598576
205	0x3e0ab8c9	0.13547052
206	0x3ff7feb1	1.9374601
207	0xbebb4edc	-0.36583602
208	0xbdc08e59	-0.09402151
209	0x3e86ad76	0.26304215
210	0xbf1a8212	-0.6035472
211	0xbda8bea9	-0.082394905
212	0xbed3b031	-0.4134536
213	0x3dda25b0	0.106517196
214	0xbcc7638e	-0.024339464
215	0xbd68a9b2	-0.05680246
216	0x3d84c586	0.06482987
217	0xbf957f5e	-1.1679494
218	0x3ff7f83b	1.9372629
219	0x3ef5bbca	0.47994834
220	0x40283805	2.6284192
221	0xc0840a9f	-4.1262965
222	0x3ce3030b	0.027711412
223	0x3ec21ed0	0.37914133
224	0x40002853	2.0024612
225	0x3f381618	0.7190871
226	0x3ddf1224	0.10892132
227	0x3fb35ef1	1.4013349
228	0x3f7f68b6	0.9976915
229	0xc01837c4	-2.3784037
230	0x3edff4b9	0.43741396
231	0xc0a92977	-5.2863116
232	0x409af181	4.8419805
233	0x3f002e58	0.50070715
234	0x3f01501e	0.50512874
235	0xbed055e4	-0.4069053
236	0xbe380db7	-0.17973982
237	0x3ff8e507	1.9444894
238	0xbe574512	-0.21022442
239	0x3e5fdf04	0.21862417
240	0x3e21b7e0	0.15792799
241	0x408bd39d	4.3695817
242	0x3f2c564a	0.67319167
243	0x3e5e8c1b	0.21733133
244	0x3d0df6ec	0.03465931
245	0x3f277c47	0.6542401
246	0x3ea58056	0.32324475
247	0x40c6d7e1	6.2138524
248	0xbfa5df7c	-1.2958827
249	0xbf99096a	-1.1955998
250	0xbd8c20ec	-0.06842217
251	0xbf767942	-0.96278775
252	0x3ed4e004	0.4157716
253	0xbfcfaff8	-1.6225576
254	0xbf2b3d82	-0.6689073
255	0xbfafc1c0	-1.3731003

hh/upward/b f4 [512]
0	0xbe3b3622	-0.18282369
1	0xbecabefa	-0.3959883
2	0x3f36c928	0.7140069
3	0xc025a72c	-2.5883284
4	0xbe4b7eed	-0.19872637
5	0x3e903c85	0.28171173
6	0x3fa2cf98	1.2719603
7	0xbfc4fe53	-1.5390114
8	0x3efe2cbf	0.49643514
9	0x3f225ea6	0.6342567
10	0x3f3fbbe4	0.74896073
11	0x3ebf6f37	0.37389538
12	0xbf26ade3	-0.6510908
13	0x3d02eea7	0.031965878
14	0x3f781adc	0.96915984
15	0xbfd15247	-1.6353234
16	0xbf113f13	-0.5673687
17	0xbf9686d3	-1.1759895
18	0x3f1b4fae	0.60668457
19	0xc00186c1	-2.0238497
20	0xbf58ddc6	-0.847134
21	0x3daef039	0.085419126
22	0x3f246633	0.64218444
23	0xbc072269	-0.00824795
24	0xbfca0b62	-1.5784724
25	0x3f290228	0.66018915
26	0x3f397e08	0.72457933
27	0xbf361543	-0.7112619
28	0xbf317f81	-0.6933518
29	0xbde75347	-0.11295181
30	0x3f51e219	0.8198562
31	0xbef4882d	-0.47760144
32	0xbf1fec7d	-0.6247023
33	0x3ee0ab5f	0.43880746
34	0xbd4b6146	-0.049653314
35	0x3dbaf181	0.091280945
36	0xbf6db17c	-0.92848945
37	0x3e2bdd46	0.16783628
38	0x3ec03112	0.37537438
39	0xbd6fc836	-0.058540545
40	0x3f191244	0.59793496
41	0x3edb0372	0.42776066
42	0x3f29fa25	0.66397315
43	0x3e6d0452	0.2314618
44	0xbf067989	-0.525292
45	0xbf522f5d	-0.8210352
46	0x3ec1e231	0.37867883
47	0xbec6a52d	-0.38797894
48	0x3e9508f4	0.29108393
49	0x3e312c2f	0.17302011
50	0x4018f2bd	2.3898156
51	0xbe7709f9	-0.24124898
52	0x3be30247	0.0069277617
53	0x3fd016f2	1.6257002
54	0xbde19a76	-0.11015789
55	0xbf018982	-0.50600445
56	0xbf535a8b	-0.8256003
57	0x3edfbe57	0.43699905
58	0x3f46d314	0.7766583
59	0xbecbe0d7	-0.39819977
60	0xbf2911b6	-0.6604265
61	0xbfa30d1d	-1.2738377
62	0xbf000433	-0.5000641
63	0xbf3a3361	-0.7273465
64	0xbefd7f9d	-0.49511424
65	0xbeb7cce6	-0.35898513
66	0x3ea83992	0.32856423
67	0xbea49246	-0.32142848
68	0xbea1e8b1	-0.31622842
69	0xbf1ba667	-0.60800785
70	0x3d17930e	0.037005477
71	0xc025ad96	-2.5887198
72	0xbe202886	-0.15640458
73	0xbf2cbf1b	-0.67479104
74	0x3f8c8e32	1.0980895
75	0x3d56829f	0.052370664
76	0xbe8e21c3	-0.27760133
77	0x3f0217fd	0.50817853
78	0x3ec2ed5b	0.38071713
79	0x3f0f3821	0.5594502
80	0xbe399af3	-0.18125515
81	0x3fbae5a9	1.4601337
82	0x401878f7	2.382383
83	0xba5798e7	-0.00082243833
84	0x3f8af01e	1.0854528
85	0x3e2fbeb4	0.17162591
86	0x3f62f235	0.8865083
87	0xbf1f5095	-0.62232333
88	0xbf4b8035	-0.79492503
89	0xbf299e16	-0.66256845
90	0xbc394fe3	-0.01131055
91	0xbf1ea052	-0.6196338
92	0x3e25a387	0.16175662
93	0x3f804de6	1.0023773
94	0x3f67be80	0.90525055
95	0xbf808363	-1.0040096
96	0x3f1b8126	0.6074394
97	0xbf4c1480	-0.7971878
98	0x3f8ab2d4	1.0835824
99	0x3f3d3633	0.73910826
100	0xbf5b8eb2	-0.8576461
101	0x3f91206a	1.1338017
102	0x3f7c9ce5	0.986769
103	0xbe97efc5	-0.29675117
104	0xbee84588	-0.45365548
105	0xbf210e8b	-0.62912816
106	0x3fb1bdef	1.3886088
107	0x3f0d760b	0.55258244
108	0xbf572bfd	-0.84051496
109	0x3df740be	0.120728955
110	0xbf217d9f	-0.6308231
111	0xbfbaccba	-1.4593728
112	0xbf1bf67c	-0.6092298
113	0xbf16622f	-0.58743566
114	0x3f9cba85	1.2244421
115	0x3e9931ff	0.29920956
116	0x3f734d6f	0.9504003
117	0x3e30014b	0.17187993
118	0x3f12678d	0.57189256
119	0xbf743d10	-0.95405674
120	0x3f7af764	0.9803374
121	0xbdc68c68	-0.09694749
122	0xbf0861e9	-0.532744
123	0x3e290a40	0.16507816
124	0xbb0a4b2c	-0.0021101935
125	0x3ed362a6	0.412862
126	0x3fe83605	1.8141485
127	0xbec9eda5	-0.3943912
128	0xbf24f95b	-0.64442986
129	0x3f422a83	0.7584612
130	0x3f70d6dd	0.94077855
131	0x3f2f2100	0.6840973
132	0x3e6e8a68	0.23294985
133	0x3f98838e	1.1915147
134	0x3fdc81e8	1.7227144
135	0xbf589018	-0.8459487
136	0xbf0125b1	-0.5044814
137	0xbef34cd2	-0.47519547
138	0x3fb0372d	1.3766838
139	0xbd4910fb	-0.04908846
140	0xbeba0695	-0.36333147
141	0xbeb8523e	-0.36000246
142	0x3b8cb617	0.0042941677
143	0xbfb3d093	-1.4048027
144	0x3dc653ea	0.09683974
145	0x4006129b	2.0948856
146	0xbe7f6d46	-0.24944028
147	0xbfb64399	-1.4239379
148	0xbcda4f74	-0.026649214
149	0xbcf10aa1	-0.029424014
150	0x3f2cc6f8	0.674911
151	0xbe555607	-0.20833598
152	0xbe4d1c42	-0.20030311
153	0xbf1587d0	-0.5841036
154	0x3f3c6674	0.7359383
155	0x3f25ca61	0.6476193
156	0x3fb9033a	1.445411
157	0x3f13713d	0.5759466
158	0x3f745b9d	0.9545229
159	0xbc6800d4	-0.014160354
160	0xbf0339f4	-0.51260304
161	0x3e668f45	0.2251559
162	0x3f8db1dd	1.1069905
163	0x3e1ef644	0.1552363
164	0xbf1dbc83	-0.6161577
165	0xbb1d5b7f	-0.0024010835
166	0x3e8db77c	0.2767905
167	0x3c3a9f26	0.011390483
168	0x3ff63abc	1.9236674
169	0x3ff910eb	1.9458288
170	0x3efa6486	0.48904818
171	0xbfe23bd6	-1.767451
172	0x3f974a41	1.1819535
173	0x3efee534	0.49784243
174	0x3d6fba6a	0.058527388
175	0xbfb21330	-1.3912106
176	0x3f2567cf	0.64611524
177	0xbfc6c87b	-1.5529932
178	0x3e9f14fe	0.31070703
179	0xbea85e94	-0.32884657
180	0xbf829b19	-1.0203582
181	0xbf03db01	-0.5150605
182	0x3f31c92d	0.69447595
183	0xbfbd2597	-1.4777097
184	0x3d0e13b1	0.034686748
185	0x3e71558e	0.23567793
186	0x3f929b17	1.145358
187	0xbe27f067	-0.164003
188	0xbf620aa7	-0.88297504
189	0x3f333e8c	0.70017314
190	0x3fb7664a	1.4328091
191	0x3d46954c	0.048482224
192	0x3ef71057	0.48254654
193	0xbd576769	-0.052588854
194	0x3f5f51ba	0.8723408
195	0xbf971e23	-1.1806072
196	0xbe5a2333	-0.2130249
197	0xbf192c86	-0.5983356
198	0x3e4abe0c	0.1979906
199	0xbce1cb28	-0.027562693
200	0x3ef0e50b	0.47049746
201	0xbfad3dbb	-1.3534464
202	0x3f4f7637	0.81039757
203	0xbf71e211	-0.94485575
204	0x3e2b1d27	0.1671034
205	0x3f89901f	1.0747107
206	0x3f01ee54	0.50754285
207	0xbd1d2f30	-0.03837508
208	0xbf1b8909	-0.60755974
209	0x3d76b3f1	0.0602302
210	0x3f57b509	0.8426061
211	0xbe7dcb3e	-0.24784562
212	0x3ef74f13	0.48302516
213	0x3f956b7a	1.1673424
214	0xbeab2f0d	-0.33434334
215	0x3eb5bcec	0.35495698
216	0x3eb9ee3e	0.36314577
217	0xbedd2be6	-0.43197554
218	0x3edd2738	0.43193984
219	0xc027c5bf	-2.6214445
220	0xbed86600	-0.4226532
221	0xbf31beab	-0.6943156
222	0x3f8b34b4	1.0875459
223	0x3dac65c6	0.08417849
224	0x3e6e5d50	0.23277783
225	0xbf1cdefc	-0.6127775
226	0x3f62ecb1	0.8864241
227	0x3e59f046	0.21283063
228	0xbe873538	-0.2640779
229	0xbf107266	-0.5642456
230	0xbd0e576d	-0.034751344
231	0xbfb6d4e0	-1.4283714
232	0xbf1f9a09	-0.62344414
233	0xbdf7dd5d	-0.121027686
234	0x3f9c5388	1.2212992
235	0xbec3b210	-0.38221788
236	0xbf35cdbf	-0.7101707
237	0x3fe78cab	1.8089803
238	0x3fbd48bf	1.4787825
239	0x3c925594	0.017863072
240	0x3f51b85e	0.81921947
241	0xbf9fafa3	-1.2475475
242	0x3f94133f	1.1568373
243	0xbf26a6ee	-0.65098464
244	0xbf4b5cf2	-0.794387
245	0xbe766ba3	-0.24064498
246	0x3f4a7572	0.7908546
247	0xbf4700b2	-0.77735436
248	0x3d8b85e3	0.06812646
249	0xbf067260	-0.5251827
250	0x3f206282	0.6265031
251	0xbfd805c0	-1.6876755
252	0x3f2d3df8	0.6767268
253	0xbe625a94	-0.22104865
254	0xbf27fbc6	-0.6561855
255	0x3d00c120	0.03143418

hh/upward/W f4 [512, 128]
0	0xbedb4eaf	-0.42833468
1	0x3d3c8cf0	0.046032846
2	0x3e238fcf	0.15972827
3	0xbf76329d	-0.9617098
4	0x3e88b9c1	0.2670422
5	0x3dde0107	0.1084004
6	0x3e5a6322	0.21326879
7	0x3ebb8386	0.36623782
8	0x3d9da102	0.076967254
9	0x3e326d57	0.17424522
10	0xbe833c6f	-0.25632045
11	0xbfa086fb	-1.2541193
12	0xbf908c50	-1.129282
13	0xbd68d0e6	-0.056839846
14	0xbd037588	-0.03209451
15	0x3f28e866	0.6597961
16	0xbdfcfb0f	-0.12352573
17	0x3f0b68f6	0.5445703
18	0x3eb2a785	0.34893432
19	0x3ee1a4ba	0.4407099
20	0x3fb4c4c8	1.4122553
21	0x3e215762	0.1575599
22	0xbe80a81f	-0.25128266
23	0x3ec4ba95	0.384236
24	0x3f0902ee	0.53520095
25	0xbe7fba45	-0.249734
26	0xbd34f6a7	-0.04418054
27	0x3ed1b654	0.40959418
28	0xbee5fcf7	-0.4491956
29	0xbe24c9e2	-0.16092637
30	0x3e9150dd	0.28382006
31	0xbf1f47e6	-0.62219083
32	0xbe18a9f6	-0.14908585
33	0x3ed672d9	0.41884497
34	0xbeb32de4	-0.3499595
35	0x3f6c1a08	0.9222722
36	0xbefeed7f	-0.4979057
37	0xbe59b761	-0.2126136
38	0x3eb05df9	0.34446695
39	0xbe421f9d	-0.18957372
40	0x3e5427d4	0.20718318
41	0xbea11fc6	-0.31469554
42	0x3e1f6576	0.15566048
43	0x3f1c206c	0.6098697
44	0x3f0cffbd	0.55077726
45	0xbc44a116	-0.0120012965
46	0x3e386f51	0.18011214
47	0xbea01c97	-0.31271812
48	0xbe909c60	-0.28244305
49	0x3f08a346	0.53374135
50	0xbe652b7d	-0.2237987
51	0x3ebb05dd	0.3652791
52	0x3f461c8e	0.7738732
53	0x3e8119b1	0.25214913
54	0x3d987a68	0.07445222
55	0x3e31a065	0.17346342
56	0xbe5c160c	-0.21492785
57	0xbdc643e2	-0.09680916
58	0x3e818a63	0.25300893
59	0x3eb79e4b	0.35862955
60	0x3e3e4173	0.18579654
61	0xbeaa1a47	-0.33223173
62	0xbf16fc7d	-0.58979017
63	0xbdf0768a	-0.117413595
64	0xbee706ac	-0.45122278
65	0x3e17f6f2	0.14840296
66	0xbe5c3ca2	-0.21507505
67	0x3ee98995	0.4561278
68	0x3f493e60	0.786108
69	0xbe907a22	-0.2821818
70	0xbe50bd75	-0.20384772
71	0x3d5fa954	0.054604843
72	0x3d9f729b	0.07785531
73	0x3e7913dd	0.24323983
74	0x3f72f71e	0.9490832
75	0x3e83c3a7	0.25735208
76	0x3e57895c	0.21048492
77	0x3f81e3e9	1.0147678
78	0xbde0a3d9	-0.109687515
79	0xbe6941d3	-0.22779016
80	0xbf27ed46	-0.65596426
81	0xbf15c0cd	-0.58497316
82	0x3efdee6a	0.49595958
83	0xbb69e34e	-0.0035688463
84	0xbe872fac	-0.26403558
85	0xbed443b8	-0.41457915
86	0x3d2112c3	0.039324533
87	0x3ec4d509	0.38443783
88	0xbf24c8e9	-0.64369065
89	0x3a4c555e	0.0007794703
90	0xbdb23ace	-0.08702622
91	0x400f5af4	2.2399263
92	0x3da33a7b	0.07970139
93	0xbd0efd0d	-0.034909297
94	0xbec0b0f2	-0.37635
95	0x3ea86411	0.32888845
96	0x3e4782f5	0.1948355
97	0x3f9541f5	1.1660753
98	0xbe1a205a	-0.15051404
99	0x3e8883a1	0.26662925
100	0xbf026579	-0.50936085
101	0x3e2a49ff	0.1662979
102	0xbe03d59a	-0.12874451
103	0x3f045308	0.51689196
104	0xbe6d3a3c	-0.23166746
105	0x3e12c470	0.14332747
106	0xbd1dbcb7	-0.03851005
107	0x3e063e79	0.13109769
108	0xbf40bade	-0.75285137
109	0x3e9e5e40	0.30931282
110	0x3e942196	0.28931874
111	0x3dcd382b	0.10020479
112	0xbf218c11	-0.6310435
113	0x3f67bca0	0.90522194
114	0x3ebd5675	0.36980024
115	0x3ec4b31e	0.38417906
116	0x3de74e3d	0.1129422
117	0xbe1dc68b	-0.1540777
118	0xbe36dc52	-0.17857483
119	0x3e1f60f6	0.15564331
120	0x3eab9d4e	0.3351845
121	0xbe4ac3d6	-0.19801268
122	0x3d6a5621	0.057211045
123	0xbdfe19cf	-0.12407266
124	0x3de93db0	0.11388719
125	0x3e34ce61	0.17656852
126	0x3f7643bb	0.961971
127	0xbe41481a	-0.18875161
128	0x3e74e2ef	0.23914693
129	0xbe391a5f	-0.18076466
130	0xbf1617ba	-0.58629954
131	0x3f0ff394	0.56231046
132	0x3ce6e123	0.028183525
133	0xbef83da0	-0.48484516
134	0x3dd21ad1	0.10259021
135	0x3e15f26a	0.14643255
136	0xbdf3b81c	-0.119003505
137	0xbe60a7e8	-0.21939051
138	0xbe529024	-0.20562798
139	0xbeab23cd	-0.3342575
140	0xbe1ca207	-0.15296184
141	0xbeda8c55	-0.4268519
142	0xbeb4eb86	-0.3533594
143	0x3f1ca11d	0.6118334
144	0xbeb83e14	-0.35984862
145	0x3f0a9f91	0.5414973
146	0x3e6c212c	0.23059529
147	0xbeef5d45	-0.46750847
148	0x3df8ac4d	0.12142239
149	0x3fb971a0	1.4487801
150	0xbedc576f	-0.43035457
151	0x3dd4233d	0.10358284
152	0xbf8b6f20	-1.0893288
153	0xbe30588b	-0.17221276
154	0xbe4e4b2b	-0.20145862
155	0x3e9f199a	0.3107422
156	0x3f8c768f	1.0973681
157	0x3e20c3f2	0.15699747
158	0xbf1df70f	-0.61705106
159	0xbde0e032	-0.10980262
160	0xbf0ab8c0	-0.54188156
161	0x3e7282df	0.23682736
162	0xbf0b4128	-0.54396296
163	0x3ec7dc78	0.39035392
164	0xbed1734f	-0.40908286
165	0x3e0826fb	0.1329612
166	0x3ebbe38c	0.36697042
167	0x3e159ca1	0.1461053
168	0x3e3ee95d	0.18643709
169	0xbcd9416e	-0.026520457
170	0xbf52e8f4	-0.8238671
171	0x3e8f1669	0.27946785
172	0x3e8d3e66	0.2758667
173	0x3e38c0b1	0.18042256
174	0x3ee12aba	0.4397791
175	0xbf3f32b9	-0.7468677
176	0xbeae917b	-0.34095368
177	0xbd5d8c52	-0.054088898
178	0x3e31a403	0.17347722
179	0xbe3bad56	-0.18327841
180	0xbe9deb08	-0.30843377
181	0x3f89346f	1.0719126
182	0x3eacabb5	0.33724752
183	0x3eed0d1f	0.46299073
184	0xbf1a08df	-0.60169786
185	0x3f428695	0.75986606
186	0x3f04810a	0.517594
187	0x3ddb9fd8	0.10723847
188	0x3e812e75	0.25230756
189	0xbbd4eed4	-0.006498197
190	0x3df0ee68	0.117642224
191	0x3eefdb6a	0.46847087
192	0x3de07752	0.109602585
193	0xbf657639	-0.8963352
194	0x3d0083f4	0.03137584
195	0x3e9eb880	0.31000137
196	0x3cf39a2e	0.029736605
197	0x400f5a87	2.2399004
198	0xbf584ecd	-0.8449524
199	0xbe64d4a7	-0.22346745
200	0x3f03ab44	0.51433206
201	0x3ea843d6	0.32864255
202	0xbde63154	-0.11239877
203	0x3f69e647	0.91367
204	0x3f058281	0.5215226
205	0x3ea3f8cf	0.32025763
206	0x3e6b51d8	0.2298044
207	0xbed10f14	-0.40831816
208	0x3e407fe5	0.18798788
209	0xbdf75d43	-0.12078335
210	0xbf31c9f8	-0.69448805
211	0x3f803bf9	1.0018302
212	0xbf10b125	-0.565203
213	0x3f8ee51e	1.1163671
214	0x3b30723f	0.0026923565
215	0x3de84768	0.11341745
216	0x400670df	2.100639
217	0x3e27187f	0.16317938
218	0x3f693737	0.91099876
219	0x3e104063	0.14087062
220	0xbdc0ea6e	-0.09419714
221	0x3ee0bc60	0.4389372
222	0xbe981a77	-0.2970769
223	0xbda24187	-0.079226546
224	0x3dfec9b2	0.12440814
225	0x3eef9fb0	0.4680152
226	0xbeaf6f26	-0.34264487
227	0x3e5a47cf	0.21316455
228	0x3e82de73	0.2556034
229	0x3f27cf16	0.65550363
230	0x3e672a9f	0.22574852
231	0x3e76e041	0.24108984
232	0x3de01426	0.10941343
233	0xbf4fdf5b	-0.8120019
234	0xbe8c51c5	-0.27406135
235	0xbc510634	-0.012757827
236	0xbf6bd4f4	-0.92121816
237	0x3ec2e866	0.3806793
238	0x3ecda807	0.40167257
239	0x3ea563bc	0.32302654
240	0xbf83d1cd	-1.0298401
241	0xbda9d049	-0.0829168
242	0x3f5de5dd	0.8667887
243	0xbe5a2b2c	-0.21305531
244	0x3f899a52	1.075022
245	0xbf45909b	-0.77173775
246	0x3f0346d3	0.51279944
247	0xbf14e2db	-0.58158654
248	0xbec6c0dd	-0.38819018
249	0xbf6dd6fa	-0.92906153
250	0xbd16d2fc	-0.036822304
251	0xbec9a142	-0.39380842
252	0x3fa02c8d	1.2513596
253	0x3f692dea	0.91085684
254	0xbe1704c4	-0.14747912
255	0xbea3aaad	-0.31966153

xh/b f4 [128]
0	0x3e1f0d14	0.15532333
1	0x3f850b08	1.0393991
2	0xbefd8e65	-0.495227
3	0x3e3117ff	0.1729431
4	0xbf4b7562	-0.79475987
5	0x3e1f950f	0.15584205
6	0xbe49c72b	-0.19704883
7	0x3ea6374d	0.32464066
8	0xbe11480c	-0.1418764
9	0xbdf01dab	-0.11724409
10	0xbea91cd4	-0.33029807
11	0x3e51d928	0.20492995
12	0x3e1f0a5b	0.15531294
13	0x3e8d2176	0.2756459
14	0xbf0cf138	-0.5505557
15	0xbdbe36f4	-0.09287825
16	0x3c166428	0.009179153
17	0xbd80773e	-0.06272744
18	0xbe624740	-0.22097492
19	0x3e861847	0.26190397
20	0xbe3da74e	-0.18520853
21	0x3f18f789	0.5975271
22	0x3ef44dc9	0.47715595
23	0xbebb66d3	-0.36601886
24	0xbe1171dc	-0.1420359
25	0x3e2c44a5	0.16823061
26	0xbdb0351c	-0.0860388
27	0xbd90f643	-0.07078221
28	0x3dbca775	0.092116274
29	0x3ce3fe4f	0.027831225
30	0x3e86806f	0.26269862
31	0x3f1a04a2	0.6016332
32	0x3f119266	0.5686401
33	0xbe89a3a1	-0.2688265
34	0xbeb591f2	-0.3546291
35	0xbe576389	-0.21034063
36	0x3e21355f	0.15743016
37	0xbd2a9f41	-0.041655783
38	0xbf135b7b	-0.57561463
39	0xbdf00895	-0.11720387
40	0xbed5cc0e	-0.41757244
41	0x3e928e74	0.28624308
42	0xbeaef6a3	-0.34172544
43	0xbe9a9365	-0.30190578
44	0xbea36980	-0.31916428
45	0xbd96f396	-0.07370679
46	0xbe77486e	-0.24148723
47	0xbf28f8df	-0.6600475
48	0x3e43fc19	0.19139136
49	0x3e936bd1	0.28793195
50	0xbdf773c9	-0.12082631
51	0xbe76f18f	-0.24115585
52	0xbeb22cca	-0.34799796
53	0xbe661b85	-0.22471435
54	0x3f158289	0.58402306
55	0xbf5d321d	-0.8640459
56	0x3e574903	0.21023946
57	0x3ed577e1	0.41693023
58	0x3ec30e2e	0.38096756
59	0xbe1fceaa	-0.1560618
60	0xbe751d89	-0.23937048
61	0x3e427ea7	0.18993627
62	0x3e3d7bd0	0.18504262
63	0xbf0ed44c	-0.5579269
64	0x3ee4b6ab	0.44670615
65	0x3f230674	0.6368172
66	0xbdb721ca	-0.089419916
67	0xbdb25ea2	-0.08709456
68	0xbe9e6cde	-0.30942434
69	0x3ea215ed	0.31657353
70	0xbe988598	-0.29789424
71	0xbe6e0370	-0.23243499
72	0x3ea5f6c7	0.3241484
73	0x3d611147	0.054948118
74	0xbe23b6d8	-0.15987718
75	0xbe803a04	-0.25044262
76	0x3e6321d9	0.2218088
77	0xbea96284	-0.33082974
78	0x3d8bbd04	0.06823161
79	0x3cccebb6	0.02501474
80	0x3e61cc27	0.22050534
81	0x3e2cba92	0.16868046
82	0xbebe0d5d	-0.3711957
83	0x3c951d2e	0.01820239
84	0xbe5bea33	-0.21476059
85	0x3ed82b44	0.4222051
86	0x3ce11a03	0.027478224
87	0x3e7b8c6f	0.2456529
88	0xbf4b47bc	-0.7940633
89	0xbea3afb1	-0.3196998
90	0x3eb14998	0.3462646
91	0xbdc67506	-0.09690289
92	0x3ea7594f	0.32685325
93	0x3e625da5	0.22106035
94	0xbe78bb4d	-0.242902
95	0xbe99911f	-0.2999353
96	0x3e7ea1e3	0.24866442
97	0xbe6ef3ac	-0.23335141
98	0xbe3c89cb	-0.18411939
99	0xbe368dfe	-0.17827603
100	0x3e819863	0.25311574
101	0xbe938732	-0.28814083
102	0xbef361c3	-0.47535524
103	0xbe0c11cf	-0.13678668
104	0x3f452a1c	0.7701738
105	0xbee2a168	-0.44263768
106	0xbf0a2199	-0.53957516
107	0xbe231c19	-0.15928687
108	0x3ec1d9c3	0.37861452
109	0x3f008768	0.50206614
110	0xbe2ac40e	-0.16676351
111	0xbe6101f5	-0.21973403
112	0x3eba7e87	0.36424658
113	0xbe9498ab	-0.29022726
114	0x3f1161b3	0.567897
115	0xbe928a47	-0.28621122
116	0xbdf0bad4	-0.11754385
117	0xbef99f71	-0.48754457
118	0xbf507bbb	-0.814388
119	0xbcd3c528	-0.025850847
120	0x3f7204dd	0.9453867
121	0x3e07a92f	0.13248132
122	0xbe5ff47f	-0.21870612
123	0x3d14c2f7	0.036318745
124	0xbc88e31c	-0.016709857
125	0x3f2f5991	0.6849604
126	0xbe428b47	-0.18998443
127	0x3cb9dd27	0.022688461

xh/W f4 [128, 10]
0	0xbe6fa308	-0.23402035
1	0x3d5f2b01	0.05448437
2	0xbe00f973	-0.12595157
3	0x3d0729bc	0.032998785
4	0xbedfa164	-0.4367782
5	0x3f1d102f	0.6135282
6	0x3ead78b0	0.3388114
7	0xbe850a17	-0.2598426
8	0x3d78da93	0.060755324
9	0xbe0d555f	-0.13802098
10	0xc03281e7	-2.7891786
11	0xbd487e98	-0.048948854
12	0xbd912ac3	-0.07088234
13	0x3dbcfd58	0.09228009
14	0x3e9ae76a	0.3025468
15	0x3fbdc222	1.482487
16	0x3fb80155	1.4375407
17	0x3f88a707	1.0675973
18	0x3f8a355a	1.0797532
19	0x3f88f999	1.0701171
20	0x4056f807	3.3588884
21	0xbec01657	-0.37517044
22	0x3f09fdd3	0.5390293
23	0x3d612072	0.054962583
24	0x3ec55bb2	0.3854652
25	0xbde8e915	-0.11372582
26	0xbfcaaf57	-1.583476
27	0xbfa70965	-1.3049742
28	0xbe82a35e	-0.25515264
29	0xbf35c249	-0.7099958
30	0xbe56cd79	-0.20976819
31	0xbd1a5da7	-0.03768697
32	0xbec28dbe	-0.37998766
33	0xbdde31ff	-0.1084938
34	0x3f3b085c	0.7305963
35	0xbe9a4172	-0.30128056
36	0xbd0ada65	-0.033899684
37	0x3bd2f349	0.0064376933
38	0xbd330348	-0.0437043
39	0x3c31b044	0.010845248
40	0x3fcacdf0	1.5844097
41	0x3dd08d81	0.1018324
42	0xbe62e141	-0.2215624
43	0xbe6ce63f	-0.23134707
44	0xbd227009	-0.039657626
45	0xbee0b7e2	-0.4389029
46	0xbfa17456	-1.2613628
47	0xbf5b2721	-0.8560658
48	0xbeb67404	-0.35635388
49	0xbfa6036b	-1.2969793
50	0x3f2a97f2	0.666381
51	0x3f99cfec	1.2016578
52	0x3f91e700	1.1398621
53	0x3f264d1a	0.649614
54	0x3fdfc86a	1.7483037
55	0x3f071d0f	0.52778715
56	0xbebfd04b	-0.37463602
57	0xbf48331c	-0.78202987
58	0x3e9c08df	0.30475518
59	0xbe4e0d7d	-0.20122333
60	0x3f8ae836	1.0852115
61	0x3f20bf96	0.62792337
62	0x3f33b657	0.70200104
63	0x3e8cd757	0.2750804
64	0x3e95a1d4	0.29225028
65	0x3f706a71	0.93912417
66	0xbf080cc9	-0.5314451
67	0xbed57b27	-0.4169552
68	0xbee24109	-0.44190243
69	0xbf3c3703	-0.7352144
70	0xbe833f43	-0.25634202
71	0x3e2b568f	0.16732238
72	0xbf079db6	-0.5297502
73	0xbe88e9cd	-0.26740876
74	0xbfac2bac	-1.3450828
75	0xbf0adfc8	-0.54247713
76	0x3ef1caba	0.4722498
77	0x3ef8ada7	0.48569986
78	0x3eba5596	0.36393422
79	0x3f140554	0.5782063
80	0xbe5d7065	-0.21624906
81	0xbfeab375	-1.8336016
82	0x3fe7b8eb	1.8103307
83	0xbe1efaed	-0.15525408
84	0x3eddeb40	0.43343544
85	0x3f6ef690	0.93344975
86	0x3ec876ad	0.39153042
87	0x3de61c5e	0.11235879
88	0x3f1d9365	0.6155303
89	0x3e93aa8b	0.2884105
90	0xbe929666	-0.2863037
91	0x3d96a670	0.07355964
92	0xbe1b211b	-0.15149347
93	0xbd9eac17	-0.07747667
94	0xbf10c040	-0.5654335
95	0x3e42d610	0.19026971
96	0x3d47d13b	0.048783522
97	0x3e61e162	0.22058633
98	0xbecc91ad	-0.39954892
99	0xbe8648af	-0.26227328
100	0x3f29ecaa	0.66376746
101	0x3e9ff85c	0.3124417
102	0x3fe4b9b1	1.7869169
103	0x3f4cc066	0.79981077
104	0x3f88029a	1.0625794
105	0x3e7c0699	0.24611892
106	0x3f7c5b62	0.9857694
107	0x3f4a3bcc	0.7899749
108	0x3e5ad8e9	0.21371807
109	0x3f12b8cb	0.5731322
110	0x3dedd043	0.116119884
111	0x3e6424ca	0.22279659
112	0xc008b308	-2.1359272
113	0x3d2fc790	0.042914927
114	0x3e195bfd	0.14976497
115	0xbf3a6604	-0.72811913
116	0xbecf3989	-0.40473583
117	0x3e45258c	0.19252604
118	0xbda1cbf3	-0.07900228
119	0xbefa8dea	-0.48936397
120	0x3d363b28	0.04449001
121	0x3ef7502a	0.48303348
122	0xc032766f	-2.7884786
123	0x3e87d568	0.26530004
124	0xbea9c5ea	-0.3315881
125	0xbf208907	-0.6270909
126	0xbe73a8c9	-0.23794855
127	0xbca41a26	-0.020032
128	0xbe9728f3	-0.2952343
129	0xbb81b119	-0.0039578793
130	0xbf844a23	-1.0335125
131	0xbd2aef89	-0.041732345
132	0xbe8c73e7	-0.27432176
133	0x3c64f706	0.013974911
134	0xbf2d6625	-0.67733985
135	0x3ee4c4c7	0.4468138
136	0x3f114957	0.5675253
137	0xbe89089d	-0.26764384
138	0x3e8199ac	0.25312555
139	0xbdf2612d	-0.11834941
140	0x400f4b78	2.2389812
141	0x3e2b2028	0.16711485
142	0x3e558638	0.20851982
143	0xbd0386b3	-0.03211088
144	0x3f192c46	0.5983318
145	0x3fac2410	1.3448505
146	0xc00bc219	-2.1837218
147	0xbfb46c80	-1.4095612
148	0xbf8cca33	-1.0999206
149	0xbfd92b48	-1.6966333
150	0xbf226a74	-0.63443685
151	0xbd12f5d2	-0.035878964
152	0xbe87b3a1	-0.26504233
153	0xba3b9170	-0.0007155156
154	0xbf22b0ea	-0.635512
155	0x3ee61411	0.44937184
156	0xbf3f37ed	-0.7469471
157	0xbf40aac6	-0.7526058
158	0x3e094b74	0.1340769
159	0xbedc283a	-0.4299944
160	0x3fbb9f72	1.4658034
161	0xbcae5c3b	-0.021284213
162	0xbe8febed	-0.28109685
163	0x3de37bf7	0.11107629
164	0x3fb6e833	1.4289612
165	0x3f948fe1	1.1606408
166	0xbfc5a63c	-1.5441356
167	0xbf8dd05f	-1.1079215
168	0xbf982287	-1.1885537
169	0xbfb08c6a	-1.3792851
170	0x3ed14faf	0.40881106
171	0x3d6306e3	0.05542649
172	0x40080f23	2.1259239
173	0xbdbe85b6	-0.09302847
174	0x3e8a5b32	0.27022702
175	0xbe142b9d	-0.14469762
176	0x3e48a291	0.19593264
177	0x3dbdb866	0.09263687
178	0x3e0c93b6	0.13728222
179	0x3eb2b0d2	0.34900528
180	0x3f1e90f4	0.6193993
181	0x3e58dbd0	0.21177602
182	0x3fff6840	1.995369
183	0x3e2ee674	0.17080098
184	0x3ed24513	0.41068324
185	0x3eea0c8b	0.45712695
186	0xbec0fa47	-0.37690946
187	0x3e251f6a	0.16125265
188	0x3e83740c	0.25674474
189	0xbe1f8fba	-0.15582171
190	0xbf8646ac	-1.0490317
191	0xbd9087ab	-0.070571266
192	0x3e01bebb	0.12670414
193	0x3d3b246a	0.045689024
194	0x3f147286	0.5798725
195	0xbe845f2c	-0.2585386
196	0x3f551b6c	0.8324497
197	0x3efa225c	0.4885434
198	0x3e98d9fb	0.29853806
199	0x3d9b4a92	0.075825825
200	0x3f6173d6	0.88067377
201	0x3f416d34	0.75557256
202	0x402f7865	2.7417233
203	0x3ecb17a3	0.3966647
204	0x3e642004	0.22277838
205	0x3ecb3660	0.39689922
206	0xbe3dc75b	-0.1853308
207	0x3eee3b74	0.46529734
208	0x3e42c782	0.19021419
209	0x3f1260c0	0.5717888
210	0xbfc24e8e	-1.5180223
211	0x3f56e64a	0.83945143
212	0xbfee6754	-1.8625283
213	0xbf0d76e9	-0.5525957
214	0xbd1f0b29	-0.038829003
215	0xbe39d102	-0.18146136
216	0xbe86b211	-0.2630773
217	0xbf13141b	-0.57452554
218	0xbcaf0e03	-0.021368986
219	0xbd8be3c3	-0.068305515
220	0x3d3a004d	0.045410443
221	0x3d5cd716	0.05391606
222	0xbf5d2ee1	-0.86399657
223	0xbe3724fc	-0.17885202
224	0x3e21c8b8	0.15799224
225	0xbf18edcc	-0.5973785
226	0xbec5f2ea	-0.3866189
227	0xbee8d202	-0.45472723
228	0xbe80d6a5	-0.2516376
229	0xbebb4c8c	-0.36581838
230	0x3f02e531	0.5113097
231	0xbea76997	-0.32697746
232	0x40239e45	2.556535
233	0x3e878a25	0.26472583
234	0x3db31da5	0.087458886
235	0x3ebc69ec	0.36799562
236	0x3e8d315d	0.27576724
237	0x3e1c64a4	0.15272766
238	0x3f5100f4	0.8164208
239	0x3e8d7d25	0.2763454
240	0x3f3ae25c	0.73001647
241	0x3f4f1e5e	0.8090571
242	0x3fba4403	1.4552006
243	0x3f5730fb	0.84059113
244	0x40047457	2.0696008
245	0x3f5b5df7	0.85690254
246	0x3df4810e	0.11938678
247	0xbe055611	-0.13021113
248	0xbe4cdf44	-0.20007044
249	0x3ddaa293	0.1067554
250	0xbf30fcef	-0.69135946
251	0x3ef6a2b2	0.48171002
252	0xc0196168	-2.3965702
253	0x3d9f5de3	0.07781579
254	0xbf153d88	-0.58297014
255	0xbde02300	-0.10944176
