code/python/slip_model/10_128_4_5_10_4950_620_use_train_slip_model.npz (npz, 499990 bytes, 7 tensors)

hy/b f4 [4]
00000000: 8f7b 5ebe 59e1 23be 0149 febd 7ae8 e7bd
-0.21726821 -0.16003932 -0.12416268 -0.11323638

hy/W f4 [4, 128]
00000000: 61ce 6f3e 6f16 d3bd 710b b5be ea5e 35bf
00000010: b3c0 283d b5f7 1f3e c9e3 b1bd c980 d23e
00000020: 4379 1dbd 847c 233d 455f 813d acb4 4e3d
00000030: 0915 debe d002 7fbe 55c4 983f e480 6a3d
00000040: ee6d 94be 75ce 8e3d 3dbe d7bd 35ec 8d3d
00000050: 9389 a8bd 8150 acbd 187b 413e 8bf3 9d3d
00000060: 7b8d c4bf 644b d7be 2180 ac3c 57f2 c8bd
00000070: 090c 58bf 5b47 0bc0 c6cd 1ebe 7f28 703e
00000080: fd21 eb3c b8ac d1be 5c4c c33d a3e7 43bd
00000090: 132d 4fbd be1d 0dbc 370d d93f 5f78 b83e
000000a0: f2f1 3cbf ecdc 2e3d 69af 3b3e 462a 6e3e
000000b0: 6fc8 113e ed62 883e 1010 ecbb e5f1 24be
000000c0: ecae b1be 5a9d bfbf b9ab 01bf d31e 7d3d
000000d0: 9528 773e cecb 76bd ea0c 06be 2d4f 01be
000000e0: 73a3 bf3e 98e0 0d3e 6c9d fd3e 66c4 32bf
000000f0: fcc0 a83d d362 c63e 1998 313f bfec 4cbf
00000100: 80e5 fb3e 83cc 773f f739 cfbf ed2a c03e
00000110: 1fde bc3d 519e 62be f0a6 8ebe c7f4 d8be
00000120: 1dc8 ccbc 0fd7 ab3e f3ff 643e 8beb 3d3e
00000130: 7b3a 203e 07d8 4f3f d298 d8be b1f5 6bbe
00000140: fa02 db3e 851e 7bbe 9d8a 9cbd 69a6 22c0
00000150: b9fb b1bf a122 9abe bb48 b9bd aab4 8abe
00000160: c855 7d3f 2400 e9bd cc62 4fbe 4495 a9be
00000170: 7092 6a3f ad6f a9be f111 9b3e 2f98 463d
00000180: 47f6 24be 6167 a3bd 4555 0e3f 6ca5 2240
00000190: 4f1e af3e 815a 7d3d 89f7 193d 40c8 c33d
000001a0: 8c3a 09be 4508 ea3e 01b4 cebe 8d6a 50bd
000001b0: a344 d2be a6c1 483e 4182 8bbf 20c6 efbc
000001c0: 8b63 cdbd 0fba f23d 704d c0bf 16cf d63b
000001d0: 4e24 d5bd b03c 36bd 162c c43d c28d ba3d
000001e0: aa0c 1a3e ab2d 51bd 36b0 35c0 dd1e 1abf
000001f0: 4022 f03d 7fad c33d a88d 453d bcdc 123f
00000200: f829 7e3e 19e6 62be 36b8 bebe 144f 33bf
00000210: 8ea7 153d b271 2d3e 6cd5 c7bd 0a39 ca3e
00000220: 882f 8abd cb8c 2f3d eaf3 613d 81d3 ce3e
00000230: 02e3 bebe 72c0 63be 72ab 8b3f d0c8 8e3d
00000240: d71a 9fbe 6334 df3d af4c 17be 0e1b 803d
00000250: 96ea 98bd 4c4b d7bd b613 463e 8044 783d
00000260: f99a a8bf a0b9 e2be c8f6 d33d 954a 1fbe
00000270: 78f9 68bf dd69 0bc0 58ea 4cbe 7c60 6d3e
00000280: 358a 023d 1f8d d5be 61b4 cc3d e6ff 2fbe
00000290: a250 45bd 4c1f 383e d7a0 fb3f 25bb 443e
000002a0: 7cbe 56bf f46a 1dbe 8922 403e 878c 513e
000002b0: aea5 1a3e c3ef 9a3e 14ad 3bbc 6397 2fbe
000002c0: 4fa5 a9be 31e4 10bf c955 4bbf d740 543e
000002d0: 8012 7d3e 10dd 8abd 9b05 18be 08c9 1fbe
000002e0: b6da f03e ef0b c23d 38dd 003f 770a 34bf
000002f0: 760c 1a3e e7f0 fb3e a25d 333f 9173 67bf
00000300: abdf f83e 8096 2d3f d916 bcbf 9cbd 853e
00000310: a7ba c63d ad79 2dbe d067 44be f0a5 87bd
00000320: 450e 37be 01e9 a73e 0f7b 423d 7b41 3d3e
00000330: e716 1d3e ac70 fe3e bc37 e1be df4d 6fbe
00000340: ffdf ef3e 97e6 33be 40ba 68bd 5714 31c0
00000350: 160a e6bf 3457 92be fb41 f1bd 4fef 88be
00000360: c45d 863f 96b4 6cbe 837d 68be da51 823d
00000370: 2d03 1e3f b1e2 b0be 32c9 933e 8075 2abe
00000380: a758 31be 36bc dcbd bd1e 093f cfc0 1940
00000390: a2a8 7b3e 57ae c63c 1466 0f3d 7fa8 da3d
000003a0: 41c5 02be 4125 e43e 1895 2ebd 5d59 89bd
000003b0: 6137 d4be e9e0 4b3e b915 91bf 6cec 54be
000003c0: 270f 23be f9cb e63d 5c35 bfbf 8918 d23d
000003d0: 1620 2abe 272e 003d eb14 2a3d 2e7e d63d
000003e0: 8105 423e 53b8 c33b 309f 34c0 d5c0 60bf
000003f0: 249f 3f3e dd98 943d 45aa 4a3d 0b29 073f
0.23418571 -0.10307013 -0.35360292 -0.7084795 0.041199397 0.15621836 -0.08686025 0.4111388
-0.038445722 0.03991367 0.06316999 0.05046527 -0.43375424 -0.24903417 1.1934916 0.057251826
-0.2899012 0.06972972 -0.10534332 0.069298185 -0.08229365 -0.084137924 0.18894613 0.07712468
-1.5355676 -0.42049706 0.02105719 -0.09811848 -0.84393364 -2.1762302 -0.15508184 0.23452948
0.02870273 -0.40952086 0.09536049 -0.047828328 -0.050580095 -0.008613048 1.6957158 0.36029336
-0.7380668 0.042691156 0.18328632 0.23258314 0.14236616 0.26637974 -0.0072040632 -0.161079
-0.34703767 -1.4969895 -0.5065265 0.061796974 0.24136575 -0.060252957 -0.13090864 -0.1262786
0.3742939 0.13855207 0.49534166 -0.6983093 0.08239934 0.38747272 0.6937271 -0.80048746
0.49198532 0.96796435 -1.6189564 0.3753275 0.09222054 -0.22130705 -0.27861738 -0.4237425
-0.024997765 0.33562514 0.22363262 0.18546884 0.15647309 0.81189007 -0.42304093 -0.23042943
0.42775708 -0.24523361 -0.07643626 -2.5414069 -1.3904945 -0.30104545 -0.09047075 -0.2709096
0.98959017 -0.1137698 -0.20252532 -0.33121693 0.91629696 -0.33093014 0.30287126 0.048484977
-0.16109572 -0.07978702 0.5559886 2.5413465 0.3420281 0.06185389 0.037589584 0.09559679
-0.1340124 0.45709434 -0.40371707 -0.050882865 -0.4106799 0.19605121 -1.0899125 -0.029269278
-0.10028752 0.11851894 -1.5023632 0.0065554483 -0.10407315 -0.04449147 0.09578721 0.091090694
0.15043893 -0.051068943 -2.83888 -0.60203344 0.11725283 0.09554576 0.048230797 0.57368064
0.24820697 -0.22158088 -0.37249917 -0.7004254 0.036536746 0.16937903 -0.09757504 0.39496642
-0.06747347 0.04285888 0.055164255 0.4039574 -0.37282568 -0.22241381 1.0911696 0.06971896
-0.31075165 0.10898664 -0.14775346 0.0625516 -0.07466619 -0.105124086 0.19343457 0.0606122
-1.3172294 -0.44282246 0.10349804 -0.15555795 -0.9100566 -2.1783364 -0.2001127 0.23181337
0.031870086 -0.4170923 0.09995342 -0.17187461 -0.0481726 0.17980689 1.965846 0.19212015
-0.83884406 -0.1537283 0.18763174 0.20463763 0.15102264 0.3026105 -0.011454839 -0.17147593
-0.33133933 -0.5659819 -0.7942777 0.2072786 0.24714088 -0.067804456 -0.14845888 -0.15604031
0.47041863 0.094749324 0.50337553 -0.7032847 0.15043816 0.4920723 0.7006475 -0.90410715
0.48608145 0.6780777 -1.4694473 0.26121223 0.0970357 -0.16940947 -0.19180226 -0.06623447
-0.17876537 0.32794955 0.04748064 0.1848201 0.15340768 0.49695337 -0.43987834 -0.23369549
0.46850583 -0.17568432 -0.056818247 -2.7668664 -1.7971828 -0.28582156 -0.11780163 -0.26745078
1.0497365 -0.23115763 -0.22704129 0.06363268 0.61723596 -0.34547952 0.28864437 -0.16646385
-0.17318974 -0.10778086 0.5356253 2.402393 0.24576047 0.024253054 0.03500946 0.10676669
-0.12770559 0.44559672 -0.042622656 -0.06706498 -0.414485 0.19910015 -1.1334754 -0.20793313
-0.15923749 0.112693734 -1.4938159 0.10258586 -0.16613802 0.031294014 0.041523855 0.104732856
0.18947412 0.005972901 -2.822216 -0.8779424 0.18713051 0.07255719 0.049478788 0.52797

hh/lateral/W f4 [512, 128]
00000000: b771 5b3d c36d bc3d 93dc a23e b070 87be
00000010: 3524 bcbd 3ede c53d e464 853d 6392 1a3e
00000020: 782b 14bd b044 c4be 606c c2be ddeb 0fbb
00000030: a648 ca3c 981f 8e3e c2be 05bd fd1d 6c3e
00000040: 097e 98be d5fe f73d 1902 e03e fefc 9b3d
00000050: 900e c13e dec1 eabd 24a0 5bbe 53c6 a53e
00000060: a83a 28be 2e07 12be cb14 3c3d e5e3 22be
00000070: 3be7 143f aa17 a9be 7066 003f 1a8d fabe
00000080: d74e 3ebe 2b61 9c3e 242a 7c3e 9423 3abe
00000090: 6a82 04bd f56a debd fe55 57bc 19c5 b33e
000000a0: e65d f3be e3fb 21be 8402 e0bc fdce 00bd
000000b0: 596c 103e c868 8b3d 9ba3 3dbe 4a2a 9cbe
000000c0: 090a 0f3e 879b a53e a568 fa3d a01d b83e
000000d0: fe54 efbe 5080 7cbe 499d 833e 3eb5 323e
000000e0: 240f 23be 4f1f bcbe 984b 65be f463 a7be
000000f0: 8b1a 2cbe ba5f eebe 600e 8b3e d7ae 123e
00000100: b922 c8ba 0cfb 86be a017 23be 8fe3 c03d
00000110: 8850 82be 07e3 f0bc b39e b3bd aff5 0bbf
00000120: 81b3 85be f885 483d 57ab 97bd 2bb3 973e
00000130: 7573 07bf f4ab 17be c31f da3d e99b a63e
00000140: 1cf6 a33e 8c2a d63e f365 043f d200 9b3d
00000150: e470 a33e c340 2dbe 9f03 dc3c e6e0 92be
00000160: 51ac 8ebe 523f b63e 14a9 1f3e 4023 f9bd
00000170: 7538 103f cafb b53e 96f5 a93d 269c 613e
00000180: 7e67 3e3e a5ee 4a3e 3bb3 ca3d e0b7 5fbe
00000190: b5b3 cabe 642b 48be eafa 373e 18e8 293e
000001a0: ea30 58bd 0ea3 343e 9f76 6c3e c5f3 19be
000001b0: ef20 0b3e 4ff3 cebe d3bf e83c 93df 763d
000001c0: c32d 08bd 73ba edbe bc09 0a3f a11f b23c
000001d0: 8210 09be b1d7 ea3d 78a6 893d 4750 513e
000001e0: 5367 b83d 4d28 f53d 785b ea3e 8bc8 97be
000001f0: 1b80 033c a83f 44be aded a93e 57f5 34be
00000200: 7720 17c0 d3ee aa40 0b5e f5c0 0e49 ce40
00000210: f794 9641 553c 7840 073d 7140 fa25 d4be
00000220: 431f 493f cb93 2ebf 5e35 0cc0 3d23 ad3f
00000230: b882 1d40 f1e0 6ec0 e874 063f 3b94 debf
00000240: 3c34 35bd 5291 8b40 99d8 6940 6fad 6b3d
00000250: 0633 2a40 a2c3 af3b f11d 00c1 737d c3bf
00000260: da08 00bf 1c59 253f 6a0f c8be 9700 2d3f
00000270: 84a5 263f 9a29 6fbd 173e 8ec0 a9da 7fbf
00000280: 4853 2840 198e 9740 6d7d 073f c99f bbbf
00000290: 638a 5bc0 db24 1240 bc67 3a3e 155a dabd
000002a0: 5242 0a3f 44ec cebe 937c aec0 c179 2bc0
000002b0: 775e 7ec0 4b45 8abf c5ac 3241 a8e2 433e
000002c0: 083c 963f a349 82be 8cb1 b53d b47b 773f
000002d0: cec5 2b3e a38f 8fbe dacb a73f 4c1f 6abf
000002e0: b85b 983d 7554 5b40 2328 cdbe 4fb6 3f3e
000002f0: ea0e 683f 095f ce3e e557 413f 087a 8cbf
00000300: e696 ed3f 1d86 203f 6dff ed3d b756 5540
00000310: a5c4 1dc1 587a 51c0 a525 1440 7dc0 3340
00000320: ef0e ae37 f80e abbe 84dd 9cbf fff1 3540
00000330: 2b2e 06c1 6824 a13e d32a 5540 9afe 0dc0
00000340: 893b 043e 67e3 7b3d 51f1 8440 b299 6cbe
00000350: 45cb ebbe 4801 903d 38e7 09be 6102 15be
00000360: 5a01 ad3e 330f d1bf 2d44 f73e 04d3 043e
00000370: fc3f 8640 e93d a9c0 d2b6 ef3d 3b77 a63f
00000380: 3c4c 2741 a5ca 543f 40ef 803d c763 b63f
00000390: 9f99 8d3f 6f8a 7ac0 7d6b 62c0 7013 e7c0
000003a0: 8fc7 6e40 58d4 da3e b34e 7940 fbd4 8abf
000003b0: 73db 74be 6216 6740 d01e 91be 2829 883e
000003c0: 541f ddbc f64f 9740 bf9c 413f eeaa 223e
000003d0: 1e71 a1bf 5c7c 2a40 f803 5b3f c7c6 a140
000003e0: ccdb 42c0 4a81 29c0 2364 4dbe ec45 54bf
000003f0: 700c aa3e d1ce 2cc0 7cf9 c6c0 bed2 14c0
0.053575244 0.09200623 0.3180891 -0.2645316 -0.091865934 0.0966153 0.06513384 0.15094905
-0.036174268 -0.38333654 -0.3797331 -0.0021960654 0.024692845 0.2775848 -0.032652624 0.23058315
-0.29783657 0.12109152 0.437516 0.07616614 0.37706423 -0.114627585 -0.21447808 0.32377872
-0.16428626 -0.14260551 0.045918267 -0.15907247 0.5816533 -0.33025867 0.5015631 -0.48935777
-0.18584763 0.30542883 0.2462545 -0.18177634 -0.032350935 -0.10860244 -0.013143061 0.3511131
-0.47532576 -0.15818743 -0.02734495 -0.0314474 0.14103831 0.06807095 -0.18519442 -0.30501014
0.13968672 0.3234522 0.122269906 0.35960102 -0.4674453 -0.24658322 0.25705937 0.17451951
-0.15923744 -0.36742637 -0.22392118 -0.32693446 -0.16807 -0.4655741 0.27159405 0.14324509
-0.0015269137 -0.2636341 -0.15926981 0.09418403 -0.25452065 -0.02940513 -0.08770504 -0.5467176
-0.26113513 0.048955888 -0.07405727 0.29628882 -0.5291055 -0.14811689 0.10650589 0.32540825
0.32023704 0.41829336 0.5171806 0.07568516 0.31922066 -0.16919236 0.026857195 -0.2868721
-0.27865842 0.35595185 0.15591842 -0.121649265 0.56336147 0.35543662 0.08298795 0.22032222
0.18594167 0.19817598 0.09897467 -0.21847486 -0.3959023 -0.19547802 0.1796681 0.16592443
-0.052781023 0.17640325 0.23092125 -0.15034397 0.13586782 -0.40420005 0.028411781 0.06027181
-0.033246767 -0.46431312 0.53921103 0.021743597 -0.13385203 0.11466921 0.067212045 0.2044078
0.090040825 0.119705774 0.4577291 -0.2964519 0.008026148 -0.19164908 0.33189145 -0.17671715
-2.3613565 5.3416533 -7.66773 6.446418 18.822737 3.8786824 3.7693498 -0.41435224
0.78563327 -0.68194264 -2.1907573 1.3526379 2.4611034 -3.7324793 0.52522135 -1.7388986
-0.044239268 4.3614893 3.653845 0.057538446 2.6593642 0.0053638974 -8.00731 -1.5272659
-0.50013506 0.64589095 -0.3907426 0.67579025 0.65096307 -0.058389284 -4.4450793 -0.99943024
2.630083 4.736096 0.5292576 -1.4658138 -3.4303215 2.2834995 0.18203634 -0.10661713
0.54007447 -0.4041463 -5.452707 -2.6793063 -3.9745157 -1.0802397 11.16718 0.19129431
1.173707 -0.25446805 0.08871755 0.9667313 0.16774675 -0.28039274 1.3109086 -0.91454005
0.07439369 3.4270298 -0.40069684 0.18721889 0.9064776 0.4030688 0.7552474 -1.0974741
1.8561676 0.6270464 0.11620984 3.3334177 -9.860509 -3.2730923 2.3147976 2.8086236
2.074937e-05 -0.33409858 -1.2255101 2.8428953 -8.386271 0.31473088 3.3307388 -2.2186646
0.12913336 0.061496165 4.1544576 -0.23105505 -0.4605352 0.070314944 -0.13467109 -0.14551689
0.33790094 -1.6332763 0.48294201 0.12971121 4.1953106 -5.2888074 0.11704792 1.3005136
10.456112 0.8312171 0.06295633 1.42492 1.1062506 -3.9146993 -3.5378106 -7.2211227
3.73093 0.4274013 3.8954284 -1.0846246 -0.23911838 3.6107411 -0.2834382 0.265939
-0.026992477 4.728511 0.756298 0.15885517 -1.2612646 2.6638403 0.8555293 5.055515
-3.0446653 -2.6485162 -0.2005773 -0.8291919 0.33212614 -2.700123 -6.2179546 -2.3253627

hh/upward/b f4 [512]
00000000: 2ae5 dc3c d82f 993e ec8b 2f3f 02f0 a4c0
00000010: eca0 e43d 8268 553f 7dd2 e43f 2048 2ec0
00000020: 31f8 d23f 5780 4a3f 25f2 123f a5e0 9e3f
00000030: 3a88 21bf 17ed 3ebf a033 5ebc c455 83c0
00000040: 2d08 423e 6c78 8bbf 1a84 c23e 4124 48c0
00000050: a948 acbf c0fa 2c3f 636b 0a3f 0128 283e
00000060: fd86 05c0 2c6a 373e 4031 99be 7056 a8bf
00000070: 6dee 3abf 4a04 ec3e 4518 cfbe 02ad a4bf
00000080: 0d11 95bd 61b1 a2be 79cd 9fbe 5e16 b53d
00000090: c3f9 bcbf b500 7bbf 4cf8 9b3f cd20 aabd
000000a0: 340f 3d3e 0c35 1340 b9b1 69bf c9ef ed3d
000000b0: 2b6d edbe 1f0a 96bf 1454 773f 5fe8 02bf
000000c0: 7405 433e aa06 6e3d 07fe 5740 255e 9bbe
000000d0: 5686 3abe 074f d03f 37a1 8dbf 389f 0cbf
000000e0: 765a b4bf b4f6 dc3f e71e ab3f 91d0 b33f
000000f0: f3a3 b53d 5588 ebbf 6e65 04c0 25f5 bebf
00000100: f543 01bf 64a7 c6bd 52af 4e3f ca5c 48be
00000110: f8e4 63be 6cf4 8abf 5fc9 213e 7c89 c5c0
00000120: 0532 92bf 6d3e e6be 995b 2e3f 55e7 5ebe
00000130: bf70 e6be 6a79 07be 92aa 453f cd80 c83f
00000140: 8d2b 42be 152a 0f40 1e37 1940 9b2a abbe
00000150: 9503 cc3f 5ec3 8e3f f410 503f d314 27bf
00000160: 4d86 6ebf 9c28 9abf b014 833d de14 a8bf
00000170: 5c62 2a3f fc48 d93f 60a7 3d3f fa34 77bf
00000180: dd1d 6b3f 958b c5bf eda1 973f 8870 37bf
00000190: f081 a9bf 5b90 d83f 2fd0 7c3f 4311 0b3f
000001a0: b1dd 72bf d303 62bf 7115 623f 67e9 6e3e
000001b0: d067 92bf 44e5 babb 2c88 79bf 253c c5bf
000001c0: 439c 90bf 97f4 febd 7847 0f3f 2044 69be
000001d0: 898f 0f3f 23c9 4b3f be4a fb3e 90af b9bf
000001e0: 7bcf a33f 4b51 4fbf 7b92 29c0 98f8 29be
000001f0: 5a55 a43f 2bba 413f 7aaf 1240 e2a4 db3e
00000200: f20d c6bf 3c9b 293f 70da 883e 5493 b13f
00000210: 4fb7 00be b062 2740 31f1 c33f 2181 a0bf
00000220: 2ee5 03bf 9bc8 d23e 1e53 2b3f 46f1 91be
00000230: 72b7 603e 37b7 81bf ba02 233f 2377 c6bf
00000240: 6735 f53d d090 4d40 e26f a63d f5b8 28c0
00000250: 8697 683e aa73 a13e e2d7 553f 8188 bdbf
00000260: 6dd0 83be 7584 9abf c49c 503f 6f81 023f
00000270: f1d1 ba3f 3313 2b3f 4301 a23f 0771 9e3e
00000280: 00e9 6dbf 4162 3d3f f0e4 963f fd11 c93f
00000290: e346 15bf ff81 2dbf 9667 243f ef59 2a3f
000002a0: 0634 4940 9f16 2a40 163e 02bf bf30 3bc0
000002b0: 3b32 0240 c01b 86be a839 02c0 0ca2 1abf
000002c0: 2ad2 2b3f af95 68c0 79a9 a23d d7c7 9cbf
000002d0: b160 a3bf cbe6 9cbf 7371 693d a6fa 49bf
000002e0: ab42 5bbe ee73 3bbf 74c3 7f3f 6b09 d1be
000002f0: 578f 63bf e315 bd3f dc33 c63f d0c2 083f
00000300: eaa0 073f ffa3 6cbd 80cd a53d 2c31 f2bf
00000310: aacc d6be e353 bdbf e653 f43e c25d 06be
00000320: 05f1 453f 9511 b5bf 87ed b33f 252d 30c0
00000330: 6b85 aebe a8b5 873f b4b6 853f c147 e73e
00000340: 5bce 5cbf a6e1 c0bd a01a 623f 8db8 8abf
00000350: bac8 6b3e 4841 a43f b78f 77bf 52d4 6e3d
00000360: 4625 193f e6f7 19bf 3ec6 1ebe 4751 83c0
00000370: 6e85 45bf 9a39 2f3f 38fe 683f 6ac7 39bd
00000380: 29be 223f 303f 4ebf bf8a 903f 57a8 c3bd
00000390: f42f 94bb f316 b0bf 7ce1 42bd bf70 d4bf
000003a0: e220 07bf f864 933e 0900 3fbd a56c b3be
000003b0: 1120 29bf e174 0b40 5152 e93f d425 9a3f
000003c0: 781c 543f 445d c8bf bc64 053f 33d6 60bf
000003d0: a8e1 65bf a439 ecbe 96bc 9b3f 1a3e 6ebe
000003e0: 756d 103f ebe3 00bd bad5 343f f25f 1cc0
000003f0: c391 7b3e f5d6 c7be 9162 81bf 0e5e 18bf
0.026964743 0.29919314 0.6857288 -5.154298 0.11163506 0.8336259 1.7876736 -2.7231522
1.6481992 0.7910208 0.57400733 1.2412306 -0.6309849 -0.7458052 -0.013562113 -4.1042194
0.18948431 -1.0896125 0.3799141 -3.1272128 -1.3459674 0.67570114 0.5407011 0.1642151
-2.086364 0.17911595 -0.29920387 -1.3151379 -0.7302006 0.46097022 -0.40448204 -1.2865298
-0.07278643 -0.31775954 -0.3121145 0.08842157 -1.4763721 -0.98047954 1.2185149 -0.083070375
0.18462831 2.3001127 -0.9128681 0.11618001 -0.4637235 -1.1721839 0.9661267 -0.5113582
0.19045049 0.058111824 3.3748796 -0.30345264 -0.18215308 1.6274117 -1.1064824 -0.5493045
-1.4090106 1.7262788 1.3368806 1.4048024 0.088691615 -1.840098 -2.0686908 -1.4918562
-0.5049432 -0.09699896 0.8073627 -0.19566646 -0.22255313 -1.0855842 0.15799473 -6.1730328
-1.1421515 -0.44969502 0.68108517 -0.21767934 -0.45007893 -0.1322991 0.77213395 1.5664307
-0.18961926 2.2369435 2.393989 -0.33430943 1.5938593 1.1153371 0.8127587 -0.6526615
-0.93173677 -1.2043643 0.0640043 -1.3131368 0.66556334 1.6975398 0.7408352 -0.9656521
0.9184244 -1.5433222 1.1846291 -0.71656084 -1.3242779 1.6919054 0.9875516 0.54323214
-0.94869524 -0.88287085 0.88313967 0.23331223 -1.1437931 -0.0057036 -0.97473407 -1.540898
-1.1297687 -0.124489956 0.5596843 -0.22779894 0.5607839 0.79603785 0.4908046 -1.4506702
1.2797693 -0.8098342 -2.6495655 -0.16598737 1.2838547 0.75674695 2.2919602 0.42899233
-1.5473006 0.66252494 0.26729155 1.3873086 -0.12569927 2.6153984 1.5307981 -1.2539407
-0.51521575 0.41168675 0.669237 -0.2850439 0.21944979 -1.0134038 0.63676035 -1.5505108
0.11973076 3.2119637 0.08126809 -2.636289 0.22714052 0.31533557 0.83532536 -1.4807283
-0.25744954 -1.2071673 0.81489205 0.5097875 1.4595319 0.6682617 1.2656635 0.30945608
-0.92933655 0.7397805 1.1788616 1.5708615 -0.5831129 -0.67776483 0.6422056 0.6654348
3.1438003 2.6576307 -0.50875986 -2.9248502 2.0343158 -0.26193047 -2.034769 -0.60403514
0.6711756 -3.634136 0.079424806 -1.2248486 -1.2763883 -1.2257932 0.05699296 -0.78898084
-0.2141215 -0.7322377 0.9990761 -0.40827498 -0.88890594 1.4772304 1.5484576 0.5342226
0.5297991 -0.057773586 0.08095837 -1.8921256 -0.4195302 -1.4791225 0.4772026 -0.13121703
0.7732089 -1.4145991 1.4056863 -2.7527554 -0.34086165 1.0602312 1.0446382 0.4517193
-0.86252373 -0.09418039 0.88321877 -1.083757 0.2302579 1.2832422 -0.96703666 0.058307953
0.598225 -0.6014389 -0.15505311 -4.1036716 -0.7715672 0.6844727 0.9101291 -0.04535619
0.6357141 -0.80565166 1.1292342 -0.09553593 -0.004522318 -1.3757004 -0.04757832 -1.6596907
-0.5278455 0.2878797 -0.046630893 -0.35043827 -0.66064554 2.1790087 1.8228246 1.2042794
0.8285594 -1.5653462 0.52106833 -0.8782684 -0.8979745 -0.46137726 1.2166927 -0.23265877
0.5641702 -0.03146736 0.7063862 -2.443356 0.24567322 -0.39031187 -1.0108205 -0.59518516

hh/upward/W f4 [512, 128]
00000000: 6a42 c1be 9ce1 f63d 51b0 fa3c 835a 4ebf
00000010: a0a7 fd3d d981 0f3e cb3b aabc 08a7 8f3e
00000020: c765 d7bd 6a6f e23d 6c7f d6be f6b8 a8bf
00000030: b6bd a0bf 759d 033e 7973 8dbd 0079 3e3f
00000040: fa32 88bc 43a5 1c3f 587e 0f3f 831c 133f
00000050: 6ec1 ac3f 4b25 943e 947a c63d 5162 d63e
00000060: 43e4 063f 0a05 d1be 548b 58be 2080 133f
00000070: e514 ecbe bba0 e63d d2d0 d63d 8e82 07bf
00000080: b33a 063e 046c 183f 5278 ebbe fba5 5c3f
00000090: a433 0ebf 98fe ffbe 5b01 0a3e a1b3 96be
000000a0: c53a 0d3e 50d2 dabd 7765 883e d957 083f
000000b0: c00b 043f 9598 99bd 0f4a c73d ae2d a5be
000000c0: 2977 50be b6cf 963e 0d74 a03c 294e af3e
000000d0: 82c5 4f3f 3bb3 f03d dfa9 5abd 55a2 eb3c
000000e0: ff26 cabd 9722 c43d 2074 bb3e f7ad e83e
000000f0: 0771 953e db93 85be 613e 1ebf 3e7f 8ebc
00000100: 0b6d 7fbe dcc0 af3e c49a 05bf 1020 3a3f
00000110: 0242 683f c953 f9bd 6679 9ebe 6a69 c93d
00000120: c074 243e e357 cf3e df8f 8d3f 82cd aa3e
00000130: cf76 593e 28cc 493f e49e 6dbe 273a e6be
00000140: b979 a4be 6542 d5be d03f c93e ed03 ff3d
00000150: 2c6d e1bd d7dc dbbe d84d e73c 6139 ce3e
00000160: 37b5 2abf ce80 2d3c 33c7 24be bebe 1a40
00000170: 8796 283c bfe5 15be 70ba 6abe f72f e83e
00000180: 4fda 343e dfbb af3f 3304 843d 75ef 773e
00000190: 1dff d5be 863b 9d3d af3b 86be c9e1 343f
000001a0: 26a7 a2bd 1f6e 6d3d 57f8 55be a1e3 4d3e
000001b0: 7573 25bf ed84 6a3e 5315 833d b05b 05bd
000001c0: af63 07bf 573f 693f 47cd 053f 0738 c73e
000001d0: 7461 b3bd f7a7 a6be f3d6 03be 59a7 c83d
000001e0: 8ecb 003f c585 1cbd c1ed 5b3e 2cc4 0fbe
000001f0: 7c6a 85bd 5da5 843d d69c 8d3f 3fe2 81bb
00000200: 2464 44be 2014 bebe 827d c2bd 3e06 ae3f
00000210: c57d 9d3e 1510 21bf c008 503d 7786 f73e
00000220: 7f3e 533f e460 a7bf 1465 623c 7a49 d8be
00000230: 8bed e5be b3bc 27bf f5d7 f1be 7864 45bd
00000240: 824f e9be 1575 773f 3dc9 42be f6ac e2be
00000250: 0f3e e53e 2c4f 0440 6347 153f 3e35 df3e
00000260: 1586 9fbf a6e8 07bf deb7 f03d 2570 203f
00000270: d3cc 393f 6f7f f53f 6e37 7fbf 0b82 85bd
00000280: b73e 73bf 1be7 2e3f 1218 23bf 5a35 7e3f
00000290: fccc 5fbf ccd2 5b3d 3d05 b03e 3a9d 0c3e
000002a0: 9d16 583f 50b3 b43e ff90 fdbf e23d 87be
000002b0: 0e88 7b3d d412 3cbf b7c7 babd 9202 ebbf
000002c0: 10f7 10bf c2bb babd 0b12 ab3f 84f4 36be
000002d0: 410b 283e 244b 443f ac65 0d3f cbad 413f
000002e0: 5fc3 81bf edb3 8d3f ce97 b03e 7052 933e
000002f0: 7320 e33f faf6 cebf 47f7 09bf 246b 8a40
00000300: 107b b63d 8d40 91bf 83c2 383e a9e5 943e
00000310: 12be 313f 3687 cc3f 3500 11bf 0964 a2bf
00000320: fc9f 2c3f f90c 133f f2a6 ae3e 364b de3e
00000330: 6ad4 c73e 0f20 fd3c 1861 9abc 8302 e8be
00000340: dbfc 91bd 94f1 863f aeb4 2ac0 e8bb ba3f
00000350: 0d63 27bf 071f 7d3d 6f70 d9be c3bb bd3e
00000360: 2608 3840 b274 753f bf7a f33f 5265 383f
00000370: 7d77 c63e f868 14bf 846e 2b3d 01d7 97be
00000380: 5310 f8bd 0066 1a3f 4b0e 493f b6e5 af3e
00000390: d1c0 df3e c1ed 123f c0a1 2fbf 2b07 043e
000003a0: f485 3dbe 42cf 87bf 720e ddbc 5ba1 17bd
000003b0: 606c 72bf d4c8 a53e 210b 273f a97f 963f
000003c0: c4b5 2dbf 97db 173e 6778 803f 68fc d23e
000003d0: e442 543f ba76 bb3d 8472 c13e f061 103f
000003e0: a6d5 8bbe d504 963b d141 013f 6973 33bf
000003f0: d526 883f 00be a83f e3a2 8a3e e018 8bbe
-0.37745982 0.1205475 0.030601652 -0.8060686 0.123854876 0.14014377 -0.020780465 0.28057122
-0.10517459 0.11056407 -0.4189409 -1.3181446 -1.2557895 0.12853034 -0.0690679 0.7440338
-0.01662587 0.6118967 0.5605216 0.5746538 1.349653 0.28934702 0.09691349 0.41871884
0.5269205 -0.40824157 -0.211469 0.5761738 -0.4610969 0.11261126 0.10489048 -0.52933586
0.1310833 0.5953982 -0.45990235 0.86190766 -0.5554755 -0.49998927 0.1347708 -0.2943392
0.1379195 -0.10684645 0.26639912 0.53259045 0.5158043 -0.07499806 0.097309224 -0.32261413
-0.20357956 0.29455346 0.019586587 0.3423932 0.8116075 0.117529355 -0.053384658 0.02876393
-0.09870719 0.0957691 0.36612034 0.45445225 0.29187796 -0.26089367 -0.6181393 -0.017394658
-0.2494394 0.34326828 -0.5218928 0.72705173 0.9072572 -0.12174184 -0.30951995 0.09834559
0.16060162 0.4049674 1.1059531 0.33359915 0.21236728 0.7882714 -0.23205143 -0.44966242
-0.32124117 -0.41652218 0.39306498 0.12451921 -0.11007151 -0.42941925 0.028235361 0.40278152
-0.6668276 0.010589791 -0.16091613 2.417892 0.010289795 -0.14638422 -0.22922683 0.45349094
0.17661403 1.3729209 0.064461134 0.2421244 -0.41796198 0.07677369 -0.2621741 0.7065702
-0.07942037 0.057966348 -0.20895515 0.20106365 -0.646293 0.2290227 0.06400552 -0.032558143
-0.5288648 0.91112274 0.52266353 0.38909933 -0.08758822 -0.32550022 -0.12874965 0.09797544
0.503106 -0.03821351 0.21477415 -0.14039677 -0.06514451 0.06476853 1.1063488 -0.003963738
-0.19178826 -0.3712473 -0.09496595 1.3595655 0.30760017 -0.62915164 0.050789595 0.48344776
0.82517236 -1.3076444 0.013818044 -0.42243558 -0.44907793 -0.6552231 -0.47235075 -0.048191518
-0.45568472 0.9666303 -0.19022079 -0.44272584 0.4477391 2.0673323 0.5831205 0.43595308
-1.2462794 -0.5308937 0.1175382 0.6267112 0.7257816 1.9179515 -0.99693954 -0.06518944
-0.9501757 0.6832139 -0.63708603 0.9930016 -0.87422156 0.05366783 0.34378996 0.13731852
0.84409505 0.35293055 -1.9809874 -0.264144 0.06140905 -0.7346623 -0.09120124 -1.8360159
-0.5662699 -0.09117843 1.3364881 -0.17866713 0.16410543 0.76677155 0.55233264 0.7565581
-1.0137748 1.1070534 0.34490818 0.28773832 1.7744278 -1.6169121 -0.5389294 4.3255787
0.08910191 -1.1347824 0.1804295 0.29081467 0.6943065 1.5978763 -0.5664094 -1.2686778
0.67431617 0.5744167 0.34111744 0.43416756 0.39029247 0.030899076 -0.018845126 -0.45314416
-0.071283065 1.0542474 -2.6672778 1.4588594 -0.65385514 0.061797168 -0.42468593 0.37057313
2.8754973 0.9588119 1.9021834 0.720296 0.38763037 -0.5797267 0.041853443 -0.29656222
-0.121124886 0.6031189 0.78537434 0.34354943 0.43701795 0.57394034 -0.68606186 0.1289336
-0.1850813 -1.0610125 -0.026984427 -0.037019115 -0.9469662 0.32379782 0.65251356 1.1757709
-0.6785548 0.1482986 1.0036744 0.41208196 0.82914567 0.09153505 0.3778268 0.5639944
-0.27311438 0.0045782127 0.5049105 -0.70097977 1.063685 1.3182983 0.27077398 -0.27167416

xh/b f4 [128]
00000000: e021 8cba bbb6 823f 78b0 e8be 672b 7d3e
00000010: b68a cbbf 7b55 3bbd 10db 20bf cfe0 4a3f
00000020: 8f4c 0abf 80c4 ddbe d234 89be 6f5d 63bd
00000030: 7145 993e 9502 763e c416 52bf e0d0 f4be
00000040: 2595 143e 80d0 d6bd 3e8c 97be 9a9d 183e
00000050: 581e 80be 981b 633e d377 c5bd 40de 16bf
00000060: f16b a1be 6cf7 c23e e43d bd3d 6065 cebd
00000070: cd2f 22be a32c 883e 722c c13e 9a20 913f
00000080: f79d 553f 3632 1abe eec6 1b3e 7d33 7dbe
00000090: 9155 873e df88 9d3d fe66 73bf 85f4 423e
000000a0: 1e6c 2e3e 5bd0 e43d 5211 7cbf 5a84 d2be
000000b0: 209f 9ebe b4d7 2f3e 58bf a7be 1a56 56bf
000000c0: fdc9 c5bc 4e5e 953e aa0b 0cbf 38c4 33bf
000000d0: 3b22 0dbf 011e 28be eb27 793f e5c5 8cbf
000000e0: 64c1 b53e 935b 333e 4cb3 b13e 92a4 8abe
000000f0: d6ec 1fbe 0ba4 a13e 39ed f33e 657e 37bf
00000100: f99d 3a3f c564 8a3f 0048 b4be 7584 17be
00000110: 8c01 d3be d8ef a03e 9d92 01be e2d4 78bd
00000120: 7d9e 2a3f 0b61 833d 94d1 35bd f9ec 26bf
00000130: 99ee c93e db0c 3ebe d15e 8a3c 7759 173e
00000140: d36d 0d3e 0faf 443e a4fc 50bf c312 2c3e
00000150: 5c38 edbe 2802 413f e177 4bbe 7de5 b73e
00000160: 5b97 49bf 3cd2 4ebf b4eb 1a3c 45a0 4dbe
00000170: b43b 823f 6c9b 62be 029b 46be de8b 82be
00000180: d840 0ebd ab06 fabd 5678 653d c7b3 dbbd
00000190: 3886 0d3e 64fe 52be 5e07 85bf d5e2 c73c
000001a0: c103 d53f e02e 0cbf 8c48 82bf dcb0 0dbe
000001b0: 0e59 933e 3c09 053f e887 b4be d067 4d3d
000001c0: 622a 9d3e 4313 b6be de5f 3f3f e498 b7be
000001d0: 5010 623d d84a 35bf 73ac b7bf 48a7 ab3e
000001e0: 351b e03f fdfd 053f ad9b 02be f984 f2be
000001f0: 9be8 e43e 52ce 913f 1c6f 2ebe 94ae 04bf
-0.0010691248 1.0212015 -0.45447135 0.24723588 -1.5901706 -0.045735817 -0.6283426 0.7924928
-0.5402307 -0.4331398 -0.2679811 -0.055509027 0.29935792 0.24024422 -0.8206599 -0.4781561
0.14510019 -0.10488987 -0.29599184 0.1490387 -0.2502315 0.22178495 -0.09641995 -0.58932877
-0.31527665 0.38079393 0.0924032 -0.100779295 -0.15838547 0.26596555 0.37729222 1.1338074
0.8344416 -0.15058216 0.15212604 -0.24726672 0.2643247 0.07692122 -0.9507903 0.1903859
0.17033431 0.11172553 -0.9846393 -0.411166 -0.30980778 0.17172128 -0.3276317 -0.8372513
-0.024144167 0.2917351 -0.547053 -0.7022128 -0.55130357 -0.16417696 0.97326535 -1.0997893
0.35499108 0.17515402 0.34707105 -0.27078682 -0.1561769 0.31570467 0.47641924 -0.7167724
0.728973 1.0812002 -0.35211182 -0.14796622 -0.41212118 0.31432986 -0.12653585 -0.060749896
0.66648084 0.06414994 -0.044389322 -0.6520534 0.39439848 -0.18559591 0.016890915 0.14780222
0.13811426 0.19207405 -0.816355 0.16804032 -0.4633206 0.75393915 -0.19869949 0.35917273
-0.78746575 -0.8078954 0.00945561 -0.20080669 1.017447 -0.22129601 -0.19395068 -0.25497335
-0.03472981 -0.12208303 0.056022964 -0.10727649 0.13820732 -0.20604855 -1.0392873 0.024400154
1.6641771 -0.54759026 -1.017839 -0.13836998 0.2877888 0.51967216 -0.35259938 0.05014783
0.30696398 -0.3556157 0.74755657 -0.35858834 0.055191338 -0.7081733 -1.4349502 0.33526063
1.7508303 0.5234068 -0.12754698 -0.47367075 0.44708714 1.1391089 -0.17034572 -0.51828885

xh/W f4 [128, 10]
00000000: be91 353f be92 00ba 92da 123f b206 0f3d
00000010: 4939 55bf b2a1 c03f caad 563f 48c5 523e
00000020: 59b1 0b3f 7a50 903e f348 8ec0 685e f0be
00000030: 5a45 0b3f 7554 c0be 95c8 813f 3d1d 3a40
00000040: 0776 1840 f677 fd3f 2420 e23f 3c61 f63f
00000050: fb1e bc40 8ba7 3ebf 140d d23f 5f31 fa3e
00000060: 24c1 cf3f 612f 9a3f 44bc 06c0 d76e e5bf
00000070: a0ae f5be 8be4 8abf ea5d 25bf 5de1 803d
00000080: 1a6b fdbe e219 13be 8b74 a03f 80d5 44bf
00000090: bb94 ddbd c9dc f8bd 9afa 9cbd c47b 793d
000000a0: 73c9 4b40 fd42 b23d d04e c0be 2106 24bf
000000b0: 2a88 193d 6145 46bf 20c7 ddbf 33de a3bf
000000c0: 2675 00bf 8b6c d8bf cd95 b83f f830 cd3f
000000d0: 62c9 1e40 0dc6 923f 5191 1540 9576 8f3f
000000e0: 1f1f a8be 0d04 35bf 1464 ea3e a0eb eabd
000000f0: 71ba 1940 e28a abbd d327 443f 2153 813e
00000100: 1569 13bf 9773 223f b8cb 0bbf 46f0 b7be
00000110: 19fd 99be 8e9d 3bbf d097 46be 0101 cbbe
00000120: 9864 193f fe20 bb3e f9eb 66be 12e2 5d3f
00000130: 46f5 c53e 9395 c93e 1853 843e 7a27 063f
00000140: f3fb d53d 9101 19c0 0580 5940 f0b9 7fbd
00000150: 3ce8 1f3e f127 123f 1f55 483f f3b6 fd3e
00000160: 7ba3 7a3f 83bf 253f 96b7 75bf e6d1 7cbb
00000170: ac97 2dbd dee1 3e3d 93b8 4abf 1059 2a3f
00000180: 5111 d43d e44c a93e 4e70 20bf d63e 03bf
00000190: 1872 d43d f7fd 193f 877b 0f40 b6e0 203f
000001a0: 9e78 833f b503 48be ede7 803f 77d3 553f
000001b0: 0af6 653e a73a 193f a9a4 813f 7355 103e
000001c0: cbe2 363e a166 07be 7b53 493f 00a2 89be
000001d0: d4d4 0dbe eee2 f33e 8ea2 473e cfe2 4fbe
000001e0: d6c1 a8bd e5f1 d23e ea35 53c0 4af9 783d
000001f0: 4761 8ebe d3c5 18bf 8e29 dfbe 56f1 5fbe
00000200: 5f30 01bf 77ee 55be 54f7 e2bf c75e ed3d
00000210: 7313 ebbe 10cf f0b9 5670 aebf 96da 713f
00000220: f9cf 203f e0a7 86be e0ed 283e c128 56be
00000230: 1b6b 8040 4927 a63a db90 c43f fdbb f4be
00000240: d3d5 aa3e 0f78 fa3f ae38 26c0 0140 e6bf
00000250: 7fb6 a5bf 0d7e 04c0 6033 5ebf 78db 803d
00000260: fccd 28bf 2c4b 3ebe 0ab6 80bf f5fa 803f
00000270: 8f2c 8bbf d966 8dbf 2e5e 623d bcf8 25bf
00000280: 1d3c 2e40 869d cf3e 689f 17be 84e6 f4bd
00000290: e8b5 d63f 7cd6 f93f 60b3 0bc0 7879 dfbf
000002a0: b80c d7bf 0486 fbbf 3d45 5a3e eb5c 0b3e
000002b0: 0a13 c63d 7756 06be 6c6f fa3e 44dc b8bc
000002c0: 82d4 863e 74cb 2b3e aece 3e3e 459a e83e
000002d0: d348 813e 4fb4 c13d 7e25 0abe 7cc7 43be
000002e0: 2df5 b43d 2865 423e 195f fdbe 9b63 b53d
000002f0: 3fe9 2c3e 0bcc 80be 7475 fdbf a38c 6abc
00000300: ebdf 6e3e 18c6 0b3e 1c46 8e3f 6f29 03bf
00000310: 586a 943f b5f8 493f 51e0 013f 10d3 a63e
00000320: ae0a 5f3f 8856 3b3f 3bc7 4d40 2be2 003f
00000330: 1523 533e 572d d83e bbcd ebbd eb61 0b3f
00000340: 9f5a 953e 3db2 2b3f 5cea 80bf 72eb c93f
00000350: bae4 8cbf d590 dabe cd50 173f 69ae 0b3f
00000360: 8335 103d 4fea abbe 73bf 5a3e 5426 383e
00000370: 16a4 b83f 4bb1 773e 8ffd 0a3e 1018 83be
00000380: 801f 443f 207c 6ebe d6fb 863e f03d 4e3e
00000390: e89a fc3e 10ac c53e ee82 2c3f 8e54 18bf
000003a0: 86f5 e93f 0b17 f23e b979 a6bd fbfa 0f3e
000003b0: f5c4 1c3f a340 003f 05b9 963f 50d4 223f
000003c0: 763b 8d3f 0e2c f73f c03b 3040 485f 743f
000003d0: 6144 f73f 0f21 3c3f 6112 0b3e 62d5 bcbd
000003e0: 81a0 d1bd 2e85 183e 825b 5bbf adc5 133e
000003f0: ef0a 06c0 da26 abbe 00bf efbe 8f60 2e3d
0.7092551 -0.0004904679 0.5736476 0.034918495 -0.83290535 1.5049345 0.8385893 0.2058307
0.54567486 0.281864 -4.446405 -0.46947026 0.544027 -0.37564436 1.0139338 2.9080346
2.3822038 1.9802234 1.7666059 1.9248424 5.878782 -0.744744 1.6410241 0.48865792
1.6230817 1.2045709 -2.1052408 -1.7924451 -0.4798479 -1.0850996 -0.64596426 0.06292985
-0.49495775 -0.14365342 1.2535566 -0.76888275 -0.10819384 -0.121514864 -0.07664986 0.060909048
3.1841705 0.08704183 -0.3756013 -0.6407185 0.03748337 -0.77449614 -1.7326393 -1.2802185
-0.50178754 -1.6908125 1.4420716 1.6030569 2.4810414 1.146669 2.3369944 1.1208063
-0.32836244 -0.70709306 0.4577948 -0.11470723 2.4020045 -0.08376099 0.76623267 0.25258735
-0.5758222 0.63457626 -0.54607725 -0.35925502 -0.3007591 -0.73287284 -0.1939385 -0.39649203
0.5991912 0.3654861 -0.22550954 0.8667308 0.3866369 0.3937193 0.25844646 0.52403986
0.10448446 -2.3907206 3.3984387 -0.062433183 0.15615934 0.57092196 0.78254884 0.49553642
0.979057 0.6474535 -0.95983255 -0.0038577258 -0.042380974 0.046602122 -0.7918789 0.6654215
0.10354865 0.33066475 -0.62671363 -0.51267755 0.10373324 0.60153145 2.2419145 0.6284288
1.0271184 -0.19532664 1.0070778 0.83525795 0.22457138 0.5985512 1.0128375 0.14095096
0.17859952 -0.13222744 0.78643006 -0.2688141 -0.13850719 0.4763407 0.19495603 -0.20301364
-0.08240096 0.41200176 -3.3001657 0.060784616 -0.27808592 -0.59676856 -0.4358639 -0.21869406
-0.50464433 -0.20891748 -1.7731729 0.11590343 -0.45913276 -0.0004593064 -1.3628032 0.9447416
0.6281734 -0.26299953 0.16496992 -0.20913984 4.0130744 0.0012676503 1.5356706 -0.47799674
0.3336626 1.9567889 -2.5972095 -1.7988282 -1.2946318 -2.0701935 -0.8679714 0.0629186
-0.6593931 -0.18583363 -1.0055554 1.0076586 -1.0872973 -1.1047012 0.055265598 -0.64832664
2.722419 0.40549868 -0.14806902 -0.1195803 1.6774263 1.951858 -2.1828232 -1.7458944
-1.6800756 -1.9650273 0.21315475 0.13609664 0.096716 -0.13118921 0.48913133 -0.022565968
0.26334006 0.1677683 0.1863353 0.45430198 0.25250873 0.09458219 -0.13490865 -0.19119066
0.08835826 0.189839 -0.49486616 0.08856889 0.16885851 -0.25155672 -1.9801469 -0.014315757
0.23327605 0.13649786 1.1115146 -0.512351 1.1594954 0.7889512 0.50732905 0.32582903
0.8712567 0.7317891 3.215285 0.50345105 0.20618851 0.42222092 -0.11513849 0.54446286
0.291707 0.67068845 -1.0071521 1.5774977 -1.1007302 -0.42688623 0.5910767 0.54563004
0.035207283 -0.335772 0.21362095 0.17983371 1.4425075 0.24188726 0.13573287 -0.25604296
0.76610565 -0.23289537 0.2636401 0.20140815 0.49336934 0.38607836 0.6738728 -0.5950402
1.8278053 0.47283205 -0.081286855 0.14060585 0.6123803 0.5009863 1.1775213 0.63605213
1.1033771 1.931032 2.7536469 0.9545789 1.9317743 0.73487943 0.1358123 -0.09220387
-0.10235692 0.14894554 -0.85686505 0.14430876 -2.0944173 -0.3342808 -0.4682541 0.042572554
