code/python/slip_model/10_64_1_5_10_4950_70_use_train_slip_model.npz (npz, 127187 bytes, 6 tensors)

hy/W f4 [1, 64]
0	0xbc779deb	-0.015113334
1	0xbe69e168	-0.22839892
2	0xbea443d9	-0.32083014
3	0x3ea185e3	0.3154746
4	0x3e7a5907	0.24448024
5	0x3dec4efa	0.11538501
6	0xbdb9e978	-0.09077734
7	0x3e6531d1	0.22382285
8	0xbe1657bd	-0.14681907
9	0xbd944ee8	-0.07241613
10	0x3e49cbba	0.19706622
11	0x3ea67894	0.3251387
12	0xbe855188	-0.26038766
13	0xbe503da9	-0.20336021
14	0x3e659482	0.22419932
15	0xbe5ed797	-0.21761928
16	0xbe25eb13	-0.16202955
17	0x3e351d56	0.17686972
18	0xbe4b1c52	-0.19835022
19	0x3e03ca9c	0.12870258
20	0xbd78eebf	-0.06077456
21	0x3e95c544	0.29252064
22	0x3dd65ee1	0.104673155
23	0xbe59b084	-0.21258742
24	0xbe075f82	-0.13220027
25	0xbe6d3daa	-0.23168054
26	0x3e146725	0.14492472
27	0xbe21197d	-0.1573238
28	0xbe85b81e	-0.26117033
29	0x3dfcff93	0.123534344
30	0x3e3b0880	0.18264961
31	0x3e3bd8b4	0.18344384
32	0x3e96fda0	0.29490376
33	0xbe7316f8	-0.2373923
34	0x3e2b4650	0.16726041
35	0x3da69911	0.08134664
36	0x3e8d76bd	0.27629653
37	0x3e3aafb7	0.18231092
38	0x3e37a1f1	0.1793287
39	0xbeeeedb0	-0.46665716
40	0x3e79a50d	0.24379368
41	0xbe876e2d	-0.26451245
42	0x3e30654c	0.17226142
43	0x3e11787e	0.1420612
44	0xbea1843a	-0.31546193
45	0x3e779444	0.24177653
46	0x3e6ad60f	0.2293322
47	0x3dfee9b5	0.1244692
48	0x3e26eed3	0.16302042
49	0x3e691c1c	0.22764629
50	0x3e87de5d	0.26536837
51	0x3dcc627c	0.09979722
52	0xbe638a0e	-0.22220632
53	0xbe54068f	-0.20705627
54	0xbe3db928	-0.18527663
55	0x3e003c21	0.12522937
56	0xbde1f661	-0.11033321
57	0xbdab5506	-0.08365826
58	0x3eb5b6b1	0.35490945
59	0x3c775995	0.015097042
60	0xbe9ee8e9	-0.3103707
61	0xbe3f26eb	-0.1866719
62	0xbe2bd7f1	-0.16781594
63	0xbe3dfea2	-0.18554166

hh/lateral/W f4 [256, 64]
0	0xbe89dd05	-0.26926437
1	0x3f7fef35	0.99974376
2	0x3f007f6a	0.5019442
3	0x3e981872	0.2970615
4	0xbe184e22	-0.14873555
5	0xbf2b04e0	-0.66804314
6	0xbec1f241	-0.37880138
7	0xbf332b6a	-0.6998812
8	0xbe81e3de	-0.2536916
9	0xbf60ef06	-0.8786472
10	0xbf955e94	-1.1669488
11	0x3f429977	0.7601542
12	0xb8b727ca	-8.733531e-05
13	0xbda5f30c	-0.08102998
14	0xbe7e37e8	-0.24826014
15	0x3f6a123d	0.9143408
16	0x3f4e7fb4	0.8066361
17	0xbc04e3e1	-0.008110971
18	0x3f3e04f5	0.74226314
19	0xbed922c7	-0.42409346
20	0x3eaa3dfb	0.33250412
21	0x3e9a7920	0.30170536
22	0x3d0ff704	0.03514768
23	0xbd96f2a0	-0.07370496
24	0x3e8721d5	0.26393
25	0xbeca5317	-0.39516518
26	0x3f0b0440	0.5430336
27	0xbeb4d5f2	-0.35319477
28	0xbeee4bab	-0.46542105
29	0x3f30181c	0.6878679
30	0xbf454df8	-0.77072096
31	0xbed5d59f	-0.41764542
32	0x3fbde242	1.4834673
33	0xbea616ab	-0.3243917
34	0x3fef9b0e	1.8719194
35	0x3e5209c4	0.20511538
36	0xbed97c0e	-0.4247746
37	0xbf3e1b8e	-0.74260795
38	0xbe6ac22f	-0.22925638
39	0x3fc31304	1.5240178
40	0x3b3044c3	0.0026896454
41	0x3f2d28c4	0.6764033
42	0x3e5e08ff	0.21683119
43	0xbed8a552	-0.4231363
44	0xbf04df0c	-0.5190284
45	0xbf610a47	-0.87906307
46	0xbe185cd5	-0.14879163
47	0xbee2c366	-0.44289702
48	0xbe1f5b16	-0.1556209
49	0xbef6bbd5	-0.4819018
50	0xbeff716a	-0.49891216
51	0xbe046b48	-0.1293155
52	0x3f3041c9	0.6885038
53	0x3f1262ad	0.5718182
54	0x3f968e3f	1.176216
55	0xbef5c7ff	-0.48004147
56	0x3f727903	0.947159
57	0x3ea60c16	0.32431096
58	0xbf9b3621	-1.2125894
59	0x3f5b8ce6	0.8576187
60	0x3f62ef9e	0.88646877
61	0xbf06a6ca	-0.5259825
62	0x3e0bf0ca	0.13666072
63	0x3f9da003	1.2314457
64	0xbe84cc6d	-0.25937214
65	0xbeb8cbf6	-0.3609311
66	0x3ea2ea79	0.31819513
67	0x401b3408	2.4250507
68	0xbfe95b0d	-1.8230911
69	0x3f3835d8	0.7195716
70	0x3facf70f	1.3512896
71	0x3efb859e	0.4912538
72	0x3f38bf80	0.72167206
73	0x3f2ef3a1	0.683405
74	0xbe52e073	-0.20593433
75	0xbf56cce5	-0.83906394
76	0x40465293	3.09879
77	0xbe6240f3	-0.22095089
78	0x3e992a7c	0.29915226
79	0x3f42238b	0.75835484
80	0xbde0994f	-0.10966741
81	0x3fb90b00	1.4456482
82	0xbd2c81bb	-0.042115908
83	0xbe33a891	-0.17544772
84	0x3edadfda	0.4274891
85	0xbfdf428f	-1.7442187
86	0x3f467364	0.7751982
87	0x3e931b26	0.2873165
88	0xbf93e006	-1.1552742
89	0x3f19a05e	0.60010326
90	0x3f116e4f	0.5680894
91	0xbd446063	-0.047943484
92	0x3f0d7c64	0.5526793
93	0xc0208139	-2.5078871
94	0xbf512514	-0.816972
95	0x3ee7640e	0.45193523
96	0xbfb0c864	-1.3811154
97	0x3e8e53b8	0.27798247
98	0x3e056fae	0.13030884
99	0x3e93518f	0.28773162
100	0xbfc0085c	-1.5002551
101	0xbf09273b	-0.53575486
102	0x3f07c29e	0.5303134
103	0xbd7027fb	-0.05863188
104	0x3b983bf2	0.004645818
105	0xbe14a868	-0.14517367
106	0xbe6e618d	-0.232794
107	0x3f08d0c7	0.5344357
108	0x3eb565ab	0.3542913
109	0x3ed06dc8	0.40708756
110	0x3f3fcd33	0.74922484
111	0x3e3271a6	0.17426166
112	0x3dcd7b56	0.1003329
113	0xbdb91439	-0.0903706
114	0x3f415b74	0.7553017
115	0x3f9ef333	1.2417969
116	0xbf1283f5	-0.572326
117	0x3f37386a	0.71570456
118	0x3f2f5c92	0.68500626
119	0x3e2bc57c	0.16774553
120	0x3ee934b5	0.45548025
121	0xbe828204	-0.2548982
122	0xbfa9d11d	-1.3266941
123	0xbec2dfd8	-0.38061404
124	0xbd5b7db0	-0.05358666
125	0xbe988082	-0.29785544
126	0x3e80bd30	0.2514434
127	0x3f97e177	1.1865681
128	0xbfa694fc	-1.3014216
129	0x3e83c8ee	0.25739235
130	0xbe7fd3a4	-0.24983078
131	0xbfa36910	-1.2766438
132	0xbf6ca108	-0.92433214
133	0x3d0e674d	0.034766484
134	0xbfb565f9	-1.4171745
135	0x3eedc1b3	0.46436843
136	0x3aa0a581	0.0012256355
137	0xbddcdc0d	-0.10784159
138	0xbe34401d	-0.17602582
139	0xbdff3721	-0.12461687
140	0xbe89d9ac	-0.26923883
141	0xbf7508ac	-0.9571636
142	0xbd13fdb8	-0.036130637
143	0xbeeb2588	-0.45927072
144	0xbe017457	-0.12642036
145	0xbe557d36	-0.20848545
146	0xbf6f6177	-0.93508095
147	0x3f98deac	1.1942954
148	0x3ed426d2	0.41435868
149	0x3eddf1c6	0.4334852
150	0xbf07fb4c	-0.53117824
151	0xbf417494	-0.7556851
152	0x3f8f929d	1.1216618
153	0xbee17e89	-0.4404185
154	0xbebf4df9	-0.37364176
155	0xbf1ad90c	-0.6048744
156	0xbf67ee05	-0.90597564
157	0x3f99ded4	1.2021127
158	0x3e85598c	0.2604488
159	0xbd4b94f4	-0.0497026
160	0xbfe557a1	-1.7917367
161	0xbf2c5dfb	-0.673309
162	0x3dd5b632	0.104351416
163	0x3f7594a8	0.95929956
164	0x402fa5a8	2.7444859
165	0x3f76f38b	0.9646537
166	0x3d928747	0.07154708
167	0x3f06612e	0.52492034
168	0xbec0157b	-0.37516388
169	0x3f44c8d7	0.7686896
170	0xbf1a3c2c	-0.60248065
171	0xbd7fda99	-0.06246433
172	0x4015806c	2.3359632
173	0xbed1e72b	-0.4099668
174	0xbec55d5f	-0.385478
175	0xbe8c8f9d	-0.27453318
176	0xbe82f07d	-0.25574103
177	0x3f58aafe	0.84635913
178	0x3f0f1d97	0.55904526
179	0x3fc357e9	1.5261203
180	0x3f9a6bdf	1.206417
181	0x3fa45e0d	1.2841202
182	0x3e29570f	0.16537116
183	0xbf03a803	-0.5142824
184	0x3ef22f0a	0.47301513
185	0x3f620b02	0.88298047
186	0xbe8f2557	-0.27958176
187	0x3fe4d504	1.7877507
188	0x3f531ee7	0.8246903
189	0x3e91af9c	0.28454292
190	0xbcfb1ea6	-0.030654263
191	0x3e60c9ae	0.21951935
192	0x3f861e91	1.0478078
193	0x3ff15f1c	1.885715
194	0xbf8bd4a7	-1.0924271
195	0xbf06a43c	-0.5259435
196	0x3faaf4ae	1.335592
197	0x3feb9e6d	1.8407723
198	0xbf10f6b2	-0.5662643
199	0xbf1917f8	-0.598022
200	0xbea8db0c	-0.3297962
201	0x3e8f68f3	0.28009757
202	0x3ea99efe	0.33129114
203	0xbf27098d	-0.6524895
204	0x3fe8d4c4	1.8189931
205	0xbf5b25c8	-0.85604525
206	0x3f042fe7	0.51635593
207	0x3fda0789	1.703355
208	0x3f676c95	0.9040006
209	0xbf31a969	-0.69399124
210	0xbf16ddb9	-0.5893207
211	0x3f9f04f1	1.2423383
212	0x3ed3771e	0.41301817
213	0x3f83ac06	1.0286872
214	0xbecdac26	-0.401704
215	0xc0336056	-2.8027549
216	0x3f7cc931	0.98744494
217	0x4041a666	3.0257812
218	0xbfac1e8e	-1.3446825
219	0x402e09cf	2.7193487
220	0xbf7cc661	-0.987402
221	0xbfa2ddc5	-1.2723929
222	0x3d7c0f41	0.061537985
223	0x4032f60c	2.7962675
224	0xbfcfc916	-1.6233242
225	0xc04dc05c	-3.2148657
226	0x3fa56a50	1.2923069
227	0x3f23ba9a	0.63956606
228	0xc02f2d2c	-2.737132
229	0x3d015588	0.03157571
230	0x3eefcd34	0.46836245
231	0x40080fab	2.1259563
232	0x3f958071	1.1679822
233	0xbf1fd902	-0.624405
234	0x3f2c39cf	0.6727571
235	0xbf74dfa0	-0.95653725
236	0xbea65f98	-0.32494807
237	0xbf08b5ad	-0.53402215
238	0x3f411448	0.7542157
239	0x3fbbfe6d	1.468702
240	0x3fab24ad	1.3370568
241	0xbe16ce3c	-0.1472711
242	0x3eecd096	0.46252888
243	0xbf0df49a	-0.5545136
244	0xbef31bd0	-0.47482157
245	0x3f98da46	1.1941612
246	0xbf9dbe6b	-1.2323736
247	0xbdbeaf33	-0.0931076
248	0xbd87e805	-0.06636051
249	0xbf602df8	-0.8757014
250	0x3f4d08c8	0.80091524
251	0xbf23a1e4	-0.639189
252	0x3fba147d	1.4537503
253	0x3f733a5a	0.9501091
254	0xbda1bdeb	-0.07897552
255	0xbea67f3d	-0.3251895

hh/upward/W f4 [256, 64]
0	0x3ec4aa07	0.3841097
1	0x3f30011f	0.6875171
2	0xbe517982	-0.20456508
3	0x3f300d90	0.68770695
4	0xbf5d97f4	-0.8655999
5	0x3eb0e233	0.34547576
6	0x3db97559	0.090555854
7	0x3e11df33	0.142453
8	0x3e13f6c0	0.14449596
9	0xbee58d2a	-0.44834262
10	0x3e364423	0.1779943
11	0xbeec078a	-0.46099502
12	0xbc8b95c6	-0.017039191
13	0x3ec79c6d	0.3898653
14	0x3b4f15cd	0.0031598688
15	0xbd277a83	-0.04088832
16	0x3ed77d79	0.42087916
17	0xbedd268b	-0.43193468
18	0xbd91029f	-0.07080578
19	0x3f241fdc	0.64111114
20	0x3eba3ba0	0.36373615
21	0x3f6ec0d1	0.93262964
22	0x3e22c4eb	0.1589543
23	0x3ed70ce3	0.4200202
24	0x3ec822cb	0.39089045
25	0xbe82b045	-0.25525108
26	0xbe4f3485	-0.20234878
27	0x3f412fd0	0.7546358
28	0xbef54e2b	-0.479112
29	0x3f26f589	0.65218407
30	0x3f2600d1	0.64844996
31	0xbede6061	-0.43432906
32	0xbd22990b	-0.039696734
33	0xbf3a9119	-0.7287765
34	0xbf10d1b0	-0.5656996
35	0x3e282baf	0.16422914
36	0x3f1e7a43	0.61905307
37	0x3f03f667	0.51547855
38	0xbe57810a	-0.21045318
39	0xbe8adcaf	-0.27121493
40	0xbebb8c22	-0.3663035
41	0xbee2a6af	-0.44267794
42	0x3f4275a3	0.7596075
43	0x3e975eb5	0.29564443
44	0x3f89806c	1.0742316
45	0xbce557e5	-0.027996013
46	0x3e74ec97	0.23918377
47	0x3cb86286	0.022507917
48	0x3ef4d6ee	0.47820228
49	0xbb98a928	-0.004658837
50	0xbf1628fc	-0.5865629
51	0x3f00f4cc	0.5037353
52	0xbe565fb7	-0.2093495
53	0xbdbd145c	-0.09232399
54	0xbf78c1cc	-0.9717071
55	0xbc5c983d	-0.013464031
56	0xbe8b9670	-0.27263212
57	0xbe9aede4	-0.3025962
58	0x3e5bb60b	0.21456163
59	0x3e40d16d	0.1882989
60	0xbe406b2a	-0.1879088
61	0xbef29ba4	-0.4738437
62	0x3daf2482	0.08551885
63	0xbc317ea8	-0.01083342
64	0x3e9a3173	0.30115852
65	0xbee9c6d8	-0.45659518
66	0xbe05f6f1	-0.13082482
67	0x3ea11b13	0.31465968
68	0x3fc819a4	1.5632825
69	0x3ea80c9e	0.32822126
70	0xbf09c794	-0.5382016
71	0x3e56fb7c	0.20994371
72	0x3e88a350	0.26687098
73	0x3ee9841d	0.45608607
74	0xbd9a35d9	-0.07529802
75	0xbef09d1c	-0.46994865
76	0x3ca05da1	0.019575896
77	0x3eaff827	0.34369013
78	0xbf35fcf2	-0.7108909
79	0x3ce08e04	0.027411468
80	0xbeb3f571	-0.35148194
81	0x3f0073dd	0.50176793
82	0xbdc36b67	-0.0954197
83	0xbf208aba	-0.6271168
84	0x3f20b320	0.62773323
85	0xbf22a3bc	-0.6353109
86	0xbe9915de	-0.29899496
87	0x3e397b17	0.18113361
88	0x3de4b12d	0.11166606
89	0xbe9c5030	-0.30529928
90	0x3d47e121	0.048798684
91	0x3ef8cd52	0.48594147
92	0xbeda3df4	-0.4262539
93	0x3f000a2a	0.5001551
94	0xbf097471	-0.536933
95	0xbefb01a1	-0.4902468
96	0x3efc5ed2	0.49291092
97	0x3f19bce0	0.60053825
98	0xbefea389	-0.49734142
99	0xbe0a99cc	-0.13535231
100	0x3edc3e78	0.4301641
101	0x3eb1925a	0.3468197
102	0x3f62139f	0.8831119
103	0xbd0acad5	-0.033884842
104	0x3ebb7287	0.36610815
105	0xbc31a5cd	-0.010842753
106	0xbf8ca171	-1.0986768
107	0xbd819f38	-0.06329197
108	0xbeb99dcf	-0.3625321
109	0x3ef4fac9	0.47847584
110	0x3f2935ac	0.6609752
111	0xbc7fcaea	-0.015612343
112	0x3ed0a447	0.40750334
113	0xbe09eafd	-0.13468547
114	0xbc524bee	-0.012835486
115	0x3ea87145	0.32898918
116	0x3d2fddeb	0.042936247
117	0x3eff2c4f	0.49838492
118	0x3f211ead	0.6293743
119	0x3cebfcd3	0.02880708
120	0x3f6da555	0.928304
121	0xbf936fa0	-1.151844
122	0x3e73105a	0.23736706
123	0xbe867a6c	-0.26265275
124	0xbe964216	-0.29347295
125	0xbd9c1f1d	-0.07623122
126	0x3cefafaf	0.029258577
127	0x3d5e17b9	0.054221842
128	0x3d2a8808	0.041633636
129	0x3f080d9d	0.5314577
130	0xbea02249	-0.31276157
131	0xbe080371	-0.13282563
132	0xbe0c948c	-0.13728541
133	0x3e20d589	0.15706457
134	0x3e84ffe8	0.2597649
135	0x3ddd8d75	0.108179964
136	0x3e23987f	0.15976141
137	0xbee3b0ae	-0.44470733
138	0x3e68717a	0.22699538
139	0x3d491053	0.049087834
140	0x3e6665a9	0.22499718
141	0xbebde94b	-0.3709205
142	0xbec8c4b7	-0.39212582
143	0xbc4de161	-0.012565942
144	0x3eb7d0e3	0.35901555
145	0x3e04917a	0.1294612
146	0xbc6d98c5	-0.014501755
147	0xbdccd397	-0.10001295
148	0x3e18c616	0.14919314
149	0xbddd0353	-0.1079165
150	0x3eed5138	0.46351027
151	0x3bb4cde5	0.0055177086
152	0x3ddc49c5	0.10756258
153	0xbdb89996	-0.09013669
154	0xbebc6800	-0.36798096
155	0xbebd2017	-0.36938545
156	0xbeae3e3e	-0.34031862
157	0xbe6521c1	-0.22376157
158	0x3ead0e23	0.33799848
159	0x3e46244f	0.19349788
160	0x3ddddd52	0.10833229
161	0xbe883e59	-0.26610067
162	0x3e93d678	0.28874564
163	0x3e5ecab6	0.21757016
164	0xbeaf5a9c	-0.34248817
165	0xbe637de6	-0.22215995
166	0xbd3963e9	-0.045261297
167	0xbdf0e8c9	-0.1176315
168	0x3e1066e7	0.14101754
169	0xbea2f9b6	-0.3183114
170	0x3e9868b2	0.29767376
171	0xbe15234d	-0.14564247
172	0x3efe2cc3	0.49643525
173	0x3e2c654a	0.16835514
174	0x3e408e8d	0.18804379
175	0xbc5d0c1a	-0.013491655
176	0xbd53e386	-0.051730655
177	0xbd26959d	-0.040670026
178	0xbd36fce6	-0.044674776
179	0xbe12cd70	-0.1433618
180	0xbf1eb70a	-0.61998045
181	0xbe85e2f5	-0.26149717
182	0x3dcb92cb	0.09940108
183	0xbe40c600	-0.18825531
184	0xbd415dd7	-0.047208633
185	0x3e47b942	0.19504264
186	0xbe98f7d4	-0.29876578
187	0xbd3246fd	-0.04352473
188	0x3d68c663	0.05682982
189	0xbebd2105	-0.36939254
190	0x3c1b0c17	0.009463332
191	0x3ebcc6c6	0.36870402
192	0x3ea6d98a	0.32587844
193	0x3f1e3e5a	0.6181389
194	0x3c8d97d0	0.017284304
195	0x3e44d3ca	0.19221416
196	0xc0223508	-2.5344868
197	0x3eed49e5	0.4634544
198	0xbed945ed	-0.42436162
199	0x3e61b413	0.22041349
200	0x3e8ac965	0.27106777
201	0xbf81bccb	-1.013574
202	0x3fa45464	1.2838254
203	0xbe744c48	-0.23857224
204	0x3e8199c5	0.2531263
205	0x3ec73a14	0.38911498
206	0x3f505d2c	0.8139217
207	0x3f3e6f9b	0.74389046
208	0xbd6d6680	-0.05795908
209	0xbf9ac677	-1.2091817
210	0x3f324a02	0.69644177
211	0x3f02c9bf	0.5108909
212	0xbf67c84c	-0.90540004
213	0x3f6e4fcb	0.93090504
214	0x3c413631	0.011792705
215	0xbd0bd774	-0.03414102
216	0xbe22e3e8	-0.15907252
217	0xbe98b4b6	-0.29825372
218	0xbc004c8b	-0.007830749
219	0x3dfd086f	0.12355124
220	0xbf98304e	-1.1889741
221	0x3dff673f	0.124708645
222	0x3c6d41d1	0.014481024
223	0x3d1fb675	0.038992364
224	0x3f8b1680	1.0866241
225	0xbfdbb8aa	-1.716573
226	0xbf8afe17	-1.0858792
227	0x3e140511	0.14455058
228	0xbcc38268	-0.023865893
229	0x3ede988f	0.43475768
230	0xbfb30573	-1.3986038
231	0xbf4131b5	-0.7546647
232	0xc024ec0d	-2.5769074
233	0x3e63030d	0.22169133
234	0x3fff3f2e	1.9941156
235	0x3df0037c	0.117194146
236	0x3f656b86	0.8961719
237	0x3fa97799	1.3239623
238	0xbe108c22	-0.14115956
239	0x3f37ac20	0.71747017
240	0x3f6c985e	0.92419994
241	0xbee8e454	-0.454867
242	0x3d894c41	0.067039974
243	0x3ed0fb04	0.4081651
244	0xbeeb38e7	-0.4594185
245	0x3cd854dc	0.026407652
246	0xbfb0141a	-1.3756135
247	0xbb1b1c87	-0.0023668127
248	0xbfa04cee	-1.2523477
249	0x3ea6033c	0.32424343
250	0xbf269479	-0.650703
251	0x3e920afd	0.28524008
252	0xbdf248c9	-0.11830289
253	0xbf4eb562	-0.8074552
254	0x3e21156f	0.15730833
255	0x3ec19cba	0.37814885

hh/upward/b f4 [256]
0	0xbece3ee2	-0.4028235
1	0x3e211f8f	0.15734695
2	0x3f54756e	0.82991683
3	0xbddd3cb1	-0.108025916
4	0xbef77362	-0.48330218
5	0xbe08a13a	-0.13342753
6	0x3f0ff916	0.5623945
7	0xbf04f023	-0.5192892
8	0xbeeda42f	-0.46414325
9	0xbe0467f3	-0.12930278
10	0x3f406ee4	0.75169206
11	0x3eed4f51	0.46349576
12	0xbf1272d5	-0.5720647
13	0xbf52dc90	-0.823678
14	0x3f80e8f3	1.007109
15	0x3ec479d9	0.38374212
16	0x3de6556a	0.1124676
17	0x3dc55cf2	0.096368685
18	0x3f26319b	0.6491944
19	0x3c9dfd9e	0.019285973
20	0xbda11114	-0.078645855
21	0x3e1c22fc	0.1524772
22	0x3f06be56	0.5263418
23	0x3ea6f23b	0.32606682
24	0xbf10cdb4	-0.5656388
25	0xbd464310	-0.0484038
26	0x3ed44a78	0.41463065
27	0x3f6feccd	0.93720704
28	0x3f800b82	1.0003512
29	0x3f808e32	1.0043395
30	0x3f81c856	1.0139263
31	0xbed02f5d	-0.40661135
32	0xbe81347e	-0.2523536
33	0x3f685c8d	0.9076622
34	0x3ec89510	0.39176226
35	0xbc4c4857	-0.012468419
36	0xbf0c995e	-0.5492152
37	0x3f198ff1	0.5998526
38	0x3e4c073f	0.19924639
39	0x3fb1dbbf	1.3895186
40	0x3fc6a7e2	1.5519984
41	0x3ffb1c1f	1.9617957
42	0x3fdf904c	1.7465911
43	0xbe304db7	-0.17217146
44	0x3fae3ef7	1.3612965
45	0x3f7e2e08	0.9928899
46	0x3fe61d62	1.7977717
47	0x3f6b7a23	0.9198324
48	0xbece7ec8	-0.403311
49	0xbf9380c9	-1.1523677
50	0x3ee4a6b9	0.4465845
51	0xbe50d581	-0.20393945
52	0x3e289375	0.164625
53	0xbdd4d151	-0.103914864
54	0x3ef08ed2	0.46983963
55	0x3e9b3ffe	0.3032226
56	0x3f76c3dd	0.96392614
57	0x3f287e3e	0.6581763
58	0x3f36b871	0.71375185
59	0x3f0f84ba	0.560619
60	0xbe9538e3	-0.29144964
61	0x3d17db22	0.037074216
62	0x3ed56b70	0.4168353
63	0xbed124c2	-0.40848356
64	0x3e1fc286	0.15601549
65	0x3e958b77	0.29207966
66	0x3f80d73a	1.0065682
67	0xbeec957d	-0.462078
68	0x3f841517	1.0318936
69	0xbe2fde5e	-0.1717467
70	0x3f5f5817	0.8724379
71	0xbd2a99a4	-0.04165043
72	0xbd1f4c43	-0.03889109
73	0x3f07f164	0.5310271
74	0x3fae6d31	1.3627073
75	0xbd29cd31	-0.04145545
76	0x3e4b77b4	0.19869882
77	0xbe050b9d	-0.12992711
78	0x3f617c5b	0.88080376
79	0xbe31de9f	-0.1737008
80	0x3f11bcb1	0.56928545
81	0x3f2f78a8	0.6854348
82	0x3f41fe84	0.75778985
83	0xbef5f542	-0.4803868
84	0x3f6f975e	0.93590343
85	0xbebd7437	-0.37002727
86	0x3f1abb07	0.6044163
87	0x3e259620	0.1617055
88	0xbf4d507c	-0.80200934
89	0x3f24b62e	0.64340484
90	0x3f8a1e4a	1.0790493
91	0xbe628d8d	-0.2212431
92	0x3f8f5967	1.1199158
93	0xbf4642ab	-0.7744548
94	0x3ecf2146	0.40455073
95	0x3c3e3bf4	0.011610974
96	0x3f328ed7	0.69749206
97	0x3d6e8e24	0.058241025
98	0x3f9d05eb	1.2267431
99	0xbea0f54a	-0.3143714
100	0x3e896e51	0.26841977
101	0xbe83af78	-0.2571981
102	0x3df347bf	0.11878919
103	0xbe3f91d1	-0.18707968
104	0x3fb67a31	1.425604
105	0x3f1fedc9	0.62472206
106	0x3f37aa4b	0.7174422
107	0x3f0efccc	0.5585449
108	0xbf722eef	-0.94602865
109	0x3f0023b4	0.5005448
110	0x3f1c5bcf	0.6107759
111	0x3f803c7f	1.0018462
112	0xbf3c8da9	-0.73653656
113	0x3de4e29b	0.11176034
114	0x3f565b37	0.8373293
115	0x3f724076	0.9462961
116	0xbe0f5ca5	-0.14000185
117	0x3ef9e07a	0.48804075
118	0x3f03881a	0.5137955
119	0xbeca4445	-0.3950521
120	0x3eab5a9b	0.33467564
121	0x3ecd5471	0.40103486
122	0x3f4b85bd	0.79500943
123	0x3f162a6b	0.58658475
124	0xbd3b0e13	-0.04566772
125	0x3dd42e55	0.103604
126	0x3f830d0b	1.0238355
127	0x3ddc161c	0.107464045
128	0x3f5fd84f	0.87439436
129	0xbe6d9597	-0.23201595
130	0x3d680e5c	0.05665432
131	0x3eadd73b	0.3395327
132	0xbef9da36	-0.48799294
133	0x3e91b28f	0.28456542
134	0x3f36c682	0.7139665
135	0x3e9a8f20	0.3018732
136	0x3f62f9b0	0.8866224
137	0x3ef9bd87	0.4877741
138	0x3e287f64	0.16454846
139	0xbef7200d	-0.4826664
140	0xbeab0432	-0.33401638
141	0x3ed7227e	0.42018503
142	0x3ef390b1	0.47571328
143	0xbe11da11	-0.14243342
144	0x3ea81d7e	0.32835
145	0xbf2dc6de	-0.6788157
146	0x3f51f961	0.82021147
147	0x3f55d01c	0.83520675
148	0xbf3fb7a6	-0.748896
149	0xbe994596	-0.29935902
150	0x3f2500da	0.64454424
151	0x3f962675	1.1730486
152	0x3d88edbf	0.066859715
153	0x3f814f51	1.010233
154	0x3e4b793f	0.1987047
155	0xbedb5079	-0.42834833
156	0xbf882081	-1.063492
157	0xbea31942	-0.31855208
158	0x3dbbfe10	0.09179318
159	0xbf090c87	-0.5353474
160	0xbeadeaab	-0.339681
161	0xbe81ea5f	-0.25374123
162	0x3f9f06fb	1.2424005
163	0xbedf314a	-0.43592292
164	0x3df3ddc6	0.11907534
165	0xbf0a60b5	-0.54053813
166	0x3eef0056	0.46679944
167	0x3e169acd	0.1470749
168	0x3f338de7	0.701384
169	0x3dbbf1ba	0.09176965
170	0x3fda5eae	1.7060144
171	0x3f5db7ca	0.86608565
172	0x3dd2254e	0.102610216
173	0x3d90cdba	0.07070489
174	0x3f059735	0.5218385
175	0x3f62a11e	0.88527095
176	0xbf91a1e5	-1.1377531
177	0x3f00486e	0.5011052
178	0x3f9795f6	1.184264
179	0xbed58807	-0.41705343
180	0x3f54d9ad	0.83144647
181	0xbf00f3e2	-0.50372136
182	0x3f7c137d	0.98467237
183	0x3f26120b	0.6487128
184	0x3c8c0f37	0.017097099
185	0x3db77c74	0.089592844
186	0x3ea2f84e	0.31830066
187	0x3c7ae020	0.015312225
188	0xbd344d1a	-0.044018842
189	0xbe94ec9b	-0.29086766
190	0x3f2d8ee4	0.6779616
191	0x3efe3909	0.4965289
192	0x3f76fca4	0.9647925
193	0xbce1e436	-0.02757464
194	0x3f457190	0.7712641
195	0x3d35f89a	0.044426538
196	0xbce406d1	-0.027835282
197	0xbcd6a9f1	-0.026204081
198	0x3f554696	0.8331083
199	0x3edba022	0.4289561
200	0x3f08b494	0.5340054
201	0x3e919d82	0.2844048
202	0x3f67a690	0.9048853
203	0xbe7d24f5	-0.24721129
204	0xbeca116b	-0.39466414
205	0x3ecfc971	0.40583375
206	0x3f238a0d	0.63882524
207	0xbe83bd34	-0.25730288
208	0xbf96fdd4	-1.1796212
209	0xbe2312fe	-0.15925214
210	0x3f3ea549	0.74470955
211	0x3ea30147	0.31836912
212	0x3ede898d	0.43464318
213	0xbf2265ad	-0.63436395
214	0x3f003556	0.50081384
215	0x3deb205d	0.11480782
216	0x3e55051b	0.20802729
217	0x3e2c5269	0.16828312
218	0x3ed76b56	0.42074078
219	0x3f0851ea	0.5324999
220	0x3d90fa7e	0.070790276
221	0xbf0a94e7	-0.54133457
222	0x3f8c63d4	1.0967965
223	0x3e846965	0.2586166
224	0xbd895ca1	-0.06707121
225	0xbf24a972	-0.64321053
226	0x3f41cfef	0.75707906
227	0x3d9cb443	0.0765157
228	0x3ed26fe3	0.41100988
229	0x3f790742	0.972767
230	0x3edea227	0.43483087
231	0x3f18df5b	0.59715813
232	0x3f8619ec	1.0476661
233	0x3e5ecadc	0.21757072
234	0x3f74d8ae	0.95643127
235	0xbeb15b51	-0.3463998
236	0x3f40e43e	0.7534827
237	0x3f74d8c2	0.95643246
238	0x3eef6e9b	0.46764073
239	0x3efcaba5	0.49349704
240	0xbe46600f	-0.19372581
241	0xbe3493d5	-0.17634518
242	0x3f198b2a	0.5997797
243	0xbeed8e4b	-0.46397623
244	0x3c17bdd2	0.009261565
245	0xbf0924e2	-0.53571904
246	0x3f1bbc04	0.60833764
247	0x3e51e18e	0.20496199
248	0xbcad0f8d	-0.02112558
249	0x3e3c019c	0.18359989
250	0x3f8e2370	1.1104565
251	0x3ee132f9	0.43984202
252	0xbb822be2	-0.0039725164
253	0xbed37ff0	-0.41308546
254	0x3f8c4c4f	1.0960788
255	0xbec8a1e7	-0.39186022

xh/W f4 [64, 10]
0	0x3f5cd684	0.86264825
1	0x3c6ba411	0.014382378
2	0xbce17be0	-0.027524889
3	0xbcc83def	-0.024443595
4	0xbfdbeff9	-1.7182609
5	0x3fda4a0c	1.7053847
6	0xbe6d48be	-0.2317228
7	0xbd1f3c40	-0.03887582
8	0xbe8493e5	-0.25894085
9	0xbeae0eb4	-0.33995593
10	0x3f982d5b	1.1888841
11	0xbe234993	-0.15946035
12	0x3e2fa114	0.1715129
13	0xbd04da16	-0.032434545
14	0x3db1ec7e	0.086876854
15	0xbe7680cb	-0.24072568
16	0xbeda1081	-0.42590716
17	0x3f1b83c1	0.60747916
18	0xbecf7d78	-0.40525413
19	0x3ec082cf	0.375998
20	0x3d9f3ef0	0.07775676
21	0x3c117635	0.00887828
22	0xbdcf72a7	-0.1012929
23	0x3c717bc8	0.014738984
24	0xbef5e3e7	-0.48025438
25	0x3ef63e30	0.4809432
26	0x3ee3e43a	0.4451006
27	0x3e11981f	0.14218186
28	0x3e046f28	0.12933028
29	0xbf1b0c1b	-0.60565346
30	0x3f262234	0.6489594
31	0x3d10d061	0.035354976
32	0x3ef7c100	0.48389435
33	0x3d6f1eef	0.05837911
34	0xbea3485f	-0.31891152
35	0x3f0adbcb	0.5424163
36	0x3f0fc1b7	0.5615496
37	0x3ece9cc6	0.40353984
38	0x3f982080	1.1884918
39	0x3e164620	0.14675188
40	0x3e28c4db	0.16481344
41	0x3f941370	1.1568432
42	0xbd163c1c	-0.03667842
43	0xbe571693	-0.21004705
44	0xbf0a6d4a	-0.5407301
45	0x3e695e81	0.22789957
46	0xbe9f94f6	-0.31168336
47	0xbeb70696	-0.35747212
48	0xbf73352f	-0.95003027
49	0xbf5e05a5	-0.8672736
50	0x3f15002b	0.5820338
51	0xbb8025da	-0.0039107623
52	0xbbf6ac44	-0.00752786
53	0xbd232569	-0.0398306
54	0xbf4c41d4	-0.79787946
55	0x3f49d963	0.7884733
56	0xbf8a4d27	-1.0804795
57	0x3cd9ebc7	0.026601685
58	0xbf350dc0	-0.70724106
59	0xbf1da378	-0.6157756
60	0xbd967e63	-0.07348325
61	0xbd77986d	-0.0604481
62	0xbed25c09	-0.41085842
63	0xbd4fe19a	-0.05075226
64	0xc01fdb0f	-2.4977453
65	0xbf65d3eb	-0.89776486
66	0xbf2d9a57	-0.6781363
67	0xbe69af6c	-0.22820824
68	0xbe71ceb2	-0.23614004
69	0xbf1d14bd	-0.6135977
70	0x3eb09434	0.3448807
71	0x3b395b2e	0.0028283107
72	0xbcccc793	-0.024997508
73	0xbcbb0600	-0.02283001
74	0x3f42b6ce	0.7606019
75	0xbf53c060	-0.82715416
76	0xbe05345a	-0.13008252
77	0xbf001489	-0.50031334
78	0x3c99dc00	0.018781662
79	0xbf49b3ad	-0.7878979
80	0x3ed5f890	0.417912
81	0xbba6cc66	-0.005090284
82	0xbd2f98ad	-0.042870212
83	0xbcdbeb58	-0.02684562
84	0xbf106216	-0.5639967
85	0x3f03dd38	0.5150943
86	0xbf0dbfdf	-0.553709
87	0xbd39c39d	-0.045352567
88	0xbf17b261	-0.5925656
89	0xbe071c25	-0.1319433
90	0xbe41939b	-0.18903963
91	0x3edcb80a	0.4310916
92	0x3d17baf1	0.037043516
93	0x3e335c50	0.17515683
94	0x3b16156c	0.0022900952
95	0x3ebdecfc	0.37094867
96	0xbe8fa0c8	-0.28052354
97	0x3d5e2fbe	0.05424475
98	0x3e795f95	0.24352868
99	0x3ef35777	0.47527668
100	0x3f41cf46	0.757069
101	0xbd797f07	-0.06091216
102	0xbd8ad0f9	-0.067781396
103	0xbc804799	-0.01565914
104	0x3eead47e	0.45865244
105	0xbf0198b9	-0.5062366
106	0x3d23b1d5	0.039964516
107	0xbf06d5e3	-0.52670115
108	0xbe92eada	-0.28694803
109	0xbf8b4267	-1.0879639
110	0xbfaa6870	-1.3313122
111	0xbc8e9b8c	-0.017408155
112	0xbe8b30be	-0.27185625
113	0x3d47861e	0.04871189
114	0xbf348830	-0.70520306
115	0x3f2c2f16	0.6725935
116	0x3f16f6ec	0.5897052
117	0xbe9f5949	-0.31122807
118	0x3f4a5e6a	0.79050314
119	0xbe43c44a	-0.19117847
120	0x3f0d8f58	0.5529685
121	0xbba2e137	-0.0049706954
122	0x3bbd33c3	0.0057739927
123	0x3c5087e4	0.012727711
124	0xbe620875	-0.22073539
125	0x3e41eb82	0.18937495
126	0xbdd66504	-0.10468486
127	0x3e797c1c	0.2436375
128	0xbce06a31	-0.027394386
129	0xbea7c3fc	-0.32766712
130	0x3f489eee	0.7836751
131	0xbe1fa95c	-0.15591949
132	0x3edb26bf	0.42802998
133	0x3d9e9b6d	0.07744489
134	0x3f25743c	0.64630485
135	0xbe851c86	-0.25998324
136	0x3ec49636	0.38395852
137	0xbef1a02f	-0.47192523
138	0x3ebdb2b6	0.37050408
139	0xbd7f1fab	-0.06228606
140	0x3ed095a1	0.40739158
141	0xbe9b7e62	-0.3036986
142	0xbe96db6c	-0.2946428
143	0x3f1fc4fa	0.6240994
144	0x3f4bec49	0.7965742
145	0xbeba4c18	-0.3638618
146	0x3d9463ac	0.072455734
147	0x3d534098	0.051575273
148	0xbd75b7d1	-0.059989754
149	0xbeb4aae1	-0.3528662
150	0x3f26f4c8	0.65217257
151	0xbc919680	-0.01777196
152	0xbc3baf68	-0.011455394
153	0xbc087b98	-0.008330248
154	0x3e9a75e1	0.3016806
155	0xbea493b8	-0.3214395
156	0x3d7a9f46	0.06118705
157	0xbea887df	-0.3291616
158	0xbef1b901	-0.4721146
159	0x3d0d48bb	0.03449319
160	0x3dd35cc3	0.10320427
161	0xbe791696	-0.24325022
162	0xbd3e0782	-0.04639388
163	0x3e0f7df9	0.14012899
164	0x3fb5d9a4	1.4207044
165	0xbfee7367	-1.8628968
166	0xbf023a99	-0.5087066
167	0xbdd10510	-0.10206044
168	0xbec3fb1d	-0.38277522
169	0xbf0d5287	-0.5520405
170	0xbf04567e	-0.51694477
171	0x3e6b0817	0.22952305
172	0xbcd01574	-0.025400855
173	0xbe48ae7e	-0.19597813
174	0x3f0b1b3e	0.54338443
175	0xbf66697f	-0.90004724
176	0x3e15a447	0.14613448
177	0xbe7d5bcb	-0.24742047
178	0xbdfffb2f	-0.12499081
179	0xbe873df5	-0.26414457
180	0x3f260910	0.6485758
181	0xbc9005e4	-0.017580934
182	0xbc16cfc4	-0.009204809
183	0xbc503d5c	-0.012709942
184	0x3dc59eb1	0.096494086
185	0xbde3ca41	-0.11122561
186	0xbe02cc2c	-0.12773198
187	0xbedfa7cc	-0.43682706
188	0xbcbef54a	-0.023310322
189	0x3d30f63e	0.043203585
190	0x3ec79161	0.38978103
191	0xbebc6e66	-0.36802977
192	0x3e17653f	0.14784716
193	0x3eca5abc	0.3952235
194	0x3e48d6b5	0.19613154
195	0x3ee6cb9b	0.45077214
196	0x3f7133bb	0.9421956
197	0x3f9b2544	1.2120748
198	0x3e9590f6	0.2921216
199	0x3ebf44d6	0.37357205
200	0x3f48e76b	0.78478116
201	0x3f58d03d	0.84692746
202	0x3f18a1d1	0.5962191
203	0x3e989055	0.29797617
204	0xbf21b9a5	-0.63173896
205	0x3f8a12ea	1.0787022
206	0x3f5bd443	0.8587076
207	0x3f9309ac	1.1487327
208	0xbd0a0e22	-0.033704884
209	0x3f2a6d96	0.66573465
210	0x3e96083c	0.29303157
211	0xbf07cee9	-0.53050095
212	0x3d91d648	0.07120949
213	0x3ef8f63f	0.4862537
214	0xbec4f3b8	-0.38467193
215	0x3f1f0737	0.62120384
216	0x3e813d7b	0.25242218
217	0x3e916629	0.28398255
218	0x3f886242	1.0654986
219	0x3ceaf530	0.028681368
220	0x3fb5cb6c	1.4202704
221	0x3c22f25a	0.009945476
222	0x3dddb4db	0.10825511
223	0xbd392b6b	-0.045207422
224	0x3ffe39d2	1.9861395
225	0xc00ccb5d	-2.1999123
226	0x3ed93d39	0.42429522
227	0x3e3cceb0	0.1843822
228	0xbee37071	-0.44421723
229	0xbee56260	-0.44801617
230	0xbe5ae4b1	-0.21376301
231	0xbe043edc	-0.12914604
232	0x3f37507d	0.7160719
233	0xbd24d4ae	-0.04024189
234	0x3ec3a5ef	0.38212535
235	0xbe86fb0a	-0.26363403
236	0x3f69154a	0.9104811
237	0x3f0873b4	0.5330155
238	0x3eee48ff	0.46540067
239	0x3f6a189d	0.91443807
240	0x3d223ba1	0.039607648
241	0x3dc6135f	0.096716635
242	0x3d88f2bd	0.06686924
243	0x3ecba8a0	0.39777088
244	0xbf67b73e	-0.9051398
245	0xbf0dddbf	-0.5541648
246	0xbf111f52	-0.56688416
247	0xbe978785	-0.2959558
248	0xbef1cc32	-0.472261
249	0xbf17cfbf	-0.5930137
250	0xbec4234a	-0.38308173
251	0x3ed07de9	0.40721062
252	0xbf1b29b5	-0.60610515
253	0x3f2f1871	0.6839667
254	0x3f16f906	0.5897373
255	0xbf8caef5	-1.0990893

xh/b f4 [64]
0	0x3d71c0b2	0.05902166
1	0xbc0296c4	-0.007970516
2	0x3e7993a9	0.24372734
3	0xbe31ca29	-0.17362274
4	0xbdcfeed2	-0.10152973
5	0xbf109473	-0.56476516
6	0xbc9c4bd5	-0.019079128
7	0xbe9baabf	-0.30403706
8	0xbe52688d	-0.20547695
9	0x3cde37db	0.027126243
10	0xbe5c8252	-0.21534088
11	0x3ebe4f1a	0.37169725
12	0x3df69d86	0.12041764
13	0xbec5bc0b	-0.38620028
14	0x3e9dd7db	0.30828747
15	0x3b269549	0.002541857
16	0xbe0820e6	-0.132938
17	0xbd9a8d5d	-0.07546494
18	0x3d062e85	0.03275921
19	0x3e4d52d6	0.2005113
20	0xbef7dafd	-0.48409262
21	0xb997bf78	-0.0002894362
22	0x3d5a260a	0.053258933
23	0xbe9638c3	-0.2934018
24	0xbd93363d	-0.071880795
25	0x3eb95ae6	0.36202163
26	0x3d8aa8f2	0.06770505
27	0xbe7d725c	-0.24750656
28	0x3e7771a5	0.24164446
29	0xbe9425af	-0.28935
30	0x3e2e71dd	0.17035623
31	0x3e31d654	0.17366916
32	0x3dbc5873	0.09196558
33	0x3e860fec	0.26184022
34	0x3d1b01ed	0.037843633
35	0xbd5af9ea	-0.053460993
36	0xbea96388	-0.3308375
37	0xbb8c515c	-0.0042821597
38	0xbe80214b	-0.250254
39	0x3eaaa1a6	0.33326453
40	0xbe39752c	-0.18111104
41	0x3ebec7a8	0.372617
42	0x3c6f4326	0.014603412
43	0x3e6b5365	0.22981031
44	0xbef1fec3	-0.4726468
45	0x3ec105da	0.37699777
46	0xbea06277	-0.31325123
47	0xbc7f3536	-0.015576651
48	0x3e188b26	0.14896831
49	0x3e47bb4d	0.19505043
50	0x3de5aef5	0.11215011
51	0xbecb25fa	-0.3967741
52	0x3de58c7c	0.11208436
53	0xbde16781	-0.1100607
54	0xbd78824c	-0.060671136
55	0x3f03fce9	0.51557785
56	0xbe86fc6f	-0.26364467
57	0x3efbe991	0.49201635
58	0xbe45941b	-0.19294779
59	0xbdfd5a70	-0.12370765
60	0x3e3da29e	0.18519065
61	0x3e908948	0.28229737
62	0xbed653eb	-0.418609
63	0x3b59d03e	0.0033235694
