code/python/slip_model/10_64_1_5_10_4950_210_use_train_slip_model.npz (npz, 127747 bytes, 6 tensors)

hy/W f4 [1, 64]
0	0xbc6e281a	-0.014535928
1	0xbe803b3c	-0.25045192
2	0xbea7fc01	-0.3280945
3	0x3eb890aa	0.3604787
4	0x3e87375e	0.2640943
5	0x3dedbd99	0.116084285
6	0xbdbd2d34	-0.092371374
7	0x3e56b105	0.20965965
8	0xbe113371	-0.1417978
9	0xbd810683	-0.0630007
10	0x3e6c78ca	0.23092952
11	0x3ea5044d	0.32229844
12	0xbe8386dc	-0.25688827
13	0xbe5bab81	-0.21452142
14	0x3e7318f2	0.23739985
15	0xbe66dfc6	-0.225463
16	0xbe290a02	-0.16507724
17	0x3e41708d	0.18890591
18	0xbe34cd2a	-0.17656389
19	0x3e14aa18	0.1451801
20	0xbd28f27a	-0.04124687
21	0x3e90fff5	0.2832028
22	0x3de6a6f3	0.11262312
23	0xbe7a2627	-0.24428616
24	0xbe1ec2c5	-0.15503986
25	0xbe7cb4d7	-0.2467836
26	0x3e2013bc	0.15632528
27	0xbe36ff7b	-0.17870896
28	0xbe8b3fdc	-0.27197158
29	0x3df61b10	0.120168805
30	0x3e2aa08c	0.16662806
31	0x3e3f1e9b	0.18664019
32	0x3e8c3337	0.27382824
33	0xbe71364c	-0.23555869
34	0x3e2f1a73	0.17099933
35	0x3da4659e	0.080271944
36	0x3e94cc3b	0.29062065
37	0x3e50fb78	0.20408428
38	0x3e4c7176	0.19965157
39	0xbeeff0ae	-0.46863312
40	0x3e75842c	0.23976201
41	0xbe8201a3	-0.25391874
42	0x3e27a42e	0.16371223
43	0x3e0cd037	0.13751303
44	0xbe9da214	-0.30787718
45	0x3e855438	0.26040816
46	0x3e78e614	0.24306518
47	0x3df7f479	0.12107176
48	0x3e3e19c7	0.18564521
49	0x3e853d8c	0.2602352
50	0x3e93b92c	0.28852212
51	0x3de1e65e	0.11030267
52	0xbe6a13c4	-0.22859102
53	0xbe4a4213	-0.19751768
54	0xbe2f9b8f	-0.17149185
55	0x3de64df4	0.11245337
56	0xbdf02c2c	-0.11727175
57	0xbd8835f2	-0.06650914
58	0x3eca056f	0.3945727
59	0x3cbb46d4	0.022860922
60	0xbe8f1027	-0.2794201
61	0xbe45fc0d	-0.19334431
62	0xbe2b673a	-0.16738597
63	0xbe5934b8	-0.21211517

hh/lateral/W f4 [256, 64]
0	0xbd2877f9	-0.04113004
1	0x3ff0318d	1.8765122
2	0x3ef408cb	0.47662959
3	0x3ebc43ba	0.3677042
4	0xbe678578	-0.22609508
5	0xbe685b64	-0.22691113
6	0x3e9baed8	0.30406833
7	0xbfa9ad93	-1.3256096
8	0x3bbbf6b1	0.005736195
9	0xbfb230c5	-1.3921133
10	0xbf22b752	-0.63560975
11	0x3f3c5ea0	0.73581886
12	0xbdad12bf	-0.08450841
13	0x3ed4e950	0.41584253
14	0xbeebc99c	-0.46052253
15	0x3f5427ca	0.82873213
16	0x3fadf2a8	1.3589678
17	0xbead410a	-0.33838683
18	0x3fb566d8	1.417201
19	0xbf124b52	-0.5714618
20	0x3e096867	0.13418733
21	0xbe6fbff5	-0.2341307
22	0xbea90e86	-0.33018893
23	0xbf83a312	-1.028414
24	0x3e9e11c9	0.30872944
25	0x3fa36d46	1.2767723
26	0x3f191578	0.59798384
27	0xbea9293e	-0.33039278
28	0xba1e6422	-0.00060421426
29	0x3f8f7343	1.120705
30	0xbf42666d	-0.7593754
31	0xbf06cfe4	-0.52660966
32	0x3f879250	1.0591526
33	0xbed5b41c	-0.41738975
34	0x3fd43ac4	1.6580434
35	0x3f0aec35	0.54266673
36	0xbf8ca601	-1.098816
37	0xbf7f14ac	-0.9964092
38	0x3f700fdf	0.9377422
39	0x40119131	2.2744868
40	0xbf55e483	-0.83551806
41	0x3f37148d	0.71515733
42	0xbe3ce115	-0.18445237
43	0xbe623d7f	-0.22093771
44	0xbf4350e8	-0.7629533
45	0xbedef8d5	-0.4354922
46	0xbe62a56e	-0.22133419
47	0xbee7ab7c	-0.4524802
48	0xbe97267c	-0.2952155
49	0xbf496aca	-0.7867857
50	0xbf5a7827	-0.8533959
51	0xbf3a9b2c	-0.72893023
52	0x3eb8cdfd	0.36094657
53	0x3fcf68de	1.6203878
54	0x3f3babb4	0.73308873
55	0xbe273a64	-0.16330868
56	0x3fa0a91a	1.2551606
57	0x3f1569df	0.5836467
58	0xc00c6802	-2.1938481
59	0x3f052e77	0.52024025
60	0x3fdcb6e3	1.7243313
61	0xbf960f2f	-1.1723384
62	0xbe74d275	-0.23908408
63	0x3fc5b2a5	1.5445143
64	0x3f02813a	0.50978434
65	0x3fa9d314	1.3267541
66	0xbe1bc5f4	-0.15212232
67	0x407f3db7	3.9881418
68	0xc014cc5b	-2.3249729
69	0x3f04a6d5	0.51817065
70	0x3fb9e513	1.4523033
71	0x3f182897	0.59436935
72	0x3f93f5a6	1.1559341
73	0x3e8992a0	0.26869678
74	0x3eb3c0b3	0.35107955
75	0xbfab5fe2	-1.3388636
76	0x40345171	2.8174708
77	0x3d62bff5	0.055358846
78	0x3f079e79	0.52976185
79	0x3fae8520	1.3634377
80	0xbf2a7205	-0.6658023
81	0x3f8bf7b6	1.093497
82	0x3e6a0bc2	0.22856048
83	0xbe7d9579	-0.2476405
84	0xbeb169a4	-0.3465091
85	0xc01e8e31	-2.4774287
86	0x3fafec05	1.3743902
87	0x3f9d6c09	1.2298595
88	0xc00470b7	-2.0693796
89	0x3f55a6d2	0.8345767
90	0x3ef59eb7	0.47972652
91	0xbf5ee46f	-0.8706731
92	0x3fdf29e4	1.7434659
93	0xc02c1f2e	-2.689403
94	0xbf14342d	-0.57892114
95	0xbedfa3d2	-0.43679672
96	0xbff3faea	-1.9060948
97	0x3f8e89d4	1.1135812
98	0x3f472e75	0.7780526
99	0x3d2f928b	0.042864364
100	0xc0029d4a	-2.0408502
101	0xbee5b74b	-0.44866404
102	0x3f1c0dac	0.6095836
103	0xbce9f114	-0.028557338
104	0x3f30a244	0.689976
105	0xbe982a19	-0.29719618
106	0xbeee5f31	-0.46557
107	0x3f2786f1	0.6544028
108	0x3f878a70	1.0589123
109	0xbf20d5e8	-0.62826395
110	0x3eb829d7	0.3596942
111	0xbe0b9410	-0.136307
112	0x3e2b7a65	0.16745909
113	0x3f9bd314	1.2173791
114	0x3ff40b0c	1.9065871
115	0x3f6be4b6	0.9214586
116	0xbfb2ca56	-1.3967998
117	0xbec39fa9	-0.3820775
118	0x3f85a7c5	1.0441824
119	0x3f584e82	0.84494793
120	0x3f090a57	0.535314
121	0x3dd25c9a	0.102715686
122	0xbfd95bb9	-1.6981117
123	0xbf071ef8	-0.5278163
124	0xbf51b531	-0.819171
125	0xbebe953e	-0.37223238
126	0x3e57df7d	0.21081348
127	0x3eb5590f	0.3541951
128	0xbf845bb0	-1.0340481
129	0x3f0a37a2	0.5399114
130	0xbf10fef5	-0.56639034
131	0x3e79523a	0.24347773
132	0x3fd43ff2	1.6582015
133	0x3e439692	0.19100407
134	0xbf5e0a4b	-0.86734456
135	0x3eb8ebb5	0.3611733
136	0x3f1d2d73	0.61397475
137	0x3e9ed26e	0.3101992
138	0xbf1c9220	-0.6116047
139	0xbfc5d88c	-1.545671
140	0x3de22e13	0.11043944
141	0xbfbcc437	-1.474738
142	0x3f220c75	0.6330026
143	0xbf6b5830	-0.9193144
144	0xbf039a80	-0.51407623
145	0xbf12a9a1	-0.57290083
146	0xbf561f2c	-0.83641315
147	0x3fad1791	1.3522817
148	0xbdb63351	-0.088965066
149	0x3f4a5798	0.7903991
150	0xbf3211ac	-0.69558215
151	0xbf9343ca	-1.1505063
152	0x3f59972a	0.84996283
153	0x3e8b5496	0.2721297
154	0xbfd4a8e9	-1.6614047
155	0xbf591433	-0.84796447
156	0xbfc5c30a	-1.5450146
157	0x3ff24f03	1.8930362
158	0xbd84980d	-0.06474314
159	0x3f56e41d	0.83941823
160	0xbf6416be	-0.890972
161	0xbef44ae9	-0.47713402
162	0xbb002bed	-0.0019557432
163	0x3b849496	0.004046033
164	0x402f1584	2.7356882
165	0x3f89319e	1.0718267
166	0xbf3bd87e	-0.73377216
167	0xbee52f58	-0.44762683
168	0xc004c3f6	-2.0744605
169	0x3fadd582	1.3580782
170	0xbe36b6ea	-0.17843214
171	0xbf0ab9be	-0.5418967
172	0x40532561	3.2991564
173	0xbf26f5e5	-0.65218955
174	0xbf0889b6	-0.5333513
175	0xbfa734ed	-1.3063027
176	0x3f126038	0.5717807
177	0x3f41015e	0.7539271
178	0x3f705e41	0.9389382
179	0x3fad48a5	1.3537794
180	0x3e4f200a	0.20227066
181	0x3fbc83f8	1.4727774
182	0x3ed2fe76	0.41209763
183	0xbf0daedc	-0.5534494
184	0x3f72b877	0.9481272
185	0x3f89817d	1.0742642
186	0xbf69557f	-0.9114608
187	0x40066e60	2.1004868
188	0x3f450cb9	0.7697254
189	0x3f8a60ea	1.0810826
190	0x3f12e65f	0.5738277
191	0xbf4485aa	-0.76766455
192	0x3f6870f0	0.9079733
193	0x408f9b39	4.487698
194	0xbfb77d78	-1.4335165
195	0xbfff9e36	-1.9970157
196	0x3fe93c54	1.8221536
197	0x3fe01258	1.7505598
198	0xc0092c80	-2.143341
199	0xc0031eff	-2.0487669
200	0xbfda716a	-1.7065861
201	0x3ee3a2a9	0.44460037
202	0x3eb52f0e	0.35387462
203	0xbf591e29	-0.84811646
204	0x3ffd9db4	1.9813752
205	0xc003c7a2	-2.0590596
206	0x3e671b93	0.22569112
207	0x403fe33e	2.9982448
208	0x3ef8dad5	0.48604456
209	0x3db2bddb	0.08727618
210	0xbf840324	-1.0313458
211	0x3fe0acc1	1.755272
212	0x3f8dd901	1.1081849
213	0x3f1ac280	0.60453033
214	0xbfcd293f	-1.6028212
215	0xc06752cf	-3.6144292
216	0x3f0ee2e5	0.55814964
217	0x40ad993e	5.4249563
218	0xbe8bfb63	-0.2734023
219	0x40419f56	3.02535
220	0x3eb69c57	0.35666153
221	0xbf9a14df	-1.2037619
222	0xbe7a84f9	-0.24464788
223	0x3f95af50	1.1694126
224	0xbfd74cf5	-1.682036
225	0xc030f3a7	-2.7648714
226	0x3fb60f86	1.4223487
227	0x3e8cfa4d	0.27534714
228	0xc098faa4	-4.780596
229	0x3fd0a66a	1.6300786
230	0xbe77daa5	-0.242045
231	0x40380b5b	2.875693
232	0x3f72b2c6	0.94804037
233	0x3cea59b9	0.028607236
234	0x3f106380	0.56401825
235	0xbfb0ea65	-1.3821532
236	0xbf35342c	-0.7078273
237	0xbe2198f4	-0.15781003
238	0x3f9af9a4	1.2107434
239	0x3fecbdb2	1.849539
240	0x3ede28c1	0.43390468
241	0xbf103faf	-0.56347173
242	0x3ec9f33c	0.39443386
243	0x3f95dc16	1.170779
244	0x3db972f7	0.09055131
245	0x3f18a53a	0.59627116
246	0xc00fd210	-2.2471962
247	0x3f746837	0.9547152
248	0xbee7720b	-0.45204195
249	0xbfae2188	-1.3603983
250	0x403b0ee0	2.922783
251	0xbf5660f8	-0.8374171
252	0x3fa47d3e	1.2850721
253	0x3fd63912	1.6736166
254	0x3eb84d4c	0.35996473
255	0xbf6b5765	-0.9193023

hh/upward/W f4 [256, 64]
0	0x3ef32904	0.4749223
1	0x3e72d72a	0.23714891
2	0x3daeb97b	0.08531471
3	0x3f2787d6	0.65441644
4	0xbf81eeb7	-1.0150975
5	0x3ec704c9	0.38870838
6	0x3e9da0c8	0.3078673
7	0x3dd34bbd	0.1031718
8	0x3daf309e	0.08554195
9	0x3cbd349e	0.023096379
10	0x3dbf91b4	0.093539625
11	0xbd6260e1	-0.055268172
12	0x3e21c84f	0.15799068
13	0x3a1ca31a	0.0005975232
14	0xbdf67fe0	-0.12036109
15	0xbe53d228	-0.20685637
16	0xbd0286cf	-0.031866845
17	0x3c3c93f8	0.011509888
18	0x3dcec7a1	0.1009667
19	0x3f80d7bc	1.0065837
20	0x3ed7d81a	0.4215706
21	0x3f9e4591	1.236498
22	0x3d3793d5	0.044818718
23	0x3f45bddf	0.77242845
24	0x3f481c2c	0.78167987
25	0xbefe2e4d	-0.496447
26	0x3c795d5d	0.015220013
27	0x3f920ff7	1.1411122
28	0xbf3ddaae	-0.74161804
29	0x3f833f81	1.0253755
30	0xbdcf5a7e	-0.10124682
31	0xbd2452a2	-0.040117867
32	0xbe7c932c	-0.24665517
33	0xbf81c297	-1.0137509
34	0xbd5dab24	-0.05411829
35	0x3d986332	0.07440795
36	0xbd956f6f	-0.07296645
37	0x3e2e4322	0.17017797
38	0x3d36e4b5	0.044651706
39	0xbf0d0109	-0.55079705
40	0xbddba77b	-0.10725304
41	0xbf486bfc	-0.7828977
42	0x3e4a13cb	0.19734113
43	0x3e03bab7	0.12864195
44	0xbd8fc4ce	-0.070199594
45	0x3ece67ae	0.40313476
46	0x3ef1d04a	0.47229224
47	0x3e8c0eba	0.27354985
48	0x3f67c31d	0.90532094
49	0xbe1bdfdc	-0.15222114
50	0xbfb09de4	-1.3798184
51	0xbab27d37	-0.0013617639
52	0xbf43d7cf	-0.7650117
53	0x3cdb815d	0.026795084
54	0xbfc09362	-1.5044978
55	0x3e452066	0.1925064
56	0xbd4c7b98	-0.049922556
57	0xbf0fd298	-0.56180716
58	0x3e9098fd	0.2824172
59	0x3cf080cf	0.029358296
60	0xbccc40b6	-0.0249332
61	0xbe1d88d6	-0.1538423
62	0x3d94b61c	0.07261297
63	0x3e151a1c	0.14560741
64	0xbef8d0fa	-0.48596936
65	0x3d1bcee7	0.038039114
66	0xbd81b950	-0.06334174
67	0xbaac76b8	-0.001315794
68	0x4019e9cb	2.4048946
69	0xbf800694	-1.0002007
70	0xbf5ff9bc	-0.8749044
71	0x3aa6dac8	0.0012729997
72	0xbd89da34	-0.06731072
73	0xbde90ecd	-0.11379776
74	0xbe3506d8	-0.17678392
75	0x3ebf7465	0.3739349
76	0x3e2087dc	0.15676826
77	0xbde75f54	-0.11297479
78	0xbf414213	-0.75491446
79	0x3d8a9b09	0.06767852
80	0xbdbfd73e	-0.09367226
81	0x398e2d87	0.0002711827
82	0x3b9ab23b	0.0047209538
83	0xbf74d642	-0.9563943
84	0x3f4d052e	0.8008603
85	0xbf83a5da	-1.0284989
86	0xbc795215	-0.015217324
87	0x3eaaebd4	0.33383048
88	0x3ee3180a	0.44354278
89	0xbe8209bc	-0.25398052
90	0xbd215843	-0.039390814
91	0x3f4577d4	0.7713597
92	0x3f7a092f	0.97670263
93	0x3f31a49d	0.69391805
94	0x3a926115	0.0011167849
95	0xbe06f9a6	-0.13181171
96	0x3f3e599d	0.7435549
97	0x3f9c6a0b	1.2219862
98	0xbd8b9335	-0.06815187
99	0xbe1bd868	-0.15219271
100	0x3d58e55d	0.052953113
101	0xbe17f525	-0.14839609
102	0xbd969dd2	-0.073543206
103	0x3e1c89a0	0.15286875
104	0x3e935123	0.2877284
105	0xbe4ab3fc	-0.19795221
106	0xbe37bac2	-0.17942336
107	0x3cd4ea35	0.025990585
108	0x3e089cd5	0.13341077
109	0x3f53370e	0.8250588
110	0x3f03ef48	0.5153699
111	0xbd055b58	-0.032557815
112	0xbf5dd143	-0.86647433
113	0xbd94ca36	-0.07265131
114	0xbe995d42	-0.29953963
115	0xbe5092b5	-0.20368464
116	0x3e2f5c0c	0.17124957
117	0xbe7ec0f2	-0.2487829
118	0x3f8509c0	1.03936
119	0x3f06dbab	0.52678937
120	0x3e98f6f7	0.2987592
121	0xbfc87ef5	-1.5663744
122	0x3ef47aa8	0.4774983
123	0xbe4cc29b	-0.19996111
124	0x3ddc963b	0.10770842
125	0x3e859ba9	0.26095322
126	0xbeb69bc0	-0.35665703
127	0x3d204498	0.039127916
128	0x3e9c9cc7	0.30588362
129	0x3c2b906d	0.0104714455
130	0x3c4d5b70	0.012534007
131	0xbe3544db	-0.17702048
132	0xbe58297d	-0.21109577
133	0x3e5acb0e	0.21366522
134	0x3ea23722	0.31682688
135	0xbe1de852	-0.15420654
136	0xbdd289fe	-0.10280226
137	0x3e09a315	0.13441117
138	0xbd8414ca	-0.06449278
139	0xbe285759	-0.1643957
140	0xbac8d4e4	-0.0015322235
141	0xbece21bf	-0.4026012
142	0xbdf00e81	-0.117215164
143	0xbe174be0	-0.14775038
144	0x3e606218	0.2191242
145	0x3d6fb22f	0.05851954
146	0x3c06dacd	0.008230877
147	0x3dd31ca2	0.10308196
148	0x3dbafd3c	0.09130332
149	0x3b03f2bf	0.0020133702
150	0x3e88d7da	0.26727182
151	0xbde16120	-0.11004853
152	0x3ea2b95a	0.31782037
153	0xbe6665d3	-0.2249978
154	0xbe0b5ab4	-0.13608819
155	0xbef746ba	-0.48296148
156	0xbee7776b	-0.45208296
157	0xbe92e455	-0.2868983
158	0x3d56946b	0.052387636
159	0x3dfbff54	0.12304559
160	0x3ce699bc	0.028149478
161	0xbec308f7	-0.38092777
162	0x3dda8f08	0.10671812
163	0xbe97fb0d	-0.29683724
164	0xbd7d1a57	-0.061792698
165	0xbd865d4c	-0.06560764
166	0x3bc139fa	0.005896804
167	0xbea3643b	-0.31912407
168	0xbd43a7af	-0.047767337
169	0xbe6d97f6	-0.232025
170	0x3cd0f8ad	0.025509203
171	0x3e175823	0.14779715
172	0xbdd2f934	-0.10301438
173	0x3c3bf483	0.01147187
174	0xbdd9c4eb	-0.10633262
175	0x3e810761	0.25200942
176	0x3ed5e9ab	0.41779837
177	0x3db32984	0.08748153
178	0xbe14a754	-0.14516956
179	0x3bce8933	0.0063029765
180	0xbf5762a6	-0.841349
181	0x3de4b11f	0.11166596
182	0xbb2584d8	-0.0025256183
183	0x3d82146a	0.0635155
184	0xbdea8869	-0.114517994
185	0x3ed4b758	0.4154613
186	0xbee748fc	-0.4517287
187	0x3e5b1ac1	0.21396925
188	0x3e1baccb	0.15202634
189	0xbe0f6bf4	-0.14006025
190	0x3d0ec073	0.034851503
191	0x3d19f923	0.03759111
192	0x3e236f67	0.15960465
193	0x3eb715ee	0.3575892
194	0xbe6e6904	-0.23282248
195	0x3e8c18e2	0.27362734
196	0xc04341fc	-3.0509024
197	0x3ef90bb0	0.4864173
198	0xbee618d4	-0.44940817
199	0x3d186685	0.037207145
200	0x3dc6c060	0.09704661
201	0xbc0b480c	-0.008501064
202	0x3e7bc848	0.2458812
203	0xbf179807	-0.5921635
204	0x3e2b11f1	0.16706063
205	0x3e83768e	0.25676388
206	0x3f7160d2	0.9428836
207	0x3d9154f2	0.0709628
208	0x3f13862b	0.576266
209	0x3caf4135	0.021393398
210	0x3df6d585	0.12052444
211	0x3f18c427	0.59674305
212	0xbf9c2150	-1.2197666
213	0x3f73b61a	0.9519974
214	0x3fba6049	1.4560634
215	0x3dc09bea	0.09404738
216	0xbd56db66	-0.05245533
217	0xbebb13cd	-0.36538544
218	0xbd29aa99	-0.04142246
219	0x3e8c61f0	0.2741847
220	0xc0322f79	-2.7841475
221	0x3e6f75ba	0.23384753
222	0xbe2b3697	-0.16720043
223	0x3e0d262a	0.1378409
224	0x3fa5bb72	1.2947829
225	0xc00ca705	-2.197694
226	0xbede1774	-0.43377268
227	0x3e133d7c	0.14378923
228	0x3e10c4db	0.14137594
229	0x3d930a8a	0.071797445
230	0xbd233490	-0.03984505
231	0xbf99c00a	-1.2011731
232	0xbea202b6	-0.31642693
233	0x3d44bcfe	0.0480318
234	0x3e055b85	0.13023193
235	0x3e2144a8	0.15748847
236	0xb9bd0c4b	-0.00036058048
237	0x3fd78380	1.6837006
238	0xbe645c1f	-0.22300766
239	0x3f94d3b8	1.1627111
240	0x3edf7b2d	0.43648663
241	0xbdbf6583	-0.09345534
242	0xbabfa823	-0.0014622252
243	0x3bca6423	0.006176488
244	0xbf4eaa6e	-0.80728805
245	0x3d55fdb7	0.052243914
246	0xbfc58b35	-1.5433108
247	0x3e40a327	0.18812238
248	0xbedcad6a	-0.43101054
249	0x3e526fe8	0.20550501
250	0xbf5d9e52	-0.865697
251	0x3e5d67ee	0.21621677
252	0xbdbf0b2a	-0.09328301
253	0xbe081015	-0.13287385
254	0x3e1bbff5	0.15209945
255	0x3d6f7b4e	0.058467202

hh/upward/b f4 [256]
0	0xbf6de843	-0.9293253
1	0x3e5209f5	0.20511611
2	0x3f44ab9e	0.7682437
3	0xbe5102be	-0.20411202
4	0xbf35c54e	-0.7100419
5	0x3e5007a2	0.20315412
6	0x3ea321d1	0.31861737
7	0xbf5271ea	-0.8220507
8	0xbf2c9df0	-0.67428493
9	0x3e26fdf0	0.16307807
10	0x3f2dfc16	0.6796278
11	0x3f2f33bc	0.68438315
12	0xbf35e578	-0.71053267
13	0xbfb23c40	-1.3924637
14	0x3f9e2dbc	1.2357707
15	0x3f3c26ca	0.7349669
16	0x3ec1fa1d	0.37886134
17	0xbd8cbdc8	-0.068721354
18	0x3e8f8c3a	0.28036672
19	0x3e0d9c16	0.13829073
20	0xbd81cf5f	-0.06338381
21	0x3d8618fc	0.06547734
22	0x3da5077e	0.0805807
23	0x3eda6ad8	0.4265964
24	0xbf7ce914	-0.9879315
25	0xbe015578	-0.1263026
26	0xbbb5eed1	-0.005552151
27	0x3fd53a37	1.6658391
28	0x3fd2d4aa	1.647115
29	0x3fae4442	1.3614581
30	0x3f75f15e	0.9607142
31	0xbf523590	-0.8211298
32	0xbf049593	-0.5179073
33	0x3ff1dcaf	1.8895472
34	0xbe74ad3c	-0.23894209
35	0xbe93f94c	-0.28901136
36	0xbf5e0494	-0.86725736
37	0x3f8ab798	1.0837278
38	0xbf799379	-0.9749065
39	0x4004e85f	2.0766828
40	0x3fe7c869	1.8108035
41	0x4028201e	2.6269603
42	0x3fdb8bda	1.7152054
43	0x3e4ba5f7	0.1988753
44	0x4005d296	2.0909781
45	0x3fca9f9d	1.582996
46	0x4017aa36	2.3697639
47	0x3fc34f9a	1.5258667
48	0xbf818546	-1.0118797
49	0xbfdd2a48	-1.7278528
50	0xbeb740d5	-0.3579165
51	0xbe69f912	-0.22848919
52	0x3f2f4cc0	0.68476486
53	0xbe237003	-0.15960698
54	0xbf0a5346	-0.54033315
55	0x3ed3a54e	0.41337055
56	0x3fd81033	1.6879944
57	0x3f6be3ca	0.92144454
58	0x3f879527	1.0592393
59	0x3f550fca	0.8322722
60	0xbf125b64	-0.571707
61	0x3e6d4497	0.23170696
62	0x3ef0eece	0.47057194
63	0xbf04272a	-0.5162226
64	0x3ea0bc9a	0.31393892
65	0x3f889a9c	1.0672183
66	0x3f3d90ea	0.74049246
67	0xbf2fe47b	-0.6870801
68	0x3fd30f2d	1.6489006
69	0xbeebc93a	-0.4605196
70	0x3f1e15cd	0.61752015
71	0xbe84d0ad	-0.25940457
72	0x3d75fd9e	0.06005632
73	0x3f35a194	0.70949674
74	0x3f962336	1.1729496
75	0xbab02494	-0.0013438636
76	0x3ee62693	0.44951305
77	0xbea6ccf2	-0.32578236
78	0x3f420fef	0.7580556
79	0xbec56ce5	-0.38559642
80	0x3fa93924	1.3220563
81	0x3faffd26	1.374913
82	0x3f394c0a	0.7238165
83	0xbf03b9d0	-0.514554
84	0x3fc60fa0	1.5473518
85	0xbeda7bee	-0.42672676
86	0x3e2704b8	0.16310394
87	0x3d2c9319	0.04213247
88	0xbfd02b4e	-1.6263216
89	0x3f3f9141	0.74831015
90	0x3f623b37	0.88371605
91	0xbf455260	-0.7707882
92	0x3fe8f110	1.8198566
93	0xbf86490d	-1.0491043
94	0xbec34f06	-0.38146228
95	0xbde0303f	-0.10946702
96	0x3f824caa	1.0179646
97	0xb9989d80	-0.00029109046
98	0x3fb1724a	1.3863003
99	0xbef7ae2d	-0.48375073
100	0x3f330ab6	0.6993822
101	0xbefa32c6	-0.48866862
102	0xbeabc324	-0.33547318
103	0xbec45179	-0.3834341
104	0x4007a79c	2.119605
105	0x3f7068a6	0.9390968
106	0x3e90b783	0.28265008
107	0x3f52fcdb	0.82417077
108	0xbfc9b70f	-1.575899
109	0x3ef86e92	0.48521858
110	0x3e2e7889	0.17038168
111	0x3faaa707	1.3332223
112	0xbf9fb380	-1.2476654
113	0x3ee07af9	0.4384382
114	0x3f2c1abf	0.6722831
115	0x3fafbe31	1.3729917
116	0xbf0c8117	-0.54884475
117	0x3f718a5e	0.94351757
118	0x3e96b147	0.29432127
119	0xbf1ba7f9	-0.6080318
120	0x3f3d0d45	0.7384837
121	0x3f66c41c	0.9014299
122	0x3f0788d5	0.52943164
123	0x3f34d18a	0.7063223
124	0xbe4394dc	-0.19099754
125	0xbe098885	-0.13430984
126	0x3f247324	0.6423819
127	0x3cf8e054	0.030380405
128	0x3fb60c58	1.4222517
129	0xbeba7fcb	-0.36425623
130	0xbf12ab73	-0.5729286
131	0x3ee7d877	0.45282337
132	0xbf95793f	-1.1677626
133	0x3ebe83c9	0.3720992
134	0x3e932eea	0.2874673
135	0x3eef3cee	0.46726173
136	0x3fa2ced7	1.2719373
137	0x3f65ce63	0.89768046
138	0xbeb26ba6	-0.34847754
139	0xbf521167	-0.82057804
140	0xbee35068	-0.44397283
141	0x3f6ec93b	0.93275803
142	0x3e4a9909	0.19784941
143	0xbdd5b371	-0.10434616
144	0x3e81a6aa	0.25322467
145	0xbf2d899e	-0.6778811
146	0x3f38d4f3	0.72199935
147	0x3f6a313a	0.91481364
148	0xbfaf2f6c	-1.3686347
149	0xbf301e95	-0.68796664
150	0x3e920117	0.28516456
151	0x3fee0de0	1.8597984
152	0xbc597621	-0.013272793
153	0x3fdc2427	1.7198533
154	0xbf5ec4d1	-0.8701907
155	0xbf1327ff	-0.57482904
156	0xbfc740c0	-1.5566635
157	0xbe4325f1	-0.19057442
158	0xbf2e3535	-0.6804994
159	0xbf406682	-0.75156415
160	0xbf314276	-0.69242036
161	0xbf3e288e	-0.7428063
162	0x3f8dd344	1.1080098
163	0xbf418419	-0.7559219
164	0x3e93aa08	0.2884066
165	0xbf62da25	-0.8861411
166	0x3d1b901c	0.03797923
167	0x3efefd64	0.49802697
168	0x3faa91f6	1.3325794
169	0x3e3b6386	0.18299684
170	0x400741d6	2.1133933
171	0x3fc0ddcb	1.5067686
172	0x3ecf6972	0.40510136
173	0xbb928609	-0.0044715446
174	0xbe0eaa6f	-0.13932203
175	0x3f516dc2	0.818081
176	0xc00110e4	-2.016656
177	0x3f86e0ca	1.053735
178	0x3fc47a29	1.534978
179	0xbf2d77c5	-0.6776088
180	0x3fe28f5a	1.7699997
181	0xbf1f8b75	-0.6232217
182	0x3f3e09e1	0.74233824
183	0x3f72bdf3	0.9482109
184	0x3ec19895	0.37811723
185	0xbd32a831	-0.04361743
186	0xbde4072a	-0.11134179
187	0xbd560e0c	-0.05225949
188	0xbdb89b53	-0.09014001
189	0xbe1962a7	-0.14979039
190	0x3f174373	0.59087294
191	0x3f12f3df	0.5740337
192	0x3fecaeba	1.8490822
193	0x3ec17f6f	0.37792537
194	0x3f0efdbb	0.5585591
195	0xbe101f5b	-0.14074461
196	0xbda790b1	-0.081818946
197	0xbee416f7	-0.4454877
198	0x3ee38a3b	0.444414
199	0x3ec32710	0.3811574
200	0x3f919262	1.1372797
201	0x3f27ed4c	0.6559646
202	0x3f7c8dc6	0.9865383
203	0xbd2c6063	-0.04208411
204	0xbf5fd463	-0.8743345
205	0x3f4e4ee2	0.80589116
206	0x3ec56266	0.38551635
207	0xbf2c9a4a	-0.67422926
208	0xbffb4fa5	-1.963368
209	0xbe0047f6	-0.12527451
210	0x3f5709be	0.8399924
211	0x3f28f0ff	0.6599273
212	0x3f6ad822	0.9173604
213	0xbf674220	-0.90335274
214	0x3e7a7adf	0.24460934
215	0xbe0fdd30	-0.1404922
216	0x3f27a205	0.654816
217	0x3e3ccf1b	0.1843838
218	0x3dcc4425	0.09973935
219	0x3f8b7b4b	1.0897001
220	0x3e580b30	0.21098018
221	0xbf051a3d	-0.5199316
222	0x3fdca820	1.7238808
223	0x3ef42f6c	0.4769243
224	0xbea14d34	-0.31504214
225	0xbfbd3f3b	-1.4784921
226	0x3e917b76	0.28414506
227	0x3c88929c	0.016671471
228	0x3ec52c6d	0.38510457
229	0x3fd9fd4b	1.7030424
230	0xb93e32a1	-0.00018138673
231	0x3f083ebf	0.5322074
232	0x4008f270	2.1397972
233	0x3ef0c9c5	0.47028938
234	0x3f475fe3	0.77880687
235	0xbe97fa06	-0.2968294
236	0x3f9d0075	1.2265764
237	0x3fbdd63e	1.4831007
238	0xbd83da47	-0.064381175
239	0x3f16e862	0.5894834
240	0xbeb5dac9	-0.35518482
241	0xbe230297	-0.15918957
242	0x3e556b01	0.208416
243	0xbf69966b	-0.91245145
244	0xbde72885	-0.11287025
245	0xbf672609	-0.9029241
246	0xbdfb0e2f	-0.12258565
247	0x3e729d58	0.23692834
248	0xbea1c462	-0.3159514
249	0x3eb7afd2	0.35876328
250	0x3f36f303	0.71464556
251	0x3f076968	0.5289521
252	0x3e90fa38	0.28315902
253	0xbf205dad	-0.6264294
254	0x3fbab9e7	1.4587983
255	0xbf135909	-0.5755773

xh/W f4 [64, 10]
0	0x40008526	2.0081267
1	0xbc2e4676	-0.010636916
2	0xbd0ae0f8	-0.033905953
3	0xbd88c32b	-0.0667785
4	0xc0267270	-2.6007347
5	0x402385e1	2.5550463
6	0xbebb5b0d	-0.36592904
7	0xbdc09ee2	-0.094053045
8	0xbf09fd0a	-0.5390173
9	0xbeefb213	-0.46815547
10	0x402f18bc	2.7358847
11	0xba83e13c	-0.0010061632
12	0xbc9832ce	-0.018578913
13	0xbd519a64	-0.05117263
14	0x3d61f62f	0.05516642
15	0xbde6d61b	-0.11271306
16	0xbf271de4	-0.65279984
17	0x3f39113b	0.72291917
18	0xbf2310dd	-0.63697606
19	0x3f055acd	0.52091676
20	0x3f3f1f26	0.74656904
21	0xbb9f0377	-0.004852708
22	0xba3900d8	-0.00070573157
23	0xbc08422d	-0.008316559
24	0xbd18539d	-0.037189115
25	0x3cbbf06e	0.022941794
26	0x3f437dfc	0.7636411
27	0x3edf7634	0.4364487
28	0x3e0b516b	0.13605277
29	0xbf0c3a4c	-0.54776454
30	0x3f6c6ea0	0.923563
31	0xbcd2eff3	-0.025749182
32	0x3eb8ff6b	0.36132368
33	0x3ba02273	0.004886919
34	0xbf07ec6e	-0.5309514
35	0x3f424e92	0.7590114
36	0x3f013782	0.50475323
37	0x3ead2eb0	0.33824682
38	0x3f9da89d	1.2317082
39	0x3e77dab1	0.24204518
40	0xbdab9894	-0.08378711
41	0x3ffa5e1f	1.9559973
42	0x3d8aa17f	0.06769084
43	0xbec421ba	-0.3830698
44	0xbf06ad20	-0.5260792
45	0xbc8e8361	-0.01739663
46	0xbee87f68	-0.45409703
47	0xbf0696bd	-0.5257376
48	0xbf9bc070	-1.2168102
49	0xbf980f9b	-1.1879762
50	0x3f6358b4	0.88807225
51	0xbcbc16e7	-0.02296014
52	0xbcc97161	-0.024590196
53	0xbd4ae4f4	-0.049534753
54	0xbf9867be	-1.190666
55	0x3f8f380b	1.1188978
56	0xbfe258e6	-1.768338
57	0xbf123047	-0.57104915
58	0xbfcc63d7	-1.5967969
59	0xbfc34dab	-1.5258077
60	0xbe637896	-0.22213969
61	0xbd1cbe39	-0.038267348
62	0xbf0cf0ce	-0.5505494
63	0xbc9845ec	-0.018588029
64	0xc02176ac	-2.5228682
65	0xbecad1e0	-0.39613247
66	0xbf8235ad	-1.017263
67	0xbefe311d	-0.49646845
68	0xbee4b2e7	-0.44667742
69	0xbf4d8181	-0.8027573
70	0x3e07980b	0.13241594
71	0x3c77a476	0.015114894
72	0xbc275a05	-0.010214333
73	0xbca8cd6d	-0.020605767
74	0x3eaf11ad	0.34193173
75	0xbec8614e	-0.39136738
76	0xbed5a6ac	-0.41728723
77	0xbf615236	-0.8801607
78	0xbe5f7e03	-0.21825413
79	0xbf9c5651	-1.2213842
80	0x3edb0ff0	0.42785597
81	0x3c6f8a33	0.014620352
82	0xbc589a3d	-0.013220367
83	0xbcd46055	-0.025924841
84	0xbdce6708	-0.100782454
85	0x3ce839f3	0.028347945
86	0xbf183d16	-0.5946821
87	0x3d53dcb1	0.05172414
88	0xbf3e1f28	-0.7426629
89	0xbe3e8f64	-0.18609387
90	0xbe7a104b	-0.24420278
91	0xbc8d3772	-0.017238352
92	0x3be68e69	0.0070360196
93	0x3c5957a0	0.01326552
94	0xbd39b1ff	-0.045335766
95	0x3d749a29	0.05971733
96	0xbe9b607e	-0.30347055
97	0xbb6a002c	-0.003570567
98	0x3e87a587	0.26493475
99	0x3f04e761	0.51915556
100	0x3fa8e567	1.3195008
101	0xbbe30653	-0.006928244
102	0xbc990a47	-0.018681658
103	0xbd15a852	-0.036537476
104	0x3e3fc431	0.18727185
105	0xbe8ef934	-0.27924502
106	0xbe1e448e	-0.15455839
107	0xbf460f5a	-0.77367175
108	0xbf1ecf37	-0.62034935
109	0xbfc03585	-1.5016333
110	0xc020eb65	-2.5143673
111	0x3bb54896	0.0055323346
112	0x3bfd9d03	0.0077396645
113	0x3d66dfe1	0.05636585
114	0xbf455bf9	-0.77093464
115	0x3f63d65a	0.8899895
116	0x3fa14967	1.2600526
117	0x3ce76418	0.02824597
118	0x3fc349eb	1.5256933
119	0x3e87331c	0.2640618
120	0x3fcbf7c6	1.593499
121	0x3b1b3f9a	0.0023689033
122	0xbd0d370b	-0.03447632
123	0xbcdde71d	-0.027087742
124	0xbd0d8875	-0.034553964
125	0x3c382cdb	0.011241163
126	0x3ddad1e1	0.106845625
127	0x3f1a04d4	0.6016362
128	0xbbfd99d8	-0.007739287
129	0xbdac9e7d	-0.08428667
130	0x3f4e84db	0.8067147
131	0x3bd52b3f	0.0065053995
132	0xbc554252	-0.0130163
133	0xbd1153f3	-0.03548045
134	0x3ef09be8	0.46993947
135	0xbf0bb952	-0.5457965
136	0xbe21574b	-0.15755956
137	0xbf821b6c	-1.0164618
138	0x3d3b9b71	0.045802537
139	0xbee8e694	-0.45488417
140	0x3f0519c2	0.5199243
141	0xbdfd1564	-0.123575956
142	0xbe982d73	-0.29722175
143	0x3f2e7948	0.6815381
144	0x3f666da6	0.9001106
145	0xbeafa90b	-0.34308657
146	0x3d7c100b	0.061538737
147	0x3d53678b	0.05161242
148	0xbc0bec95	-0.008540292
149	0xbe75485e	-0.23953387
150	0x3fc8bff9	1.5683585
151	0x3b2199dc	0.0024658358
152	0x3ad9810d	0.0016594246
153	0xbc969511	-0.018381627
154	0x3c06491c	0.008196142
155	0xbd95fa6e	-0.07323156
156	0x3e154d9f	0.14580391
157	0xbe2a328f	-0.16620849
158	0xbeefe2ef	-0.46852824
159	0x3e5e0216	0.21680483
160	0x3e21e6cb	0.15810697
161	0xbb8c5ec0	-0.004283756
162	0xba31ec02	-0.0006787182
163	0xbc26bb73	-0.010176527
164	0x4004c8a0	2.0747452
165	0xc00a825b	-2.1642063
166	0xbf405ec3	-0.75144595
167	0xbe6694a0	-0.22517633
168	0xbed41184	-0.41419613
169	0xbf1ee1ad	-0.62063104
170	0xbf994063	-1.1972774
171	0x3caa416c	0.020783149
172	0x3a4f1922	0.00079001684
173	0xbaf7a384	-0.0018893336
174	0x3e467a89	0.19382681
175	0xbe1e17d4	-0.15438777
176	0x3e60f120	0.21966982
177	0xbe9627c2	-0.29327208
178	0xbda49747	-0.08036666
179	0xbecf5b54	-0.40499365
180	0x3fd4fd2f	1.6639766
181	0xbbe39ae1	-0.0069459532
182	0xbc94fa07	-0.018185629
183	0xbcffd6dd	-0.031230384
184	0xbb9f1e93	-0.0048559397
185	0xbd3f72b4	-0.04674025
186	0xbd847331	-0.064672835
187	0xbeb50d65	-0.35361782
188	0x3ddc436b	0.107550465
189	0x3e956626	0.29179496
190	0x3f2f0c73	0.6837837
191	0xbeb095a3	-0.34489164
192	0x3e24d8f6	0.16098389
193	0x3ed90de7	0.4239342
194	0x3e019923	0.12656073
195	0x3f2bb14d	0.67067415
196	0x3f8ee307	1.1163033
197	0x3fb400e6	1.4062774
198	0x3ed32f8b	0.4124721
199	0x3f22c0b2	0.6357528
200	0x3f8ca9f1	1.0989362
201	0x3fab27fc	1.3371577
202	0x3f6f3c62	0.9345151
203	0x3ee421fe	0.44557184
204	0xbf1bdb2d	-0.6088131
205	0x3fb9731e	1.4488256
206	0x3f9fcfd2	1.2485297
207	0x3fc36bea	1.5267308
208	0x3e884828	0.2661755
209	0x3f8088a0	1.0041695
210	0x3ed9a7c8	0.4251082
211	0xbef2f75b	-0.47454342
212	0x3d8dffdc	0.06933567
213	0x3f1a86d3	0.60361975
214	0xbf0c8a4f	-0.5489854
215	0x3f87a761	1.0597955
216	0x3e86e42d	0.2634596
217	0x3e9deac4	0.30843174
218	0x3f97cee3	1.1860012
219	0x3e5cd07d	0.21563907
220	0x402ba801	2.6821291
221	0x3bd9653b	0.006634382
222	0x3d11723f	0.035509344
223	0xbd340449	-0.0439494
224	0x404b4f84	3.1767282
225	0xc05420dc	-3.3145056
226	0x3e21cd06	0.15800866
227	0x3dd9fa5c	0.106434554
228	0xbf437e43	-0.76364535
229	0xbf17475c	-0.5909326
230	0xbc9c0bc8	-0.019048586
231	0xbe53af94	-0.20672446
232	0x3f74e69d	0.9566439
233	0xbd80c912	-0.06288351
234	0x3f24d6a7	0.64390033
235	0xbec1d5d5	-0.37858453
236	0x3f911b23	1.1336406
237	0x3f47db34	0.7806885
238	0x3f4e720e	0.80642784
239	0x3fa05060	1.2524529
240	0x3ca0bbe3	0.019620841
241	0x3d484d1c	0.048901662
242	0xbd9acb5b	-0.07558318
243	0x3dda568d	0.106610395
244	0xbeed24bc	-0.4631709
245	0xbd291ce2	-0.04128731
246	0xbf499a9a	-0.7875153
247	0xbecee9cb	-0.40412745
248	0xbece25e6	-0.4026329
249	0xbf0c8948	-0.54896975
250	0xbf1bbfad	-0.6083935
251	0x3ef02a22	0.46907145
252	0xbf27726a	-0.65408957
253	0x3f2c1c9c	0.67231154
254	0x3f471d31	0.7777892
255	0xbf8e5f5b	-1.112285

xh/b f4 [64]
0	0x3e3dc98b	0.18533914
1	0x3f52bb40	0.8231697
2	0x3f0517be	0.5198935
3	0x3e2627de	0.16226146
4	0xbdeab1d5	-0.114597
5	0xbfbbf3b0	-1.4683743
6	0xbc9d2b18	-0.019185588
7	0xbf5cc8d9	-0.8624397
8	0xbec6a5f8	-0.387985
9	0x3dbfbb0e	0.0936185
10	0xbf14c605	-0.58114654
11	0x3e78784e	0.24264643
12	0x3f24f6b7	0.64438957
13	0xbeaeb1e4	-0.34120095
14	0x3eedf61d	0.46476832
15	0x3ed076c9	0.40715626
16	0xbf1d584c	-0.61462855
17	0xbf119d20	-0.5688038
18	0x3ef48a0b	0.47761568
19	0x3efda099	0.4953659
20	0xbf282e8c	-0.65696025
21	0x3de87854	0.11351076
22	0x3eb10c00	0.34579468
23	0xbeeaff1e	-0.45897764
24	0xbec603bc	-0.38674724
25	0x3f06ee74	0.527076
26	0xbf235d82	-0.63814557
27	0xbe0ca7fc	-0.13735956
28	0x3eec10db	0.4610661
29	0xbf14f948	-0.58192873
30	0x3f75a0e1	0.95948607
31	0x3e4f9742	0.20272544
32	0x3d75015d	0.059815753
33	0x3eb81fec	0.35961854
34	0xbeb8ca0b	-0.36091647
35	0x3e11b6b2	0.14229849
36	0xbe14df93	-0.14538412
37	0x3f1afab0	0.6053877
38	0x3ceccb9d	0.028905684
39	0x3f083c16	0.53216684
40	0xbe7469cd	-0.23868485
41	0x3f059aa8	0.5218911
42	0x3e5337e4	0.2062679
43	0x3f36bd29	0.71382385
44	0xbf74914b	-0.955342
45	0x3ed21566	0.4103195
46	0xbedb2797	-0.42803642
47	0xbca3dc93	-0.020002639
48	0x3ec2a283	0.38014612
49	0x3e0e82bf	0.13917063
50	0x3e55af86	0.20867738
51	0xbf01f0c0	-0.5075798
52	0x3e2a6114	0.16638595
53	0xbec93739	-0.39299944
54	0xbe29bf0d	-0.16576786
55	0x3fc716a7	1.5553788
56	0xbece0de2	-0.40244967
57	0x3f406985	0.7516101
58	0xbdd6c87f	-0.1048746
59	0x3e37e138	0.17957008
60	0x3e544404	0.20729071
61	0x3c182ddb	0.009288277
62	0xbf8a20b0	-1.0791225
63	0x3e2f2729	0.17104782
