code/python/slip_model/10_64_1_5_10_4950_790_use_train_slip_model.npz (npz, 128144 bytes, 6 tensors)

hy/W f4 [1, 64]
-0.010914316 -0.25400892 -0.31117946 0.36944717 0.2319121 0.11810027 -0.1017043 0.19568229
-0.16320613 -0.05805622 0.21363045 0.33076963 -0.261294 -0.21950842 0.23673958 -0.20667979
-0.17849357 0.17312592 -0.17681439 0.135172 -0.031146789 0.28613627 0.12295048 -0.2267542
-0.14896657 -0.27251855 0.15261048 -0.18152565 -0.24567072 0.12919067 0.18778862 0.1990503
0.25796804 -0.23582979 0.15876088 0.06412641 0.29743746 0.19108519 0.1763793 -0.44846678
0.2470885 -0.2398024 0.15472203 0.10795413 -0.28379312 0.27186266 0.22621226 0.12346088
0.15649232 0.25263733 0.28704172 0.11335443 -0.21249351 -0.17998864 -0.15158261 0.1127064
-0.12849115 -0.07455733 0.3959061 0.036371954 -0.26539806 -0.18833591 -0.18466921 -0.18964681
00000000: f6d1 32bc 750d 82be ea52 9fbe 2e28 bd3e
00000010: 5e7a 6d3e 8ede f13d 584a d0bd f060 483e
00000020: 821f 27be 5ccc 6dbd f1c1 5a3e a35a a93e
00000030: 54c8 85be d1c6 60be dc6b 723e dea3 53be
00000040: 05c7 36be ec47 313e d50e 35be 876a 0a3e
00000050: 8d27 ffbc 7480 923e 76cd fb3d 4132 68be
00000060: b18a 18be 8d87 8bbe ec45 1c3e dce1 39be
00000070: 1b91 7bbe 8f4a 043e a94b 403e d8d3 4b3e
00000080: 6314 843e 5d7d 71be 3692 223e b554 833d
00000090: b949 983e d6ab 433e c69c 343e 709d e5be
000000a0: c504 7d3e c38e 75be 746f 1e3e 0e17 dd3d
000000b0: 554d 91be 9531 8b3e 30a4 673e 0fd9 fc3d
000000c0: 863f 203e ae59 813e 22f7 923e 5e26 e83d
000000d0: e697 59be f14e 38be 7938 1bbe 9dd2 e63d
000000e0: 2f93 03be 83b1 98bd 34b4 ca3e c2fa 143d
000000f0: 41e2 87be 21db 40be ed19 3dbe c632 42be

hh/lateral/W f4 [256, 64]
0.79125834 0.3626508 0.81786066 1.2648858 1.2187282 0.6971526 0.13094305 -0.94761467
0.14925008 -1.7410684 -1.7164431 2.1143665 -1.2622294 1.6208677 -2.205668 2.156892
2.072189 -0.29650074 2.1817043 -1.6712143 0.5405078 0.3599013 -0.7020083 -1.9983016
1.3093528 2.5919056 0.3770557 -2.0341463 -1.2191582 2.2357354 -1.1480403 -0.8010942
0.5843808 -0.548067 2.07218 -0.14608139 -0.43304184 -1.4822448 0.5369445 1.9601706
-0.5363754 -0.1651816 -0.29270276 -0.49826565 -0.60719675 0.58931816 -0.22812016 -0.6422065
-1.1298295 0.38717213 -0.44389436 -1.341432 -0.45962995 3.594173 1.7391002 -0.32831842
1.832259 0.6866525 -1.8194861 0.39001355 2.5717416 -1.1576433 -0.29849842 1.5233296
1.4458377 1.7431322 -0.65738374 4.858868 -3.1778064 0.5469939 1.42208 1.9286051
2.767069 0.4718227 -0.14995195 -2.314619 2.9483736 -0.3193395 0.6294559 1.1286277
-1.1981091 2.0409987 -0.7424927 -0.8320687 -0.31302458 -1.9270505 1.1753414 1.182155
-2.5905914 1.1857375 1.0669413 -0.7763649 0.870661 -2.6202846 -0.255308 -0.87795997
-3.5216615 1.7457191 1.2318147 0.8542923 -3.6735423 0.46205312 0.46767533 -0.80813897
1.2512776 -0.9265355 -0.925871 2.2295623 1.3138964 -0.23038356 0.074927054 -0.42887062
2.0384033 2.059451 4.195885 1.0963527 -2.0141358 -2.4218748 2.1058493 0.56161517
2.7046793 0.7180455 -0.43399602 -1.801419 -1.1131136 0.41546017 -0.9881004 -0.26726407
-1.5989499 -0.20798214 -0.8948939 1.1440451 0.94484675 0.36713615 -3.0891056 1.19247
0.49416158 0.44400007 -0.59626526 -2.1657116 -0.21129876 -1.2776873 0.52640986 -0.75542784
-0.823659 0.012825425 -0.9244733 2.3360448 0.6411964 0.96806026 -0.23294899 -0.56500584
1.0871452 0.9631993 -1.0678203 -1.3288285 -1.8959464 2.1525424 -0.2886986 0.8677202
-2.4810221 -1.0382785 0.2281458 -0.25249296 4.2207866 1.5636574 -0.26475728 -2.6299734
-2.1404324 0.8044364 0.041264635 -0.024171837 4.9276576 -1.5447259 -1.0115284 -1.3797483
0.6292391 0.38350466 0.29789665 2.276407 -0.030211996 2.4429035 0.23882365 -0.47825542
1.2122958 1.0829865 1.2997704 1.9584156 2.20998 2.2100976 -0.24620728 -1.9496897
0.21851057 5.0702634 -3.014595 -1.3473586 3.2358375 1.8074565 -2.2077525 -3.3497593
-1.9021959 0.06851603 -0.034721628 -2.0933533 2.2226012 -2.0226963 0.1905396 3.5902905
0.21567395 0.008232774 -0.5528088 2.0114496 1.8711519 0.71146315 -1.7949184 -3.3754847
-1.2057878 9.360253 -0.8571494 2.0108347 0.8262643 -1.7143317 -0.6457447 0.39233017
-0.99919295 -3.235521 1.1223421 -0.17216074 -7.0145516 2.8736842 -1.9769051 5.6212325
-0.3684646 -0.14555813 0.4714835 -3.457352 -0.5091072 0.40518683 1.348782 2.3221424
0.38869885 -1.2920202 1.7286518 0.91678125 1.3806312 0.4296227 -2.6025646 1.8487333
-0.03095721 -0.9911554 4.0417676 -1.7712086 1.0572075 1.6823034 0.54842204 -0.4272943
00000000: e88f 4a3f 5ead b93e 515f 513f c7e7 a13f
00000010: 49ff 9b3f 9878 323f ef15 063e e096 72bf
00000020: 03d5 183e 54db debf 68b4 dbbf c851 0740
00000030: bc90 a1bf 9878 cf3f aa29 0dc0 850a 0a40
00000040: bf9e 0440 f2ce 97be 0ba1 0b40 5aea d5bf
00000050: b85e 0a3f fc44 b83e d1b6 33bf 59c8 ffbf
00000060: df98 a73f c8e1 2540 720d c13e 742f 02c0
00000070: 600d 9cbf 4a16 0f40 fcf2 92bf 8214 4dbf
00000080: fb99 153f 1e4e 0cbf 999e 0440 5c96 15be
00000090: a9b7 ddbe 33ba bdbf 3275 093f dfe6 fa3f
000000a0: e64f 09bf 5e25 29be 23dd 95be ad1c ffbe
000000b0: 3f71 1bbf 8edd 163f 5598 69be a567 24bf
000000c0: 419e 90bf 6d3b c63e 1f46 e3be 0bb4 abbf
000000d0: 9e54 ebbe ee06 6640 d69a de3f 5a19 a8be
000000e0: 7787 ea3f 75c8 2f3f ece4 e8bf dbaf c73e
000000f0: 6a97 2440 a82d 94bf c9d4 98be 77fc c23f
00000100: 3611 b93f f51e df3f 4d4a 28bf d97b 9b40
00000110: 2e61 4bc0 cb07 0c3f b806 b63f 88dc f63f
00000120: a917 3140 bf92 f13e 018d 19be b822 14c0
00000130: 27b2 3c40 7880 a3be 0624 213f df76 903f
00000140: a45b 99bf b99f 0240 0014 3ebf 7402 55bf
00000150: c244 a0be 97a9 f6bf 9671 963f db50 973f
00000160: 40cc 25c0 3fc6 973f 8891 883f dabf 46bf
00000170: a4e3 5e3f beb2 27c0 bbb7 82be fcc1 60bf
00000180: e762 61c0 b973 df3f 1bac 9d3f e6b2 5a3f
00000190: 511b 6bc0 3a92 ec3e 2473 ef3e 32e2 4ebf
000001a0: dd29 a03f 6e31 6dbf e205 6dbf 26b1 0e40
000001b0: c22d a83f abe9 6bbe 5b73 993d ee94 dbbe
000001c0: 3375 0240 0cce 0340 b144 8640 4955 8c3f
000001d0: 9ae7 00c0 ffff 1ac0 3cc6 0640 03c6 0f3f
000001e0: 7719 2d40 d4d1 373f ba34 debe e694 e6bf
000001f0: 827a 8ebf 32b7 d43e 26f4 7cbf d6d6 88be
00000200: 64aa ccbf 45f9 54be c417 65bf 1270 923f
00000210: 7ae1 713f 45f9 bb3e e8b3 45c0 dba2 983f
00000220: bf02 fd3e fa53 e33e d7a4 18bf 059b 0ac0
00000230: b45e 58be 428b a3bf ccc2 063f b863 41bf
00000240: 51db 52bf bb21 523c 48aa 6cbf c281 1540
00000250: 7325 243f ccd2 773f 2e8a 6ebe 39a4 10bf
00000260: 9327 8b3f 3b94 763f 56ae 88bf 0d17 aabf
00000270: 5fae f2bf 41c3 0940 4ed0 93be e922 5e3f
00000280: 11c9 1ec0 4fe6 84bf 0d9f 693e c246 81be
00000290: af10 8740 ed25 c83f 448e 87be 7c51 28c0
000002a0: d8fc 08c0 8bef 4d3f 1b05 293d 0404 c6bc
000002b0: 5faf 9d40 94b9 c5bf c379 81bf 989b b0bf
000002c0: d015 213f b95a c43e e985 983e a7b0 1140
000002d0: 267f f7bc 8858 1c40 308e 743e e5dd f4be
000002e0: 822c 9b3f 4d9f 8a3f e05e a63f 5dad fa3f
000002f0: 5070 0d40 3d72 0d40 c31d 7cbe 6f8f f9bf
00000300: 3cc1 5f3e 993f a240 20ef 40c0 3f76 acbf
00000310: f617 4f40 bc5a e73f d14b 0dc0 7562 56c0
00000320: 287b f3bf 2252 8c3d 4438 0ebd 80f9 05c0
00000330: 193f 0e40 db73 01c0 d01c 433e 52c7 6540
00000340: a2d9 5c3e c2e2 063c e184 0dbf 97bb 0040
00000350: e881 ef3f 7322 363f e3bf e5bf f107 58c0
00000360: 4157 9abf 99c3 1541 256e 5bbf 84b1 0040
00000370: 0f86 533f 396f dbbf 864f 25bf 80df c83e
00000380: 1ccb 7fbf c712 4fc0 e8a8 8f3f e84a 30be
00000390: 3577 e0c0 71ea 3740 3a0b fdbf 23e1 b340
000003a0: 64a7 bcbe 310d 15be 4966 f13e 4145 5dc0
000003b0: d954 02bf a674 cf3e e3a4 ac3f fb9d 1440
000003c0: 8903 c73e eb60 a5bf 7644 dd3f 2db2 6a3f
000003d0: 86b8 b03f 82f7 db3e 6b90 26c0 4ba3 ec3f
000003e0: fa99 fdbc 5cbc 7dbf 2956 8140 f7b6 e2bf
000003f0: 9352 873f b855 d73f 6365 0c3f 52c6 dabe

hh/upward/W f4 [256, 64]
0.5886594 0.70854396 0.09736332 0.13147603 -2.2468216 0.5636176 0.111670434 0.08174741
0.019001901 0.03339647 -0.2813305 0.11645746 0.0074695027 -0.07190862 -0.10627591 0.10757879
-0.037196346 -0.12644507 0.11325045 0.2160283 0.9120577 0.25456566 0.43755352 2.5058482
0.09393903 -1.9790084 -0.17370115 0.023735119 -0.2918811 0.97480166 0.103470825 -0.069960885
-1.342008 -1.8750867 -0.03806054 -0.04936126 -0.14741541 0.062164158 -0.020083915 -0.021915555
-0.11083813 0.073725715 0.104300775 0.03857455 -0.052647054 2.2865555 -0.14991136 1.3227363
1.7800213 -0.21139733 -3.779658 -0.15887426 -2.9516373 0.050161526 -2.7025907 0.8012217
0.03438236 -1.384767 0.52027166 -0.10908356 -0.14010957 0.10618667 -0.055920914 -0.14597191
0.13566749 0.31697372 0.28730568 0.060543388 3.0141659 -1.7901706 0.019277373 -0.1734106
0.23374335 0.036899455 0.060001247 0.06275891 0.0151808215 -0.15123641 0.034429576 -0.10249281
0.23169458 0.040511508 -0.091726154 0.09695694 0.72011405 0.08738402 0.9160627 0.36427063
-0.054875717 -0.09140283 0.1267676 0.089964636 0.37340057 1.1380191 -0.0074475673 0.09338658
1.4729064 0.752945 0.004954818 -0.059203815 -0.015889406 0.42424008 -0.01260312 -0.15263109
-0.0751157 0.14343765 0.114695825 -0.11430612 0.118655175 0.55093414 0.031058302 -0.46596083
-0.18653503 -0.16119757 0.101137266 -0.04868904 0.8566858 0.08024983 1.4140685 0.9812655
0.07340881 -2.0699375 -0.14904407 -0.104484454 -0.17704688 0.17179854 0.008682957 0.04492272
0.2293994 0.08472688 0.29934707 -0.0017399329 -0.03934794 0.11068328 -0.034855716 0.10777464
0.0429056 0.15642306 0.19288251 -0.14319298 0.10929237 -0.1219817 0.28396264 -0.042452265
-0.2323012 0.067807525 0.17081419 0.048909556 -0.3282245 -0.024333514 0.5722722 -0.081603445
0.045210097 -0.08148337 -0.16240007 0.388205 -0.25631762 -0.54397476 -0.12552635 -0.36082023
-0.0265499 -0.4477133 -0.11534555 0.09298294 0.04683887 0.15157112 -0.037538394 -0.06713323
-0.15578158 0.010388308 0.111004926 0.025232192 -0.07641901 0.041966133 -0.17450896 0.17488652
0.5289859 -0.1850794 -0.10453798 -0.16358143 -1.2828904 -0.30416623 0.25640467 0.40624517
0.1054685 0.7335299 -0.1680742 -0.028789591 0.0071131918 0.0931088 -0.07553685 -0.0798512
0.30361387 1.2095258 -0.102958374 -0.06942202 -4.6075654 0.140451 -0.27768534 -0.029345762
0.05213019 0.1488471 -0.023213059 -0.040558614 0.043393675 0.08831544 -0.026194608 0.22682369
-0.046807222 -0.10110009 0.10360927 -0.044655725 -1.6591948 0.06682474 2.4833102 0.16551806
-0.048048068 0.30276883 -0.24705032 0.007933634 -4.488516 0.39295742 0.0032096263 0.08291791
1.0891696 -1.5454819 -0.08873813 -0.042698093 0.1267393 0.017721549 0.066255346 0.118373156
-0.026377685 -0.044342592 0.06772845 0.19172063 -0.05656544 2.264616 -0.03455036 2.2245007
0.19577968 -0.075247794 -0.4023492 0.11278341 -1.0995237 -0.11742297 -1.4522355 1.8272146
-0.06708743 -0.14501779 -0.08644288 0.10675614 -0.17718422 0.025609136 -0.0061395527 0.004122192
00000000: 62b2 163f 2363 353f 6c66 c73d a7a1 063e
00000010: edcb 0fc0 3e49 103f 78b3 e43d 306b a73d
00000020: e0a9 9b3c bdca 083d 8d0a 90be 4081 ee3d
00000030: bbc2 f43b d444 93bd 2fa7 d9bd 4552 dc3d
00000040: 325b 18bd d17a 01be daef e73d 8636 5d3e
00000050: 9d7c 693f 6e56 823e 0407 e03e d15f 2040
00000060: 1b63 c03d 2650 fdbf b7de 31be 2770 c23c
00000070: 7171 95be 9a8c 793f 83e8 d33d a747 8fbd
00000080: ebc6 abbf d702 f0bf 5ee5 1bbd 082f 4abd
00000090: 11f4 16be d89f 7e3d 0687 a4bc 4088 b3bc
000000a0: 1aff e2bd 82fd 963d a59b d53d 5900 1e3d
000000b0: 70a4 57bd ed56 1240 5d82 19be 6c4f a93f
000000c0: bdd7 e33f 8b78 58be ebe5 71c0 efaf 22be
000000d0: a0e7 3cc0 2c76 4d3d 3ff7 2cc0 de1c 4d3f
000000e0: 84d4 0c3d 0c40 b1bf 8630 053f 3467 dfbd
000000f0: e278 0fbe 6678 d93d 540d 65bd a979 15be
00000100: 6bec 0a3e 614a a23e bb19 933e 58fc 773d
00000110: 18e8 4040 4f24 e5bf 95eb 9d3c 8c92 31be
00000120: 6b5a 6f3e e223 173d dec3 753d be87 803d
00000130: fbb8 783c b8dd 1abe 0706 0d3d c0e7 d1bd
00000140: 5841 6d3e 65ef 253d ecda bbbd 5c91 c63d
00000150: 6559 383f 65f6 b23d 1683 6a3f ae81 ba3e
00000160: 5cc5 60bd 6831 bbbd 5ecf 013e 613f b83d
00000170: 5c2e bf3e 9caa 913f b90a f4bb 7741 bf3d
00000180: 3288 bc3f 01c1 403f 075c a23b b37f 72bd
00000190: 802a 82bc ff35 d93e 517d 4ebc 534b 1cbe
000001a0: 43d6 99bd 52e1 123e a5e5 ea3d 5419 eabd
000001b0: 7c01 f33d 050a 0d3f fb6d fe3c 6b92 eebe
000001c0: 0a03 3fbe fa10 25be 0e21 cf3d 296e 47bd
000001d0: c34f 5b3f 065a a43d 3200 b53f 3734 7b3f
000001e0: 5c57 963d db79 04c0 029f 18be f2fb d5bd
000001f0: c74b 35be f5eb 2f3e f642 0e3c e300 383d
00000200: ade7 6a3e 4985 ad3d 0544 993e 760e e4ba
00000210: 4e2b 21bd eaad e23d dec4 0ebd f3b8 dc3d
00000220: c8bd 2f3d 5e2d 203e fe82 453e 2ea1 12be
00000230: aed4 df3d 8bd1 f9bd 8d63 913e 6de2 2dbd
00000240: 5ee0 6dbe acde 8a3d eae9 2e3e 6355 483d
00000250: 0b0d a8be 1457 c7bc 6e80 123f b51f a7bd
00000260: 392e 393d c1e0 a6bd 344c 26be cec2 c63e
00000270: 103c 83be ee41 0bbf fb89 00be 6ebd b8be
00000280: 2d7f d9bc ad3a e5be 4a3a ecbd d76d be3d
00000290: 1dda 3f3d 7635 1b3e dcc1 19bd 267d 89bd
000002a0: 3585 1fbe b933 2a3c 8d56 e33d beb3 ce3c
000002b0: 9281 9cbd aee4 2b3d 7ab2 32be 7415 333e
000002c0: 9f6b 073f 7485 3dbe 0218 d6bd e481 27be
000002d0: c135 a4bf adbb 9bbe 7947 833e 5eff cf3e
000002e0: deff d73d 9ec8 3b3f a51b 2cbe 26d8 ebbc
000002f0: c715 e93b d4af be3d 10b3 9abd 0789 a3bd
00000300: 4773 9b3e bed1 9a3f d7db d2bd 222d 8ebd
00000310: 2d71 93c0 63d2 0f3e c62c 8ebe 8666 f0bc
00000320: 7786 553d 606b 183e 5029 bebc ca20 26bd
00000330: 91bd 313d bade b43d 1396 d6bc 7844 683e
00000340: eeb8 3fbd 900d cfbd 1931 d43d ece8 36bd
00000350: 7f60 d4bf 69db 883d 8eee 1e40 917d 293e
00000360: 0dce 44bd 8404 9b3e c2fa 7cbe 13fc 013c
00000370: eca1 8fc0 b731 c93e 9858 523b ddd0 a93d
00000380: e969 8b3f 5ad2 c5bf 56bc b5bd 32e4 2ebd
00000390: f2c7 013e c82c 913c e2b0 873d a06d f23d
000003a0: 0416 d8bc 94a0 35bd 37b5 8a3d 6a52 443e
000003b0: 2ab1 67bd 78ef 1040 ae84 0dbd 385e 0e40
000003c0: 787a 483e 841b 9abd b700 cebe fdfa e63d
000003d0: 31bd 8cbf 747b f0bd dae2 b9bf 2be2 e93f
000003e0: 2265 89bd 8b7f 14be f708 b1bd f7a2 da3d
000003f0: c86f 35be 40ca d13c 4d2e c9bb 7413 873b

hh/upward/b f4 [256]
-2.6273973 0.57582605 0.4973457 -0.73703164 -0.87056196 0.9456038 -1.1806636 -1.2351133
-0.93401396 0.25619584 0.1394258 1.7927836 -2.5727875 -3.1525426 0.8394444 2.0006473
0.83053654 -0.75653654 -1.2363312 -0.28088713 -0.55653536 0.6412176 -0.81263983 0.66671336
-2.8992252 -0.20945483 -0.69827604 3.8767166 3.5856495 3.2837381 1.2940377 -1.613716
-1.0298045 4.174321 -1.1535358 -0.029232683 -1.2164153 1.0511463 -2.9590695 3.7809477
2.3231008 4.2245674 2.0833561 0.9158029 4.441477 1.6753293 3.6256256 2.4482372
-2.6791139 -2.38654 -2.6329854 -0.36189544 1.4534482 -0.8275313 -3.3567896 0.89342356
2.332029 1.6507657 1.9963851 0.96457624 -1.3615432 0.45688748 0.6137846 -0.22442596
0.9855595 3.3774946 1.0335373 -0.7000407 2.606372 -1.0568637 0.16994317 -1.1880984
1.803068 0.9739908 1.7300496 -0.0066715577 0.9509061 -1.2837746 0.42817634 -1.1227902
2.2962024 3.0732837 -0.253956 -0.41202 3.1664224 -1.08711 0.29170296 -0.0718485
-3.7348986 1.7590913 0.19033326 -1.8175602 3.3367534 -1.6260276 -0.96915764 0.6033748
2.419798 0.10186051 1.5972279 -0.17081255 2.3882222 -0.42190707 -1.4950215 -0.2023005
4.28082 1.1257538 -0.39907134 1.7161777 -2.494946 0.7511762 -1.4529227 2.8882563
-2.0550275 0.09374336 -0.7256698 2.4172804 -1.3631527 2.1899881 0.17141084 -0.758586
0.9907018 2.2691135 -0.035103247 0.615969 -1.0848117 -0.64457315 0.07093331 -0.053314544
2.469053 -1.0676662 -1.7052157 0.067062736 -2.3448787 0.6792143 -0.73358095 0.46009687
1.8130596 2.223507 -2.3601723 -1.14386 -0.6554532 1.3421446 -0.72300524 -0.2653689
-0.38955408 -1.39581 -0.3804972 1.9754018 -2.6949158 -0.7713425 -0.42539763 2.8111835
0.014459952 3.8629496 -4.397566 -1.1715417 -2.6948972 -0.55127203 -2.0671706 -1.7786222
-0.76274806 -1.5828093 -0.022361597 -1.2762485 -0.4490086 -2.1245785 -0.5089065 0.35860044
2.4940147 0.20142676 3.6329412 2.6361966 1.3517414 -0.8282918 -2.119139 0.57092744
-3.9590144 2.069199 1.5509045 -0.6707854 3.4552865 -0.92578894 -0.1599782 2.4161518
0.07749509 -0.035533022 -1.151387 0.24968198 0.30968127 0.12018655 0.3731079 1.0118555
3.8190172 1.4817685 0.18063127 -0.8926421 -0.7973097 -1.0614363 0.34095904 0.8415807
0.80782104 1.3381388 1.1024705 0.37378362 -1.8585234 1.3558363 0.20880589 -0.9733172
-4.058833 -0.014039095 0.7247379 1.350377 2.1285055 -2.7478867 -1.4331313 0.24398695
1.5330637 0.38651055 -1.0121654 1.5631329 0.17715928 -0.8155895 3.0955772 1.413605
-0.88679224 -3.580768 -0.93897516 0.06244985 0.4790819 3.5345933 -1.0353588 0.80897826
5.163222 0.74404675 0.15034197 -0.69727963 1.93656 2.245158 0.28369784 0.75213444
0.10795235 0.23530835 -0.6408346 -0.79543555 0.49255142 -1.007495 -2.0211983 0.6774855
-0.8014706 1.1743239 -0.073248014 0.73816043 1.1638522 -0.57034737 1.8397514 -0.71690005
00000000: 4727 28c0 5669 133f 18a4 fe3e 1bae 3cbf
00000010: 26dd 5ebf 1713 723f fc1f 97bf 3118 9ebf
00000020: 8a1b 6fbf 1a2c 833e a3c5 0e3e ef79 e53f
00000030: 8da8 24c0 42c3 49c0 d4e5 563f 9b0a 0040
00000040: 0b9e 543f 61ac 41bf 1a40 9ebf 70d0 8fbe
00000050: 1a79 0ebf d626 243f 2a09 50bf baad 2a3f
00000060: e88c 39c0 547b 56be 38c2 32bf 201c 7840
00000070: 487b 6540 c428 5240 07a3 a53f 3f8e cebf
00000080: a2d0 83bf 0a94 8540 10a7 93bf 6179 efbc
00000090: 7fb3 9bbf f68b 863f 6561 3dc0 0cfb 7140
000000a0: afad 1440 a82f 8740 b555 0540 0f72 6a3f
000000b0: 9420 8e40 3171 d63f 400a 6840 ebaf 1c40
000000c0: 9a76 2bc0 12bd 18c0 d582 28c0 5c4a b9be
000000d0: 970a ba3f 17d9 53bf a4d5 56c0 68b7 643f
000000e0: f73f 1540 4a4c d33f 8c89 ff3f 78ee 763f
000000f0: 0c47 aebf 28ed e93e fd20 1d3f ebcf 65be
00000100: a14d 7c3f df28 5840 f34a 843f de35 33bf
00000110: cdce 2640 4f47 87bf 9505 2e3e 9c13 98bf
00000120: efca e63f 7657 793f 4472 dd3f 159d dabb
00000130: 956e 733f ba52 a4bf ee39 db3e 97b7 8fbf
00000140: fbf4 1240 aeb0 4440 8506 82be 49f4 d2be
00000150: aaa6 4a40 6c26 8bbf 175a 953e 4e25 93bd
00000160: 9408 6fc0 e729 e13f b9e6 423e d0a5 e8bf
00000170: 5e8d 5540 ac21 d0bf b71a 78bf c576 1a3f
00000180: f8dd 1a40 3e9c d03d f771 cc3f 7ce9 2ebe
00000190: a2d8 1840 3404 d8be dd5c bfbf dd27 4fbe
000001a0: 7afc 8840 b318 903f 1453 ccbe b6ab db3f
000001b0: 32ad 1fc0 154d 403f 5ff9 b9bf 31d9 3840
000001c0: 9285 03c0 85fc bf3d 7fc5 39bf b9b4 1a40
000001d0: ca7b aebf c428 0c40 5386 2f3e b132 42bf
000001e0: a29e 7d3f 2839 1140 6cc8 0fbd 25b0 1d3f
000001f0: 1cdb 8abf bf02 25bf 7c45 913d 5a60 5abd
00000200: f704 1e40 49a9 88bf 8244 dabf 3058 893d
00000210: 7e12 16c0 fde0 2d3f f6cb 3bbf d191 eb3e
00000220: 5612 e83f f04d 0e40 100d 17c0 016a 92bf
00000230: c8cb 27bf 65cb ab3f df16 39bf 6fde 87be
00000240: a273 c7be e7a9 b2bf 87d0 c2be f7d9 fc3f
00000250: 8079 2cc0 b476 45bf b8cd d9be 6eea 3340
00000260: 6fe9 6c3c 913a 7740 dcb8 8cc0 14f5 95bf
00000270: 3279 2cc0 2a20 0dbf 864c 04c0 e4a9 e3bf
00000280: 7543 43bf 7f99 cabf ab2f b7bc 1c5c a3bf
00000290: 75e4 e5be 18f9 07c0 b247 02bf 7a9a b73e
000002a0: f09d 1f40 d142 4e3e 1c82 6840 72b7 2840
000002b0: dd05 ad3f ee0a 54bf f99f 07c0 4d28 123f
000002c0: 7e60 7dc0 c26d 0440 0a84 c63f 98b8 2bbf
000002d0: 6a23 5d40 8100 6dbf 53d1 23be 3ba2 1a40
000002e0: bfb5 9e3d 138b 11bd a660 93bf a2ac 7f3e
000002f0: 8b8e 9e3e 5e24 f63d 0008 bf3e 7b84 813f
00000300: c76a 7440 97aa bd3f 67f7 383e 3184 64bf
00000310: 7d1c 4cbf 25dd 87bf 2f92 ae3e d571 573f
00000320: 5ccd 4e3f 2248 ab3f c11d 8d3f 9160 bf3e
00000330: 18e4 edbf 0b8c ad3f 36d1 553e 512b 79bf
00000340: f6e1 81c0 3b04 66bc 6c88 393f 27d9 ac3f
00000350: 6f39 0840 60dd 2fc0 d970 b7bf b7d7 793e
00000360: 6e3b c43f b6e4 c53e a38e 81bf bd14 c83f
00000370: 3e69 353e 79ca 50bf f01d 4640 02f1 b43f
00000380: d104 63bf 4e2b 65c0 ad60 70bf 6acb 7f3d
00000390: 394a f53e c736 6240 a386 84bf 3319 4f3f
000003a0: 1d39 a540 d979 3e3f 3ff3 193e eb80 32bf
000003b0: 33e1 f73f abb0 0f40 d840 913e e28b 403f
000003c0: 1f16 dd3d acf4 703e bd0d 24bf aaa1 4bbf
000003d0: b32f fc3e 99f5 80bf 505b 01c0 b16f 2d3f
000003e0: 2d2d 4dbf 3f50 963f 0e03 96bd 15f8 3c3f
000003f0: 1cf9 943f 4902 12bf f97c eb3f c386 37bf

xh/W f4 [64, 10]
4.831208 0.03270882 -0.048323818 -0.122037455 -3.720717 3.5174968 -0.6044689 -0.09509982
-1.4972699 -0.9396448 6.076302 0.011139543 -0.045985766 -0.11247497 -0.30143896 0.21345334
-0.37308368 1.8797472 -1.2626853 1.1041173 1.6901879 0.0017582218 -0.027199473 -0.021882998
-0.00424072 0.019753102 1.4233129 1.2149783 -0.8189614 -1.280167 1.3374038 -0.02493951
-0.0067722527 -0.010512141 0.010100831 -0.068794556 0.09209995 -0.40452215 1.2927763 -0.0038054495
-0.8692624 2.971082 0.14234017 -0.5071924 -0.73478293 -1.2988248 -0.51276636 -0.5430157
-1.399793 -1.4579786 0.59768075 0.046954617 -0.02392847 -0.04839194 -1.5821407 1.5736119
-2.8669991 -1.5103269 -2.8403745 -2.8939435 -0.0035333538 -0.0144738285 0.016608698 -0.021784954
-0.9636059 0.9302697 -1.1619698 -0.16309722 -0.62861866 -0.84811914 -1.3652868 0.00040857116
0.024526069 0.020574644 0.02269668 -0.017871512 0.0320005 -0.9055321 0.7881705 -0.87905705
-0.3130718 0.0056349975 0.0026231115 -0.0034189834 0.00639039 -0.023875829 -0.2792716 0.85992277
-1.0562713 -0.03493242 -0.12594411 0.0053427382 0.0057175267 -0.007850001 0.004553801 -0.03648159
-0.7519843 -0.4728768 0.5906182 0.82748854 0.29415774 -0.015246413 -0.02386945 -0.0073748697
0.015998937 -0.025806442 1.0005984 0.21855122 -0.22099237 -1.3730518 -2.5360906 -0.0025171472
0.019906685 0.06604535 0.056825776 -0.01860561 0.57650346 -1.62438 2.0990207 -0.28140244
2.5343173 -0.0011675231 -0.01882757 -0.035219003 -0.0127129955 -0.025113123 0.66869855 1.5941595
-0.80086213 -0.23615436 -0.06576319 0.012365259 0.004312863 -0.016961649 -0.014845998 0.0037344277
0.12516949 -1.2687829 1.1080451 0.062378373 0.94096684 -0.015500612 -0.01723088 -0.038757887
-0.0092178015 -0.041571032 0.38688105 0.51737 -0.20276645 -0.27115524 2.023116 0.004300759
-0.018305007 -0.017933832 0.0023793734 -0.015021893 0.6972427 0.5151644 -0.7465891 0.34636307
-1.1464316 0.0026848968 -0.012789213 -0.013449035 0.081140995 -0.06895559 -0.847617 -0.030813882
-0.4060442 -0.69414425 -1.8993961 -0.011850512 0.029030574 0.027154155 0.01529726 0.00072074373
0.18353102 -0.5804046 0.1077883 -0.58382076 2.1343362 -0.009590368 -0.012072615 -0.008897223
-0.011355851 0.013120413 0.087626375 -0.29427224 0.5659681 0.8834964 1.6207145 0.004782013
-0.0014719041 -0.04748918 -0.034604568 0.028318614 0.8673909 1.5036247 -0.8852923 -0.09206226
1.5227178 1.7067274 1.601491 0.4670654 -0.48100165 1.5267601 2.2159033 2.3555079
0.9535321 1.8318601 0.65223294 -0.003894296 -0.004364221 0.015706344 0.023119435 0.0011062917
-0.20474821 -0.28810346 1.1768496 0.063047245 5.39467 -0.05424381 -0.043608382 -0.094026774
4.9262757 -5.0040517 -0.16501513 0.47420284 -1.9400299 -1.0789697 -0.06546177 -0.3702984
1.1433066 -0.10981299 1.0513169 -0.46085542 1.4217489 1.094414 1.3507402 1.6868963
-0.8845543 -0.008040623 -0.0016859709 -0.0034808374 0.02123442 -0.014277957 -0.5316384 -0.035173602
0.11284781 -0.13020943 -0.9026259 0.4490285 -0.63866085 0.4736986 1.3002957 -1.189887
00000000: 4299 9a40 aff9 053d 32ef 45bd c6ee f9bd
00000010: 3a20 6ec0 ab1e 6140 79be 1abf b2c3 c2bd
00000020: 8aa6 bfbf 908c 70bf 1171 c240 a182 363c
00000030: 925b 3cbd 4759 e6bd 3556 9abe 8393 5a3e
00000040: d304 bfbe 8e9b f03f ac9f a1bf b753 8d3f
00000050: 1458 d83f 2274 e63a 6ed1 debc f943 b3bc
00000060: bdf5 8abb 42d1 a13c 1e2f b63f 6984 9b3f
00000070: 74a7 51bf 83dc a3bf 0c30 ab3f f14d ccbc
00000080: c6e9 ddbb 1d3b 2cbc f57d 253c 29e4 8cbd
00000090: e69e bc3d 871d cfbe b279 a53f d964 79bb
000000a0: fb87 5ebf 3526 3e40 9fc1 113e 5cd7 01bf
000000b0: bc1a 3cbf e43f a6bf a844 03bf 1403 0bbf
000000c0: 6b2c b3bf 0b9f babf 9b01 193f 7c53 403d
000000d0: a405 c4bc a036 46bd 9683 cabf 1d6c c93f
000000e0: ea7c 37c0 6452 c1bf b2c8 35c0 5f36 39c0
000000f0: d78f 67bb a323 6dbc f70e 883c 5c76 b2bc
00000100: e0ae 76bf 2826 6e3f 6dbb 94bf f502 27be
00000110: 27ed 20bf 561e 59bf b8c1 aebf 7e35 d639
00000120: e5ea c83c 288c a83c 63ee b93c 4767 92bc
00000130: f512 033d f4d0 67bf 8bc5 493f e209 61bf
00000140: f24a a0be c9a5 b83b 82e8 2b3b 0611 60bb
00000150: 7a66 d13b 3e97 c3bc b0fc 8ebe e623 5c3f
00000160: e633 87bf 4c15 0fbd 7ef7 00be 2312 af3b
00000170: 175a bb3b 4a9d 00bc 0d38 953b b86d 15bd
00000180: 0b82 40bf e81c f2be c132 173f 4ad6 533f
00000190: d89b 963e 17cc 79bc dd89 c3bc e4a8 f1bb
000001a0: 3410 833c 0868 d3bc 9c13 803f e4cb 5f3e
000001b0: d34b 62be 29c0 afbf 4f4f 22c0 b9f6 24bb
000001c0: 5813 a33c c942 873d 25c2 683d cb6a 98bc
000001d0: bb95 133f afeb cfbf 5b56 0640 fb13 90be
000001e0: 4132 2240 9307 99ba 473c 9abc cd41 10bd
000001f0: 2b4a 50bc 09ba cdbc d42f 2b3f 6b0d cc3f
00000200: 4d05 4dbf 73d2 71be daae 86bd a897 4a3c
00000210: eb52 8d3b 28f3 8abc a13c 73bc 4dbd 743b
00000220: 6e2c 003e 7a67 a2bf 6cd4 8d3f 7780 7f3d
00000230: 34e3 703f 47f6 7dbc c627 8dbc 97c0 1ebd
00000240: 4306 17bc 6346 2abd 4615 c63e 5c72 043f
00000250: 02a2 4fbe dcd4 8abe bc7a 0140 62ed 8c3b
00000260: 62f4 95bc f9e9 92bc 43ef 1b3b 631e 76bc
00000270: 7f7e 323f d0e1 033f 7720 3fbf 8056 b13e
00000280: 45be 92bf 18f5 2f3b d989 51bc 5759 5cbc
00000290: 402d a63d 9738 8dbd 6dfd 58bf 656d fcbc
000002a0: 06e5 cfbe 70b3 31bf 691f f3bf a628 42bc
000002b0: 87d1 ed3c 6472 de3c 5ca1 7a3c 4bf0 3c3a
000002c0: 8eef 3b3e 6595 14bf 1dc0 dc3d 4775 15bf
000002d0: f798 0840 eb20 1dbc 38cc 45bc a8c5 11bc
000002e0: e40d 3abc 00f7 563c 7575 b33d daaa 96be
000002f0: 49e3 103f d22c 623f 9373 cf3f 6fb2 9c3b
00000300: e8ec c0ba 0484 42bd 85bd 0dbd 70fc e73c
00000310: 540d 5e3f c676 c03f 84a2 62bf 238b bcbd
00000320: 6be8 c23f 0b76 da3f a8fd cc3f 3223 ef3e
00000330: d945 f6be e06c c33f 5cd1 0d40 a4c0 1640
00000340: ae1a 743f 647a ea3f bdf8 263f 7237 7fbb
00000350: bd01 8fbb 97aa 803c f864 bd3c fd00 913a
00000360: 84a9 51be 4c82 93be 02a3 963f ea1e 813d
00000370: 23a1 ac40 c22e 5ebd b49e 32bd 1c91 c0bd
00000380: 0da4 9d40 3121 a0c0 baf9 28be b7ca f23e
00000390: e652 f8bf ae1b 8abf d210 86bd c097 bdbe
000003a0: df57 923f a2e5 e0bd 8d91 863f 3ef5 ebbe
000003b0: defb b53f c215 8c3f 0ee5 ac3f 38ec d73f
000003c0: 2772 62bf d1bc 03bc ccfb dcba c31e 64bb
000003d0: cef3 ad3c 18ee 69bc 7419 08bf 3212 10bd
000003e0: c11c e73d 9f55 05be 7e12 67bf 10e7 e53e
000003f0: 477f 23bf 9f88 f23e 1770 a63f 384e 98bf

xh/b f4 [64]
0.5229876 2.3455124 0.7311821 0.7786067 -0.116403975 -3.128364 -0.855559 -0.7158826
-0.29232508 0.015476223 -0.08948344 -0.54162216 1.1906592 -0.030823916 0.4319951 0.89624417
-1.0400662 -0.8737585 1.055862 1.0012287 -0.83944005 0.47717237 0.78264976 -0.6422287
-0.4608927 0.7124943 -1.3878355 0.68258154 0.61960006 -1.1301773 0.8468881 0.18943353
0.10531172 0.36058018 -0.7776984 0.5125526 0.17088544 1.162121 -0.24454477 0.1831131
-1.0197417 0.08926642 1.2091562 1.047847 -0.965327 0.13303223 -0.105343536 -0.24505194
0.93469954 -0.54560405 0.4091975 -0.13532956 0.46600425 -0.64440966 -0.21228664 3.3282485
-0.5746155 1.0395145 0.9421856 -0.15936108 -0.091741584 -0.69719684 -0.9331164 0.38595474
00000000: 84e2 053f e01c 1640 c02e 3b3f c552 473f
00000010: 3565 eebd 1e37 48c0 ea05 5bbf 1544 37bf
00000020: a2ab 95be fc8f 7d3c 1843 b7bd c0a7 0abf
00000030: 8567 983f 7082 fcbc 762e dd3e 4270 653f
00000040: e420 85bf a3ae 5fbf 7c26 873f 4328 803f
00000050: 8be5 56bf f04f f43e bc5b 483f 1a69 24bf
00000060: 21fa ebbe 0766 363f 98a4 b1bf aabd 2e3f
00000070: 1c9e 1e3f a6a9 90bf a9cd 583f ddfa 413e
00000080: acad d73d f79d b83e 3e17 47bf a636 033f
00000090: 98fc 2e3e 62c0 943f f269 7abe 0082 3b3e
000000a0: e586 82bf 50d1 b63d a1c5 9a3f da1f 863f
000000b0: ac1f 77bf 9a39 083e 5abe d7bd e5ee 7abe
000000c0: 7848 6f3f b5ac 0bbf 5682 d13e d593 0abe
000000d0: 1c98 ee3e 08f8 24bf ab61 59be 0602 5540
000000e0: 001a 13bf d00e 853f 1333 713f 8d2f 23be
000000f0: 03e3 bbbd 7e7b 32bf b7e0 6ebf dc9b c53e
