code/python/slip_model/8_128_1_10_10_2480_24_100_slip_model.npz (npz, 496752 bytes, 6 tensors)

xh/b f4 [128]
00000000: bd26 38bf fe30 98bf 6848 3c3f 32d1 2ebf
00000010: 837b 81bd 12cf 8740 986f 3640 4cc8 8840
00000020: 4394 8d40 51ff 6640 4d7b 51c0 231d c7bf
00000030: e5a5 1ec0 cea4 cf3f ba4e 0e40 e9fd 5ec0
00000040: 6a32 8640 0f91 6440 317f 64c0 e674 953e
00000050: e042 d63f 0c2a 0b3f 7f99 02c0 3c45 47c0
00000060: 1ca2 dc3f f17d 9340 d94f 2140 9626 87c0
00000070: dd5f 3040 23e0 00bf 6598 1440 9c48 4340
00000080: 02a7 44c0 086e 8e3f ff45 183f d14f a03d
00000090: e03b 94be 5dcc 40bf a692 c9bf e644 7740
000000a0: afe8 5440 f891 113e 59dd 8bc0 d2e2 e93f
000000b0: 2d9e d03e 2211 5c40 5971 ba3f 37f3 a03f
000000c0: a4a0 5c40 8eed 56c0 582d 763f 0fc4 8f40
000000d0: 0a7a 2f40 ada4 1a40 20f5 c73f 772c 5440
000000e0: e0d5 8dc0 73b7 953f ab8d 9640 42dc b3bf
000000f0: edf2 e73f 729c 79c0 c39d 1340 898b 19c0
00000100: 31e7 4840 0195 4b3f 2eb2 5cc0 023e 5d3f
00000110: 834b 5cc0 117c bb3f dfe3 1c40 809a a4c0
00000120: 26fc 46c0 7721 19c0 4418 6840 757b 0e40
00000130: 86b7 8d40 90e9 3640 dae9 f4bf cba0 e2be
00000140: 9586 97c0 f28e 3d40 9e66 ff3e 9086 7cbf
00000150: fd82 5140 577b 6e3f f17f ed3f cf99 943e
00000160: b9a5 81c0 c900 2340 0b56 87c0 2f18 43be
00000170: 1336 e93f 3bd2 6fc0 18a7 19c0 957c 7740
00000180: 375e 3640 5f41 8e40 ee28 73c0 a36d 3dc0
00000190: 32c0 1540 17fb 7c40 5f6c 6240 3d20 3dc0
000001a0: d229 39be ca9d 4940 a447 c6be 383d 9dc0
000001b0: 2783 f13e 623a 3dc0 0aff 1e40 44a1 3f3f
000001c0: 3ea7 95bf 3be2 2dbf 13ab 3d40 1897 1d40
000001d0: d22f 66c0 0fad 39c0 059c 83c0 0249 69c0
000001e0: 70ce 073f 7865 8740 d6fd 3c40 6fc4 63c0
000001f0: ae9b 6a40 dccc 43c0 ddfa a43f 68d3 d0bf
-0.7193411 -1.1889951 0.73547983 -0.68287957 -0.06322386 4.244027 2.8505611 4.2744503
4.4243484 3.6093333 -3.2731507 -1.5555767 -2.4788754 1.6222169 2.223555 -3.4842474
4.193654 3.5713537 -3.5702631 0.2919075 1.6739159 0.54361033 -2.0406187 -3.1136007
1.7236972 4.6091237 2.5204985 -4.22346 2.755851 -0.50342005 2.3218014 3.0513067
-3.0726933 1.1127329 0.59481806 0.07827724 -0.2895193 -0.75311834 -1.5747879 3.8635802
3.3267019 0.14215839 -4.37077 1.8272345 0.4074568 3.4385457 1.4565841 1.2574223
3.4473047 -3.3582492 0.9616294 4.492683 2.7418237 2.416301 1.5621681 3.315214
-4.432358 1.1696609 4.7047935 -1.4051592 1.812101 -3.9001737 2.306504 -2.3991416
3.1391108 0.79524237 -3.4483752 0.8642274 -3.4421089 1.4647237 2.4514081 -5.14386
-3.10914 -2.3926675 3.626481 2.2262852 4.428653 2.8580055 -1.9133866 -0.442633
-4.7351785 2.9618497 0.49882978 -0.98642826 3.27362 0.9315695 1.855467 0.29023597
-4.05148 2.546923 -4.2292533 -0.19052194 1.8219627 -3.7472064 -2.4008236 3.866979
2.8495004 4.44548 -3.7993731 -2.9598167 2.3398557 3.9528253 3.5378644 -2.9550927
-0.1808236 3.1502557 -0.38726532 -4.913723 0.47170374 -2.9566884 2.4843163 0.74855447
-1.1691663 -0.67923325 2.9635665 2.462347 -3.5966687 -2.9011877 -4.1127954 -3.645081
0.53049374 4.2311363 2.952993 -3.5588644 3.665752 -3.0593786 1.2889057 -1.6314516

xh/W f4 [128, 8]
00000000: bcc6 0840 2f5e 7d3f a6b0 88bf 2e1e 9d3f
00000010: 9955 29bf 1a3a 3abd 398c 823f e780 df3f
00000020: 633c ebbf e1c9 5fbf 227b 21bf 3628 20c0
00000030: d30a 2e40 090b 0840 6217 91be b7fd b6bf
00000040: 2428 e5bf 224f fc3f fa3f 023f 37dd 903f
00000050: b76d ecbf ad9c e0bf 61c2 9e3f eac4 983f
00000060: b775 88c0 f49f d53f 4ba9 a9be 2914 1abf
00000070: ee45 ba3f 4d76 30bd 4d53 463f 824f bb3f
00000080: 4a1e 7cc0 96dc 4b40 cd77 09c0 b6d6 0ac0
00000090: 46ad 1b3f 56d7 9a3e 9083 773f 42e6 a43f
000000a0: f148 e9bf cf44 c43f 4e4a 9bbf bd1e b3bf
000000b0: eb08 2dc0 2478 16c0 4ddc ea3e b003 35be
000000c0: c35a 49c0 e550 9d3f da20 cd3e 54fd 9fbf
000000d0: 6db0 9cbf 49a2 b9bf a133 03bc be62 abbe
000000e0: 8ba5 19c0 576e 823c 3c56 a73f 1bb1 01c0
000000f0: e0e6 c0bf f84b f2bf c6aa 953f 1209 653f
00000100: a8a7 ee3f acf0 0040 52b1 4a3f 89f6 763f
00000110: 6e57 78c0 4ec7 6bc0 7fc3 85bf 1e07 17c0
00000120: c451 db3f 81d3 dc3f 7745 5b3f 29bd cc3f
00000130: b526 6bc0 a6de 25c0 3a2c b5be 8d03 83bf
00000140: a6b6 f040 ab74 44c0 cc2e 05c0 f71d c23b
00000150: 5e70 a33f eb5e 6d3f 5b7d dabf e2dd ccbf
00000160: 8b29 fb40 5494 03be 0191 e1bf d2a1 bebe
00000170: 97c4 c43d acd2 473c 2e59 5cbe a494 5cbf
00000180: 65c5 0140 49f2 a5be 9bbf c9bf 8c08 b5bf
00000190: 0ff3 4140 c2ef 1040 fe91 ffbe a5b8 a5bf
000001a0: d30e 8fc0 7e0a aa3f 332b 893f 96bb 1abe
000001b0: 07a5 97bf 51fa 89bf 7ef8 7a3e 69dc 1d3f
000001c0: 5f5d fdc0 81c0 8b3f ec44 bf3f 0c87 f43e
000001d0: c0e9 e2be 6252 8bbe 8b4d e33f 66b1 b13f
000001e0: 3e3e 5140 59b5 bcbe d583 9dbf e3f7 0a3f
000001f0: 35dc df3f f2da 2b3f 6b27 afbf 53d7 e7bf
00000200: dd4d 64c0 1b56 903f 64e6 93bf e8c6 57bf
00000210: 8a20 27c0 9df4 3cc0 f6a4 393f 7761 b5bb
00000220: d8b8 41c0 ef4c 95bf c5ee a53f 3f96 f93d
00000230: ce22 19c0 c70f eebf d2ee 363f 8bbf 473f
00000240: 50ea dec0 8395 a1bf 8b04 0d3f 7d10 aebe
00000250: 42da 5b40 cd91 6040 8f2c 3e40 dc5e 3940
00000260: cc98 2cc0 d49a abbf 087b 9dc0 bdc6 b3c0
00000270: bdb1 423e 7f21 143f bd3a 02bd dabf 9d3e
00000280: 4832 f7bf 2d2d 593f f6e3 62c0 c993 a7c0
00000290: 633e 063e 8203 cd3e a193 61bf 291d 8fbf
000002a0: 2020 76bf 0ff2 00c0 5e99 793d 2d7e 81be
000002b0: 6c21 463f 68f9 9c3f dfc0 9abf 3c70 cdbf
000002c0: 4037 2d40 9151 533e 3f07 943f 13ca f53f
000002d0: cb68 3ebd e4cf babe 9230 24bf c248 20bf
000002e0: 786d 5140 11b5 2bc0 12af 01c0 86f9 a0be
000002f0: ab52 a53f 6e9e 273f 67da 45bf c9f4 c1be
00000300: 578a 82bf ca51 bd3f eabe 433f fcf6 873f
00000310: 3093 1cc0 f0c2 35c0 f5c4 ea3e 79fb 263e
00000320: 7822 b1c0 54a1 5c40 ca8e 453f c39d a5bf
00000330: e70b 67c0 06b9 20c0 8388 243e ce28 f33e
00000340: 8116 be3f 7732 71bf d96c f23e dcc0 bebf
00000350: b615 bcbf 19a1 cbbf 6012 86bf 2e6a e9bf
00000360: 7d75 cebf 6cfc 71bf 45a3 903f 7fb1 9b3f
00000370: f1ae 8540 4c4b 3840 2355 c73f 3263 e33f
00000380: 85fb d0c0 fb63 bfbe 74f2 85bf 1210 0fc0
00000390: 8d76 ecbf 8ec7 bcbf 5042 92bf e24f 81bf
000003a0: 2864 c840 b036 91bf 0249 68c0 4df5 3cbf
000003b0: 23e7 1dc0 76a7 e5bf c064 cebf ef1a f8bf
000003c0: 4d51 58c0 0e34 15bf 448a 73c0 8469 9ec0
000003d0: 3c7b b4bf 96c5 70bf 3826 b9bf 88d7 bcbf
000003e0: df50 13c0 0ed1 ecbf 8ced 993f 6ba1 b0bf
000003f0: 699d c9bf db05 bdbf 23e2 953f fcb9 743f
2.1371298 0.9897184 -1.0678909 1.2274835 -0.66146237 -0.045465566 1.0199043 1.7461213
-1.8377804 -0.8741742 -0.6307851 -2.5024543 2.7194107 2.1256735 -0.28338152 -1.4296178
-1.7902875 1.971165 0.5087887 1.131751 -1.8470982 -1.7547814 1.240307 1.1935093
-4.2643695 1.6689439 -0.33136973 -0.6018701 1.4552591 -0.04308157 0.77470857 1.4633639
-3.9393487 3.1853385 -2.147937 -2.169355 0.6081127 0.30242413 0.96685123 1.2882769
-1.8225385 1.5333499 -1.2132051 -1.3993756 -2.7036693 -2.3510828 0.458712 -0.17677188
-3.1461647 1.2290312 0.40064126 -1.2499185 -1.2241341 -1.450265 -0.008007915 -0.33473772
-2.400729 0.015921755 1.3073192 -2.0264347 -1.5070457 -1.8929434 1.1692741 0.89466965
1.8644915 2.0146894 0.7917682 0.9646993 -3.8803363 -3.6840396 -1.0450286 -2.3598094
1.7134328 1.7252046 0.8565287 1.5995227 -3.6742375 -2.5917144 -0.35385305 -1.0235459
7.522296 -3.0696208 -2.0809813 0.0059239822 1.2768667 0.9272296 -1.7069505 -1.6005213
7.848821 -0.12849551 -1.7622377 -0.37232834 0.09607809 0.012196224 -0.21518394 -0.8616431
2.027673 -0.3241141 -1.5761598 -1.4143233 3.0304601 2.2646337 -0.4991607 -1.2946974
-4.4705596 1.3284452 1.0716308 -0.15110621 -1.1847237 -1.0779516 0.24508855 0.61664444
-7.917648 1.0918123 1.4942908 0.47759283 -0.44318962 -0.2721129 1.7758039 1.3882263
3.269424 -0.36857107 -1.2305857 0.54284495 1.7489077 0.6713096 -1.3683904 -1.8112587
-3.5672524 1.1276277 -1.1554685 -0.8428788 -2.611361 -2.95243 0.72517335 -0.0055353004
-3.026907 -1.1664103 1.2963492 0.1218686 -2.3927493 -1.8598565 0.7145816 0.78026646
-6.9661026 -1.2623752 0.5508506 -0.33996955 3.4351964 3.508899 2.9714696 2.8964148
-2.696826 -1.3406625 -4.9212685 -5.61801 0.19013114 0.5786361 -0.0317943 0.30810434
-1.931222 0.8483456 -3.5451636 -5.23679 0.13109736 0.4004174 -0.8811589 -1.1180774
-0.9614277 -2.014774 0.060937278 -0.25291577 0.7739475 1.2263613 -1.209011 -1.6049876
2.7064972 0.20636584 1.1564711 1.9202293 -0.046486657 -0.36486733 -0.6413661 -0.6261102
3.2723064 -2.6829264 -2.0263104 -0.3144037 1.2915853 0.6547612 -0.7728638 -0.3788207
-1.0198468 1.4790585 0.76463187 1.0622249 -2.4464836 -2.840023 0.4585339 0.16306867
-5.5354576 3.4473467 0.77171004 -1.293877 -3.6101015 -2.511293 0.160677 0.4749207
1.4850618 -0.9421763 0.4734867 -1.4902606 -1.4694126 -1.5908538 -1.0474358 -1.8235528
-1.6129605 -0.9452579 1.1299826 1.2163543 4.177605 2.8795958 1.5572857 1.7764647
-6.530703 -0.37380967 -1.0464616 -2.2353559 -1.8473679 -1.4748399 -1.1426487 -1.0102503
6.262226 -1.1344814 -3.629456 -0.738118 -2.4672325 -1.794173 -1.6124496 -1.938322
-3.3799622 -0.58282554 -3.805314 -4.9503803 -1.4100108 -0.9405149 -1.4464788 -1.4753275
-2.301811 -1.8501298 1.2025619 -1.3799261 -1.5751163 -1.4767412 1.1709636 0.9559629

hy/W f4 [1, 128]
00000000: ff29 523c 6641 133c fe3e e43e 7d16 703d
00000010: 34fc a23c db35 b93c a401 2a3e 82bf 1fbe
00000020: 7f8b 743c d0c2 bebb 56cb 01be 339f b7bc
00000030: 5dee 98bc 05dd cbbd 4448 943c 784c c5bc
00000040: b708 d6bc 83cd d3bd 5747 15bd 82e4 c5be
00000050: 635a a53b 9362 e33c db88 16bd cffb 1dba
00000060: ee1c 16bd e0e9 fcbd 0a9b 62be 738a 253d
00000070: ba04 0b3e c81e 953d c588 b33b 056b 0d3e
00000080: ba19 edbc 6188 0ebe 3f08 49bd 48d0 013e
00000090: f82b 5fbd 4382 f7bd 0c07 a93d 8ede dd3d
000000a0: 29fc 82bc 7cbc acbd 0960 44bc fe8f 183d
000000b0: cb8f febb 55f8 c2bd 9e33 03be 3848 80bd
000000c0: 3978 f83d abd4 dcbd ed2b 023d adb7 5abd
000000d0: 99c7 ec3d b78a bc3d 7601 79bc fdfa 03bf
000000e0: d0f0 a6bd 28eb f63c ac23 df3e be28 81bc
000000f0: f100 b33d 4c8f e3bc 58b1 08bf c98d c9bc
00000100: 372d ad3c a140 773d 976e 683c ed3d f13d
00000110: 1db9 b4bc 1661 093d b580 e0bd 3f25 e83e
00000120: b7e2 4abd 71bf bc3d 77b6 fabd c172 44be
00000130: 1453 943d 702f 6dbd f21a 7ebd f21e df3b
00000140: abf3 c4be 1318 583e 3f79 fc3c ef47 a5be
00000150: 1780 743e 2ae2 21be 3de9 9d3c 9739 8dbe
00000160: d15a 15be 78b8 e5bd 7512 05be 085c 29bc
00000170: 3894 223d 9cb2 cf3d ef6d f03e f2cf 8c3e
00000180: 88e1 893d 5145 d43d 5a1c e73e aa9e b53a
00000190: ff51 223b f32a 4c3e cbbf c3bd f3b5 9e3d
000001a0: 9522 97bd 3114 64bf 411d ea3d fda7 f7bd
000001b0: b733 a33d b83d 273e 7fe0 9e3d 77ad ddbb
000001c0: 78ae 9bbc 176e 01bd ccbb 0f3e 6ab6 373e
000001d0: e19c 853d ee80 063e 7c27 28be 8e2c e9bc
000001e0: c097 ad3e 21e1 713d 5f78 f13c de62 39bd
000001f0: 7b63 bebd 03e4 bbbd 6501 8bbd 66c9 043d
0.012827395 0.00898776 0.4457931 0.058615196 0.01989565 0.022608688 0.16602188 -0.15600398
0.014925837 -0.0058215633 -0.12675223 -0.02241478 -0.018668348 -0.099542655 0.018100865 -0.024084315
-0.026127202 -0.103419326 -0.036444988 -0.386509 0.0050461753 0.027756965 -0.03675161 -0.0006026597
-0.036648683 -0.123492956 -0.22129455 0.04041524 0.13576022 0.07281262 0.0054789507 0.13810356
-0.028942931 -0.13919212 -0.04908013 0.12677109 -0.05448529 -0.12085392 0.08253297 0.108334646
-0.01598938 -0.08434388 -0.011985787 0.037246697 -0.0077686063 -0.09520022 -0.12812659 -0.06263775
0.12132306 -0.10782751 0.031780172 -0.053397823 0.11561508 0.09206145 -0.015198102 -0.5155485
-0.081514 0.030141428 0.43581903 -0.015766498 0.08740414 -0.02777829 -0.53395605 -0.024603741
0.021139724 0.06036437 0.014186523 0.117793895 -0.022060925 0.033539854 -0.10962049 0.45340917
-0.04953262 0.09216202 -0.12241834 -0.191844 0.072424084 -0.057906568 -0.062037416 0.006809109
-0.38467154 0.21102934 0.030819533 -0.32281443 0.23876987 -0.15808931 0.019276256 -0.27583
-0.14585425 -0.11216825 -0.12995322 -0.010336883 0.039692134 0.10141489 0.46958873 0.275024
0.0673247 0.103647836 0.45138818 0.001385649 0.0024768112 0.19938259 -0.09558066 0.07749548
-0.07379643 -0.8909331 0.11431361 -0.12092588 0.07968848 0.16332138 0.07757663 -0.0067650634
-0.019004092 -0.03159913 0.14036483 0.17940679 0.06524063 0.1313512 -0.16421312 -0.028463628
0.3390484 0.05905259 0.029476343 -0.045260303 -0.09296318 -0.09174349 -0.06787375 0.03241863

hh/upward/b f4 [512]
00000000: ed72 fa3e ecd1 10c0 39e3 1a3f bfa4 1d3d
00000010: 2347 b33d f9fe 4ebf 8458 d33f 55cc d6be
00000020: f2a0 293e 895a 89be d3cf 843f 7ef4 80bf
00000030: f3fc 373f f31d ef3f 319d e83f d1b6 293f
00000040: a4da 2dbf c163 843f 13f0 ab3f b222 873f
00000050: dbc6 51bd 8012 11bd b8cb 4b3f 1668 ecbe
00000060: d527 02bf c752 92bf c079 583f efa7 b2be
00000070: 1f3c 493e 5016 d9bf c293 92be e61f be3f
00000080: 1198 1f3f 7f6d 40bd e22f fb3f 55ff 993f
00000090: f506 4dbf 017e 433f 6578 52be a0ba 49c0
000000a0: 09b7 3c3d 1f12 b93e a458 e73f 0e2a 0fc0
000000b0: bc75 503f 28e8 5ebe 5112 d53f 0582 a53e
000000c0: 8aa1 ec3e 3592 be3f efd5 2440 3c09 c23f
000000d0: 29b2 45bf 8db0 3b40 d3f7 eabe 2de9 52bf
000000e0: 2804 1c3f 2195 1a40 2b29 a73e 5091 c73f
000000f0: 7bf3 19bf 64cc 063f 2bbb db3f 2c31 e3bf
00000100: cd6f b8bf e6a6 bdbf 646f f3bd 37c4 25bf
00000110: 316d 38be 05be 08bf 002f e23e 4fab e33e
00000120: 8400 83bf ea90 abbc 730e c13f 7619 f93f
00000130: db4c 703f 21b0 10bf b424 ae3e 4ddb a7bd
00000140: 0fe9 aabf 21dc 0ebf 298c 47be f6e6 d5be
00000150: f6c0 763f 862f ed3f ded4 933e bb14 6b3f
00000160: 3237 043f 1a8e 64bf 2ecb aa3f dc52 183f
00000170: e555 933f aefd e63c 68fd e03f c9bf cabf
00000180: 46d5 173f 49d9 b6bf f20e f63f 2ef3 88be
00000190: 700b 873e bc7e 363f 0104 44be 4ea8 afbf
000001a0: ed0f de3e bd18 9cbf 8f4a 4f3f c62a 2a3f
000001b0: 2565 123f c4bd 62bf b17f 143f e6ea 54bf
000001c0: 2b25 ba3f 4641 b53f 56e7 353e 3cee c33e
000001d0: 8d38 0c3f 456a c43f f3ff 0240 25c4 0240
000001e0: 10e0 42bf 4bb1 7cbf 07ff 5d3f 6f62 1fbe
000001f0: 93ee ab3e 7318 a5bf c5ae 0040 57ee babf
00000200: a791 26bf 534c 37bf f597 e33f 6a10 693f
00000210: 1bb4 b63f 879c 903f 0547 67be d9b3 2b3f
00000220: 728e 69bf b32a 85be 0aea 0c40 e21f c23f
00000230: 9b28 9bbf 1d94 31bf 2fa4 0c40 ff81 2cc0
00000240: 13dc e23e 36f8 c43e 5c63 7b3f d46f a6bf
00000250: 31dc e43e bdcb 903e b742 c93f 1d25 613f
00000260: 1eb3 75bd f025 71bf 96d8 993f f436 21bf
00000270: b6bd 9f3f 3e77 74bf e31f f03f e56e 13bf
00000280: 21f1 0c40 31d0 e23f 5276 163f 1bfa 983f
00000290: 18fd 2b3f 8dbe 1040 895e 8b3f 0efc bf3f
000002a0: 40ff 503e 97a7 913f 6978 1b3f 4420 d13e
000002b0: 3265 2e3f 8d33 103f 13b5 f83f 94c7 993f
000002c0: 9196 91be 87db 6f3e 2506 ef3f 3b0c 373f
000002d0: 8094 7d3f bca7 fc3f ada1 b3bf be60 9c3f
000002e0: 3a79 23bf b8d4 a53f a5c8 78bf 328e 873f
000002f0: 77ed 423f a1bd 3d3f 38ce e73e a1ce 4dbf
00000300: 1088 093f be00 343f a986 b53f b0c7 03c0
00000310: d625 90bf 9eac a93f c283 0d40 ec4d d03f
00000320: 3d74 cebe 352c 45bf 233a 3a3f 48f0 72bf
00000330: 4037 c53f 760c 0e40 3f0e edbe d85c 713f
00000340: 5794 f33d 0502 7cbf ce21 a63f 86f1 d83e
00000350: 2ee4 2cbf a0de 80be 6618 213f 87d7 65bf
00000360: c3d9 773e 9ec2 c5bf 3e7a ad3f 051e e13e
00000370: 036d 153f 55a2 14bf aaab a13f a815 cc3e
00000380: 4be3 54bf bf67 7a3f 7eb2 313e 150d 79be
00000390: 1a96 053f 7db8 cf3d 6aa0 47be 4c3c 10c0
000003a0: a160 2b3f c13c c5be d639 cf3f 1889 acbe
000003b0: 2db2 0abf b852 413f 8c0c e53f b3e4 e73f
000003c0: 6a52 d9be e387 3ebf a09a 0f3f ded6 8abd
000003d0: 7dcf 0e3f e101 233f 37e8 0d3f 5730 1ac0
000003e0: cab4 20be 3a45 9cbf c88d 363f 17d3 103f
000003f0: 8115 89bf 6f5a be3f ff54 f13f 59b6 963f
0.48915806 -2.2628126 0.60502964 0.038487192 0.087538026 -0.8085781 1.6511388 -0.41952768
0.16565302 -0.26826885 1.0375923 -1.0074613 0.71870345 1.8681015 1.8172971 0.6629458
-0.67911744 1.0342942 1.343264 1.0557463 -0.051215034 -0.035418034 0.79607725 -0.4617316
-0.5084203 -1.1431512 0.84560776 -0.34893748 0.1965184 -1.6959934 -0.28628355 1.4853485
0.6234141 -0.046979424 1.9623988 1.2031046 -0.8008874 0.7636414 -0.2055374 -3.1520157
0.046072993 0.36146638 1.8073926 -2.2369418 0.8142965 -0.21768248 1.6646215 0.3232576
0.46216995 1.4888369 2.5755575 1.5159068 -0.77224976 2.9326508 -0.458922 -0.8238705
0.6094384 2.415352 0.32648596 1.5591221 -0.60137147 0.52655625 1.7166494 -1.7749381
-1.4409119 -1.4816558 -0.118864805 -0.64752525 -0.18010403 -0.53414947 0.44176483 0.44466636
-1.0234532 -0.020943124 1.5082535 1.9460895 0.9386727 -0.5651875 0.34012377 -0.08196125
-1.3352374 -0.5580464 -0.1948706 -0.41777772 0.96388185 1.8530128 0.28873342 0.9182851
0.5164672 -0.8927933 1.3343256 0.59501433 1.1510588 0.028197136 1.7577333 -1.5839778
0.59309804 -1.428506 1.9223311 -0.2674803 0.26375914 0.7128713 -0.19142152 -1.3723238
0.43371525 -1.219505 0.8097314 0.6647152 0.57185584 -0.8857081 0.5800734 -0.83170927
1.4542593 1.4160545 0.17764029 0.38267696 0.5477379 1.5344931 2.046872 2.0432217
-0.7612314 -0.9870803 0.86717266 -0.15564893 0.33580455 -1.2898086 2.010667 -1.4603986
-0.65066 -0.71600837 1.7780749 0.9104067 1.4273714 1.1297768 -0.22585686 0.670713
-0.9123298 -0.2600914 2.2017846 1.516598 -1.2121767 -0.6936663 2.197521 -2.6954343
0.44308528 0.3847062 0.98198485 -1.3002877 0.44699243 0.2828044 1.5723485 0.87947255
-0.059985273 -0.94198513 1.2019222 -0.62974477 1.247977 -0.9549445 1.8759731 -0.57591087
2.2022173 1.7719785 0.5877429 1.1951326 0.67183065 2.2616303 1.0888225 1.4998796
0.2040987 1.1379269 0.60730606 0.4084493 0.6812316 0.5632866 1.943026 1.2014031
-0.28435186 0.23423587 1.867375 0.7150304 0.9905472 1.9738688 -1.4033715 1.2217023
-0.6385685 1.2955542 -0.9718116 1.059027 0.7614359 0.74117476 0.4527452 -0.80393416
0.5372324 0.7031363 1.418172 -2.059063 -1.1261547 1.3255804 2.2111669 1.627378
-0.40323058 -0.7702058 0.7274496 -0.9489789 1.5407486 2.2195106 -0.4629993 0.94282293
0.11893528 -0.9844058 1.2979066 0.42371768 -0.67535675 -0.2516985 0.62927854 -0.89781994
0.24204163 -1.5450017 1.355293 0.43968216 0.58369464 -0.580602 1.2630513 0.39860272
-0.8315932 0.97814554 0.17353246 -0.24321397 0.5218216 0.1014261 -0.19494787 -2.2536802
0.6694432 -0.38522914 1.6189525 -0.33698344 -0.54178125 0.75516844 1.7894454 1.8116668
-0.4244569 -0.74426097 0.56095314 -0.06779264 0.5578535 0.6367474 0.55432457 -2.4092004
-0.15693966 -1.2208626 0.7131009 0.565721 -1.0709687 1.4871348 1.8854064 1.1774398

hh/upward/W f4 [512, 128]
00000000: d434 babd a9ba 9bbe ad91 d23e 649e af3e
00000010: aa25 e0be 1715 023f 99cd 243e 7451 cf3d
00000020: 3d5b da3e ae3e 543e c4e5 94bd 0c8e ae3e
00000030: 22e7 85bc 3eee 7dbe 4e02 563d 237c 8dbb
00000040: a72b b03e 43e8 323e d6d0 26bf 1b88 aabd
00000050: 4c24 63be 0c5f 783c d7e9 1fbd 9803 3dbd
00000060: 3287 253e 0e90 263e 13d2 613e e113 54be
00000070: 0019 f8bc 6bff 903e e335 a7bd 6940 f23e
00000080: 76d5 15bf 7a2f 45bd 48c6 7ebd 908d a63e
00000090: cda3 3ebe d8e4 0a3e 6819 1e3e 8257 0a3e
000000a0: aac8 8e3e ebbd 583d 0206 b3be e04a d63e
000000b0: b91d aa3e ab56 aa3e c5fb 1a3d 4d3c 453e
000000c0: 9ee9 023e 9a6b 01bf e363 75be 9c18 83be
000000d0: cf9a 563e 9d5e 7f3e df13 50bd 6f1f 203c
000000e0: 0b24 03bf 262d debd e143 ad3e d2f7 99be
000000f0: 3145 3d3e 615f ecbe e63f 743e 9445 d3be
00000100: 76f7 503d 8a63 5bbe abfa a5be 86e1 ac3d
00000110: 77f5 22be b823 0d3f 341a 113e c628 16bf
00000120: 2add 753e d247 e3be 9e47 41be f15d 9fbd
00000130: f463 993c ca4e af3d c235 8fbd 463c 863e
00000140: 6aac 09bf a3f9 ef3d de89 423e e84e b03d
00000150: 79a1 fc3e 670a 82be a81b 023f d521 6bbe
00000160: 4821 e2be 9ba0 93bc b788 adbe cdf2 5fbe
00000170: df5f 9ebe 8860 a9bd 3568 14bf 7817 8e3e
00000180: 6a16 873e bb32 963e 9d83 e6be b555 65be
00000190: e48d 9fbe 0c95 723d 94b3 9a3e 7262 5bbc
000001a0: 0200 a53e a07c e63e 020a a83d dd54 e6be
000001b0: 206a 47be 9cfe 263d a1b3 c0be 3de2 e8be
000001c0: b1f9 b23e a140 dc3e 74ea 433c 703c c63e
000001d0: 7cbc 41bd 8469 b0bd 84ed 0bbf d7d0 bbbe
000001e0: 62d2 493f c6d8 d03e e5b5 8e3e 0a60 c73d
000001f0: 13fa b93e fc52 273e 36ab 213d 58df 5f3d
00000200: 24fd 9cbe 7cb3 093f 3342 1f3f f446 4fbd
00000210: 06c1 54bd 3582 42bf e53d 9c3c dab5 a5bf
00000220: f531 e9bf f73b 9bbf 35fd 513f b0a7 8f3e
00000230: bed9 1340 1193 e9bd c789 e3be 6aa0 2b40
00000240: 3751 00c0 bae7 45c0 fa78 b23f c925 a7be
00000250: 273e 7e3f ec27 a33d 07f7 583f 8525 e6bd
00000260: 72cf e3be 954a 0fbf 2838 7abf ecaf c73f
00000270: 8075 113f e783 b4be a00f 98be 3dd2 fdbf
00000280: 2b3b ad3f 95c2 19be 4dd2 8ebf 2a72 f4ba
00000290: 1d25 4abe 543e 1dbf fd4a b13f 8531 0bc0
000002a0: e12d 96bf 3d99 0c3c 2541 ae3f 64d5 743f
000002b0: 7fa2 abbe 4646 debf 69c0 9c3f fe1c 8fbf
000002c0: 2687 e9be 752c 1f40 1842 2a3f 6f36 fbbf
000002d0: 3c27 d0bf e379 81bf 8bff b33e 4ec8 edbe
000002e0: 139d c43f 1701 353f a190 0fbf 05f2 cdbe
000002f0: ebe7 81be 7848 4840 2569 07bf dbb8 193e
00000300: 93c0 aebf 9ef3 8c3f 8447 c8be 4fdd 09bf
00000310: 57fc 813e c8a2 4ebe 16c5 a4bf 45ad d53f
00000320: 865e 93bf fe09 ad3d 9b3d 3fbd 165d 733f
00000330: 0e33 6e3e 76f0 72bf eff7 87bb 24e1 f4be
00000340: 0dc0 d93f 42ca dabf ee81 9abf cdad 36bf
00000350: 97e2 ecbf a242 d4bf 66ec 84bf c4dd adbd
00000360: 9139 1940 cce2 99be 7c6c 4140 9e24 4c3e
00000370: 1645 213f d9ca babe c8a8 efbe a9a7 69bf
00000380: 579b 43be 46c6 cdbf 710e c33f 7fdd 0540
00000390: 66e5 e03e 7820 94bf 4259 7ebf e554 c03f
000003a0: eb5a 5d3f c08b b8bf 7b82 453f accd fb3f
000003b0: 3529 b7bf cc67 a0bd b4e3 003f f739 873e
000003c0: cfb7 8dbf a6e2 3dbf 8efa 14bf 865c a9bf
000003d0: 1170 b73f f772 883d 4d4d 2540 7d3e ce3f
000003e0: fd75 50bf fafa c3bf 8fc8 0dbf 87fe dc3c
000003f0: 49cf d9bf 4018 773f c34e fbbe 367c b13f
-0.090921074 -0.30415848 0.41126767 0.3430053 -0.43778735 0.5081343 0.16094054 0.10122958
0.42647734 0.20727035 -0.07270387 0.34092748 -0.016345564 -0.24797913 0.05224829 -0.0043177768
0.34408304 0.17471413 -0.6516241 -0.08326741 -0.22181815 0.01515938 -0.039041366 -0.046146005
0.16164854 0.1626589 0.22052793 -0.20710708 -0.030285358 0.28319868 -0.08164575 0.47314766
-0.5852884 -0.04814098 -0.062200814 0.3252988 -0.18617173 0.1356386 0.15439379 0.13509944
0.2788747 0.052915495 -0.3496552 0.41854 0.33225802 0.33269247 0.037837762 0.19261284
0.1278443 -0.5055481 -0.23963885 -0.25604713 0.20957492 0.24938436 -0.0508002 0.009773119
-0.5122687 -0.10848455 0.3384085 -0.30071884 0.18483426 -0.46166518 0.238525 -0.4126402
0.051017247 -0.2142469 -0.32417807 0.08441453 -0.1591395 0.5513263 0.14170152 -0.58655965
0.24010149 -0.44390732 -0.18874976 -0.0778159 0.01872442 0.0855995 -0.06992675 0.2621786
-0.5377871 0.11717536 0.18997905 0.086088 0.49341944 -0.2539856 0.5082345 -0.22962125
-0.44166017 -0.018020919 -0.33893368 -0.21869965 -0.3093252 -0.08270365 -0.5797151 0.2775228
0.26384288 0.2933558 -0.45022288 -0.22395976 -0.3116294 0.059224173 0.30215132 -0.01339017
0.32226568 0.45016956 0.08205034 -0.4498662 -0.19474077 0.04077016 -0.37637046 -0.45485106
0.34956124 0.43018058 0.011957753 0.38717985 -0.047298893 -0.086138755 -0.54659295 -0.3668277
0.78836644 0.40790385 0.2787315 0.09735115 0.36323604 0.1634025 0.03946992 0.054656357
-0.3066188 0.53789496 0.62210387 -0.050604776 -0.051941894 -0.7597993 0.019072482 -1.2946122
-1.8218371 -1.2127675 0.8202699 0.28057623 2.310165 -0.11405004 -0.44441053 2.681666
-2.004957 -3.0922685 1.3943169 -0.32646015 0.99313587 0.07966599 0.84751934 -0.11237625
-0.44494206 -0.5597318 -0.9774194 1.5600562 0.56819916 -0.35256884 -0.2969942 -1.9829785
1.3533682 -0.15015633 -1.1157929 -0.0018649746 -0.1974072 -0.6142323 1.385101 -2.1748974
-1.1732751 0.008581457 1.361363 0.9563811 -0.33522412 -1.7365196 1.2246219 -1.1180723
-0.45610923 2.4870884 0.665071 -1.9625987 -1.6261973 -1.0115322 0.351559 -0.46441883
1.5360435 0.7070479 -0.5608006 -0.4022371 -0.25372252 3.1294231 -0.5289481 0.15011923
-1.3652519 1.1011846 -0.39117062 -0.53853315 0.25387833 -0.20179284 -1.2872646 1.6693503
-1.1513221 0.084491715 -0.04668961 0.9506391 0.23261663 -0.94898164 -0.004149429 -0.4782802
1.7011734 -1.7092974 -1.2070901 -0.7135895 -1.850665 -1.6582835 -1.0384643 -0.08489564
2.3941386 -0.30055845 3.0222464 0.19935843 0.6299604 -0.36482885 -0.46808457 -0.91271454
-0.19102226 -1.6076133 1.5238782 2.091644 0.43925017 -1.1572409 -0.99354947 1.5025908
0.86466855 -1.4417648 0.7715222 1.9672141 -1.430945 -0.07832298 0.5034745 0.2641141
-1.1071719 -0.74173963 -0.58194816 -1.3231361 1.4331075 0.06662553 2.582843 1.611282
-0.81430036 -1.5310967 -0.55384153 0.026976837 -1.7016383 0.9652138 -0.49083528 1.3866031

hh/lateral/W f4 [512, 128]
00000000: a9a4 25bb 3a60 2a3e 7348 b8bd 14fa 46bd
00000010: b513 92be 0a4e 9cbe 77a3 c63c f75c 173d
00000020: 027a 0d3e f38f fa3c ab03 60be 958a bf3d
00000030: d0cd 73bd fb89 c0bd 4525 d7bc c90b a3bd
00000040: a8af 05bd 47a4 de3d e9f1 81bd 0b3f 333e
00000050: 7a52 233e c293 913e 3b7a 403e 9db9 703e
00000060: 761c 5abd 9650 733c afc1 93bd 92f0 f73d
00000070: 8cf1 dcbd fe17 ab3e 794c 84bc 6e26 503e
00000080: a8c4 09be a1fe 663e 6901 9fbd ff92 95be
00000090: 490b a23d 3e2e 01be d62e d3bd f8d6 8c3e
000000a0: 1819 2a3e 577d 71bd c87c 6e3e ceb9 4c3e
000000b0: 482f 82bc a90a 49be 37e2 2cbe 0a84 22be
000000c0: 2264 8d3e 91c4 6dbd fcce 22be b104 40bd
000000d0: cc70 f93d 1f08 ca3d bf3c 133e 2571 fdbb
000000e0: 3fad 5b3d 4421 b73e 0010 c5bc 3965 97be
000000f0: 5bed 353d eeb5 0b3d 1843 9d3c de73 21be
00000100: c0be 343e e571 babd 6b4a a73e d07a 37bd
00000110: 67e0 fbbb 85d8 31be bdae 12bc 538d d43d
00000120: 5255 233e 0eed 66bd 1b75 6e3e 631c ebbd
00000130: bbd3 8ebe e9f2 2cbd ea5e 5fbd 532f 883e
00000140: c7fe fa3d 1161 453d 0fd3 23bd d0e6 a1bd
00000150: a6ea f73d c3c3 0d3e d188 f23c efa4 6f3d
00000160: e70c fbbd aa7e b33e 392b 0b3e 47d2 5ebe
00000170: 596e 99bd 2ddd 053e 8a0b 9abc 4ee9 553e
00000180: e874 4fbd 2c48 95bc b3f6 07bb ec99 37bd
00000190: ceaf aa3e 9208 5c3e 5d27 a43e 13de 74bd
000001a0: 7a3b e4bc 605c 0e3e e72a 573d f0a6 c7be
000001b0: 4f07 cb3d 6d35 f3be e7d8 94bc ad1d a7be
000001c0: 1781 77bb 6eb2 eebd 67e3 183e aaab f3bd
000001d0: f5fe 05bc 7b9c 91bd 6f93 fb3d fe8c 80bd
000001e0: 80d0 ccbd 3e29 c53d a19a 66bd 18d2 c93c
000001f0: fb57 443e aa4f b83e d47e 9d3e 9c0f 16be
00000200: e5bd bebf 7a3f a33e 8496 ac3e fa3a 83bf
00000210: f3c7 0440 904d 7dbf b083 8d3f 6510 2abf
00000220: 2e69 f13d ef64 8f3f 3c5a 35bf e85e 513f
00000230: fc3b b6bf 8cc4 9c3f 5b2d 9cbf 4463 ad3f
00000240: 477e 663f e7ca 5f3f e043 dfbf 50b1 7abf
00000250: acfe 813f 3072 39bf dc62 e93d 389f 65bf
00000260: a57f 1fbf 0814 1dbf 7281 acbe e3cc 86bf
00000270: 0558 a8bf 3b9d 8d3e ffa5 e1bd 1ffb 153f
00000280: e42a f23f 036c 08c0 0b00 0940 7c24 4240
00000290: 88dd e73e d761 d0bf 8aad d7be e33e 963f
000002a0: 8c58 c1be 5e6b 33bf 535a 06c0 3ab5 24bf
000002b0: f6fa 1d3f 321c 0dc0 cfaf a93e ba7f efbf
000002c0: d9d0 f4bd 9cfe 4a40 96f9 13bf 269c 05c0
000002d0: a3f9 3b3d 3efe 40be 6388 9bbe 7b9d 56bf
000002e0: d082 9b3f 517d 22bf 0bf1 80be fbe5 d93f
000002f0: 54ed 843e e729 e2be 3153 8cbe 7f6b 9f3f
00000300: 7773 2fbf be77 3d3d cc56 02bf 0c81 db3f
00000310: aa75 2bbf a943 f6be 0c22 453f 032d 5fbf
00000320: 788a 363f 61e4 3f3f 59b1 5d3f a888 b13e
00000330: 8e27 a33f 8ce7 663f f333 4d3f f57d 903e
00000340: ceb0 f8be 2df6 5d3e 37e4 ab3f 9945 06bd
00000350: 2407 12bf d5ef 1bbf 24d8 17bf 9278 b93e
00000360: 94a5 d33e 3a47 8a3f 7ec3 b43f 6a34 06be
00000370: 1c5e 1cbf 4c47 33bf a73e a13f 4740 2a3f
00000380: edc8 0a40 e0ef 673e 48f8 55be ca6d 36bf
00000390: 8cad b1bd 20dd 623f 94dc 65be 10aa e23c
000003a0: adc6 3ebc 99b6 cbbe de1d 903f 72b5 e43d
000003b0: 3a7f d33f 7d06 4640 0794 bebd d5f1 09c0
000003c0: fd68 193f e590 053f 6d89 183f a4cb e2bd
000003d0: d1b8 00be ba18 98be a0ad 4240 26cf 6a3d
000003e0: 3886 f5be 9a88 ad3f 4600 9dbf 305f 803f
000003f0: 0820 3b40 fa8f 303d 07a6 0d3f f2b7 aa3f
-0.0025275147 0.1663827 -0.089981936 -0.048578337 -0.2853066 -0.3052829 0.024247868 0.036953893
0.13816074 0.030586218 -0.21876399 0.09352604 -0.05952245 -0.09401318 -0.026262889 -0.07961232
-0.032638222 0.10871177 -0.06344969 0.17504518 0.15949431 0.28433043 0.18796627 0.23508306
-0.0532498 0.014850756 -0.072146766 0.12106432 -0.10788259 0.33416742 -0.016149746 0.2032716
-0.13453925 0.2255807 -0.07763941 -0.29213712 0.07912309 -0.12615296 -0.103116676 0.27507758
0.16611135 -0.058957424 0.23289788 0.19992754 -0.015891686 -0.19632973 -0.16883169 -0.15870681
0.27615458 -0.05804879 -0.15899271 -0.046879474 0.121797174 0.0986483 0.14378642 -0.007734435
0.053632017 0.35767567 -0.024055481 -0.29569414 0.044415813 0.03410905 0.019197032 -0.15766856
0.1765089 -0.09103755 0.32673964 -0.044794858 -0.007686663 -0.17367752 -0.008952794 0.10378518
0.15950516 -0.056378417 0.2328686 -0.11480024 -0.27895913 -0.042223845 -0.054533876 0.26598606
0.12255626 0.048188273 -0.039996203 -0.07905352 0.121053025 0.13844208 0.029606255 0.058506902
-0.1225832 0.35057575 0.13590707 -0.21759902 -0.0749175 0.13072653 -0.01880433 0.2088978
-0.0506486 -0.01822289 -0.002074641 -0.044824526 0.33337253 0.21487644 0.32061282 -0.0597821
-0.027860392 0.13902426 0.05253115 -0.3899455 0.099135034 -0.47501698 -0.018169833 -0.32639828
-0.0037766153 -0.116551265 0.14930497 -0.11897977 -0.008178462 -0.071099244 0.1228398 -0.06276892
-0.10000706 0.09627007 -0.05629981 0.024636313 0.19174187 0.3599828 0.30760825 -0.14654392
-1.4901701 0.31884366 0.33708584 -1.0252373 2.074704 -0.98946476 1.1055813 -0.66431266
0.117876396 1.1202677 -0.7084081 0.8178544 -1.4237056 1.2247481 -1.2201341 1.3545918
0.90036434 0.8741898 -1.7442589 -0.9792681 1.0155845 -0.7243986 0.11395809 -0.89696074
-0.62304145 -0.6135869 -0.3369251 -1.0531276 -1.3151861 0.2765902 -0.11017989 0.58586305
1.8919339 -2.1315925 2.1406276 3.0334768 0.45286202 -1.6279858 -0.42124587 1.1737942
-0.37762868 -0.70085704 -2.099263 -0.6433903 0.6171106 -2.204846 0.33141944 -1.8710854
-0.11953897 3.1717901 -0.5780271 -2.0876555 0.04589237 -0.18846986 -0.30377492 -0.83834046
1.2149296 -0.6347247 -0.251839 1.702331 0.25962317 -0.44172594 -0.2740722 1.245468
-0.6853556 0.046256773 -0.5091369 1.7148757 -0.66976416 -0.48098496 0.77005076 -0.8717806
0.71305037 0.74957854 0.86598736 0.34674573 1.2746446 0.9019706 0.80157393 0.28221098
-0.4857239 0.2167594 1.3429021 -0.032781217 -0.57042146 -0.6091283 -0.5931418 0.362248
0.41337264 1.0802987 1.412216 -0.13105932 -0.610811 -0.70030665 1.2597245 0.6650433
2.1685135 0.22650099 -0.20895493 -0.71261275 -0.086756796 0.8861866 -0.22447425 0.027668983
-0.011644048 -0.39787748 1.1259115 0.111674204 1.6523201 3.094146 -0.09305578 -2.1553853
0.59925824 0.52174217 0.59584695 -0.110739976 -0.12570502 -0.29706365 3.0418472 0.05732646
-0.47953963 1.3557312 -1.2265708 1.0029049 2.92383 0.043106057 0.5533146 1.3337386
