code/python/slip_model/8_64_1_5_10_29500_900_use_train_slip_model.npz (npz, 127178 bytes, 6 tensors)

hy/W f4 [1, 64]
0	0x3ddfff85	0.10937408
1	0xbd111ed7	-0.0354298
2	0x3e0fb36b	0.14033286
3	0xbdb86cd6	-0.09005134
4	0x3daff2fc	0.085912675
5	0xbe0f7a22	-0.14011434
6	0x3b5ac308	0.0033380408
7	0xbc60555b	-0.013692225
8	0x3d85d44e	0.065346345
9	0x3de3bf7e	0.111205086
10	0x3d980699	0.074231334
11	0x3d94421d	0.072391726
12	0xbd92a7c8	-0.07160908
13	0x3d490209	0.049074207
14	0xbe1043bb	-0.14088337
15	0xbd5700e8	-0.0524911
16	0xbe376127	-0.17908154
17	0x3e479cc6	0.19493398
18	0x3ddd168c	0.10795316
19	0xbcf3728d	-0.029717708
20	0xbd7e2191	-0.06204373
21	0xbdcd65ef	-0.10029208
22	0xbd91b196	-0.0711395
23	0xbc613550	-0.013745621
24	0x3e02be15	0.12767823
25	0x3cb5b127	0.0221792
26	0x3dfb1df5	0.12261573
27	0x3a1ced8d	0.00059863256
28	0x3de773b3	0.11301365
29	0xbdb51a19	-0.08842868
30	0x3e128d2d	0.14311667
31	0x3db7b978	0.08970922
32	0xbd5c747d	-0.05382203
33	0x3db614b7	0.0889067
34	0x3e470946	0.19437131
35	0x3e8f913d	0.28040496
36	0xbd8c0327	-0.06836539
37	0x3e01d2f1	0.12678124
38	0x3dc7a231	0.097477324
39	0xbd90a996	-0.07063596
40	0xbdc92f98	-0.09823531
41	0xbd652f01	-0.05595303
42	0x3d8cd908	0.06877333
43	0x3e1d47f9	0.15359487
44	0xbe175805	-0.1477967
45	0x3e03d972	0.12875918
46	0xbd8c144a	-0.06839807
47	0x3da7a92b	0.08186563
48	0xbdce7de7	-0.10082608
49	0x3d08e835	0.033424575
50	0x3e11ba64	0.14231259
51	0xbd9fddad	-0.07805953
52	0xbe19a07e	-0.15002629
53	0xbdc51f7c	-0.09625146
54	0x3e01a3c3	0.12660126
55	0x3e00ec04	0.12590033
56	0x3e3edad2	0.18638161
57	0x3df125c4	0.11774781
58	0x3e60044e	0.21876642
59	0x3d8f42f4	0.06995192
60	0xbc943219	-0.018090295
61	0x3d16732d	0.036730934
62	0x3d49f465	0.04930534
63	0xbd9daf54	-0.07699457

hh/lateral/W f4 [256, 64]
0	0xbfe8a72e	-1.8176019
1	0xbf3fc56d	-0.7491062
2	0xc014298b	-2.3150356
3	0xc0ca6cb9	-6.325772
4	0xc059a6f3	-3.4008148
5	0x40167566	2.3509154
6	0x406541e1	3.582146
7	0xc0d7970d	-6.737189
8	0xc09986b7	-4.7976947
9	0x406e6eba	3.7255082
10	0x407438d3	3.8159683
11	0xbf4b212c	-0.7934749
12	0x3f916cbe	1.136131
13	0xc09d2a91	-4.911446
14	0xbffa0081	-1.9531404
15	0x3fab3e12	1.3378317
16	0xc1198c52	-9.596758
17	0x409ff341	4.998444
18	0xbeb413d8	-0.3517139
19	0xc091b93b	-4.553861
20	0x3e933297	0.28749534
21	0xc0cf30b1	-6.474694
22	0xc029790b	-2.6480129
23	0x3d3cb4fa	0.04607103
24	0x406da008	3.7128925
25	0xc0888fb5	-4.2675424
26	0x40b9bb3b	5.8041053
27	0x3ff64485	1.923966
28	0x4026cb82	2.6061711
29	0xc10e7d5c	-8.905605
30	0xbf90f2df	-1.1324118
31	0x400d6e70	2.2098656
32	0xc0d4ba35	-6.6477304
33	0xc02d9467	-2.7121828
34	0x413a22d2	11.633501
35	0x412c9638	10.7866745
36	0x3e558a0f	0.20853446
37	0xbf141ca7	-0.5785622
38	0xbc8b6f82	-0.017020945
39	0x4082e11e	4.08998
40	0xc0143f82	-2.3163762
41	0x3fb4039a	1.4063599
42	0x40140d0d	2.3132966
43	0xbf48bf97	-0.7841734
44	0x40331285	2.7980053
45	0x4056c9b3	3.3560607
46	0xc0dd8d2d	-6.9234834
47	0x4019534d	2.3957093
48	0x402f2f9a	2.7372804
49	0xc0e4ee24	-7.15407
50	0xc09281c0	-4.5783386
51	0xc0f2d61a	-7.5886354
52	0xbeeb2a74	-0.45930827
53	0xc015e5da	-2.342154
54	0xc0a0e440	-5.0278625
55	0xbf826c44	-1.018929
56	0xbe46b60f	-0.19405387
57	0xbfa96873	-1.3235
58	0xc082e622	-4.0905924
59	0x3fa076f2	1.2536299
60	0xc09293ac	-4.5805264
61	0xc10b16be	-8.693052
62	0xbf41a38d	-0.75640184
63	0x40e79504	7.2369404
64	0xbfaa258f	-1.3292712
65	0x4066d554	3.6067705
66	0xbf99fe01	-1.2030641
67	0x3eb2c554	0.34916174
68	0xbe2bac03	-0.16764836
69	0xbedb6521	-0.42850593
70	0x3f8a9c57	1.0828961
71	0x3f8f5723	1.1198467
72	0x40633f0e	3.5507236
73	0x3f9684de	1.1759298
74	0xbfb2523d	-1.3931347
75	0xc05f1e95	-3.4862416
76	0xc0124d54	-2.2859697
77	0xc0f9b415	-7.8032327
78	0x40413344	3.018754
79	0xbf0f172e	-0.55894744
80	0x4071fcf1	3.7810633
81	0xc02e6cfa	-2.7254014
82	0xbfa5a7a8	-1.294179
83	0xbe6b87f1	-0.23001076
84	0x412a1496	10.630026
85	0x3e9ecc95	0.3101546
86	0xc001fc69	-2.031031
87	0x40965c28	4.6987495
88	0x3fe079d8	1.7537184
89	0xc08f2673	-4.4734435
90	0x3f876a9a	1.0579407
91	0x3fe806ac	1.8127036
92	0x3f221833	0.63318175
93	0x400ad1a5	2.1690457
94	0xbfd1677b	-1.6359705
95	0x408cd9f6	4.4016066
96	0xc1101f44	-9.007633
97	0xbf825d5e	-1.0184743
98	0xbfd2fe48	-1.648385
99	0xc0b146b7	-5.539882
100	0x3fcbb772	1.5915358
101	0xc075edb4	-3.8426332
102	0x3f3b0852	0.7305957
103	0x3fec33a7	1.8453263
104	0x4095fad1	4.686867
105	0xc00d7708	-2.21039
106	0xc050ce7d	-3.262603
107	0x3f673725	0.9031852
108	0xc014b8e4	-2.3237848
109	0xc02dcf53	-2.715779
110	0x3dd55718	0.104170024
111	0x4049de42	3.1541905
112	0x40118fd1	2.2744029
113	0xc13001f6	-11.000479
114	0x3fea32bc	1.8296733
115	0x3efd7645	0.49504295
116	0x40364a27	2.848276
117	0xc0484007	-3.128908
118	0x3e5c4fc0	0.21514797
119	0xc05d2fbc	-3.4560385
120	0xc0928128	-4.578266
121	0xbf9e8737	-1.2385014
122	0x40b1beda	5.5545473
123	0xbf53b845	-0.8270305
124	0x3f62036c	0.8828647
125	0xc0930080	-4.593811
126	0x3db37da5	0.08764199
127	0xc00f2a17	-2.236944
128	0xbea5e749	-0.3240302
129	0x4080b014	4.021494
130	0xbfcee5a4	-1.6163831
131	0xc0a06f94	-5.0136204
132	0xbf420f77	-0.7580485
133	0xc06f021f	-3.7345045
134	0x3ffc2136	1.9697635
135	0x40fce4f3	7.902948
136	0xc0e444c8	-7.133396
137	0x3e3a173a	0.18172923
138	0x40e25dce	7.073951
139	0xc01e5c82	-2.4743962
140	0xc0395cea	-2.896296
141	0xc00ec486	-2.2307448
142	0x4014532f	2.3175771
143	0xc0e1e09c	-7.058668
144	0xc08c3056	-4.3809004
145	0x404c40d1	3.191456
146	0xc09bb3f7	-4.8657184
147	0x40001185	2.0010693
148	0xc12dc644	-10.860905
149	0xc0861b3f	-4.190826
150	0x3fbcb62a	1.4743092
151	0xc03371cb	-2.8038204
152	0xbf92bcff	-1.1463927
153	0x404d469b	3.2074344
154	0x40051d7a	2.079924
155	0x3ffde038	1.9834051
156	0x4049be37	3.1522348
157	0x40320fe7	2.7822206
158	0x3fa46b18	1.2845182
159	0x3f225b59	0.63420635
160	0x3f371a16	0.7152418
161	0x3cddc9b4	0.027073719
162	0xc088634e	-4.262122
163	0x41b2dab3	22.356787
164	0xc096c138	-4.7110863
165	0x4122b9f0	10.170395
166	0x4143cdab	12.237712
167	0x3f8a2524	1.0792584
168	0xc0909f17	-4.51942
169	0x3fd8d143	1.6938862
170	0x4032277d	2.7836602
171	0xbf09dc51	-0.538518
172	0x3e693ec9	0.22777857
173	0x3ff516f9	1.9147636
174	0xc0001d9a	-2.0018067
175	0xbfe401aa	-1.7813008
176	0xc068175d	-3.626426
177	0xc0a136ef	-5.0379558
178	0xbe87e872	-0.2654453
179	0x40092c1e	2.1433177
180	0xbf4e4b51	-0.80583674
181	0x4071c51f	3.7776563
182	0x4088185c	4.2529736
183	0x404d7da6	3.210794
184	0x40231983	2.548432
185	0x40abbe23	5.36696
186	0x40774a86	3.8639235
187	0x40e6b587	7.209659
188	0x408ad6f6	4.3387403
189	0x40b7e765	5.7469964
190	0x3fa89d21	1.3172952
191	0xbea26bbd	-0.31722823
192	0xbf02b803	-0.5106203
193	0xbf993d38	-1.1971807
194	0x3ff659ca	1.9246151
195	0xc09c6fe6	-4.8886595
196	0x4005d883	2.0913398
197	0xbf748524	-0.95515656
198	0xbf5bb86e	-0.8582829
199	0xbe39bab6	-0.18137631
200	0x405c5093	3.4424179
201	0xbfe30d22	-1.7738383
202	0x40e9b6be	7.3035574
203	0xbf8e1c89	-1.1102458
204	0x3fbc1c28	1.4696093
205	0x3f8114c0	1.0084457
206	0xbf9f4414	-1.2442651
207	0xc11cc9d3	-9.7992735
208	0x40995084	4.7910786
209	0x3fadca26	1.3577316
210	0xc0bca7ee	-5.895499
211	0xc087001f	-4.218765
212	0xc03f77bf	-2.9916837
213	0xc0af53f5	-5.4789987
214	0x3ec1cdcb	0.3785232
215	0x3f99b1f0	1.2007427
216	0x400a896b	2.1646373
217	0xc08f2c35	-4.4741464
218	0xc0d0a116	-6.519664
219	0xc048d21f	-3.1378248
220	0x4008c930	2.1372795
221	0x4012ba63	2.2926261
222	0x3fef5b75	1.8699785
223	0x41194df9	9.581536
224	0x3f080f85	0.5314868
225	0xc09e42af	-4.94564
226	0x403ca81d	2.9477608
227	0xc0ca7ea2	-6.327958
228	0xc0114d80	-2.2703552
229	0xc0c69e39	-6.2068143
230	0xbfc31636	-1.5241153
231	0xc106c733	-8.423633
232	0xc01af3f6	-2.4211402
233	0xc021d0e7	-2.5283754
234	0xc0001117	-2.001043
235	0x3fe0b31f	1.7554663
236	0xbfc4d22a	-1.5376637
237	0xc0d80316	-6.7503767
238	0xc0800b82	-4.001405
239	0x4014a27e	2.3224177
240	0x40febf66	7.960864
241	0xc0300460	-2.750267
242	0xc085adeb	-4.17748
243	0x4002d3d7	2.0441797
244	0xbfc15007	-1.5102547
245	0x40c9f07b	6.3106055
246	0x3f81a181	1.0127412
247	0xbda6b92d	-0.08140788
248	0x3fdd91d0	1.7310123
249	0x40353610	2.8314247
250	0xbf64ac20	-0.8932514
251	0xbf0c0664	-0.5469725
252	0x4035d121	2.8408892
253	0x402c69d5	2.6939595
254	0x4016782c	2.3510847
255	0xc0b40aff	-5.6263423

hh/upward/W f4 [256, 64]
0	0xc0ba795d	-5.827315
1	0xbe8ab5e2	-0.2709189
2	0xbfa71b11	-1.3055135
3	0xbd5a1bd2	-0.053249188
4	0x3e71784f	0.2358105
5	0xbebe0c25	-0.3711864
6	0xbe17ef8b	-0.14837472
7	0xbf070310	-0.5273905
8	0xbedd2709	-0.43193844
9	0xbdca9464	-0.098915845
10	0x3f491341	0.78545004
11	0x3dccea0f	0.10005581
12	0x408aa3fc	4.3325176
13	0xbe901c03	-0.2814637
14	0xbddd238a	-0.10797794
15	0x3dc1a2b1	0.09454859
16	0x3f4111e3	0.7541792
17	0x3e8f5c2c	0.2800001
18	0xbd9e5475	-0.07730953
19	0x3d1bcd67	0.038037684
20	0xbd331a78	-0.043726414
21	0xbe5be2ab	-0.21473186
22	0xbdc9c034	-0.09851113
23	0x3f9385ce	1.1525209
24	0xbf330593	-0.6993038
25	0xbf52b6a4	-0.8230994
26	0xbe354518	-0.17702138
27	0xbfd062ce	-1.6280153
28	0xbea9e7b4	-0.33184588
29	0xbf0cceaa	-0.55002844
30	0x3e1675bf	0.14693354
31	0x4056ebfc	3.3581533
32	0x3e2977f7	0.16549669
33	0x3e559b26	0.20859966
34	0x3f065715	0.52476627
35	0xbf823191	-1.0171376
36	0xbfb48706	-1.4103706
37	0x3edb3ca6	0.4281971
38	0xc06b8dcb	-3.6805294
39	0xbe057723	-0.13033728
40	0x3ed19e6a	0.40941173
41	0x3fd06f3c	1.6283946
42	0x3e05e375	0.13075049
43	0xbf3f6e0b	-0.7477729
44	0xbfe1369b	-1.7594789
45	0xbf8cdd8b	-1.100511
46	0xbfb8e2cb	-1.4444212
47	0xbf274b94	-0.653497
48	0xbe2bd296	-0.16779551
49	0xbf8a44ee	-1.0802286
50	0xbd6f625c	-0.058443412
51	0x3ea8c4d2	0.32962662
52	0x40234836	2.5512824
53	0xbd5b5c70	-0.053554952
54	0x3eebc804	0.46051037
55	0xbf138781	-0.5762864
56	0x3ed281c9	0.41114643
57	0x3dfdcc13	0.1239244
58	0x3f750a3a	0.9571873
59	0x40520c9c	3.2820196
60	0x401b74d5	2.4290059
61	0xbf85ea25	-1.046208
62	0x3deaaa2d	0.1145824
63	0x40c20735	6.06338
64	0xbf7e17fd	-0.99255353
65	0xbeb81bad	-0.35958615
66	0xbf7b709b	-0.982187
67	0x3e01b22a	0.1266562
68	0x3eb1dea6	0.3474018
69	0xbd912718	-0.07087535
70	0xbe82bcbe	-0.25534624
71	0x3ea948c5	0.3306333
72	0x3e2a6ba1	0.1664262
73	0xbf0649ab	-0.5245616
74	0xbf388def	-0.72091573
75	0xbcaa0100	-0.02075243
76	0x401cac0b	2.4480007
77	0x3f0c0ecf	0.54710096
78	0x3e08f5d0	0.1337502
79	0x3aecc5d5	0.001806433
80	0x3e955834	0.29168856
81	0x3e1f6988	0.155676
82	0xbefc2b1a	-0.49251634
83	0xbf4cf01e	-0.8005389
84	0x3db6ba5a	0.089222625
85	0xbea82b60	-0.32845592
86	0xbe156eff	-0.14593123
87	0x3e6fbd57	0.23412071
88	0x3eadfd24	0.33982193
89	0xbfc25a2a	-1.5183766
90	0x3dee605b	0.11639472
91	0xbf73c36a	-0.95220053
92	0xbd3166a0	-0.04331076
93	0xbd779b74	-0.060450986
94	0xbd8949f5	-0.06703559
95	0x4017cc5f	2.3718488
96	0x3e6c5b5f	0.2308173
97	0x3c636f01	0.013881446
98	0x3f012155	0.50441486
99	0xbf19b43b	-0.60040635
100	0xbf19471d	-0.59874135
101	0xbee5c9c9	-0.44880512
102	0xc00526ac	-2.0804853
103	0x3e634a8e	0.22196409
104	0xbdd33c3c	-0.10314223
105	0x3f9381d1	1.1523992
106	0x3ea7e0ad	0.32788602
107	0x3ef67492	0.4813581
108	0x3f3be001	0.7338868
109	0xbef51a24	-0.47871506
110	0xbec3c00d	-0.3823246
111	0x3e45c175	0.19312079
112	0xbf14a289	-0.5806051
113	0xbf5226fb	-0.8209073
114	0x3e9ef81e	0.31048673
115	0xbe74c2d3	-0.23902445
116	0x3ef666b6	0.48125237
117	0xbd5889b6	-0.052865706
118	0x3f041d40	0.5160713
119	0xbd44059a	-0.047856905
120	0x3e5bd33f	0.21467303
121	0xbe960cb8	-0.2930658
122	0x3ebd18d7	0.36933014
123	0x3ee855f6	0.45378083
124	0x3f2d0145	0.6758006
125	0xbd89ba58	-0.067249954
126	0xbe0b98f6	-0.13632569
127	0x402c046a	2.6877694
128	0x4017d02d	2.372081
129	0x3f45abdd	0.7721537
130	0xbf148afc	-0.58024573
131	0x3f8f6ac7	1.1204461
132	0xbee1e6f2	-0.4412151
133	0x3ea12fab	0.3148168
134	0x3e55053f	0.20802782
135	0xbf40baef	-0.7528524
136	0x3f2306d1	0.63682276
137	0x3e9f6d86	0.31138247
138	0x3f2a29f3	0.6647026
139	0xbf8c8534	-1.097815
140	0x3e66a86f	0.2252519
141	0xbd932a97	-0.07185858
142	0xbfbc01d0	-1.4688053
143	0x3d19262c	0.03738992
144	0x3fb96943	1.4485248
145	0x3ebbf3c0	0.36709404
146	0x3e8434c2	0.258215
147	0xbda1b4d1	-0.07895816
148	0x3e73cf83	0.23809628
149	0xbdc2738a	-0.094946936
150	0xbf8cf77f	-1.101303
151	0x3fa57343	1.29258
152	0x3ef680c6	0.4814512
153	0xbefb9a55	-0.49141183
154	0xbf11772d	-0.5682247
155	0x3f838d21	1.0277444
156	0xbf86ec77	-1.0540913
157	0x3ec157c2	0.37762266
158	0xbf84a46a	-1.0362675
159	0x3f89ae98	1.0756407
160	0xbf2e0588	-0.6797719
161	0x3fb04964	1.3772397
162	0x3ea83bb4	0.3285805
163	0xbf4e1b40	-0.8051033
164	0x3e9335bd	0.28751937
165	0x3efbc2e3	0.49172124
166	0x40040744	2.0629435
167	0x3f0e6295	0.55619174
168	0xbdb782b1	-0.08960474
169	0x3fc30e04	1.5238652
170	0xbf3f61a9	-0.7475839
171	0xbdd1463e	-0.10218476
172	0xbf815d7c	-1.0106654
173	0xbf3ef72f	-0.7459592
174	0xbf5f87ee	-0.8731679
175	0xbe3ee630	-0.18642497
176	0xbda37d0a	-0.07982834
177	0xbf6802d9	-0.90629345
178	0x3f8f0595	1.1173579
179	0xbf3643fe	-0.711975
180	0xc07caa24	-3.9478846
181	0x3e761d3b	0.24034588
182	0xbf53111d	-0.8244799
183	0x3f21a13b	0.63136643
184	0xbf4bd42e	-0.79620636
185	0x3fe857b7	1.8151768
186	0x3ed65f44	0.41869557
187	0xbece544a	-0.40298682
188	0xbec6ed56	-0.38852948
189	0xbf039f28	-0.5141473
190	0xbc99eda4	-0.018790074
191	0x3ffe7119	1.9878265
192	0x400e3dfb	2.222533
193	0x3dc1a0d6	0.09454505
194	0x3bc3ec0d	0.005979067
195	0x3d9562c8	0.07294232
196	0x3f166c6e	0.587592
197	0x3f29bd46	0.66304433
198	0xbf7daf9a	-0.9909607
199	0xbecf28a7	-0.40460703
200	0x3eadadd3	0.3392168
201	0xbf21523a	-0.6301609
202	0xbf43be5e	-0.7646235
203	0x3f472555	0.7779134
204	0x3f90869e	1.1291082
205	0x3efab085	0.489628
206	0x3f9de28e	1.2334764
207	0xbc00e6c2	-0.007867517
208	0xbed0dd6d	-0.40793934
209	0x3debd9dd	0.115161635
210	0x3d92a034	0.071594626
211	0xbee49ad8	-0.44649386
212	0xbe9454ef	-0.2897105
213	0xbed77546	-0.4208166
214	0x3f1a202b	0.60205334
215	0xbf240b48	-0.64079714
216	0x3e4edffc	0.20202631
217	0xbe34f2ad	-0.17670698
218	0xbe0e5bae	-0.1390216
219	0xc0d121ba	-6.535367
220	0x3f876848	1.0578699
221	0x3f905c8e	1.1278245
222	0x3f4c95e4	0.79916215
223	0xbf79d1a6	-0.97585523
224	0xbea4e9cd	-0.32209626
225	0xbf029e0d	-0.51022416
226	0x3d9d2007	0.07672124
227	0xbde1eaa4	-0.11031082
228	0xbe30f538	-0.17281044
229	0xbf475fb8	-0.7788043
230	0xc034eccb	-2.8269527
231	0x3dbca313	0.092107914
232	0x3f3ae4f9	0.73005635
233	0x3f0e5d91	0.5561152
234	0xbdf63fb8	-0.12023872
235	0x3d1dc482	0.038517483
236	0xbff22387	-1.8917092
237	0xbeb0d7f8	-0.3453977
238	0xbf3e48a4	-0.7432959
239	0x3f659438	0.8967929
240	0xbea04eae	-0.31310028
241	0x3d812352	0.06305565
242	0xbe13f2da	-0.1444811
243	0xbe86759e	-0.2626161
244	0xbe1827ba	-0.14858904
245	0xbe299be1	-0.1656337
246	0x3ebc6ffe	0.36804193
247	0xbe0e3921	-0.1388898
248	0x3dbef907	0.09324842
249	0xbf7ee235	-0.99563915
250	0x3f5f695c	0.8727014
251	0xc01d5d9f	-2.4588392
252	0x40250571	2.578457
253	0xbf6f85c2	-0.93563473
254	0xbebc6790	-0.36797762
255	0xbf877148	-1.0581446

hh/upward/b f4 [256]
0	0xc03bc6d5	-2.9340107
1	0xc0c3f0d1	-6.1231465
2	0x4089dfa5	4.3085504
3	0x40559033	3.3369262
4	0xbf3b6a64	-0.73209214
5	0x40a1ff66	5.0624266
6	0xc041f22d	-3.0304062
7	0xc087f06f	-4.2481
8	0x4167aa1a	14.479029
9	0xc08bf6a4	-4.3738575
10	0xc0bf267c	-5.973448
11	0xc0284ddc	-2.6297522
12	0x40ec9d5c	7.394209
13	0x40618ef3	3.52435
14	0xc0d29275	-6.580378
15	0xc0985451	-4.7602925
16	0xbfa4f08d	-1.288591
17	0xc06ceff4	-3.7021456
18	0xc10a5c6d	-8.647565
19	0x406e7d8f	3.7264135
20	0xc13c3bf7	-11.76464
21	0xc0c66dc9	-6.2009015
22	0xc0fd7fde	-7.921859
23	0xc087e5c3	-4.246797
24	0x401a368d	2.4095795
25	0x4029e5a1	2.6546404
26	0xc0a01c5a	-5.003461
27	0x400274e1	2.0383837
28	0x40352ee0	2.830986
29	0xc0c43060	-6.130905
30	0xc10141f0	-8.078598
31	0xbfb6a2ed	-1.4268471
32	0xc070378f	-3.753391
33	0xc0c0800c	-6.0156307
34	0x402e96e0	2.7279587
35	0x40debe64	6.960741
36	0xc14ab4ab	-12.669108
37	0x3f8d393c	1.1033092
38	0xc08e5edb	-4.449079
39	0xbf136be5	-0.5758651
40	0x3e7ff362	0.24995187
41	0x3ee2c3b7	0.44289944
42	0xc0f87918	-7.764782
43	0x4007c81f	2.1215894
44	0x40b378cd	5.608496
45	0xc002c9e9	-2.0435736
46	0x3fcb9027	1.5903367
47	0xbfa71e7c	-1.3056178
48	0x3ee82f38	0.45348525
49	0xc0b4a1eb	-5.6447654
50	0xc09154ac	-4.541586
51	0x3e17446b	0.14772193
52	0x40be0eb6	5.939296
53	0x3faa4798	1.3303099
54	0xc0f5ba7e	-7.679015
55	0x403551ce	2.833118
56	0x410a6942	8.650698
57	0xc08536d8	-4.162945
58	0xc12edf2a	-10.929483
59	0xc0ba6ca2	-5.825761
60	0x41087c0b	8.530284
61	0xbf9cf8c6	-1.226342
62	0xc1032ee5	-8.198949
63	0xc0548467	-3.3205812
64	0xc1a0da47	-20.10658
65	0x4088c4d6	4.274028
66	0xc1879efd	-16.952631
67	0x40d05d07	6.511356
68	0xbf94dd49	-1.1630031
69	0xbfd43169	-1.6577579
70	0xc00709ba	-2.1099687
71	0xbf61a3b7	-0.88140434
72	0x400690e8	2.1025944
73	0xc083f2aa	-4.123372
74	0x3f08a18d	0.53371507
75	0xc0304997	-2.7544916
76	0x4124451d	10.266873
77	0x407c1f32	3.939404
78	0xc10761bf	-8.461364
79	0x4064fb27	3.5778291
80	0x411dc90e	9.861586
81	0xc055582d	-3.3335068
82	0x4009a078	2.1504192
83	0xc07a9fd6	-3.9160056
84	0x41147d65	9.280614
85	0xc0cb226b	-6.3479514
86	0xc13e36f4	-11.888416
87	0xc0830992	-4.0949183
88	0xbec43d0d	-0.38327828
89	0x3fa2e202	1.2725222
90	0xc0e007d1	-7.000954
91	0xbfdafdc9	-1.7108699
92	0x411bfa84	9.748661
93	0x403983b7	2.8986642
94	0xc05fde4c	-3.497943
95	0x41042a99	8.2604
96	0xc134b6a5	-11.294591
97	0xc0a60e77	-5.1892657
98	0xc009060c	-2.140994
99	0xc06e07d6	-3.7192283
100	0xc08f7f3a	-4.4842806
101	0x3fa68de4	1.3012052
102	0xc0dfb97c	-6.991392
103	0x3fdedd4e	1.7411287
104	0x404b2b0a	3.174502
105	0xbe8ce65a	-0.27519494
106	0x3f0258a6	0.50916517
107	0xbdfcd8e0	-0.12346053
108	0xc02f1a70	-2.7359886
109	0x3f78f732	0.9725219
110	0x408ba910	4.3643875
111	0xc06d463b	-3.7074115
112	0xc0c0ed5c	-6.0289745
113	0xc17a44d2	-15.641802
114	0xc03c7bd9	-2.945059
115	0xc0d70548	-6.7193947
116	0x408e4058	4.4453545
117	0xc0c6ed98	-6.216503
118	0x3f7122b7	0.94193596
119	0xc0a56602	-5.168702
120	0x405cc94d	3.4497864
121	0xbf7f9c70	-0.9984808
122	0xc05b9fb6	-3.431623
123	0xbf7ee334	-0.99565434
124	0xc15d203f	-13.820373
125	0xc04d9747	-3.2123582
126	0xc0961b3e	-4.6908255
127	0xc107714c	-8.46516
128	0xc0e06732	-7.012597
129	0xc0cb993e	-6.3624563
130	0x3eb28126	0.34864157
131	0xc06ed66b	-3.731837
132	0x4003b3eb	2.0578563
133	0xc05a5f96	-3.412084
134	0xc076a6da	-3.8539338
135	0xc186fe7f	-16.874266
136	0x4086c5ce	4.211646
137	0xbf8c72be	-1.0972517
138	0xc057345f	-3.3625715
139	0xc0814207	-4.03931
140	0x4065098c	3.5787077
141	0xc10bd116	-8.738546
142	0xc09a3e4e	-4.8201056
143	0xbf9ba4a5	-1.215962
144	0xbeaaa288	-0.33327127
145	0x3fbc058d	1.4689194
146	0xc10f6dd5	-8.964314
147	0xbfd473dd	-1.6597859
148	0xc16a8e83	-14.659793
149	0xc0c34587	-6.102237
150	0xc0cf0064	-6.4687977
151	0xc0c3eb8c	-6.1225033
152	0x40cd63a8	6.418415
153	0x4080546c	4.0103054
154	0xc07d08c7	-3.9536607
155	0xc0820385	-4.0629296
156	0x3fd0c63e	1.6310499
157	0xc0848e67	-4.142383
158	0xc0969dae	-4.706748
159	0xc0eeb9c0	-7.4601746
160	0xbf96f320	-1.1792946
161	0xc112aee4	-9.167698
162	0xc0e18d08	-7.0484657
163	0x4176a8d9	15.416223
164	0x4028daee	2.6383624
165	0x3fde0daf	1.7347926
166	0xbe99d405	-0.3004457
167	0xc019576b	-2.3959606
168	0xc0820638	-4.063259
169	0xc05b2e1e	-3.4246898
170	0xbe1721da	-0.14759007
171	0x4047a69e	3.1195445
172	0x3f99e279	1.2022239
173	0xc0d35ba7	-6.604938
174	0xc04a6d35	-3.1629155
175	0xc0db283f	-6.848663
176	0xc1036684	-8.212528
177	0x4046c1d6	3.1055808
178	0xc1032d37	-8.198539
179	0x405cf22f	3.4522817
180	0x3fbc2525	1.4698836
181	0xc121de8e	-10.116835
182	0x3f387b02	0.72062695
183	0xc045c348	-3.090044
184	0xc082734d	-4.076575
185	0xc0a21190	-5.064644
186	0xc0b2a58f	-5.58271
187	0x40266002	2.5996099
188	0x3f31d98a	0.69472563
189	0xc0d7b4b2	-6.7408075
190	0xc1094aa5	-8.580724
191	0xc0169b6f	-2.353237
192	0xc19ddfe5	-19.734324
193	0x3fc80133	1.5625366
194	0x40f20f23	7.5643477
195	0xc0df810e	-6.9845037
196	0x3edd4a8b	0.43220934
197	0xc0c5ff97	-6.18745
198	0xc100d80b	-8.052745
199	0xc089a2a0	-4.3011017
200	0x40c7d2e2	6.2444925
201	0xbe7e8e98	-0.24859083
202	0xc0ffaf8f	-7.9901805
203	0xbf477679	-0.7791515
204	0x3ffaf0d8	1.960475
205	0x3fcfca81	1.6233674
206	0x3fa0f029	1.2573291
207	0x3f328141	0.69728476
208	0xbf778103	-0.9668123
209	0xc0c50f07	-6.1580844
210	0xc1388a47	-11.533759
211	0xbf4f6ca7	-0.81025165
212	0xc12a4793	-10.642474
213	0xc0b1571a	-5.5418825
214	0xc0a0db58	-5.0267754
215	0xc0c0ccad	-6.024985
216	0x410e1042	8.878969
217	0xc1392885	-11.572392
218	0xbf885a2f	-1.0652522
219	0xc067f9f2	-3.6246305
220	0x415ba067	13.726661
221	0xc07dc54c	-3.965167
222	0x3f294235	0.6611665
223	0xbfdd766a	-1.7301762
224	0x41439a34	12.225147
225	0xbfad7a68	-1.355298
226	0xc0da0cef	-6.814079
227	0x3fc6afcb	1.5522398
228	0x40854edd	4.165877
229	0xc04198f4	-3.0249605
230	0x3fc553d2	1.5416205
231	0x3efd2861	0.4944487
232	0xc0f69889	-7.70612
233	0xc0a34b03	-5.1029067
234	0xc0c1f7b3	-6.0614867
235	0xbffc6d40	-1.972084
236	0xc0be8d78	-5.954769
237	0xc126f147	-10.433906
238	0xc075ae24	-3.8387537
239	0xc0559ff6	-3.3378882
240	0x3e838470	0.2568698
241	0xc046b75b	-3.1049411
242	0xbfb12920	-1.3840675
243	0xc01783f5	-2.367429
244	0xc116927b	-9.410762
245	0xc10f36c9	-8.950875
246	0xc0133bc8	-2.3005238
247	0xbf8f92be	-1.1216657
248	0x40e904e4	7.281847
249	0x410b704a	8.714914
250	0x403b70ad	2.9287522
251	0xc04e49a1	-3.223244
252	0xc131389a	-11.076319
253	0x400eb7b1	2.2299616
254	0x3f955a99	1.1668273
255	0xbffac075	-1.9589983

xh/W f4 [64, 8]
0	0xc0064ed3	-2.098561
1	0xc03c1d9d	-2.9393075
2	0xc08f7e71	-4.4841847
3	0xbfe2c913	-1.7717613
4	0xbf90b75d	-1.1305958
5	0x3e47cd30	0.19511867
6	0xc049422b	-3.1446636
7	0xc095e16a	-4.6837664
8	0xbd401677	-0.046896424
9	0x3d29d993	0.04146726
10	0xbe8ee225	-0.2790691
11	0xbd1ac132	-0.0377819
12	0xbfeff2dc	-1.874599
13	0xc02e33ae	-2.7219043
14	0x405139d5	3.2691548
15	0xbea84044	-0.3286153
16	0xbc84f9b6	-0.016232353
17	0xba99a6da	-0.0011722699
18	0x3f87c1c2	1.0606005
19	0xbf4fdd2e	-0.8119687
20	0x40f4dd0b	7.651983
21	0x40ef6951	7.481606
22	0xc11cd0d3	-9.800982
23	0xc0d07dfe	-6.51538
24	0xbdfb6224	-0.12274578
25	0x3e1f0ce4	0.15532261
26	0xbe287082	-0.16449168
27	0xbdc2644e	-0.09491788
28	0xbfb4f165	-1.4136168
29	0x3dcffd96	0.101557896
30	0x3bdc734d	0.006727612
31	0x3fb7b385	1.435166
32	0xbd39b9f6	-0.04534336
33	0xbdf2232c	-0.11823115
34	0x3e518420	0.20460558
35	0x3d8b2dd3	0.0679585
36	0x406fca0f	3.7467077
37	0x4044cf5b	3.075156
38	0xc06b2365	-3.6740353
39	0xc0a86b78	-5.2631187
40	0xbd717c4c	-0.05895643
41	0x3e3edb56	0.18638358
42	0xbf0242db	-0.50883263
43	0x3e8b40f3	0.2719799
44	0xbfef99e6	-1.8718841
45	0xbf6d4ce5	-0.92695457
46	0x401faa0f	2.4947546
47	0x406bb49a	3.682898
48	0x3da61104	0.08108714
49	0xbdf3e6b6	-0.11909239
50	0xbe8ce03d	-0.2751483
51	0x3e0e1084	0.13873488
52	0xbf5adbc1	-0.8549157
53	0x3fbf3095	1.4936701
54	0xc009ffef	-2.156246
55	0x3fb69980	1.4265594
56	0xbe0d3597	-0.13789974
57	0x3d66f268	0.05638352
58	0xbe52a4e8	-0.20570719
59	0xbc43f8af	-0.011961146
60	0x3fd89d84	1.692307
61	0x3da7ead1	0.081990846
62	0xbf10e971	-0.56606203
63	0x3f2e2775	0.68028957
64	0xbc69d2ad	-0.01427142
65	0xbd28c838	-0.04120657
66	0xbde2daf1	-0.11076916
67	0xbc855141	-0.016274096
68	0xbff47387	-1.9097756
69	0xbfee26f4	-1.8605638
70	0x3ee35162	0.44398028
71	0x40a2ee6b	5.0916038
72	0xbca6cbcf	-0.020360855
73	0x3e1a7067	0.1508194
74	0xbd8f0b45	-0.06984571
75	0xbd09df9b	-0.033660512
76	0xbeb3a812	-0.35089165
77	0x3fdf309f	1.7436713
78	0xbfe6137d	-1.7974697
79	0x40429464	3.040307
80	0x3e1484d3	0.14503793
81	0x3e5b7f04	0.21435171
82	0x3de71a76	0.11284344
83	0xbe2c519c	-0.16828007
84	0x3d54eb7b	0.051982384
85	0xbf50af95	-0.81517917
86	0xbeaca1f6	-0.33717316
87	0x4000b024	2.0107508
88	0xbd18fca2	-0.037350304
89	0x3e04ec8f	0.12980865
90	0x3e3ebc73	0.18626575
91	0xbc55b5f6	-0.013043871
92	0x4025da06	2.591432
93	0x3fd2bfcf	1.6464785
94	0xbfcc921b	-1.5982088
95	0xbf48b721	-0.7840443
96	0xbeda26d8	-0.4260776
97	0x40d51d7f	6.6598506
98	0x40e01882	7.0029917
99	0x40c5f83b	6.1865516
100	0xbfc8fbfb	-1.5701898
101	0xbf90d31c	-1.1314425
102	0xbf4f0b12	-0.80876267
103	0x3e3f424e	0.18677637
104	0xbe38ae39	-0.1803521
105	0x3e08351a	0.13301507
106	0xbe969e47	-0.2941763
107	0x3ef3c942	0.47614485
108	0x3fd40917	1.6565274
109	0x40056671	2.0843775
110	0xbfcb0d0a	-1.5863354
111	0x3f552d0c	0.8327186
112	0x3d86920c	0.06570825
113	0xbd4b278a	-0.049598254
114	0xbd28c022	-0.041198857
115	0x3ec26cdf	0.37973687
116	0x4043f7fb	3.0620105
117	0x40e87890	7.264717
118	0xc0e67328	-7.201557
119	0x4059cbce	3.4030643
120	0xbe94ba4a	-0.29048377
121	0x3cfa4163	0.030548757
122	0x3e8b4e54	0.27208197
123	0xbf0ddccb	-0.5541503
124	0xbe6fa89e	-0.23404166
125	0x3f8c1d1a	1.0946381
126	0x3fcaba3f	1.5838088
127	0x3fb60f69	1.4223453
128	0xbd93b799	-0.07212753
129	0xbd687766	-0.056754492
130	0xbe8571cd	-0.26063386
131	0x3e920748	0.2852118
132	0xbfc55a85	-1.5418249
133	0xbed7c176	-0.42139786
134	0x3e8f1044	0.27942097
135	0x3fef020c	1.86725
136	0xbdc1e2e0	-0.09467101
137	0xbd914acf	-0.07094347
138	0xbeb740d5	-0.3579165
139	0xbe81cbb8	-0.25350738
140	0xbf8e712b	-1.1128286
141	0xbf2864fa	-0.6577908
142	0x400c5bd8	2.1931057
143	0x3ffc90fc	1.9731746
144	0x3ce7789d	0.028255755
145	0xbdd7cd76	-0.105372354
146	0x3ea70e8e	0.32628292
147	0xbe63d5f7	-0.2224959
148	0xc01e3c6f	-2.4724386
149	0x3edcca92	0.431233
150	0x3ef57e73	0.47948036
151	0x40475b37	3.1149423
152	0xbd3ec236	-0.046571933
153	0x3e129f8f	0.1431868
154	0x3ca714ad	0.020395601
155	0xbd98a43f	-0.074532025
156	0xbe518336	-0.20460209
157	0xbea270f1	-0.31726792
158	0x3f2e8de4	0.6818526
159	0xbd1b6f27	-0.0379478
160	0xbda03659	-0.07822866
161	0xbd21be1a	-0.039487936
162	0xbeafa851	-0.34308103
163	0x3e27ce52	0.16387299
164	0xc0317b5e	-2.7731547
165	0xc08c635c	-4.387129
166	0x40399371	2.899624
167	0x40aefb15	5.4681497
168	0x3d5161d3	0.051118683
169	0x3e15f22d	0.14643164
170	0xbe38d707	-0.18050776
171	0xbe8b2e00	-0.27183533
172	0xbfa6ac83	-1.3021396
173	0xbf97a2c6	-1.184655
174	0x3f0ef939	0.55849034
175	0xbfcc2bef	-1.5950907
176	0x3cf6a2e2	0.030106965
177	0x3d0a09ff	0.03370094
178	0x3e216a59	0.15763225
179	0xbd4d2eda	-0.05009351
180	0xbda9d4e6	-0.0829256
181	0x3fca55aa	1.5807393
182	0x3dcb1873	0.09916773
183	0xbf8ebe0e	-1.115175
184	0xbe9e95c3	-0.30973634
185	0xbd0a4407	-0.033756282
186	0xc0c51092	-6.1582727
187	0x40bb4c42	5.853059
188	0xc040a62a	-3.0101418
189	0xc03441f3	-2.8165252
190	0x40ff6fb8	7.9823875
191	0x4130da70	11.053329
192	0xbd9262a3	-0.0714772
193	0x3dde306e	0.10849081
194	0x3e96dcf5	0.29465452
195	0xbe8b2c15	-0.2718207
196	0xbfb06935	-1.3782107
197	0x3fe75057	1.8071393
198	0xbf574cc9	-0.8410154
199	0xbfe8784c	-1.8161712
200	0xbda55ecf	-0.08074724
201	0x3da5fd9b	0.08105012
202	0x3fd1014b	1.632852
203	0xbf960361	-1.1719781
204	0x3ffbe104	1.9678044
205	0x402a0483	2.6565254
206	0xc1134dd0	-9.206497
207	0xc11eb5c1	-9.9193735
208	0xbe0bd7b2	-0.136565
209	0x3dc7e5c0	0.09760618
210	0xbe108bd3	-0.14115839
211	0x3deb9362	0.115027204
212	0xbfaaf7c4	-1.3356862
213	0x3d7bac92	0.061443873
214	0xbf8da7dc	-1.1066852
215	0x3f828a8b	1.019853
216	0x3f3a84ef	0.7285909
217	0xc039f0ee	-2.9053302
218	0xc0dcf3c9	-6.904759
219	0x40ea6815	7.3252053
220	0x4039e44c	2.9045591
221	0x40945a29	4.636006
222	0xc0fa5b19	-7.8236203
223	0xc10dbaac	-8.858074
224	0x3de3c2fc	0.11121175
225	0xbd93c30d	-0.07214937
226	0x3df950bd	0.12173603
227	0xbdc6de2b	-0.09710344
228	0x401a16d4	2.4076433
229	0x40a2bcfb	5.085569
230	0xc03d42ab	-2.957194
231	0xc006958f	-2.1028783
232	0x3d83d13c	0.06436393
233	0x3d5d3412	0.054004736
234	0x3d4f7328	0.05064693
235	0x3e11a00e	0.14221212
236	0x3f2ba3f0	0.67047024
237	0x40a77067	5.232471
238	0xc0204d84	-2.5047312
239	0x3f1a66e8	0.6031327
240	0xbd558d96	-0.05213698
241	0xbe15ab8b	-0.1461622
242	0x3bf6be2b	0.007529994
243	0xbd854075	-0.06506435
244	0x3ff6fbb9	1.929557
245	0x3f7f9923	0.99843043
246	0xbe810fff	-0.25207517
247	0xbfd62183	-1.6728977
248	0xc02b41fd	-2.6759026
249	0xc08efe39	-4.468533
250	0x4097b2f3	4.7405944
251	0x3f657f68	0.8964753
252	0x3e9dda39	0.30830553
253	0xbf7fb87e	-0.9989089
254	0xc00073ce	-2.0070682
255	0x3fd8e62a	1.694524

xh/b f4 [64]
0	0xbeb0a46c	-0.34500444
1	0xbf027891	-0.5096522
2	0xbf220b0e	-0.6329812
3	0xbde49ab2	-0.11162318
4	0xbf0b4da3	-0.5441534
5	0x3f4cccbf	0.7999992
6	0x3bc06218	0.0058710687
7	0x3e01af9a	0.12664643
8	0x3ee91a2a	0.45527774
9	0x3ef6b910	0.48188066
10	0x3ed6324c	0.41835248
11	0x3ef779a2	0.48334986
12	0x3eda3033	0.42614898
13	0x3f020abf	0.5079765
14	0x3fad8e80	1.3559113
15	0x3f74868b	0.95517796
16	0xbe1b2196	-0.15149531
17	0x3f1a1b67	0.6019806
18	0x3efa4b64	0.48885643
19	0xbdbf0eaf	-0.093289725
20	0x3d8e7e3a	0.069576696
21	0xbf481d4b	-0.781697
22	0x3e726228	0.23670256
23	0x4056919c	3.3526373
24	0xbf4fa2cb	-0.8110778
25	0xc060b7e0	-3.5112228
26	0xbf121830	-0.5706816
27	0xc055ace0	-3.3386765
28	0x3edfa028	0.43676877
29	0x3f8c0ead	1.0941979
30	0x3e9fb02f	0.31189105
31	0x3f990cdd	1.195705
32	0xbbab7df0	-0.005233519
33	0x3d7f506e	0.062332563
34	0x4024dcfc	2.5759878
35	0xbf0c75da	-0.5486733
36	0xbf332d49	-0.69990975
37	0x3d685ebe	0.05673098
38	0xc06fd5e5	-3.74743
39	0xbf87d665	-1.0612303
40	0x3ecd67cb	0.4011825
41	0x4039c64b	2.9027278
42	0x3effde25	0.4997417
43	0x3eca5644	0.3951894
44	0xbe61af85	-0.22039612
45	0xbe2e3555	-0.17012532
46	0xbfc6a6a1	-1.5519601
47	0x3fad285b	1.352794
48	0xbdf6d058	-0.12051457
49	0xbcbd8de8	-0.023138955
50	0xbf8d7568	-1.1051455
51	0x3ddc746b	0.107643925
52	0x3ffd8375	1.9805743
53	0x3da7e30f	0.08197605
54	0x3f23c9ee	0.63979995
55	0x3f15d34f	0.58525556
56	0x3f61f088	0.88257647
57	0xbf9cf667	-1.2262696
58	0x401ff235	2.4991581
59	0x402ae0b8	2.6699657
60	0x40a8da89	5.2766767
61	0xbfa49ec6	-1.2860954
62	0xbee4db0d	-0.44698372
63	0x3facd15c	1.3501391
