code/python/slip_model/8_64_1_5_10_4950_400_use_train_slip_model.npz (npz, 127426 bytes, 6 tensors)

hy/W f4 [1, 64]
0	0xbe8029d4	-0.25031912
1	0x3de9b53f	0.11411523
2	0x3e65704c	0.22406119
3	0x3e5e89b1	0.21732213
4	0x3e5556b6	0.20833859
5	0x3e5e2941	0.21695425
6	0x3e8ed519	0.27896956
7	0xbe31f0af	-0.1737697
8	0xbea6dfbb	-0.32592568
9	0xbe83048e	-0.25589412
10	0x3e2ba685	0.16762741
11	0x3e99fde9	0.3007653
12	0x3e8733a8	0.26406598
13	0x3e4df1fe	0.20111844
14	0x3ead5eef	0.3386149
15	0x3e32685a	0.1742262
16	0xbe15e0f3	-0.14636593
17	0x3e0a19be	0.13486382
18	0x3e730131	0.23730923
19	0xbe8854a3	-0.26627073
20	0xbe35f558	-0.17769372
21	0x3e72afd4	0.23699886
22	0xbddc56ab	-0.10758718
23	0xbc4f5138	-0.012653641
24	0xbe034130	-0.12817836
25	0xbd18ece9	-0.03733531
26	0x3e381a03	0.17978673
27	0x3da834d8	0.08213204
28	0xbe60eb27	-0.21964704
29	0x3d8c3d6d	0.068476535
30	0x3e626727	0.22109662
31	0x3da8490b	0.08217057
32	0xbde58ce6	-0.11208515
33	0xbd92b594	-0.071635395
34	0xbe66ec38	-0.22551048
35	0xbec312f1	-0.3810039
36	0x3eb9b942	0.36274153
37	0x3e8198f3	0.25312003
38	0x3e3cadf7	0.18425737
39	0x3ea67e17	0.32518074
40	0x3e4b7598	0.19869077
41	0x3e9b9ef6	0.30394715
42	0x3e2e9cc0	0.17051983
43	0x3e641957	0.22275291
44	0xbd1fcef0	-0.03901571
45	0x3e5a642d	0.21327277
46	0x3eed9d2a	0.4640897
47	0x3d5e7fc0	0.05432105
48	0xbe0706db	-0.13186209
49	0x3ea04842	0.31305128
50	0xbe1c4b88	-0.15263188
51	0x3d9528f0	0.07283199
52	0xbe8a1b4b	-0.26973948
53	0xbe5debbb	-0.21671955
54	0xbe78c03d	-0.24292083
55	0xbe81a057	-0.25317642
56	0x3e85ba92	0.26118904
57	0xbe815e62	-0.2526732
58	0xbd3d74da	-0.046254016
59	0x3de29f8f	0.1106559
60	0x3e2fe3c0	0.17176723
61	0x3e162f61	0.14666511
62	0xbdfaafa3	-0.12240531
63	0xbe13ddff	-0.14440154

xh/b f4 [64]
0	0x3e578b5a	0.21049252
1	0x3f1734c0	0.59064865
2	0xbe80c79c	-0.2515229
3	0xbf870d7c	-1.055099
4	0xbe767cd6	-0.24071059
5	0xbf0271b3	-0.5095474
6	0x3e281b13	0.16416578
7	0xbece7335	-0.4032227
8	0xbe8a5b87	-0.27022955
9	0x3ed79068	0.4210236
10	0xbe8451e1	-0.2584372
11	0x3ecd22e6	0.40065688
12	0x3f4af291	0.79276377
13	0xbe0eb04b	-0.13934438
14	0xbed24542	-0.41068465
15	0xbd9199e6	-0.07109432
16	0xbf3e88a9	-0.74427277
17	0xbfa979b4	-1.3240266
18	0x3e888f5a	0.2667187
19	0x3e312d4f	0.1730244
20	0x3e8294ad	0.25504056
21	0x3f82a3d4	1.0206246
22	0xbd7fdf5b	-0.062468868
23	0x3c8e1dfd	0.017348284
24	0xbe566549	-0.20937075
25	0xbec571a4	-0.38563263
26	0xbe506d0c	-0.20354098
27	0x3e4868ff	0.19571303
28	0xbe2821ca	-0.1641914
29	0xbf8def71	-1.1088697
30	0xbf9dbb12	-1.2322714
31	0x3f28bf4c	0.65916896
32	0x3e4229f0	0.1896131
33	0xbe4ae607	-0.19814311
34	0xbe724c20	-0.23661852
35	0xc01ad3d9	-2.4191802
36	0xbf74adf4	-0.9557793
37	0x3f1f6b70	0.6227331
38	0x3e668872	0.22512987
39	0xbc88c347	-0.016694678
40	0xbf09d15b	-0.53835076
41	0xbf12110c	-0.5705726
42	0x3e9b77ee	0.30364937
43	0x3ff0ea44	1.8821492
44	0xbd22c4a4	-0.039738312
45	0x3d430c9f	0.04761946
46	0x3ea4a999	0.32160643
47	0x3f566f6d	0.8376377
48	0xbda38194	-0.079836994
49	0x3e88b0ab	0.26697287
50	0x3f4726c5	0.7779353
51	0xbe7e710b	-0.2484781
52	0xbfd2373d	-1.6423107
53	0x40155886	2.333528
54	0x3edb7c7b	0.4286841
55	0x3fc0172b	1.500707
56	0xbd189364	-0.037249938
57	0xbe8ae713	-0.2712942
58	0x3fd2b68f	1.6461962
59	0x3e67aeb9	0.22625245
60	0x3ea37f06	0.3193285
61	0x3da6ffef	0.08154284
62	0xbf2869fa	-0.6578671
63	0xbe22f539	-0.15913858

xh/W f4 [64, 8]
0	0xbc2e8c58	-0.010653578
1	0x3c3feaee	0.011713726
2	0xbcbf9722	-0.023387495
3	0x3cdf93f5	0.027292231
4	0x3f6103e5	0.8789657
5	0xbf69c747	-0.913197
6	0x3f3a72e3	0.72831553
7	0xbe28e059	-0.16491832
8	0xbf055914	-0.5208905
9	0x400df8d2	2.2183118
10	0xbe4a5eef	-0.19762777
11	0xbcec19be	-0.028820869
12	0xbd948cc2	-0.0725341
13	0xbdf9df79	-0.12200827
14	0xbd858580	-0.06519604
15	0xbe892180	-0.2678337
16	0x3a1d0f2f	0.0005991337
17	0x3d067dd4	0.032834843
18	0x3b1370ec	0.0022497727
19	0xbcb3e96f	-0.021961896
20	0x3ec19a81	0.3781319
21	0xbeadf8d5	-0.33978906
22	0x3e730454	0.2373212
23	0xbf761bad	-0.9613598
24	0xbc811822	-0.015758578
25	0xbcf6c0a6	-0.030121159
26	0x3d464dd8	0.04841408
27	0x3b889ff0	0.0041694567
28	0x3f51d42e	0.81964386
29	0x3e96fb5c	0.29488647
30	0xbff0c7ae	-1.8810937
31	0xbfeaa5e1	-1.8331872
32	0x3fcd069f	1.6017646
33	0x3f4a74bb	0.79084367
34	0xbfe4d3f6	-1.7877185
35	0xbffe9d16	-1.9891689
36	0xbd91a76b	-0.071120106
37	0x3e84c040	0.25927925
38	0x3ea0d41f	0.31411836
39	0x3da7e27d	0.08197496
40	0x3f9f42e5	1.244229
41	0x3d1085e0	0.035283923
42	0x3f8b4e5b	1.0883287
43	0xbf40e257	-0.7534537
44	0x3fc67f7c	1.5507655
45	0x3fbbfaa8	1.4685869
46	0x3f9bb4e0	1.2164574
47	0x3fd5d4dd	1.6705586
48	0x3b91a42a	0.0044446187
49	0x3c7a6a0c	0.015284073
50	0x3c9057f1	0.017620059
51	0xbd3597c1	-0.044334177
52	0x3cbaba59	0.022793936
53	0xbf3bcf19	-0.7336288
54	0x3eff7b29	0.4989865
55	0x3f0a1218	0.5393386
56	0x3bd8731a	0.006605518
57	0x3c4e08cd	0.01257534
58	0xbce94723	-0.028476303
59	0xbcbda535	-0.023150066
60	0x3c5c2afe	0.0134379845
61	0xbfdab455	-1.7086283
62	0x3f012fd0	0.5046358
63	0x3dd098df	0.10185408
64	0x3adb20f7	0.0016718198
65	0x3c3775f5	0.011197557
66	0xbb4cecf5	-0.0031269167
67	0xbd2d3f58	-0.042296737
68	0x3e906c02	0.28207403
69	0xbe6508ba	-0.2236661
70	0xbe86c960	-0.26325512
71	0xbf0e7160	-0.55641747
72	0x3cac58f1	0.021038504
73	0x3c1f26de	0.0097138565
74	0xbc9e825e	-0.019349273
75	0xbd50b03b	-0.050949316
76	0xbe7a7159	-0.24457301
77	0xbe9c55da	-0.3053425
78	0x3ed1a415	0.40945497
79	0x3f8ddfaf	1.1083888
80	0xbc227672	-0.009915935
81	0xbb99492b	-0.0046779118
82	0x3d528934	0.05140038
83	0xbc07f2db	-0.008297647
84	0x3e011686	0.12606248
85	0xbf2aa105	-0.66651946
86	0x3dccdcbc	0.10003039
87	0xbe59d35d	-0.21272035
88	0x3c8449de	0.016148504
89	0x3cacaf6a	0.021079738
90	0xbca069fb	-0.019581785
91	0x3d13183b	0.03591178
92	0x3f65853b	0.8965642
93	0xbe583076	-0.21112236
94	0x3f5befb8	0.85912657
95	0xbf226d9b	-0.63448495
96	0x3d1434bd	0.036183108
97	0x3b2a9914	0.0026031183
98	0x3ece61be	0.40308946
99	0xbede400b	-0.43408236
100	0xbf8d79b4	-1.1052766
101	0x3e3298c2	0.17441085
102	0x3fa8a04a	1.3173916
103	0x3fc82bb8	1.5638342
104	0x3c0c702b	0.008571665
105	0xbcb6f772	-0.022334788
106	0x3b32f64a	0.0027307444
107	0xbccf3cbf	-0.02529752
108	0xbddb4aa9	-0.107076
109	0xbfc0503f	-1.5024489
110	0x3fa73608	1.3063364
111	0xbd8286cc	-0.06373367
112	0xbb46eeed	-0.0030354813
113	0x3906f473	0.000128703
114	0xbc5a5bf1	-0.013327585
115	0xbd0f0144	-0.034913316
116	0xbe9896a5	-0.29802433
117	0x3e53e070	0.20691085
118	0xbe91eca4	-0.28500855
119	0xbf0ee16c	-0.55812716
120	0x3c1e120b	0.0096478565
121	0xbc9710e5	-0.018440673
122	0x3c8ed0c1	0.017433526
123	0x3c4736f6	0.0121591
124	0xbe256b0d	-0.16154118
125	0x3e920ee9	0.28527
126	0xbe705a59	-0.23471965
127	0xbbf27241	-0.007398874
128	0xbbd85f1e	-0.0066031357
129	0xbd149f50	-0.036284745
130	0x3d6a6dec	0.057233736
131	0xbc23ebb3	-0.010004926
132	0xbded355e	-0.115824446
133	0xbf6a91ec	-0.9162891
134	0xbe422eb9	-0.18963136
135	0xbf4441a8	-0.76662683
136	0xbc819d2f	-0.015822021
137	0xbcf09a65	-0.029370496
138	0xbe4295eb	-0.19002502
139	0x3e5d8e56	0.21636328
140	0x3e4f9628	0.20272124
141	0x3f02cc3d	0.5109289
142	0xbff89b83	-1.9422458
143	0xc00329bc	-2.0494223
144	0xbce5209c	-0.02796965
145	0xbb932b95	-0.0044912794
146	0xbc99f164	-0.018791862
147	0x3ccbb456	0.024866264
148	0xbee8c6a0	-0.4546404
149	0x3e541726	0.20711955
150	0x3f2edff3	0.6831047
151	0x3ed73387	0.420315
152	0x3cccb4d8	0.024988577
153	0x39dd0ded	0.0004216278
154	0x3bad2226	0.005283612
155	0xbc8bbbb7	-0.017057283
156	0x3e99b6eb	0.30022368
157	0xbed6146d	-0.4181246
158	0x3ee189f1	0.44050553
159	0xbd9a3daa	-0.07531293
160	0x3d15a27c	0.03653191
161	0xbca257c2	-0.019817237
162	0xbdbd22d7	-0.09235161
163	0x3dca2d63	0.09871938
164	0x3c01b06f	0.0079156
165	0xbeb5de01	-0.35520938
166	0x3f2b95af	0.67025274
167	0x3e718769	0.23586811
168	0x3a881a97	0.0010383901
169	0x3bd330ee	0.006445042
170	0xbd82f0f8	-0.063936174
171	0x3def7f6c	0.11694226
172	0x3f9de4ca	1.2335446
173	0x4001fa5e	2.0309062
174	0xbeafbc9b	-0.34323582
175	0xbe93322f	-0.28749225
176	0xbd1c9097	-0.03822383
177	0x3b6ef92a	0.0036464431
178	0xbb0688c4	-0.0020528296
179	0x3ce79592	0.028269563
180	0xbe8db765	-0.2767898
181	0x3fb14260	1.3848381
182	0xbf821b1f	-1.0164527
183	0x3c31fa63	0.0108629195
184	0x3aae81ee	0.0013313869
185	0xbe5166e8	-0.20449412
186	0x3fb8a02c	1.442388
187	0xc00b7636	-2.17909
188	0x3e0165e3	0.12636523
189	0x3f305dbd	0.68893033
190	0xbe6fc1b7	-0.2341374
191	0xbebd3505	-0.36954513
192	0xbcd1d809	-0.025615709
193	0xbd0c94fc	-0.03432177
194	0x3ca71ee6	0.020400476
195	0x3d0c571b	0.034262758
196	0xbd4dd63f	-0.05025315
197	0x3e907c84	0.28219998
198	0x3e83023b	0.2558764
199	0xbf4caf5e	-0.7995509
200	0x3ee2a9f0	0.44270277
201	0x3e060257	0.1308683
202	0x405e10ba	3.469771
203	0xbf1564ef	-0.5835714
204	0x3e75d37d	0.24006458
205	0xbe9c08fb	-0.30475602
206	0x3ea4c423	0.3218089
207	0xbd82bd86	-0.06383805
208	0x3e4bda10	0.19907403
209	0xbe6008b6	-0.21878323
210	0xbf58c47c	-0.8467481
211	0xc04e0a6c	-3.219386
212	0x3f5a1f30	0.8520384
213	0x3f266453	0.6499683
214	0x3f240713	0.64073294
215	0x3e8c06dd	0.27348986
216	0xbc14058d	-0.009034527
217	0xbc86aea7	-0.016440703
218	0x3be34786	0.0069360165
219	0xbcaeb5ef	-0.021326987
220	0xbd7c639f	-0.061618444
221	0xbf805270	-1.0025158
222	0x3fd82239	1.6885444
223	0xbd7244c9	-0.05914763
224	0xbcfebb02	-0.031095032
225	0xbc71a047	-0.014747686
226	0x3bcbf26e	0.006223968
227	0x3be2252d	0.0069014044
228	0x3c87316b	0.016503057
229	0xbe7f392c	-0.24924153
230	0x3dbb2ce4	0.091394216
231	0xbd72837d	-0.05920743
232	0xbb1fdb7a	-0.0024392293
233	0x3c847668	0.016169742
234	0xc066d9c9	-3.6070426
235	0x40653e84	3.5819407
236	0xbf43c28e	-0.7646874
237	0xbfb2ab4e	-1.3958528
238	0xbbcaa419	-0.0061841127
239	0xbf1c62b4	-0.6108811
240	0xbaa83dfa	-0.0012835853
241	0xbcff1ad8	-0.03114073
242	0x404831d3	3.128041
243	0xc042634b	-3.0373104
244	0xbdd93fa6	-0.10607843
245	0xbf89221e	-1.0713537
246	0x3d947af0	0.07250011
247	0xc007c37d	-2.1213067
248	0xbc553aa2	-0.013014467
249	0x3d2a41bd	0.0415666
250	0xc098f109	-4.779423
251	0x4088ca9c	4.2747326
252	0x3ea23d55	0.31687418
253	0x3f15b752	0.5848285
254	0x3e845cff	0.258522
255	0x3f2417d2	0.64098847

hh/upward/b f4 [256]
0	0xbfa1c2d0	-1.2637577
1	0x3f0832f4	0.5320275
2	0xbf3730cd	-0.7155884
3	0xbf858ed9	-1.0434219
4	0x3fb2d7a2	1.3972056
5	0x3e712aa7	0.23551427
6	0xbf35f049	-0.7106977
7	0x3fda7bca	1.7069027
8	0xbcd68b69	-0.026189523
9	0xbe194832	-0.14968947
10	0xbdfd0d72	-0.1235608
11	0x3f27e3a2	0.65581715
12	0x40062b11	2.0963786
13	0xbf92c015	-1.1464869
14	0x3f04350d	0.5164345
15	0xbf11327e	-0.5671767
16	0x3fbd2e99	1.4779845
17	0x3f847e3f	1.0351027
18	0x3ed54886	0.41656893
19	0x3fcf3c12	1.6190207
20	0xbf6acf9d	-0.9172304
21	0x3fd56c9d	1.6673771
22	0x3eed43d5	0.46340814
23	0xbf4c0dbc	-0.79708457
24	0xbc4a9a02	-0.01236582
25	0xbe75cc3d	-0.24003692
26	0xbde48360	-0.1115787
27	0x3f3e5b78	0.7435832
28	0xc0064678	-2.098051
29	0x3f2bec8d	0.6715782
30	0x3f0a8cd4	0.54121137
31	0xbf332a80	-0.69986725
32	0x3f935cb4	1.1512666
33	0xbf62ddaa	-0.8861948
34	0xbf2a431b	-0.66508645
35	0xbf9b0330	-1.2110348
36	0xc0511e52	-3.2674756
37	0x3fefa2b2	1.8721526
38	0x3fe4851a	1.7853119
39	0xbfbd25e6	-1.4777191
40	0x3f56fb4f	0.83977216
41	0x3f6d4f73	0.92699355
42	0xbf25365c	-0.6453607
43	0x3eafe4a5	0.3435413
44	0xbf62fada	-0.8866402
45	0x3f537415	0.82599
46	0x3d03ffd3	0.032226395
47	0xbfb3a1c9	-1.4033748
48	0x3eba530b	0.36391482
49	0x3eeb3b75	0.459438
50	0x3f7aa545	0.9790843
51	0xbeec58f3	-0.46161613
52	0x3e41b1a6	0.18915424
53	0x3ecec680	0.40385818
54	0x3e91bba9	0.28463486
55	0x3e387d7f	0.18016623
56	0x3f31513d	0.69264585
57	0x3fb54f8a	1.4164898
58	0xbfa80ad8	-1.3128309
59	0xbdc41ede	-0.095762
60	0x3fc65073	1.5493301
61	0xbfaf9871	-1.3718396
62	0x3f6597df	0.8968486
63	0x3f65884d	0.89661103
64	0xbfa06c51	-1.2533056
65	0x3fa41300	1.2818298
66	0x3e07349f	0.13203667
67	0x3eb6979b	0.3566254
68	0x3f36f8c8	0.7147336
69	0xbf81fece	-1.0155885
70	0x3fcb7653	1.5895485
71	0x3e73ae8e	0.23797056
72	0x3f7f374d	0.9969376
73	0xbe27a3b7	-0.16371046
74	0x3f528c29	0.8224512
75	0xbbdf98bc	-0.0068236273
76	0xbf7f1b9a	-0.9965149
77	0x40715f31	3.771435
78	0x40191368	2.3918095
79	0x3e60f0cf	0.21966861
80	0xc008924e	-2.1339297
81	0x402a3ac8	2.6598377
82	0x3f1d7bc0	0.6151695
83	0xbf4ae30b	-0.7925269
84	0xbeca1610	-0.39469957
85	0xbfa318c4	-1.2741933
86	0x3f64c3ef	0.8936147
87	0x3f2b764b	0.66977376
88	0xbee74d0a	-0.45175964
89	0xbe421c84	-0.1895619
90	0x3f69cfd5	0.9133275
91	0x3fe2d42f	1.7721003
92	0x3df07519	0.117410846
93	0xbff2eae0	-1.8977928
94	0xbecb4536	-0.3970124
95	0x3f4d6ec7	0.8024716
96	0xbf5524b1	-0.8325911
97	0x3f26cbde	0.65154827
98	0x3f9f1a4a	1.2429898
99	0x3ee7e6b9	0.45293215
100	0xc006d4a6	-2.106729
101	0x401b3f8a	2.425753
102	0x3ed5c9af	0.41755435
103	0xbedf3e8b	-0.43602404
104	0xbea0cb6f	-0.31405208
105	0xbe482ce2	-0.19548371
106	0xbdac7a2a	-0.084217384
107	0x3efd3f78	0.49462485
108	0x3f06c00f	0.5263681
109	0x3f106e3b	0.564182
110	0xbefb4664	-0.4907714
111	0x3f8cf237	1.1011418
112	0xbe7f310c	-0.24921054
113	0x3f1c15f6	0.6097101
114	0x3f01b325	0.5066398
115	0x3e91cf28	0.2847836
116	0xbfdc26dc	-1.7199359
117	0x3f578978	0.84194136
118	0x3ec8f449	0.39248875
119	0x3d567b79	0.052363846
120	0xbeec35fc	-0.46134937
121	0x3f90f663	1.1325191
122	0x3fa820b0	1.3134975
123	0xbd7040d7	-0.058655586
124	0xbf434026	-0.7626976
125	0x3fb5d8b1	1.4206754
126	0x3f00bd69	0.50289017
127	0x3ff0ed0c	1.8822341
128	0x3f97107b	1.1801904
129	0xbf31f359	-0.69511944
130	0xbe92c713	-0.28667507
131	0xbfff679b	-1.9953493
132	0xbf9d3ef2	-1.2284834
133	0x3f0684e9	0.52546555
134	0x3f29f7e8	0.663939
135	0xbea8b896	-0.32953328
136	0x3f9bfe5f	1.2187003
137	0xc016b58b	-2.3548305
138	0xbf174be1	-0.5910016
139	0x3d6d21f0	0.057893693
140	0xbf3b3e55	-0.73141986
141	0x3d9f3f04	0.07775691
142	0x3f597f78	0.84960127
143	0x3e8ea5ab	0.2786077
144	0x3e983464	0.2972747
145	0xbc0cc125	-0.008590971
146	0x3f1db21e	0.6159991
147	0x3f894ca6	1.0726516
148	0x3ea9a662	0.33134753
149	0xbe351843	-0.17685036
150	0xbe826ea6	-0.25475043
151	0x3f88faad	1.07015
152	0xbf57c6cb	-0.8428771
153	0x3d8e81a1	0.069583185
154	0x3dfd22b9	0.123601384
155	0xbe8618fc	-0.26190937
156	0x406b9149	3.6807425
157	0x3f952797	1.1652707
158	0x402814ec	2.626277
159	0xbdb070ad	-0.08615241
160	0x3fa119f5	1.2586046
161	0x3f3d345d	0.73908025
162	0x3eedb5a7	0.46427652
163	0x3f8cf875	1.1013323
164	0x3fd9572c	1.6979728
165	0x3c0de502	0.008660557
166	0xbf1f7907	-0.6229405
167	0xbe1e7471	-0.15474106
168	0x3dec9b64	0.11553076
169	0x40566d3e	3.3504176
170	0xbe1c5e44	-0.15270334
171	0x3e7a6c09	0.24455275
172	0x3e3bb815	0.1833194
173	0xbd2273cf	-0.039661225
174	0x3df3e65e	0.119091734
175	0x3f25f838	0.64831877
176	0xbecd1bc9	-0.4006026
177	0x3ecb0c5e	0.39657873
178	0x3ed55a64	0.41670525
179	0xbf411298	-0.75418997
180	0x4015a1c6	2.3379989
181	0x3ddcd94b	0.10783633
182	0xbee4a4fa	-0.44657117
183	0xbf6b728a	-0.9197165
184	0xbf7aaace	-0.9791688
185	0xbd1bfffe	-0.03808593
186	0xbf9583ec	-1.1680884
187	0xbf30cf3a	-0.690662
188	0xbfc0b8b7	-1.505637
189	0x3f338165	0.70119315
190	0x3f66b576	0.9012064
191	0x3ec25b29	0.37960175
192	0xbe39e211	-0.18152644
193	0x3fcff267	1.624585
194	0xbeb8ef3b	-0.36120018
195	0x3fa7e7bd	1.3117596
196	0x3e5aab08	0.21354306
197	0xbde2f4c0	-0.110818386
198	0xbd0425da	-0.03226266
199	0xbf5ee5e5	-0.8706954
200	0xbfda157e	-1.7037809
201	0xbb3ffbc0	-0.0029294342
202	0xbf69d4ac	-0.91340137
203	0xbfbc9561	-1.4733087
204	0x3f8b6ee4	1.0893216
205	0x403c0ef3	2.9384124
206	0x3e61831e	0.22022673
207	0x3e9c5108	0.30530572
208	0xbea9bae0	-0.33150387
209	0xbee0f552	-0.43937165
210	0xbfc1d66e	-1.5143564
211	0x3e72bfd1	0.23705985
212	0xbf89b510	-1.0758381
213	0x3f0c2fb7	0.5476031
214	0x3eb130b7	0.3460748
215	0x3e6c90d5	0.23102124
216	0xbf3ecd64	-0.7453215
217	0x40217a71	2.5230982
218	0x3fa40304	1.281342
219	0x3da6c77c	0.081435174
220	0xc0025a0a	-2.0367455
221	0x3dae1cd5	0.08501593
222	0xbef3eaaf	-0.47639987
223	0x3dddea5a	0.10835715
224	0x3fb0b92e	1.3806512
225	0x3fd2e16c	1.6475043
226	0x3eae2a8e	0.34016842
227	0x3d33545a	0.043781616
228	0xbfdff8d1	-1.7497808
229	0x3f59df5c	0.85106444
230	0xbf8361a1	-1.0264169
231	0xbf9c5494	-1.2213311
232	0x3f9b5993	1.2136711
233	0x3ffa0021	1.9531289
234	0x3f4ef3bf	0.8084068
235	0x3f87c649	1.0607387
236	0xc005ee96	-2.0926871
237	0x3de73194	0.11288753
238	0x3f674e40	0.90353775
239	0xbf0c67b1	-0.5484572
240	0x3fc677f4	1.5505357
241	0xc00533d6	-2.0812888
242	0xbefe0277	-0.49611256
243	0xbd968895	-0.0735027
244	0xbf443015	-0.7663587
245	0x3f16a754	0.5884907
246	0xbf38daaf	-0.72208685
247	0x3eedea04	0.46467602
248	0x3f777e1e	0.96676815
249	0xbe80f7a0	-0.25188923
250	0xbe8f50eb	-0.27991423
251	0x3ee103f9	0.43948343
252	0xbf8ae892	-1.0852225
253	0x4002f421	2.0461504
254	0xbf54e844	-0.8316691
255	0x3f594ad9	0.84879833

hh/upward/W f4 [256, 64]
0	0xbd14a93f	-0.03629422
1	0x3e10456d	0.14088984
2	0x3dcfc754	0.10145441
3	0x3dc4fd55	0.09618632
4	0xbb877c37	-0.0041346806
5	0x3fd74749	1.681863
6	0x3cce76a1	0.025203051
7	0xbc799e17	-0.015235445
8	0xbd1722af	-0.03689831
9	0xbb85b0cd	-0.004079914
10	0x3e2e6dcf	0.17034076
11	0x3ccd078e	0.025028016
12	0x3c3e937c	0.011631843
13	0x3d496d41	0.04917646
14	0x3d37e321	0.04489434
15	0xbdaa0161	-0.08301044
16	0xbb9d4a81	-0.0048001413
17	0x3d9efe4f	0.07763349
18	0x3d9d0ea1	0.07668806
19	0xbd785b2e	-0.06063383
20	0xbe419d3d	-0.18907638
21	0xbdb4943a	-0.088173345
22	0x3de0dfe9	0.109802075
23	0x3e197164	0.14984661
24	0xbe2d4f5a	-0.16924801
25	0x3f88a0cb	1.067407
26	0x3f033a0c	0.5126045
27	0x3d5efdb1	0.054441158
28	0x3e64e285	0.22352035
29	0xbe6ce1ed	-0.23133059
30	0x3e83aa94	0.25716078
31	0xbf494496	-0.7862028
32	0xbeaba774	-0.33526194
33	0xbdde492d	-0.10853801
34	0x3d66500f	0.056228694
35	0xbe502458	-0.20326364
36	0xbda52207	-0.08063131
37	0xbf4feae3	-0.81217784
38	0xbc9fa4d0	-0.019487768
39	0xbdc54247	-0.09631782
40	0x3e60cec9	0.21953882
41	0x3d7cbb2f	0.06170195
42	0xbd563ea4	-0.052305833
43	0xbc79373d	-0.015210924
44	0xbd9aa186	-0.075503394
45	0xbc2d4f4a	-0.010577986
46	0x3bdbc62c	0.0067069735
47	0xbfc3063c	-1.5236278
48	0x3f008003	0.5019533
49	0xbc3c9fc9	-0.011512705
50	0xbf2d9105	-0.6779941
51	0x3c415776	0.0118006375
52	0xbdc1f311	-0.09470189
53	0xbe1a4e46	-0.15068921
54	0x3d3961ca	0.045259275
55	0x3d034481	0.032047752
56	0xbd1301fa	-0.035890557
57	0x3cd1cd5c	0.025610618
58	0xbe94a643	-0.29033098
59	0x3e52aa52	0.20572785
60	0xbf58c026	-0.84668195
61	0x3f561c11	0.83636576
62	0x3d53264e	0.051550202
63	0xbc191dfb	-0.009345527
64	0x3deca2c5	0.11554483
65	0xbecb463f	-0.3970203
66	0xbd773e67	-0.060362246
67	0xbc082bbf	-0.008311211
68	0x3d590b92	0.05298955
69	0xbea530e7	-0.32263872
70	0x3dfebe11	0.12438596
71	0x3c53fd17	0.012938759
72	0xbd7bffa9	-0.061523113
73	0x3c67af51	0.01414092
74	0xbe11724f	-0.14203762
75	0x3e06f5e2	0.13179734
76	0x3b9875ae	0.0046527004
77	0x3ebcae90	0.3685193
78	0x3d352cdf	0.044232246
79	0xbe43653b	-0.19081585
80	0x3deeb9cf	0.11656534
81	0x3d4d83c2	0.050174482
82	0x3d9599ce	0.073047265
83	0x3d1da6ab	0.038489025
84	0xbc41993a	-0.011816317
85	0x3d4078a6	0.04699006
86	0x3c720c28	0.014773406
87	0x3e87cc37	0.2652299
88	0xbc27c16e	-0.010238988
89	0xbeae2f4d	-0.34020463
90	0xbd97db1a	-0.07414837
91	0x3e2c1eba	0.16808596
92	0x3db08fac	0.08621153
93	0xbebf021a	-0.3730629
94	0xbd8fc409	-0.070198126
95	0x3ea7b919	0.32758406
96	0x3df5eec6	0.12008433
97	0x3df6b0ad	0.12045417
98	0x3dfe73c0	0.12424421
99	0xbf8953f2	-1.0728743
100	0xbd02813c	-0.03186153
101	0x3eb39782	0.3507653
102	0xbd1cf4e8	-0.0383195
103	0x3e5a52a5	0.21320589
104	0x3d9c7813	0.0764009
105	0x3e2b9158	0.16754663
106	0x3dcf77e5	0.1013029
107	0x3f809e52	1.0048316
108	0x3cb86573	0.022509312
109	0xbdf99905	-0.12187389
110	0x3e9d6aba	0.30745488
111	0x3eb2347f	0.34805676
112	0xbe9310b7	-0.2872369
113	0xbe4f5f67	-0.20251237
114	0xbe8ac14e	-0.27100605
115	0xbe1e57d3	-0.1546319
116	0xbf14eaed	-0.5817097
117	0x3f6a0847	0.9141888
118	0x3e1ac70a	0.1511499
119	0xbe26c73b	-0.16286938
120	0x3d8af2f5	0.067846216
121	0x3d83ead5	0.06441275
122	0x3eb76dac	0.3582586
123	0xbe8dfe8a	-0.2773326
124	0xbe506b2c	-0.20353383
125	0xbef18b82	-0.4717675
126	0xbe07e0d1	-0.13269354
127	0xbd2598d1	-0.04042894
128	0x3da0dca0	0.07854581
129	0xbf42c1c9	-0.7607694
130	0x3e7aa2a5	0.24476106
131	0xbdf3ba07	-0.11900716
132	0xbf70a62c	-0.9400356
133	0x3f26483f	0.6495399
134	0x3d5636d9	0.0522984
135	0x3dad05e3	0.084483884
136	0x3e8cacfa	0.2747572
137	0xbd4af023	-0.04954542
138	0x3f03a609	0.51425225
139	0x3eac7272	0.33681065
140	0xbcf8f034	-0.030387975
141	0xbcddca56	-0.02707402
142	0xbe84b062	-0.2591582
143	0xbdc1b93f	-0.09459161
144	0x3e179c35	0.14805682
145	0xbdb12226	-0.086490914
146	0xbcaf19c6	-0.021374594
147	0x3c291392	0.010319607
148	0x3ee655f6	0.44987458
149	0x3bbc90f3	0.005754584
150	0x3ec981ab	0.3935674
151	0x3fc1406f	1.5097789
152	0x3de29da0	0.11065221
153	0xbff4c96e	-1.9123971
154	0x3fb0e12d	1.3818718
155	0x3ea0d4f7	0.3141248
156	0x3e0caba1	0.13737346
157	0xbebe9697	-0.37224266
158	0xbfbeb7a1	-1.4899789
159	0x3fb82be4	1.4388394
160	0x3f95f7b9	1.1716224
161	0x3e3acafb	0.18241493
162	0x3e53c479	0.20680417
163	0xbff5c226	-1.9199874
164	0xbec087f4	-0.37603724
165	0x3f748793	0.9551937
166	0x3dd4c94b	0.10389956
167	0xbe3aa0c3	-0.18225388
168	0x3eb43d53	0.35203037
169	0xbdbd47d4	-0.09242216
170	0xbec09ac9	-0.37618092
171	0x3f5c69a4	0.86098695
172	0x3dad498b	0.08461293
173	0xbe867473	-0.2626072
174	0x3fabd66c	1.3424811
175	0xbf999535	-1.1998659
176	0xbf332a9a	-0.6998688
177	0xbdc8ad15	-0.09798638
178	0x3e4eed2d	0.20207663
179	0xbb2a3dd5	-0.0025976796
180	0xbf461c07	-0.77386516
181	0x40292f5a	2.643515
182	0x3e82aa80	0.25520706
183	0x3e6c4922	0.23074773
184	0x3cf7b572	0.030237887
185	0xbdc37211	-0.09543241
186	0x3fc283b7	1.5196446
187	0xbf044090	-0.51661015
188	0xbd74b5ae	-0.059743576
189	0xbecec22c	-0.40382516
190	0x3c0902fa	0.008362526
191	0xbb1f7530	-0.0024331324
192	0xbe1bfae5	-0.15232427
193	0x400e7076	2.225614
194	0xbe1b06a5	-0.15139253
195	0xbdefea97	-0.11714666
196	0x3f145279	0.57938343
197	0xbea2e82c	-0.31817758
198	0x3da093e2	0.078407064
199	0x3d8f6e09	0.070034094
200	0xbe3dcdfa	-0.18535605
201	0x3e5bfbba	0.21482745
202	0x3e627e5e	0.22118518
203	0xbdea1082	-0.1142893
204	0x3dd74ff4	0.10513297
205	0x3e6f6dcf	0.23381732
206	0xbd4e839f	-0.050418492
207	0x3eb3777b	0.35052094
208	0x3d3126c6	0.043249868
209	0xbe313de7	-0.1730877
210	0x3e5cfdfc	0.21581262
211	0x3d68cc93	0.056835722
212	0xbe089eb3	-0.13341789
213	0xbe8e306c	-0.27771318
214	0xbcbe11c0	-0.023201823
215	0xbfd0253f	-1.6261367
216	0xbb8052c4	-0.0039161164
217	0xc04b569b	-3.177161
218	0x3f9bed64	1.2181821
219	0xbbb34e0b	-0.00547195
220	0xbe112def	-0.14177679
221	0x407473f1	3.8195765
222	0xc01019fc	-2.251586
223	0x40aa5ddd	5.323958
224	0x402fbf62	2.746056
225	0xbdbfe8a7	-0.09370547
226	0x3d6b16b0	0.057394683
227	0x4062ef6f	3.5458639
228	0xbde53346	-0.1119142
229	0xbd428c56	-0.047497116
230	0xbee27ca7	-0.44235727
231	0xbe977a05	-0.2958528
232	0xbfd7b75c	-1.6852832
233	0x3e2f24a7	0.17103826
234	0xbe491de1	-0.19640304
235	0xc03a9b6e	-2.9157367
236	0x3dbb489a	0.09144707
237	0xbd54476c	-0.051825926
238	0xbf0610b4	-0.52369237
239	0xbeba64e7	-0.36405107
240	0x3dc863bd	0.097846486
241	0x3d65ebae	0.056132965
242	0xbf3dafbf	-0.7409629
243	0x3ecff8c6	0.40619487
244	0x40117a5e	2.2730937
245	0xbf1651b4	-0.5871842
246	0xbde804b5	-0.11329023
247	0xbe92d97a	-0.28681546
248	0xbefc156c	-0.49235094
249	0xbdbfccb7	-0.09365218
250	0x3fd8062d	1.6876885
251	0x3f556324	0.833544
252	0xbe38b787	-0.1803876
253	0x3fe37776	1.7770832
254	0xbe03199c	-0.12802738
255	0x3e9bd562	0.30436236

hh/lateral/W f4 [256, 64]
0	0x3eeca30c	0.46218145
1	0xbffef45f	-1.9918326
2	0x403ea570	2.9788475
3	0xc0d0c898	-6.5244865
4	0x3fd3ebdf	1.6556357
5	0x3fb55e64	1.4169431
6	0xbf1ea17f	-0.61965173
7	0xbfc21fea	-1.5165989
8	0xbf999474	-1.1998429
9	0x3eaa890c	0.33307683
10	0xbe7fe894	-0.24991065
11	0xbfd72cdb	-1.6810564
12	0xbf874682	-1.0568392
13	0x3fcd6727	1.6047105
14	0xc01c35cd	-2.4407837
15	0xbf42d6da	-0.7610909
16	0xbf4ad641	-0.79233176
17	0x401ad402	2.41919
18	0xc0051837	-2.079603
19	0xbf37b501	-0.71760565
20	0x3fae3d05	1.3612372
21	0x402638de	2.597221
22	0xbf78e01d	-0.9721697
23	0x3f30d0a2	0.6906835
24	0xbf3a4f65	-0.72777396
25	0x4069b9fb	3.6519763
26	0x3f80cd53	1.006266
27	0xbf387134	-0.72047734
28	0xbca70915	-0.020390073
29	0x3f45129e	0.7698153
30	0xbfafb56f	-1.3727244
31	0xbf979e1f	-1.184513
32	0x3f8cab84	1.0989842
33	0xbf9e0b14	-1.2347131
34	0xbf0e09b4	-0.55483556
35	0xbe775dac	-0.24156827
36	0x3fa2def2	1.2724288
37	0x3f194218	0.59866476
38	0xbfb318db	-1.399196
39	0xbf856fc5	-1.0424734
40	0xbef6b07b	-0.4818152
41	0x3b922786	0.004460278
42	0xbf8965c9	-1.0734187
43	0x3fa2e712	1.2726767
44	0xbffc0b38	-1.9690924
45	0x3eb3a9b8	0.35090423
46	0xc0fecb29	-7.9623
47	0x3e19eaf5	0.15031035
48	0xbf02bd08	-0.5106969
49	0xbf3c5114	-0.73561215
50	0xbec15de9	-0.3776696
51	0xbeec1507	-0.46109793
52	0xbf14c287	-0.58109325
53	0x3d97ef2b	0.074186645
54	0xbfc60638	-1.5470648
55	0x401297aa	2.2905068
56	0x3eb610a0	0.3555956
57	0x3fe16638	1.760932
58	0xbe492ff7	-0.19647203
59	0x3ffe4188	1.9863749
60	0x40b13c4e	5.5386114
61	0xc05b1d70	-3.4236717
62	0x3eba6871	0.36407807
63	0x40112096	2.267614
64	0x3e133228	0.14374602
65	0x406b165e	3.6732402
66	0xc0908308	-4.515995
67	0x3ffead87	1.9896706
68	0x3dfafbc2	0.1225505
69	0xbfe05f71	-1.7529126
70	0xbec317f6	-0.38104218
71	0xbf2fe78e	-0.687127
72	0x403b5682	2.927155
73	0xbe3f88cd	-0.18704529
74	0x408a478c	4.3212337
75	0xbeabd418	-0.33560252
76	0xbfe8f606	-1.820008
77	0x4085058f	4.1569285
78	0x3fbeacd9	1.4896499
79	0xbf7aa4de	-0.9790782
80	0x400ec9f9	2.2310774
81	0x3f1c473f	0.6104621
82	0xbf84e633	-1.0382751
83	0x4002d207	2.044069
84	0x3ffdebca	1.9837582
85	0xc050e357	-3.2638757
86	0x3d4c105f	0.0498203
87	0xbf555627	-0.83334583
88	0x3dcff825	0.10154752
89	0x401fd1f5	2.4971898
90	0x3ff53e35	1.9159609
91	0x3f3e92d0	0.7444277
92	0xbfa0a637	-1.2550725
93	0xc02de45b	-2.7170627
94	0x3eaa1d7a	0.33225614
95	0x3f6db839	0.92859226
96	0x3d272298	0.040804476
97	0xc06b01bc	-3.6719809
98	0x3fdfe9b8	1.74932
99	0x3fbfe094	1.4990411
100	0xc085320b	-4.1623588
101	0x3e3e70a8	0.18597662
102	0x4018d2ed	2.387874
103	0x401432ae	2.3155932
104	0xbf3ced42	-0.73799527
105	0xbf361a85	-0.71134216
106	0xbfa0f0f8	-1.2573538
107	0xbf1bb75d	-0.60826665
108	0xbfcd6238	-1.6045599
109	0xc0bddb59	-5.933026
110	0x3fb9f4e2	1.4527857
111	0x3ca63ed4	0.02029363
112	0x3e499dc6	0.19689092
113	0xbf5b374c	-0.8563125
114	0xc05ab936	-3.4175544
115	0xbe748b0c	-0.23881167
116	0xbf57a0fd	-0.84230024
117	0xbe480ea5	-0.19536836
118	0x4084f905	4.155398
119	0x405e3c4d	3.4724305
120	0xbed75423	-0.4205638
121	0xbfc59c42	-1.5438311
122	0xbd059f7b	-0.032622796
123	0xbfeacb76	-1.8343341
124	0x403457a1	2.8178484
125	0xbfa8115d	-1.3130299
126	0xbf32cf07	-0.6984715
127	0xbeb6779c	-0.3563813
128	0x3f34ac78	0.70575666
129	0x40a601ea	5.1877337
130	0xbfbb920f	-1.4653949
131	0x3ffab66c	1.9586921
132	0x40513618	3.2689266
133	0x404362d5	3.0529072
134	0x3fbdaef2	1.4819014
135	0xc026161f	-2.5951002
136	0xbf45985b	-0.771856
137	0x40315a6c	2.771144
138	0x3fedc98e	1.8577135
139	0x400d6eca	2.209887
140	0xbff0927a	-1.8794701
141	0xc08dbc26	-4.4292173
142	0xbfab51b4	-1.3384309
143	0x40102709	2.2523825
144	0x408de3e5	4.434069
145	0x404cd73b	3.2006366
146	0xc09ad02f	-4.837913
147	0x3f3a647a	0.72809565
148	0x3e21962f	0.15779947
149	0xbed96244	-0.42457783
150	0x3fe8f07b	1.8198389
151	0xbe427293	-0.18989019
152	0xbedd06b2	-0.4316917
153	0x40227eff	2.5390012
154	0x3f87a1b2	1.059622
155	0x3e6b8380	0.22999382
156	0x3eddbabe	0.43306535
157	0x4029c07f	2.652374
158	0x401338f9	2.3003523
159	0x3ed4bca5	0.41550174
160	0x3eb69644	0.3566152
161	0xbfaf8ef8	-1.3715506
162	0xbeb79f5e	-0.35863775
163	0x3f9eb197	1.2397946
164	0x3f62ba18	0.88565207
165	0xbf9f838f	-1.2462023
166	0xbd7db756	-0.06194242
167	0xbf415877	-0.7552561
168	0xbe97438d	-0.29543725
169	0x3f1eac6f	0.6198186
170	0x40584f0d	3.3798249
171	0xc0461f4c	-3.0956602
172	0xc05ecbef	-3.481197
173	0xbf07df60	-0.5307522
174	0x3f7704df	0.9649181
175	0x3f52498f	0.8214349
176	0xbf81db52	-1.0145056
177	0x3f83fd24	1.0311627
178	0x3fcda8a2	1.6067088
179	0xbf831ecc	-1.0243773
180	0x3f1a8f58	0.60374975
181	0xbe49b24f	-0.19696926
182	0xc061900e	-3.5244174
183	0xbec1d0d9	-0.3785465
184	0xbf0096b2	-0.5022994
185	0xc090e10d	-4.527472
186	0x40b19adc	5.5501537
187	0xbf25b2bf	-0.6472587
188	0xbece584a	-0.40301734
189	0x40638753	3.5551345
190	0xbeb7cbda	-0.35897714
191	0xbfbf345c	-1.4937854
192	0xc01dd5e9	-2.466181
193	0x400c6570	2.1936913
194	0xbf5ea6f5	-0.86973506
195	0xc0497bc6	-3.1481795
196	0x3f5e79be	0.86904514
197	0xbf80fb97	-1.0076779
198	0xbec4110e	-0.38294262
199	0x3fafde6f	1.3739756
200	0x3fa916cc	1.3210082
201	0xbf41e9a5	-0.7574714
202	0x3ec278ad	0.37982693
203	0xbfcbac5e	-1.5911977
204	0xc03a2872	-2.9087186
205	0x406a2fc4	3.6591654
206	0xc0341e0e	-2.8143344
207	0x3f6858f1	0.90760714
208	0x4038499b	2.8794925
209	0xc05b9615	-3.4310353
210	0xbf8d259d	-1.1027104
211	0xbddef4f7	-0.10886567
212	0xbea98610	-0.33110094
213	0xc0567bec	-3.3513136
214	0x3f58c536	0.8467592
215	0xc0a92f96	-5.287059
216	0x3fb6920b	1.4263319
217	0xc0463613	-3.0970504
218	0xbf32c96b	-0.6983859
219	0xbf19f022	-0.6013204
220	0x3eabe28b	0.33571276
221	0x3fffde9f	1.9989814
222	0xbf9a953e	-1.2076795
223	0x3fde371e	1.736057
224	0x404a09af	3.156841
225	0x3f817ff1	1.011717
226	0x3fdf7825	1.745854
227	0xbfa8f95a	-1.3201096
228	0x3f2d14fd	0.6761015
229	0xc03df59a	-2.9681153
230	0xc04e38b9	-3.222212
231	0x3f19e24a	0.60110915
232	0xc015030b	-2.3283107
233	0x3fe1ce70	1.7641125
234	0x3e6bb0eb	0.23016708
235	0xc06d2a20	-3.705696
236	0xbffede49	-1.9911586
237	0xbfbb5e19	-1.4638091
238	0xc00ffbd7	-2.249746
239	0xc0077cfd	-2.1170037
240	0x3fcd7b6b	1.6053289
241	0xc05ea839	-3.4790175
242	0xc0069dd8	-2.103384
243	0x3f8c5bba	1.0965493
244	0x40498667	3.1488283
245	0x3f9364b8	1.1515112
246	0xbe5ea45f	-0.2174239
247	0xbe909bd5	-0.2824389
248	0x3d972d93	0.073817395
249	0x403a0620	2.9066238
250	0xbdc88f4f	-0.09792959
251	0xbc3d1c43	-0.011542383
252	0xbfca8650	-1.5822239
253	0xc099fcd1	-4.8121114
254	0x3f9cdb31	1.2254392
255	0x3f434dec	0.76290774
