code/python/slip_model/8_64_1_5_10_4950_410_use_train_slip_model.npz (npz, 127412 bytes, 6 tensors)

hy/W f4 [1, 64]
-0.24834353 0.113223694 0.1996588 0.21891336 0.20031959 0.21315607 0.28828773 -0.19407228
-0.32811695 -0.24087071 0.16516516 0.2794541 0.25686485 0.19506209 0.32684043 0.17807265
-0.12851769 0.1384588 0.24585947 -0.26296708 -0.18160503 0.23199229 -0.13045552 -0.0052714385
-0.13853465 -0.041715935 0.18355666 0.074519545 -0.20645088 0.089572646 0.21568899 0.08007334
-0.11730823 -0.044352148 -0.21919411 -0.3745767 0.36858964 0.25615507 0.17724748 0.31413078
0.18294455 0.2807025 0.16440858 0.21854928 -0.029978806 0.20605384 0.46145508 0.058060642
-0.13461645 0.33689308 -0.16640952 0.07217196 -0.26518962 -0.22266728 -0.24028282 -0.2643362
0.25736457 -0.23900232 -0.063947745 0.104986794 0.16183679 0.1416747 -0.13728249 -0.16273537
00000000: c44d 7ebe d3e1 e73d 5b73 4c3e d32a 603e
00000010: 9420 4d3e 9645 5a3e 739a 933e e2ba 46be
00000020: f2fe a7be d0a6 76be 0e21 293e 9c14 8f3e
00000030: ca83 833e 5bbe 473e a157 a73e ad58 363e
00000040: 249a 03be 25c8 0d3e 96c2 7b3e 9fa3 86be
00000050: abf6 39be 638f 6d3e 2296 05be 08bc acbb
00000060: 07dc 0dbe 54de 2abd 47f6 3b3e b49d 983d
00000070: dc67 53be dd71 b73d 93dd 5c3e 7efd a33d
00000080: 4c3f f0bd 99aa 35bd 6c74 60be 84c8 bfbe
00000090: c8b7 bc3e c226 833e 5d80 353e c0d5 a03e
000000a0: d155 3b3e 3db8 8f3e b95a 283e 62cb 5f3e
000000b0: 1d96 f5bc c7ff 523e d743 ec3e ffd0 6d3d
000000c0: e5d8 09be 407d ac3e 4267 2abe e4ce 933d
000000d0: efc6 87be e402 64be b30c 76be 1357 87be
000000e0: 4ac5 833e 06bd 74be 09f7 82bd 5103 d73d
000000f0: 8bb8 253e 2c13 113e c893 0cbe 1aa4 26be

xh/b f4 [64]
0.22311847 0.56492287 -0.26916876 -1.0087633 -0.24853362 -0.50203806 0.17047116 -0.3930744
-0.27610275 0.38922232 -0.23303494 0.3853194 0.7603816 -0.1315534 -0.39077163 -0.042518567
-0.7445475 -1.2873838 0.270017 0.16060133 0.23018806 1.0198492 -0.014824651 0.023046814
-0.15770063 -0.3817718 -0.18290827 0.19842733 -0.12269217 -1.1103045 -1.2427005 0.654415
0.18189256 -0.16317894 -0.23998666 -2.4428768 -0.95382774 0.60619456 0.22653821 0.021814672
-0.51742864 -0.53084683 0.26637134 1.8980303 -0.006371764 0.07297277 0.30539408 0.81978333
-0.06664418 0.23715517 0.7874326 -0.22483443 -1.6535287 2.3559046 0.4124112 1.4966913
-0.037969165 -0.2585569 1.6571361 0.2347553 0.31637096 0.079324946 -0.6384286 -0.14903101
00000000: 2b79 643e c99e 103f 7dd0 89be 281f 81bf
00000010: 997f 7ebe 9185 00bf fe8f 2e3e 0c41 c9be
00000020: 575d 8dbe 2648 c73e b6a0 6ebe 9648 c53e
00000030: 5ea8 423f efb5 06be 3813 c8be f327 2ebd
00000040: aa9a 3ebf fec8 a4bf ab3f 8a3e ad74 243e
00000050: 6bb6 6b3e 6b8a 823f 18e3 72bc accc bc3c
00000060: 467c 21be 9877 c3be 4e4c 3bbe 8930 4b3e
00000070: 0846 fbbd 751e 8ebf cf10 9fbf be87 273f
00000080: 0b42 3a3e 6118 27be 10bf 75be 1858 1cc0
00000090: 0e2e 74bf 912f 1b3f a2f9 673e afb4 b23c
000000a0: 3476 04bf 94e5 07bf d361 883e a8f2 f23f
000000b0: 3bca d0bb bf72 953d 9d5c 9c3e 52dd 513f
000000c0: be7c 88bd ced8 723e 2f95 493f ff3a 66be
000000d0: d4a6 d3bf 24c7 1640 9027 d33e 9593 bf3f
000000e0: 8e85 1bbd 9261 84be 091d d43f b263 703e
000000f0: 60fb a13e 1e75 a23d 0f70 23bf 969b 18be

xh/W f4 [64, 8]
0.0019305014 -0.0005127039 -0.057393644 -0.0043218676 0.8859118 -0.9350551 0.7327783 -0.18310668
-0.52407604 2.2066307 -0.21129505 -0.029101089 -0.05295973 -0.10190072 -0.05126065 -0.2563331
0.012454474 -0.018177897 0.048347875 0.017079728 0.40404788 -0.32837376 0.256099 -0.95417243
-0.0012360235 -0.01040875 -0.020698102 -0.08448425 0.81465745 0.28885812 -1.9283453 -1.8823069
1.6260891 0.7835773 -1.7835727 -2.0095966 -0.057278257 0.2645973 0.33046937 0.09039873
1.257338 0.03082628 1.0976008 -0.7709019 1.5486057 1.467199 1.2195183 1.6743509
0.015352378 -0.0013343212 0.03978914 0.019501276 0.013530714 -0.75283694 0.50635004 0.5439133
0.012357483 -0.007950221 -0.0052793487 -0.02283973 0.022870092 -1.7188305 0.5362802 0.11530172
0.0063554784 -0.018381735 0.024155391 -0.00869413 0.3029064 -0.20823492 -0.24508949 -0.54769325
0.014833494 0.016437002 0.009522355 -0.009498767 -0.24332203 -0.30566353 0.43039963 1.1307712
0.017825607 0.002205361 0.028105175 -0.013644272 0.11885054 -0.6869125 0.09745935 -0.22312339
-0.0025891834 0.034999665 -0.028793184 0.07393138 0.9212993 -0.21437933 0.87712973 -0.64208305
0.00013891296 0.012054932 0.36448863 -0.32069886 -1.1271905 0.17136659 1.3360838 1.5974545
0.022271074 -0.006915483 0.012723961 0.005910171 -0.119102165 -1.5372269 1.3185953 -0.06913343
0.0071988916 0.0041017924 0.0054849484 -0.01439146 -0.30069748 0.20849368 -0.29490265 -0.56720036
0.01101107 -0.012579887 -0.02368872 -0.022397265 -0.19407436 0.25955203 -0.26953176 -0.034057803
-0.01388404 -0.019180726 -0.01382397 -0.04663762 -0.072484076 -0.88004637 -0.15478519 -0.7359241
0.002820443 -0.019864982 -0.20853934 0.11679326 0.19932078 0.51066387 -1.9897038 -2.097477
-0.019342069 0.013448487 0.00417367 0.04836626 -0.476653 0.1854861 0.6782646 0.41610122
0.009160021 -0.009047035 -0.020143451 -0.011119614 0.31283855 -0.41635808 0.4578631 -0.06747126
5.7899742e-06 -0.0030290263 -0.054476336 0.10319293 0.025829136 -0.34947628 0.7045665 0.26292887
-0.002379325 0.008465575 -0.053803306 0.123278685 1.2217733 2.0256648 -0.39804596 -0.33701986
0.0074922713 0.0069434396 -0.014596747 0.016190814 -0.3368533 1.3514817 -1.0913146 -0.0438939
-0.01778417 -0.14774498 1.539814 -2.1051426 0.12284246 0.69523084 -0.23692252 -0.36335966
0.0140798725 -0.004248424 -0.015029767 -0.018073957 -0.0853559 0.246572 0.2172899 -0.8423561
0.44731438 0.14992937 3.4738388 -0.630406 0.23687333 -0.31069502 0.32374355 -0.066093616
0.21907859 -0.22733018 -0.802602 -3.193351 0.83375037 0.6302892 0.6246491 0.25684166
0.002614605 0.010040306 -0.00867369 0.009266966 -0.07224782 -1.0354985 1.6970882 -0.07325637
0.005817232 0.012109462 -0.001056154 -0.027008258 -0.0052787806 -0.27794796 0.06459529 -0.09149317
0.012641333 0.011370108 -3.636587 3.622707 -0.777165 -1.4296303 -0.020982934 -0.6360062
0.007021882 -0.048320193 3.1466603 -3.053687 -0.11079979 -1.091001 0.06705497 -2.1467524
-0.024816781 0.06120912 -4.8147182 4.347576 0.33438736 0.59969693 0.27289277 0.65782076
00000000: e108 fd3a fa66 06ba 9915 6bbd 749e 8dbb
00000010: 1ecb 623f c55f 6fbf 5c97 3b3f 5180 3bbe
00000020: d929 06bf 7039 0d40 bb5d 58be 6865 eebc
00000030: 4dec 58bd 53b1 d0bd b0f6 51bd 183e 83be
00000040: da0d 4c3c d0e9 94bc 6c08 463d c9ea 8b3c
00000050: 5ddf ce3e 9b20 a8be 681f 833e a544 74bf
00000060: 1102 a2ba 7689 2abc 118f a9bc 1406 adbd
00000070: 648d 503f 36e5 933e 05d4 f6bf 6fef f0bf
00000080: b023 d03f 8698 483f 1c4c e4bf 3b9d 00c0
00000090: 9b9c 6abd 4c79 873e 4833 a93e f822 b93d
000000a0: 74f0 a03f 6587 fc3c 2f7e 8c3f d459 45bf
000000b0: b638 c63f 2dcd bb3f 2d19 9c3f 2151 d63f
000000c0: 8a88 7b3c 64e4 aeba f0f9 223d 24c1 9f3c
000000d0: eeaf 5d3c ecb9 40bf 28a0 013f e73d 0b3f
000000e0: 0a77 4a3c a541 02bc 63fe acbb 631a bbbc
000000f0: 0f5a bb3c a302 dcbf a949 093f 4f23 ec3d
00000100: 9e41 d03b 4b95 96bc 87e1 c53c d371 0ebc
00000110: 8c16 9b3e 893b 55be bdf8 7abe a035 0cbf
00000120: 2f08 733c e4a6 863c a703 1c3c b7a0 1bbc
00000130: 6929 79be ee7f 9cbe 575d dc3e 1cbd 903f
00000140: 0207 923c d187 103b d33c e63c 3a8c 5fbc
00000150: e967 f33d 7fd9 2fbf c598 c73d 757a 64be
00000160: 4aaf 29bb cf5b 0f3d afdf ebbc 5669 973d
00000170: 45da 6b3f 4186 5bbe 938b 603f 8e5f 24bf
00000180: 2aa9 1139 0d82 453c 419e ba3e a432 a4be
00000190: c747 90bf b97a 2f3e cb04 ab3f 6479 cc3f
000001a0: d471 b63c 479b e2bb 2978 503c 1caa c13b
000001b0: d6eb f3bd dac3 c4bf bbc7 a83f d495 8dbd
000001c0: aee4 eb3b 5468 863b 15bb b33b 29ca 6bbc
000001d0: 05f5 99be 5e7f 553e 7bfd 96be 0b34 11bf
000001e0: c667 343c df1b 4ebc d90e c2bc 787a b7bc
000001f0: 6ebb 46be 01e4 843e 1100 8abe 3280 0bbd
00000200: e279 63bc e620 9dbc ef7d 62bc 1707 3fbd
00000210: 8872 94bd b84a 61bf 0280 1ebe 8665 3cbf
00000220: 2ed7 383b e3bb a2bc 568b 55be 4e31 ef3d
00000230: bf1a 4c3e deba 023f 9dae febf 103d 06c0
00000240: 4273 9ebc 0b57 5c3c 48c3 883b b31b 463d
00000250: dd0b f4be 11f0 3d3e c0a2 2d3f 380b d53e
00000260: ea13 163c 043a 14bc e103 a5bc 0b2f 36bc
00000270: 602c a03e e32c d5be 086d ea3e 5f2e 8abd
00000280: 8047 c236 a182 46bb 9422 5fbd d156 d33d
00000290: a097 d33c 8eee b2be 785e 343f 9d9e 863e
000002a0: 73ee 1bbb 32b3 0a3c db60 5cbd 8979 fc3d
000002b0: 1163 9c3f 7ea4 0140 aecc cbbe de8d acbe
000002c0: ba81 f53b cb85 e33b 3227 6fbc 99a2 843c
000002d0: 0978 acbe 5afd ac3f 32b0 8bbf 17ca 33bd
000002e0: 1cb0 91bc 764a 17be a018 c53f a8ba 06c0
000002f0: d494 fb3d a6fa 313f d19b 72be 470a babe
00000300: 44af 663c 5d36 8bbb 693f 76bc d60f 94bc
00000310: 13cf aebd 5f7d 7c3e 3e81 5e3e a6a4 57bf
00000320: 6406 e53e 1687 193e 6053 5e40 4a62 21bf
00000330: ec8e 723e 6b13 9fbe b7c1 a53e 175c 87bd
00000340: 2356 603e 3ec9 68be 5377 4dbf dd5f 4cc0
00000350: aa70 553f a25a 213f 01e9 1f3f c080 833e
00000360: cb59 2b3b 1880 243c 181c 0ebc 79d4 173c
00000370: aaf6 93bd 378b 84bf 303a d93f 7007 96bd
00000380: 7b9e be3b c466 463c a66e 8aba 6c40 ddbc
00000390: 9ff9 acbb 324f 8ebe 894a 843d c560 bbbd
000003a0: 981d 4f3c b149 3a3c d7bd 68c0 6eda 6740
000003b0: 49f4 46bf 20fe b6bf 67e4 abbc 4dd1 22bf
000003c0: d117 e63b 65eb 45bd e262 4940 9c6f 43c0
000003d0: 00eb e2bd eca5 8bbf 1e54 893d 6464 09c0
000003e0: 904c cbbc 6ab6 7a3d 2c12 9ac0 581f 8b40
000003f0: d234 ab3e bd85 193f 9ab8 8b3e f166 283f

hh/upward/b f4 [256]
-1.2903469 0.5517713 -0.7794751 -1.0488172 1.4254316 0.22657236 -0.75447756 1.7025901
-0.03223222 -0.1660881 -0.14269572 0.70908016 2.1341414 -1.1729991 0.5401323 -0.5633667
1.474462 1.0610062 0.40568572 1.6434716 -0.95291066 1.6722229 0.4272945 -0.78382003
-0.05405732 -0.23924729 -0.122082375 0.71272737 -2.2058952 0.656146 0.46440092 -0.70488775
1.1676676 -0.9073132 -0.6671976 -1.2179213 -3.3390687 1.9001237 1.7002753 -1.5067606
0.86345893 0.9426947 -0.6426887 0.31615573 -0.9052738 0.85234153 0.035356265 -1.45282
0.3463859 0.42049664 0.92823666 -0.50724584 0.22103235 0.39110336 0.24592757 0.1610238
0.68593425 1.448413 -1.402044 -0.093970984 1.5507966 -1.3353072 0.8627667 0.92559755
-1.3039863 1.2596962 0.12232292 0.3900992 0.66740066 -0.95525646 1.6190237 0.16913459
1.0177174 -0.13387766 0.7386801 -0.028834729 -1.0311356 3.8003924 2.465234 0.25497225
-2.10434 2.6673849 0.55524176 -0.77817756 -0.4365694 -1.2928802 0.8663166 0.6701016
-0.44121462 -0.21226168 0.89932287 1.8498755 0.122982465 -1.9471179 -0.51437145 0.82550824
-0.83649814 0.60793185 1.2930955 0.4066197 -2.1240814 2.399544 0.46279517 -0.44436395
-0.2974917 -0.23320845 -0.11853447 0.46536678 0.5603395 0.57476676 -0.491202 1.1439255
-0.27540162 0.5842069 0.45958173 0.26671064 -1.726781 0.81594485 0.36529803 0.06950496
-0.4747232 1.1162992 1.3125175 -0.06345748 -0.82157683 1.4140215 0.45211557 1.9165288
1.2369014 -0.78209335 -0.30117008 -1.9930638 -1.2699986 0.54662126 0.7082419 -0.29310864
1.2086085 -2.4147918 -0.64017457 0.04417531 -0.7450948 0.06672085 0.89098406 0.2853984
0.26167056 0.011147905 0.6319204 1.1691515 0.34372285 -0.16071822 -0.35249004 1.1019783
-0.82378274 0.15335025 0.11747953 -0.26945603 3.7074537 1.1618347 2.6708903 -0.089642815
1.2643656 0.7881491 0.51035815 1.0946704 1.6987844 -0.006756033 -0.6341651 -0.12735093
0.12576994 3.3916671 -0.17462416 0.2025817 0.20163807 -0.048366915 0.08163489 0.6399306
-0.4573029 0.37302077 0.40791032 -0.7621156 2.3272994 0.11127016 -0.46553254 -0.95516354
-1.0055361 -0.029845668 -1.241409 -0.7163833 -1.5446826 0.7097448 0.88237 0.35594368
-0.1904731 1.6255121 -0.32792866 1.3453391 0.2146598 -0.13767788 -0.046727106 -0.92675555
-1.7686847 0.009962778 -0.92786115 -1.4673455 1.1032578 2.9370046 0.19546188 0.34867376
-0.37311083 -0.47352523 -1.5564135 0.2883368 -1.1076585 0.57450235 0.35781476 0.2465211
-0.78736323 2.5769296 1.2983825 0.06749 -2.070714 0.042385094 -0.5312482 0.09365998
1.3801225 1.6879016 0.34661785 0.028075889 -1.7538698 0.8535978 -1.0813353 -1.2603439
1.2645453 1.9631686 0.81147313 1.068249 -2.1326003 0.17126408 0.826941 -0.54491895
1.5250695 -2.105427 -0.5578387 -0.053053457 -0.73130345 0.6582571 -0.71490383 0.3802443
0.950243 -0.2490423 -0.2868827 0.41747838 -1.1174617 2.0991085 -0.8677632 0.86114234
00000000: 162a a5bf e240 0d3f ae8b 47bf a43f 86bf
00000010: 8b74 b63f 9602 683e 7125 41bf 79ee d93f
00000020: ef05 04bd 0013 2abe d41e 12be 4786 353f
00000030: c695 0840 d624 96bf 1c46 0a3f cd38 10bf
00000040: 2cbb bc3f 0dcf 873f 0ab6 cf3e 475d d23f
00000050: f4f1 73bf 660b d63f 58c6 da3e 6ea8 48bf
00000060: 356b 5dbd 3efd 74be 5306 fabd 4d75 363f
00000070: 632d 0dc0 2ff9 273f f5c5 ed3e 8673 34bf
00000080: 2276 953f ae45 68bf 76cd 2abf d8e4 9bbf
00000090: 4db3 55c0 4137 f33f 9fa2 d93f 88dd c0bf
000000a0: a50b 5d3f 7154 713f 3f87 24bf 2adf a13e
000000b0: 06c0 67bf 0e33 5a3f bbd1 103d 01f6 b9bf
000000c0: 7e59 b13e 564b d73e eba0 6d3f ddda 01bf
000000d0: 4e56 623e b33e c83e 70d4 7b3e 6ce3 243e
000000e0: 6399 2f3f 9965 b93f 2e76 b3bf dc73 c0bd
000000f0: 8180 c63f 59eb aabf 47de 5c3f f6f3 6c3f
00000100: 06e9 a6bf ba3d a13f 7084 fa3d 15bb c73e
00000110: c5da 2a3f b08b 74bf 2b3c cf3f 9e31 2d3e
00000120: 9044 823f 3a17 09be 241a 3d3f cf36 ecbc
00000130: 40fc 83bf a139 7340 65c6 1d40 b98b 823e
00000140: 82ad 06c0 6fb6 2a40 5324 0e3f a536 47bf
00000150: 0686 dfbe 197d a5bf edc6 5d3f c78b 2b3f
00000160: e2e6 e1be 205b 59be 063a 663f b8c8 ec3f
00000170: 3bde fb3d 293b f9bf d9ad 03bf 8254 533f
00000180: be24 56bf 6ca1 1b3f 2784 a53f 7530 d03e
00000190: f3f0 07c0 2192 1940 7df3 ec3e ac83 e3be
000001a0: d550 98be 32ce 6ebe 33c2 f2bd 8e44 ee3e
000001b0: 6972 0f3f ea23 133f d47e fbbe 276c 923f
000001c0: 7101 8dbe 958e 153f 4c4e eb3e 4c8e 883e
000001d0: 2907 ddbf c3e1 503f 5808 bb3e 9e58 8e3d
000001e0: eb0e f3be e4e2 8e3f 9300 a83f fff5 81bd
000001f0: dc52 52bf a8fe b43f b17b e73e d150 f53f
00000200: c952 9e3f 4537 48bf f732 9abe b71c ffbf
00000210: 508f a2bf 5fef 0b3f 574f 353f 5612 96be
00000220: afb3 9a3f f38b 1ac0 7be2 23bf 2bf1 343d
00000230: 88be 3ebf f1a4 883d 8817 643f bd1f 923e
00000240: aff9 853e b4a5 363c 89c5 213f c2a6 953f
00000250: 71fc af3e 5193 24be 9379 b4be a00d 8d3f
00000260: 6de3 52bf d907 1d3e 1c99 f03d 24f6 89be
00000270: ec46 6d40 00b7 943f deef 2a40 a796 b7bd
00000280: bbd6 a13f 24c4 493f d5a6 023f 291e 8c3f
00000290: c471 d93f b661 ddbb a558 22bf 4868 02be
000002a0: d6c9 003e 1311 5940 add0 32be 9471 4f3e
000002b0: 367a 4e3e 631c 46bd 3130 a73d 7ed2 233f
000002c0: 9b23 eabe 94fc be3e 9fd9 d03e 021a 43bf
000002d0: 79f2 1440 9ce1 e33d 485a eebe 9985 74bf
000002e0: 68b5 80bf e77e f4bc 7de6 9ebf e564 37bf
000002f0: 29b8 c5bf d6b1 353f 00e3 613f 403e b63e
00000300: 610b 43be c810 d03f 44e6 a7be 1234 ac3f
00000310: c7cf 5b3e 6efb 0cbe ec64 3fbd da3f 6dbf
00000320: 4364 e2bf eb3a 233c 4f88 6dbf fad1 bbbf
00000330: 8d37 8d3f e2f7 3b40 2927 483e 5e85 b23e
00000340: 6208 bfbe e671 f2be 8f38 c7bf e2a0 933e
00000350: c1c7 8dbf 9612 133f 7f33 b73e 0770 7c3e
00000360: a390 49bf 6aec 2440 6631 a63f 3238 8a3d
00000370: 9486 04c0 fe9b 2d3d e2ff 07bf ced0 bf3d
00000380: dba7 b03f 290d d83f e577 b13e 68ff e53c
00000390: ce7e e0bf 6385 5a3f 3269 8abf f352 a1bf
000003a0: 9fdc a13f 1c49 fb3f b4bc 4f3f 62bc 883f
000003b0: 867c 08c0 da5f 2f3e 68b2 533f cf7f 0bbf
000003c0: 7a35 c33f 51bf 06c0 84ce 0ebf 954e 59bd
000003d0: b436 3bbf 8a83 283f f003 37bf 62af c23e
000003e0: 2043 733f f204 7fbe 4ae2 92be babf d53e
000003f0: fc08 8fbf cb57 0640 bb25 5ebf d373 5c3f

hh/upward/W f4 [256, 64]
-0.04200938 0.14995717 0.023607735 0.14083192 -0.0048673158 1.7162229 0.14251876 -0.021998676
-0.08743571 0.06517054 0.001659624 0.10210315 -0.04232533 0.063286774 -0.009204002 0.045848977
-0.08270137 0.115517974 -0.011700881 0.041860916 -0.17100029 -0.011587449 0.13260403 0.18244621
-0.052283365 1.1008184 0.5139153 -0.09303222 0.11868609 -0.31008092 0.32331535 -0.8522988
-0.34225604 0.0056752427 -0.0632441 -0.21625194 0.0072599794 -0.82548237 0.10657734 -0.06016718
0.23121807 0.03464194 -0.14172907 0.06593671 0.0014527669 -0.010453749 -0.13882855 -1.5416313
0.5212524 -0.052021656 -0.6934019 0.12717596 -0.1481133 -0.17625634 0.04057653 -0.01578293
0.017810594 -0.042125665 -0.35243186 0.18330482 -0.87094086 0.84606093 0.1471223 0.0058192452
0.014169117 -0.39342108 -0.13925472 -0.0344407 0.051601622 -0.34832376 0.078444004 -0.053877566
0.09221027 -0.12935553 -0.09615192 0.0053875353 0.04820249 0.008687229 -0.014309388 -0.01619604
-0.13619252 -0.040068228 0.08714937 -0.16738115 0.00941992 -0.010924581 0.01719489 0.31321037
0.070210345 -0.3285354 -0.09228748 -0.037394546 -0.08696786 -0.4495985 -0.0046752314 0.20215926
0.09276141 0.018983824 -0.16711915 -1.1536143 -0.092897564 0.35804924 -0.13551104 -0.12436065
0.042888988 -0.027545914 -0.041599974 1.0501463 0.12853745 0.048704013 0.30068743 0.36311978
-0.31111452 -0.009717822 -0.254016 0.16999114 -0.65353763 0.8594768 0.03809358 -0.002567974
0.18979464 0.15603402 0.28728193 -0.19289258 -0.18879867 -0.46747196 -0.038399234 0.037684243
0.17821658 -0.7642556 -0.042132705 -0.33238944 -0.98020107 0.6231173 -0.2163987 0.033867143
0.10765272 -0.22101316 0.31137094 0.21226609 -0.127921 0.00046941964 -0.29288998 -0.19593781
0.045051135 -0.12968305 0.07156517 0.25477502 0.5091357 0.13455799 0.43045378 1.4505119
-0.01913767 -1.9319878 1.3793547 0.35512495 0.08909029 -0.39452022 -1.5667784 1.4346753
1.1747329 0.113882065 0.11951432 -1.9635432 -0.5409328 0.99631065 0.081627995 0.035372805
0.2974906 -0.3156772 -0.4653832 0.88845915 0.19687481 -0.23796642 1.3451107 -1.1932513
-0.73597354 0.18839008 0.23431215 -0.14087713 -0.77400404 2.7936888 0.10240834 0.41250008
-0.06864241 0.038934696 1.6349218 -0.3376067 -0.033157047 -0.39273384 -0.14991896 -0.10368598
-0.105431594 2.2339342 -0.15563667 -0.058093756 0.57993895 -0.31310987 0.2883836 0.27148607
0.11694391 0.141303 0.1086999 0.0783551 0.11896785 0.2613256 0.15865369 0.010598705
-0.024734974 -0.17550525 0.23357962 0.17490993 -0.04799848 -0.4333438 -0.021189699 -1.6942383
0.06730427 -3.1695755 1.191954 0.38954094 -0.11209579 3.9062605 -2.3469427 5.424413
2.743827 0.036753703 -0.013909102 3.5475078 -0.21032934 -0.05452788 -0.4173228 -0.17928018
-1.6785718 -0.13025396 0.030859053 -2.9452438 0.26108375 0.01384578 -0.5299015 -0.3744365
0.112377115 0.08767839 -0.73903286 -0.071559615 2.3373504 -0.4518368 0.01034376 -0.3265567
-0.5490754 -0.09299156 1.7892313 0.5143241 -0.16955318 1.8029532 -0.007310763 0.41703314
00000000: 0712 2cbd 5f8e 193e 0265 c13c 3e36 103e
00000010: 017e 9fbb 31ad db3f 70f0 113e 9136 b4bc
00000020: 7e11 b3bd 2278 853d be87 d93a 751b d13d
00000030: 535d 2dbd 7f9c 813d 62cc 16bc 23cc 3b3d
00000040: 565f a9bd b094 ec3d 0db5 3fbc 5a76 2b3d
00000050: b31a 2fbe 49d9 3dbc 5ac9 073e 2ed3 3a3e
00000060: 1527 56bd 9ee7 8c3f f48f 033f ad87 bebd
00000070: b111 f33d edc2 9ebe 9789 a53e 4130 5abf
00000080: 2f3c afbe 63f7 b93b 1f86 81bd 2671 5dbe
00000090: 1fe5 ed3b d052 53bf 3845 da3d dc71 76bd
000000a0: 6ec4 6c3e b5e4 0d3d 6d21 11be d309 873d
000000b0: c56a be3a 3446 2bbc 1229 0ebe 2d54 c5bf
000000c0: cc70 053f a914 55bd c982 31bf 6a3a 023e
000000d0: 03ab 17be 8b7c 34be 9333 263d 344b 81bc
000000e0: 86e7 913c f68b 2cbd f371 b4be 42b4 3b3e
000000f0: fbf5 5ebf 7397 583f 3aa7 163e 5eaf be3b
00000100: 9625 683c 7d6e c9be ca98 0ebe b111 0dbd
00000110: 395c 533d 7e57 b2be 40a7 a03d b9ae 5cbd
00000120: bdd8 bc3d c775 04be 4ceb c4bd ec89 b03b
00000130: f96f 453d e154 0e3c ec71 6abc 8fad 84bc
00000140: 0d76 0bbe 951e 24bd 5e7b b23d f765 2bbe
00000150: 0256 1a3c 04fd 32bc 4cdc 8c3c 1c5d a03e
00000160: 71ca 8f3d cb35 a8be 3801 bdbd 062b 19bd
00000170: 351c b2bd c631 e6be af32 99bb d602 4f3e
00000180: b2f9 bd3d f783 9b3c 4821 2bbe a2a9 93bf
00000190: 1441 bebd 3b52 b73e 68c3 0abe ccb0 febd
000001a0: 5dac 2f3d f8a7 e1bc bc64 2abd 326b 863f
000001b0: 529f 033e dc7d 473d b4f3 993e d6ea b93e
000001c0: 674a 9fbe 8037 1fbc 630e 82be 2812 2e3e
000001d0: 3e4e 27bf ac06 5c3f 0408 1c3d 744b 28bb
000001e0: 8759 423e 62c7 1f3e 9e16 933e a285 45be
000001f0: 7054 41be 7c58 efbe 8448 1dbd cb5a 1a3d
00000200: 687e 363e 41a6 43bf 5893 2cbd f32e aabe
00000210: 75ee 7abf 9e84 1f3f 9f97 5dbe 46b8 0a3d
00000220: 0779 dc3d 4651 62be 036c 9f3e 485c 593e
00000230: b9fd 02be 701c f639 adf5 95be eca3 48be
00000240: 8a87 383d a2cb 04be c390 923d df71 823e
00000250: b856 023f 92c9 093e 7064 dc3e 60aa b93f
00000260: 9ac6 9cbc 604b f7bf b28e b03f f0d2 b53e
00000270: f874 b63d 8efe c9be 328c c8bf 71a3 b73f
00000280: a65d 963f 003b e93d ecc3 f43d 6255 fbbf
00000290: 927a 0abf 370e 7f3f 942c a73d 13e3 103d
000002a0: b050 983e 71a0 a1be b546 eebe 0f72 633f
000002b0: 8d99 493e 78ad 73be 962c ac3f 75bc 98bf
000002c0: c368 3cbf 54e9 403e 86ef 6f3e 1842 10be
000002d0: 2125 46bf cccb 3240 77bb d13d 3633 d33e
000002e0: 6494 8cbd fd79 1f3d 1e45 d13f c9da acbe
000002f0: afcf 07bd 6914 c9be 5b84 19be 5159 d4bd
00000300: 85ec d7bd c7f8 0e40 385f 1fbe b8f3 6dbd
00000310: e176 143f f04f a0be 04a7 933e 3900 8b3e
00000320: 4a80 ef3d bcb1 103e 0e9e de3d a378 a03d
00000330: 6ba5 f33d 78cc 853e 1d76 223e 31a6 2d3c
00000340: 00a1 cabc a6b7 33be 7f2f 6f3e 971b 333e
00000350: 0e9a 44bd 3ddf ddbe 0596 adbc cddc d8bf
00000360: d2d6 893d 53da 4ac0 f391 983f e971 c73e
00000370: 7a92 e5bd 2c00 7a40 4f34 16c0 cb94 ad40
00000380: dd9a 2f40 0d8b 163d 01e3 63bc 5e0a 6340
00000390: 9360 57be a058 5fbd 56ab d5be 3995 37be
000003a0: 71db d6bf 4b61 05be 20cc fc3c e07e 3cc0
000003b0: c5ac 853e 69d9 623c a0a7 07bf 24b6 bfbe
000003c0: f925 e63d ba90 b33d 4231 3dbf d98d 92bd
000003d0: 2697 1540 2757 e7be e078 293c 7132 a7be
000003e0: 3590 0cbf 5c72 bebd 8805 e53f bfaa 033f
000003f0: 599f 2dbe 2cc7 e63f 208f efbb 5e85 d53e

hh/lateral/W f4 [256, 64]
0.5211852 -1.9730885 3.1825495 -6.7417517 1.7010734 1.4282494 -0.76649326 -1.4771439
-1.2179999 0.39892966 -0.26070493 -1.6407939 -1.1562487 1.7683742 -2.3595324 -0.7322035
-0.8527208 2.3602443 -2.0571437 -0.743992 1.3653733 2.6472325 -1.0081376 0.72000206
-0.7460155 3.6106756 0.9279214 -0.8224156 0.0005743889 0.76117164 -1.3450117 -1.1385674
1.1561021 -1.2398356 -0.56168187 -0.32633686 1.2638814 0.5987218 -1.5405694 -1.0353562
-0.41784176 0.07080517 -1.0112673 1.2513884 -1.9891863 0.13282031 -8.060016 0.10375863
-0.44277033 -0.6384423 -0.35555005 -0.5102142 -0.55835253 0.089660704 -1.3144001 2.2572165
0.43617988 1.706895 -0.15830176 1.9397881 5.5738597 -3.5112824 0.28378332 2.3085191
0.06477719 3.7071264 -4.671242 1.8273993 0.105831295 -1.8247129 -0.50182605 -0.7951767
2.7936316 -0.3160351 4.3440685 -0.27832156 -1.9871007 4.192221 1.290828 -0.97592515
2.1460445 0.59806275 -0.86278737 2.174572 1.8035507 -3.2726302 0.0031450097 -0.82690424
0.13747872 2.3887625 1.7626796 0.6443041 -1.2914028 -2.7410564 0.32989106 0.9986511
0.23409013 -3.638947 1.7091267 1.4964095 -4.1562815 0.17490771 2.4076853 2.4296257
-0.625181 -0.8323114 -1.4000256 -0.5297279 -1.7526714 -6.0893993 1.4514997 -0.020054262
0.27955523 -0.82180303 -3.317739 -0.14843304 -0.88282627 -0.14316742 4.0847454 3.5331676
-0.35820335 -1.5407448 -0.15802014 -1.8724437 2.7871277 -1.3230686 -0.7606259 -0.40029055
0.59678453 5.3239503 -1.5467137 1.8965375 3.3013816 3.1852758 1.8000324 -2.7717617
-0.8295701 2.8290455 2.0474408 2.2029157 -1.9310461 -4.6448283 -1.5677942 2.2535603
4.399754 3.230432 -5.154167 0.63063496 0.27307144 -0.34002435 1.7668096 -0.039879
-0.6163192 2.6013262 1.0353014 -0.017301306 0.47335806 2.4558272 2.2565851 0.47240952
0.44390875 -1.4731579 -0.37837556 0.96501875 0.9590275 -1.3286113 -0.08821875 -0.67119145
-0.37130824 0.72500426 3.1654003 -3.1453812 -3.3526511 -0.53831327 0.94088393 0.8797866
-1.1377982 1.0455917 1.4003749 -0.9473398 0.5060583 -0.23586245 -3.5244427 -0.3839145
-0.5037066 -4.662733 5.611344 -0.8034892 -0.39804232 3.5267115 -0.31666696 -1.4311293
-2.505393 1.9526621 -0.94936514 -3.1524367 0.96037716 -0.9358523 -0.43717647 1.4094349
1.5028675 -0.74117255 0.38523555 -1.5440941 -2.8974924 3.6574771 -2.7437432 0.9713177
2.879494 -3.4528506 -1.3579183 -0.14812957 -0.58195746 -3.3338356 0.8865292 -5.209106
1.49818 -3.3088708 -0.72301394 -0.50055623 0.26755998 1.9564698 -1.2364445 1.7766452
3.1951342 1.0101317 1.7308813 -1.4057236 0.90871024 -3.23463 -3.068593 0.67252177
-2.3656304 1.8025002 0.24277712 -3.7968707 -1.9854171 -1.726901 -2.1948378 -1.9543692
1.536226 -3.3930318 -2.1345766 1.1644543 3.2022762 1.0764107 -0.33754346 -0.29442674
-0.023650222 2.7399619 -0.10943465 -0.14906937 -1.5953393 -4.77668 1.30664 0.8220962
00000000: 656c 053f 2a8e fcbf e4ae 4b40 6ebc d7c0
00000010: c6bc d93f e0d0 b63f e738 44bf 0d13 bdbf
00000020: 6ce7 9bbf 8240 cc3e 1e7b 85be 8905 d2bf
00000030: f5ff 93bf 165a e23f 9402 17c0 b071 3bbf
00000040: e94b 5abf 3e0e 1740 3ea8 03c0 4276 3ebf
00000050: 8dc4 ae3f 426c 2940 a70a 81bf 0e52 383f
00000060: dffa 3ebf 4f15 6740 428c 6d3f d489 52bf
00000070: 9692 163a 25dc 423f 5829 acbf 94bc 91bf
00000080: 27fb 933f efb2 9ebf 62ca 0fbf a015 a7be
00000090: dec6 a13f d545 193f 6131 c5bf 8d86 84bf
000000a0: 5bef d5be 4d02 913d 3571 81bf 7f2d a03f
000000b0: a89d febf 0c02 083e d3f5 00c1 687f d43d
000000c0: cbb2 e2be f470 23bf a80a b6be 669d 02bf
000000d0: 31f0 0ebf 08a0 b73d 433e a8bf 3c76 1040
000000e0: f852 df3e 897b da3f db19 22be fa4a f83f
000000f0: 0f5d b240 dab8 60c0 0c4c 913e c7be 1340
00000100: e7a9 843d 8f41 6d40 d17a 95c0 38e8 e93f
00000110: 14be d83d 3190 e9bf ac77 00bf b390 4bbf
00000120: dcca 3240 5acf a1be 9c02 8b40 2a80 8ebe
00000130: 5159 febf ad26 8640 da39 a53f 3bd6 79bf
00000140: cb58 0940 a41a 193f a2df 5cbf 302c 0b40
00000150: c0da e63f c672 51c0 821c 4e3b ffaf 53bf
00000160: 39c7 0c3e 7ce1 1840 7c9f e13f 1df1 243f
00000170: b04c a5bf 786d 2fc0 7be7 a83e 99a7 7f3f
00000180: 53b5 6f3e 82e4 68c0 aac4 da3f 598a bf3f
00000190: 4200 85c0 021b 333e 8417 1a40 fd7e 1b40
000001a0: dd0b 20bf 5c12 55bf 0a34 b3bf 3f9c 07bf
000001b0: 8957 e0bf 5cdc c2c0 beca b93f d648 a4bc
000001c0: dd21 8f3e af61 52bf d655 54c0 d5fe 17be
000001d0: e700 62bf 7b9a 12be 3cb6 8240 6b1f 6240
000001e0: 6e66 b7be 2037 c5bf 08d0 21be 3cac efbf
000001f0: 4d60 3240 505a a9bf 61b8 42bf e2f2 ccbe
00000200: dfc6 183f cd5d aa40 b7fa c5bf bec1 f23f
00000210: d649 5340 8fdb 4b40 7667 e63f 8b64 31c0
00000220: b55e 54bf 150f 3540 4509 0340 92fc 0c40
00000230: 852c f7bf 6fa2 94c0 7bad c8bf 553a 1040
00000240: c9ca 8c40 66bf 4e40 f0ee a4c0 4b71 213f
00000250: 05d0 8b3e ac17 aebe d126 e23f 2a58 23bd
00000260: 18c7 1dbf 217c 2640 c284 843f 78bb 8dbc
00000270: fd5b f23e 462c 1d40 e46b 1040 a9df f13e
00000280: 0248 e33e 7090 bcbf 71ba c1be 780b 773f
00000290: d482 753f ef0f aabf 08ac b4bd 34d3 2bbf
000002a0: 1d1c bebe e199 393f eb95 4a40 ed4d 49c0
000002b0: d691 56c0 e6ce 09bf c5dd 703f b239 613f
000002c0: 5fa3 91bf f3d5 853f 7c3f b33f dc84 72bf
000002d0: 098d 013f ed85 71be 7890 61c0 7190 c4be
000002e0: eaf2 00bf 1c35 95c0 2190 b340 78b1 4dbf
000002f0: 34cc cbbe a4b5 6140 2c22 a2be 3f2f b7bf
00000300: 5c58 20c0 d5f0 f93f 9809 73bf 86c1 49c0
00000310: 47db 753f 0494 6fbf 98d5 dfbe 5d68 b43f
00000320: f65d c03f 7cbd 3dbf 983d c53e e0a4 c5bf
00000330: 8470 39c0 1b14 6a40 7d99 2fc0 47a8 783f
00000340: a149 3840 81fb 5cc0 44d0 adbf 47af 17be
00000350: 2afb 14bf 905d 55c0 94f3 623f ffb0 a6c0
00000360: 5dc4 bf3f 8ac4 53c0 7117 39bf 7424 00bf
00000370: 9ffd 883e 9a6d fa3f d043 9ebf 1c69 e33f
00000380: 147d 4c40 ff4b 813f 858d dd3f c0ee b3bf
00000390: 3ca1 683f 2e04 4fc0 d463 44c0 632a 2c3f
000003a0: 7d66 17c0 54b8 e63f 919a 783e eeff 72c0
000003b0: 2622 febf 180b ddbf 3978 0cc0 c528 fabf
000003c0: 0ea3 c43f 6f27 59c0 e79c 08c0 d70c 953f
000003d0: 18f2 4c40 d3c7 893f 7fd2 acbe 1abf 96be
000003e0: 1cbe c1bc 895b 2f40 461f e0bd a4a5 18be
000003f0: 1434 ccbf 90da 98c0 fb3f a73f e674 523f
