code/python/slip_model/8_64_1_5_10_4950_720_use_train_slip_model.npz (npz, 127529 bytes, 6 tensors)

hy/W f4 [1, 64]
000000 0a b5 84 be 6a c0 ef 3d 2a 55 68 3e 73 02 77 3e
       -0.25919372 0.11706622 0.22688738 0.24122028
000010 0e b1 3a 3e 78 cb 56 3e a3 53 8c 3e 28 6b 49 be
       0.18231604 0.20976055 0.2740756 -0.19669783
000020 b5 37 99 be 9b 07 80 be 51 31 22 3e 87 e9 9d 3e
       -0.29925314 -0.25005803 0.15839125 0.3084223
000030 84 69 74 3e ef 45 4e 3e 35 91 b3 3e 85 b8 35 3e
       0.23868376 0.20143865 0.35071722 0.1774617
000040 ea 45 2f be 43 0c 05 3e 09 d8 68 3e a1 1a 8c be
       -0.17116514 0.12992959 0.22738661 -0.27364066
000050 17 29 36 be d1 1b 64 3e 9b a7 0e be 9a 18 3e bc
       -0.17789112 0.22276236 -0.13931124 -0.011602545
000060 28 c1 0b be 06 0f 4b bd 6d 16 45 3e a7 34 a6 3d
       -0.13647902 -0.049574874 0.19246836 0.081155114
000070 a0 1b 5e be 6c a7 9e 3d 99 57 47 3e 16 d1 95 3d
       -0.21690226 0.07746777 0.1946701 0.073152706
000080 f5 e4 a4 bd 30 b8 89 bd 19 4d 74 be 9c b0 b8 be
       -0.080514826 -0.06724584 -0.23857535 -0.36072242
000090 3a 6a c9 3e c7 9e 74 3e 2e 88 3f 3e 9f 5e a2 3e
       0.39338857 0.23888694 0.18704292 0.31712815
0000a0 71 2a 4b 3e 0e a1 85 3e 4b 2e 27 3e 0f 1d 69 3e
       0.19840409 0.26099437 0.16326253 0.22764991
0000b0 8b ff 8d bd 09 20 4c 3e 2c 2e ec 3e 3f da 83 3d
       -0.069335066 0.19934095 0.46128976 0.064381115
0000c0 93 7d fe bd d8 a6 a3 3e 96 14 20 be 97 a8 b4 3d
       -0.12426295 0.3196323 -0.15632853 0.088212185
0000d0 a7 30 90 be 99 64 52 be cd 15 72 be e0 d3 80 be
       -0.2816212 -0.20546187 -0.23641129 -0.25161648
0000e0 ce d2 7f 3e fe fc 82 be 20 c4 83 bd 2c ec dd 3d
       0.2498276 -0.25583643 -0.06433892 0.10836062
0000f0 f4 35 39 3e aa 44 0f 3e 0b 28 06 be 8f d7 12 be
       0.18086988 0.13991037 -0.13101213 -0.14340042

xh/b f4 [64]
000000 5d 66 2d 3e 9d ea 1e 3f 3d 4b fd bd 36 91 31 bf
       0.1693358 0.6207674 -0.12367866 -0.693622
000010 98 3c dd be f7 10 d5 be 9a c5 cd 3d ff 0f 52 be
       -0.43210292 -0.41614506 0.10047455 -0.20513915
000020 b7 e6 f9 bd c5 06 55 3e de 7c 00 be 9d ee 57 3e
       -0.122022085 0.20803364 -0.12547633 0.21087117
000030 17 b8 df 3e 4d b1 ee bc 35 bf 58 be e9 51 ab bc
       0.43695137 -0.029137278 -0.2116669 -0.020913081
000040 ff 97 b1 be 38 10 76 bf 7b ab 16 3e c8 94 a1 3d
       -0.34686276 -0.961185 0.14713852 0.07889706
000050 b0 49 02 3e 01 a0 2f 3f b9 75 3e bd 8f a4 0b 3c
       0.12723422 0.6860352 -0.046498988 0.008523121
000060 63 dd f1 bd ce 99 a7 be 26 24 6d bd a9 e3 14 3e
       -0.11809804 -0.3273453 -0.057895802 0.1453997
000070 db b4 64 bd 86 b4 bb bf 69 90 ca bf d0 4c 54 3f
       -0.05583654 -1.4664466 -1.582532 0.82929707
000080 64 75 cc 3d 66 2d 46 bd ed 72 f6 bd 36 32 45 c0
       0.09983328 -0.04838314 -0.12033639 -3.0811896
000090 35 91 0a bf 61 9b 88 3e db 22 c0 3d 1c 70 d8 bc
       -0.5412782 0.26681045 0.09381648 -0.026420645
0000a0 e6 a6 d9 be 96 23 8b be cb ab 79 3e f7 93 1b 40
       -0.42510146 -0.27175587 0.2438194 2.430906
0000b0 dd a3 54 bb c3 8c 7a 3c 54 7e 35 3e 1d fe 60 3f
       -0.0032446303 0.015292349 0.17723972 0.87887746
0000c0 51 4b 3d 3e 04 23 08 3e c4 2b 76 3f ba e9 0a be
       0.18485762 0.13294607 0.9616053 -0.13565722
0000d0 c5 4f 07 c0 69 d6 3e 40 1e 08 55 3e 61 22 95 3f
       -2.1142437 2.9818366 0.20803878 1.1651117
0000e0 2c a4 0f bd c9 66 ec bd 46 8c 07 40 6d 51 e4 3d
       -0.035068676 -0.11543042 2.1179366 0.11148343
0000f0 da 72 90 be d6 9d 0a 3d 9e 87 bd be 1e ce 96 bd
       -0.28212625 0.03384193 -0.3701753 -0.073635325

xh/W f4 [64, 8]
000000 cd 53 48 3c 9a 2c d6 bc a2 91 00 bd 5e e3 8a 3c
       0.012227011 -0.026144315 -0.031388886 0.01695412
000010 a7 7d 8e 3f 95 df b5 bf 7a 48 8a 3f 45 46 cc be
       1.1132096 -1.4208857 1.0803368 -0.3989736
000020 3d 3e 0f bf d3 88 07 40 47 88 1a bf 6a 0f 5e be
       -0.55954343 2.117726 -0.6036419 -0.21685567
000030 18 ff b2 bd 9e 47 b4 bd 5a e2 80 bd 04 a6 9b be
       -0.087400615 -0.088027224 -0.06293173 -0.30400097
000040 a1 c7 81 bc ea 0e f5 3b b3 56 aa b9 d6 5e a8 bb
       -0.01584226 0.0074785845 -0.00032489523 -0.0051382584
000050 11 a6 53 3f 3b de c7 be a1 0f fb 3e 0c f9 97 bf
       0.8267527 -0.39036736 0.4903536 -1.1872878
000060 fb 36 9f 3c fc 80 46 3c 6f 11 0f bd 94 0a 1a 3d
       0.019435396 0.012115713 -0.034928735 0.037607744
000070 44 a5 dd 3f 97 f1 83 3f bf fb 10 c0 f9 d8 14 c0
       1.731606 1.0308102 -2.2653654 -2.325743
000080 f0 4d 0b 40 71 1a 02 3f 31 38 dc bf 0b 31 0d c0
       2.176632 0.50821596 -1.7204648 -2.2061183
000090 46 1d 97 3e 1a 94 fd 3e c1 70 5b 3f df 76 f8 3e
       0.2951452 0.49527055 0.85718924 0.4852819
0000a0 4b cc ac 3f 61 5a ae bc 7f 60 9b 3f 32 c9 84 bf
       1.3499845 -0.02128333 1.2138823 -1.03739
0000b0 10 b5 d0 3f 58 a3 cb 3f a1 2a b2 3f 51 98 f2 3f
       1.6305256 1.5909224 1.3919259 1.8952733
0000c0 5f 36 ed ba 0a 9d 03 3c 22 91 15 3d 1b b8 21 bc
       -0.0018097869 0.0080330465 0.036515363 -0.009870554
0000d0 87 f6 f8 bd 87 a2 86 bf 2a d5 43 3f da 80 2e 3f
       -0.12156396 -1.051835 0.7649714 0.6816536
0000e0 fa 72 27 ba d1 de 76 bc b8 c9 25 3c 76 53 f6 bc
       -0.0006387677 -0.015067772 0.010118894 -0.030069094
0000f0 02 49 3f 3e 6b e3 04 c0 7d 66 8c 3f be de 9c 3e
       0.18680194 -2.0763805 1.0968777 0.3063869
000100 4e 8d 0a 3b 75 73 0d 3b d8 2d 41 bd 28 d9 89 bc
       0.0021141353 0.002158371 -0.04716286 -0.016827181
000110 c6 64 16 3f 13 78 f1 bd 17 9e 3d be 22 ca 22 bf
       0.5874752 -0.117904805 -0.18517338 -0.6358968
000120 dc 69 4f bc d1 10 72 ba 86 32 28 3d ed bc 13 bd
       -0.012659516 -0.0009234073 0.041063808 -0.036068846
000130 31 cb 27 bf ee e4 16 bf 37 55 00 3f 1a 49 aa 3f
       -0.6554442 -0.5894307 0.5013003 1.3303559
000140 10 ca b6 bb 77 f7 95 bc de 08 32 bc 13 9c 00 bc
       -0.005578287 -0.018306477 -0.010866372 -0.007849711
000150 e3 bf bf 3e 01 fb 3f bf 2e d8 aa 3e 5c 12 59 be
       0.37451085 -0.74992377 0.33368057 -0.2119841
000160 66 a1 4a 3b a5 6c 0e 3d 55 a6 20 bd 77 c8 48 3d
       0.0030918955 0.03477158 -0.039221127 0.049019303
000170 df 62 9b 3f e9 a7 1d bf b1 4e 81 3f 65 97 87 bf
       1.2139548 -0.61584336 1.010214 -1.0593077
000180 8d fb 7e 3b ac a4 c3 bc bd f0 1b 3d 2e 10 0a bd
       0.003890726 -0.023882233 0.038071383 -0.033706836
000190 c1 0d 03 c0 41 f5 86 be 22 15 b3 3f 23 06 fd 3f
       -2.0477145 -0.2635899 1.3990824 1.9767498
0001a0 a1 3e 40 bc 7b 54 31 bc 4a 20 9b 3c 82 1c c9 bc
       -0.011733682 -0.010823364 0.018936295 -0.024549726
0001b0 e7 a1 47 3c b3 f3 03 c0 6a b9 01 40 d2 1c 75 3d
       0.012184597 -2.0617492 2.0269418 0.05984194
0001c0 bd 85 82 3a ff 05 9d ba 8c 64 38 3d b6 28 1d 3c
       0.000995807 -0.0011979936 0.045017764 0.009592226
0001d0 3e e8 13 be 14 b4 f8 3e aa 8f 8e be de 51 06 bf
       -0.14444062 0.4857489 -0.27843982 -0.5246867
0001e0 f6 c3 c0 bb 4a 91 01 bb 96 53 8b bc bf 81 92 bc
       -0.0058827354 -0.0019770437 -0.01700763 -0.017884133
0001f0 bb ae 2c be 50 aa ed 3e ae cc a3 be f3 66 1b bb
       -0.1686353 0.46419 -0.31992096 -0.0023712486
000200 0b 35 95 bb 41 b8 17 3c af e6 59 3c 66 aa 55 bd
       -0.0045534424 0.009260238 0.013299628 -0.052164458
000210 40 4a b0 3e 22 eb 46 bf 70 ab 49 3e 6f 06 2b bf
       0.34431648 -0.77702534 0.19694304 -0.6680669
000220 30 e1 20 3b 79 10 8d 3c c6 2a 0e bd 4d 51 f8 bb
       0.0024548285 0.017219769 -0.03470876 -0.007578051
000230 d5 ab 7b 3f f9 6d ae 3f a4 29 18 c0 43 e2 1d c0
       0.9830907 1.3627311 -2.3775415 -2.466935
000240 03 13 bb bb 0c b0 22 bc 1d 55 6f bd f9 4a 0d 3d
       -0.0057090535 -0.009929668 -0.05843078 0.034495328
000250 90 b5 4e bf f5 a4 89 bc a4 39 3f 3f fb cc 05 3f
       -0.8074579 -0.01680229 0.7469733 0.522659
000260 d3 ce 14 bc 63 14 67 3b 5e 38 31 3d 29 9a de bb
       -0.009082514 0.0035259954 0.043266647 -0.0067932797
000270 9f 26 dd 3e e8 ef 1f bf 2e b3 2a 3f 26 b0 13 be
       0.43193528 -0.6247544 0.66679657 -0.14422664
000280 30 96 4f 3c 90 bd 46 bc df e9 96 bc 0b 55 b1 bb
       0.012670085 -0.012130156 -0.018422065 -0.0054117492
000290 08 78 06 be 65 76 37 bf ed d1 6f 3f 76 b3 92 3e
       -0.13131726 -0.7166503 0.93679696 0.28652543
0002a0 75 8a ed 3b 3f f6 8d 3c 8d f8 99 bd a7 07 f4 3d
       0.0072491714 0.017329333 -0.075181104 0.11915522
0002b0 b5 b8 b2 3f b3 1b 17 40 e0 dd 90 bf 8a 70 71 bf
       1.3962618 2.3610656 -1.1317711 -0.94312346
0002c0 f7 18 b1 3a 2c 64 a3 bb b4 74 0f bd dd 4a 83 3c
       0.0013511468 -0.0049863067 -0.035023406 0.016026909
0002d0 cd b6 fd be aa a7 f6 3f 5e 99 cc bf 3b e0 c9 3c
       -0.49553528 1.9269917 -1.5984304 0.024643054
0002e0 0a 67 20 ba 7a 9d 33 3b 76 cf fb 3d 57 79 2f be
       -0.00061188696 0.0027407096 0.122954294 -0.17136131
0002f0 c5 ef 13 3c 87 40 78 3f 2b b5 0b bf 6a 57 ec be
       0.0090293335 0.9697346 -0.54573315 -0.46160442
000300 7a 65 45 3b 16 4d 1d 38 78 5c 1f bd db 2c 90 bc
       0.00301203 3.750351e-05 -0.038906544 -0.017599514
000310 e5 ff 1a 3e 71 4d a5 3e 6f 5f 91 3e 06 be 75 bf
       0.15136679 0.32285646 0.28393123 -0.9599308
000320 65 88 de 3e ff e5 c0 3d 32 4a 68 40 73 89 cb bf
       0.43463436 0.09418868 3.6295285 -1.5901321
000330 f8 68 82 3e fe 87 d1 be ac b8 04 3f db c5 6a 3d
       0.2547071 -0.40924066 0.51844287 0.057317596
000340 b0 f0 67 3e 6c 4f ff bd f3 92 47 3f d1 7e 1e c0
       0.22650409 -0.124663204 0.779586 -2.4764903
000350 3f cd 3f 3f e5 7d fa 3e 4c 9a fb 3e 3c 5b af 3d
       0.74922556 0.48924175 0.49141157 0.085623235
000360 a5 22 44 3b 40 3c e8 bb 4f 98 26 3d 2e 99 7a bc
       0.0029927876 -0.0070872605 0.040672597 -0.01529531
000370 d2 06 1b be b2 3b d5 bf 47 d1 0e 40 79 35 b6 bd
       -0.1513932 -1.6658843 2.2315233 -0.08896918
000380 9a f3 0e 3b 56 d5 5d 3c 42 c0 8a bc 76 50 d6 bc
       0.0021812678 0.013539633 -0.016937379 -0.026161414
000390 de 3d d2 3c 2d c8 84 be ba bb 0e 3e 47 14 42 bc
       0.025664266 -0.25933972 0.139388 -0.011845655
0003a0 fb 88 ce 3c fc 91 b5 bb e9 3e 8c c0 de eb 8a 40
       0.025211802 -0.0055410843 -4.3826795 4.3412924
0003b0 2c b4 3c bf 66 2b f9 bf 97 c2 98 bd d7 7e 7d bf
       -0.7371242 -1.9466369 -0.0745899 -0.9902167
0003c0 3a b8 17 3d 56 be 47 bd 68 56 5d 40 75 9f 57 c0
       0.037040927 -0.048765503 3.4583988 -3.3691075
0003d0 51 d7 98 3c 0c a0 b7 bf b2 d9 ea 3d ec 62 2b c0
       0.018657358 -1.4345717 0.11467303 -2.6779127
0003e0 56 5e a0 bd 2e 30 f1 3d 56 a5 c9 c0 3c f8 af 40
       -0.07830493 0.11776768 -6.3014326 5.499052
0003f0 fb a0 d0 3e ed 28 23 3f d0 d5 9e 3e ff f6 3e 3f
       0.40747818 0.6373432 0.310225 0.74595636

hh/upward/b f4 [256]
000000 b1 77 d3 bf 8c 0f 40 3f a2 e1 c8 bf 7a d3 a1 bf
       -1.6520902 0.7502372 -1.5693858 -1.2642663
000010 c6 ea d3 3f 11 5e d6 3b 58 89 99 bf 23 cf de 3f
       1.6556022 0.0065419753 -1.1995039 1.7406963
000020 76 45 66 3d f7 5f cb 3c de bf 00 bf b0 5f e1 3e
       0.056218587 0.024826033 -0.50292766 0.44018316
000030 94 b3 59 40 6a cc d4 bf e9 e9 46 3f ad 8f 27 bf
       3.4015856 -1.6624882 0.7770067 -0.65453607
000040 e2 de 03 40 61 85 8b 3f 98 94 33 3e 11 46 08 40
       2.0604787 1.0900079 0.17537153 2.1292765
000050 8b 8d 9d bf c9 62 19 40 bd c2 66 bc 77 50 3b bf
       -1.230882 2.3966544 -0.014084515 -0.73169655
000060 15 b4 37 bf 29 24 41 bf 05 9e 0b 3d 21 7e 3d 3f
       -0.7175916 -0.754458 0.034086246 0.7402058
000070 d8 2b 47 c0 9d 97 4e 3f 0d 1f 50 be 6b ca 61 bf
       -3.112051 0.80700094 -0.20324345 -0.8819949
000080 17 3b cf 3f 07 99 b1 bf 0c 70 c2 bf b0 d6 bf bf
       1.6189908 -1.3874825 -1.5190444 -1.4987392
000090 24 f5 84 c0 f0 c7 35 40 d3 8e 99 3f ca 37 07 c0
       -4.1549244 2.8403282 1.1996711 -2.11278
0000a0 f9 81 4a 3f 43 0b 99 3f ad 75 e6 bf 44 a6 04 3f
       0.7910457 1.1956562 -1.8004662 0.518162
0000b0 9c 00 89 bf 85 bf bd 3f b2 92 11 bf e5 27 f9 bf
       -1.0703311 1.4824072 -0.56864464 -1.94653
0000c0 55 24 07 3f 57 26 8e 3e 9f 71 2c 3e 58 a5 0b bf
       0.52789813 0.27763626 0.16840218 -0.5454917
0000d0 73 34 14 bf 1d b5 57 3f fe d5 87 3e 38 7a 8f 3e
       -0.5789253 0.8426073 0.2653045 0.28022933
0000e0 cc e2 3a 3f fe 7e fc 3f fd cc 2a c0 b3 63 93 be
       0.73002315 1.9726255 -2.6687615 -0.28787002
0000f0 4b 61 f7 3f e1 96 b6 bf 7b 4a 87 3f e6 51 66 3f
       1.9326566 -1.4264795 1.0569605 0.8996872
000100 40 ba 19 c0 5f 39 d5 3f 57 99 db 3d 5f eb f0 3e
       -2.4019928 1.6658133 0.10722607 0.47054574
000110 a2 16 23 3f 63 43 9c bf 46 6f de 3f 79 6f 4a bd
       0.6370641 -1.2208065 1.7377708 -0.049422715
000120 d0 35 aa 3f ad d9 60 bc 07 0f a0 3f 73 31 49 be
       1.3297672 -0.013723773 1.2504586 -0.1964777
000130 c8 e9 a0 bf b2 38 99 40 2f f4 4e 40 04 ef 14 3f
       -1.2571344 4.788171 3.2336538 0.5817721
000140 8c 19 2d c0 62 66 36 40 6f f1 a1 bd 10 e4 90 bf
       -2.7046843 2.849999 -0.07907378 -1.1319599
000150 2b 0a 40 bf fc e9 d1 bf d5 59 2f 3f af 9b 56 3f
       -0.75015515 -1.6399531 0.6849645 0.83831304
000160 2d 16 ef be f0 60 d2 be 4e 9e 75 3f ab e6 19 40
       -0.46696606 -0.41089582 0.9594468 2.4047039
000170 23 5f c7 3e 5d 1b 0f c0 3a 64 db be 6f 1f a5 3f
       0.3893977 -2.2360451 -0.42849904 1.2900218
000180 5a ce 87 bf b6 a7 8d 3f e0 5d 8d 3f a9 22 06 3d
       -1.0609848 1.1066806 1.1044273 0.0327479
000190 9d 55 42 c0 8f 0e 5d 40 ef 95 e7 3d 5e 42 1f bf
       -3.0364754 3.4540136 0.113078944 -0.62210643
0001a0 54 e9 4d be f8 79 c7 be ea f9 2f bf 2a be 10 3f
       -0.20108539 -0.38960242 -0.68740714 0.5654017
0001b0 de 91 9a 3e b8 5a 57 3f 2d 54 96 bf 80 fd dc 3f
       0.30189413 0.841228 -1.1744438 1.7264862
0001c0 33 ff b3 be f0 7b 30 3f 99 87 14 3e 82 16 8c 3e
       -0.3515564 0.68939114 0.14504851 0.27360922
0001d0 07 d3 0f c0 1c 09 95 3f 11 ad ba 3e 75 eb 48 3e
       -2.247255 1.1643405 0.36460164 0.1962107
0001e0 ce 4e 8a bf 7e f9 99 3f 50 13 d5 3f ef be 31 be
       -1.0805299 1.2029264 1.6646519 -0.17357992
0001f0 0f 25 9a bf 94 34 c1 3f 33 17 79 3e 63 c6 0d 40
       -1.2042559 1.509417 0.24325256 2.2152336
000200 a1 8c d8 3f 6f f6 ad bf ae 43 a8 be a6 04 23 c0
       1.6917917 -1.359083 -0.32864136 -2.5471587
000210 b6 36 cc bf 99 f8 05 3f a0 f6 61 3e ac 43 05 bf
       -1.5954196 0.52332455 0.22066736 -0.52056384
000220 b0 62 af 3f 00 fd 49 c0 f5 e8 f7 bf 3a 98 af 3e
       1.3701992 -3.156067 -1.9367968 0.34295827
000230 73 5c 47 bf 45 31 9e 3e 3c bd 57 3f aa 36 fb 3e
       -0.7787544 0.30896965 0.84273124 0.49065143
000240 94 f8 9c 3e 90 25 0f 3f 07 07 92 3f ed f6 fb 3f
       0.306584 0.5591669 1.1408395 1.9684731
000250 8f 40 9a 3e 69 e1 4c 3e 91 06 a7 be 2a a0 a9 3f
       0.3012738 0.20007862 -0.32622197 1.3252003
000260 38 ca b5 bf 78 b0 38 3f ae cc 19 3e da fb 66 be
       -1.4202337 0.7214427 0.15019485 -0.22557011
000270 3b 9c 9c 40 f6 f7 bd 3f b8 64 36 40 25 72 ae be
       4.894071 1.4841297 2.8498974 -0.3407146
000280 a8 7b db 3f 45 cc 5d 3f b5 f7 9d 3f d5 66 b7 3f
       1.7147112 0.86639816 1.2341219 1.4328257
000290 03 43 09 40 59 2f 82 3e 18 fd bb bf 52 b6 3d bd
       2.144715 0.25426748 -1.4686613 -0.046316452
0002a0 cd fb 2b 3e e6 92 8c 40 d4 24 72 bf b8 70 8c 3e
       0.16795273 4.392932 -0.94587445 0.27429748
0002b0 ea 98 c0 3d 75 52 a5 bb 5c cd 28 be df 8e 98 3f
       0.09404166 -0.00504523 -0.16484588 1.1918601
0002c0 c0 e8 39 bf 69 54 b7 3e 3d 2c 22 3e 72 f1 79 bf
       -0.72620773 0.35806587 0.15837188 -0.9763404
0002d0 44 72 4a 40 e0 ab 59 3e cc 54 5c bf 98 c8 6b bf
       3.1632242 0.21256971 -0.8606689 -0.92102957
0002e0 f2 d2 bd bf a9 88 8d be b5 eb 05 c0 f0 51 38 bf
       -1.483 -0.27643326 -2.0925114 -0.72000027
0002f0 c8 14 f1 bf b8 63 6e 3f 1f f3 2d 3f 66 d2 ec 3e
       -1.8834467 0.9312091 0.679491 0.4625427
000300 26 6a 3e 3e fd ae 13 40 4a 52 4a bf 6b 84 c8 3f
       0.1859518 2.3075554 -0.79031813 1.5665411
000310 00 1f d1 3c 66 bf 91 be 3e 47 3c be c1 fc 6d bf
       0.025527477 -0.28466338 -0.18386552 -0.92963797
000320 ef 51 12 c0 79 e8 0f be c2 28 b3 bf da 69 e2 bf
       -2.2862508 -0.14053525 -1.3996813 -1.7688553
000330 cc 58 ef 3f 54 f3 6e 40 80 82 69 bd 2a a9 89 3f
       1.8698974 3.7336016 -0.05700922 1.075475
000340 37 b8 87 be 88 75 1e bf 3b 6a ff bf c6 fd 96 3e
       -0.26507732 -0.6189809 -1.9954294 0.2949049
000350 64 f1 c4 bf 7f 6c 87 3f c9 02 14 3e 77 88 06 3f
       -1.5386167 1.0579985 0.14454187 0.5255198
000360 eb d0 b4 bf b0 ca 75 40 9a ef 81 3f 04 a8 27 3f
       -1.4126257 3.840496 1.0151246 0.65490746
000370 aa 35 31 c0 15 be ec 3d fb 3b 45 bf 9f db 74 3e
       -2.7689004 0.11559693 -0.7704465 0.23911904
000380 f9 94 cb 3f 74 a3 05 40 25 34 70 3e 9e 6f 55 3e
       1.5904838 2.0881014 0.23457392 0.2084336
000390 f0 66 16 c0 9c ae 8d 3f df 6d c5 bf cf 06 e7 bf
       -2.3500328 1.1068912 -1.5424155 -1.8048953
0003a0 a6 9b b0 3f 67 b4 20 40 58 2d dd 3e b5 a1 a2 3f
       1.37975 2.511011 0.43198657 1.2705599
0003b0 6e 58 3c c0 30 e0 a9 bd 40 c4 0e 3f 00 bb 07 bf
       -2.9428973 -0.082947135 0.55768204 -0.53019714
0003c0 ad 6d ee 3f b5 35 25 c0 b5 78 aa bf 56 8c 5d be
       1.862722 -2.581403 -1.3318087 -0.21635565
0003d0 94 9e 52 bf 64 a7 5c 3f 3c e6 87 bf 6c 20 98 3e
       -0.8227322 0.8619292 -1.0617137 0.29712236
0003e0 d8 a3 bb 3f 85 89 aa be f6 e3 8c bf 0e b1 98 3e
       1.4659376 -0.33308044 -1.1007068 0.29822582
0003f0 17 2b a0 bf f1 f0 55 40 66 29 3f bf a9 77 bc 3f
       -1.251315 3.342831 -0.74672544 1.4724017

hh/upward/W f4 [256, 64]
000000 e4 b1 ba bd 20 1b 4a 3e 09 65 35 bd 70 af b3 bd
       -0.09115961 0.1973691 -0.044285808 -0.087736964
000010 ed ab 90 3d f2 32 de 3f ac 0d c3 3d 80 72 50 3d
       0.07064042 1.7359297 0.09524092 0.050890446
000020 89 06 59 bd 1c 34 81 bd 0f b4 31 bd 8d b7 01 be
       -0.052984748 -0.06308767 -0.043384608 -0.12667675
000030 fb c3 57 bd ef 79 f1 3c bf 1b 41 bd a0 bb 9b bd
       -0.052677136 0.029477088 -0.0471456 -0.07604146
000040 41 45 88 bc 5c 87 9b bd 7c 80 23 3d a8 60 b1 3c
       -0.016634585 -0.07594177 0.039917454 0.021652535
000050 41 f5 7d 3d 1a e5 9f 3d 40 22 16 3e 76 9e a2 3c
       0.06200147 0.078073695 0.14661503 0.01985095
000060 e4 c3 ee bc d9 4c 79 3f 76 d6 fc 3e 7e 9e 3a be
       -0.029146142 0.97382885 0.4938237 -0.18224522
000070 65 c9 6d 3d 9a 8c cd bd 96 b4 5d 3e 56 e9 78 bf
       0.058053393 -0.10036583 0.2165092 -0.9723104
000080 5d 97 85 be f1 35 2e bc 56 4a 2d bd f3 15 8a bd
       -0.26092044 -0.010632978 -0.04230722 -0.06742468
000090 e3 1b 78 3c 63 c5 05 3d 7f 6d 9b bc c9 e7 ae 3d
       0.015143367 0.032658946 -0.01897311 0.08540303
0000a0 c8 d3 ff 3e 3d 3b 2e bd 27 1c 4a bd d5 94 7c be
       0.49966264 -0.042536963 -0.049343254 -0.2466615
0000b0 c6 39 af bc f3 58 9d 3d 4a 2b 22 bb 11 9b de bf
       -0.021389853 0.07682981 -0.002474504 -1.7391073
0000c0 a4 81 ba 3c 38 ea 48 3e ef 6b 98 bf fc 0c 0f 3e
       0.022766896 0.19620597 -1.1907939 0.13969797
0000d0 c5 4c e0 3d a6 8a b9 bc 42 65 71 bd 02 c8 a2 3d
       0.109521426 -0.02264912 -0.058934458 0.07948305
0000e0 19 63 c2 bd 83 c9 4a 3d 30 9f 72 be 95 10 85 3d
       -0.09491558 0.049508583 -0.23693538 0.064973034
0000f0 6b d0 aa be 72 06 58 3f aa 5c 1a be 7d 5e 08 be
       -0.33362135 0.84384835 -0.15074411 -0.13317294
000100 22 5c 36 bc 01 55 ef be a2 e2 ec bc 10 d5 41 be
       -0.011130365 -0.4674454 -0.02891666 -0.18928933
000110 01 71 71 3d 48 8f 9c be cd 58 b1 bd db c6 3b 3d
       0.05894566 -0.30578065 -0.086595155 0.04584394
000120 45 7c a6 bc 0f 34 33 bc a8 b9 f5 3c df e0 ae 3d
       -0.020322928 -0.010937705 0.029995754 0.085389845
000130 8c 89 fa bb 6f 01 1f bc 2e 02 2e bd b2 87 9c 3c
       -0.0076457914 -0.009704932 -0.042482547 0.019107673
000140 16 db 16 be 3e 97 99 be 7a 16 50 bd 47 72 64 3e
       -0.14732012 -0.299982 -0.050802685 0.22309218
000150 fa d9 3a 3d 6d 6c e5 bc 80 92 3c be 8c 44 80 be
       0.045618035 -0.028005803 -0.1841526 -0.25052297
000160 6d 27 6e 3d 69 85 d9 be 0c 0a 48 3c 72 d8 3b 3e
       0.058143068 -0.42484596 0.012209427 0.18344286
000170 94 45 17 be 3e 30 40 bf 21 f0 61 bd b6 74 6c 3e
       -0.14772636 -0.7507361 -0.055160645 0.23091397
000180 15 0f a2 3d 3b a6 ba b9 ce f4 c5 3c a2 30 c4 bf
       0.07913033 -0.00035600536 0.024164584 -1.5327342
000190 e2 a6 82 bd 46 0f 6a be 66 0b 14 be c8 7e 43 bd
       -0.063794866 -0.22857389 -0.14457473 -0.04772833
0001a0 7e e2 1a 3d f3 95 ef 3d e1 94 43 3e 02 3c b6 3f
       0.037813656 0.116985224 0.19099762 1.4237063
0001b0 03 95 92 3c 99 0b b0 bd cb 96 aa 3b c4 e7 8f 3e
       0.01789332 -0.08595962 0.005205964 0.2810651
0001c0 d4 0a 3a 3d 6b cb eb 3d c9 9c 61 be 06 42 c7 3d
       0.045420483 0.11513408 -0.22032465 0.0972939
0001d0 32 25 7e bf db 6d 89 3f c8 ab 74 3e 3a 50 d4 3d
       -0.99275506 1.073665 0.23893654 0.103668645
0001e0 c4 e2 00 3d 4c bf b0 3d ad 71 ec 3e 17 16 bf bd
       0.03146626 0.08630237 0.46180478 -0.09330385
0001f0 68 d1 02 be c0 d8 05 bf f9 44 5d be 7a 3d c1 3c
       -0.12775195 -0.5228386 -0.21608342 0.023588885
000200 61 44 a7 3e b1 25 80 bf 9b bb 74 be 71 65 4a 3c
       0.32669356 -1.0011503 -0.23899691 0.012353287
000210 b0 be 9d bf 87 91 80 3f 62 57 a4 3e 04 1f 18 bf
       -1.2323818 1.0044411 0.32097918 -0.59422326
000220 a5 c6 52 bd 3d 5d 55 be 9f aa c2 be 46 97 a1 3e
       -0.051458973 -0.20836349 -0.380208 0.31560725
000230 4e 71 3e 3d ac 76 80 3d cb 69 c5 bc 5a 8e 2e be
       0.046494775 0.06272635 -0.024098298 -0.1704649
000240 7f 6f 2c 3f d9 de 62 3e cd 9e c4 3e 9b 5e a7 3e
       0.6735763 0.22155322 0.38402405 0.32689366
000250 8d d6 f7 3d d4 f5 33 3e fe 10 a7 3e d8 ed a6 bd
       0.12101469 0.17574245 0.32630152 -0.08150834
000260 a8 d1 3d 3f c1 54 e0 bf c6 20 e8 3f 0d ae ca be
       0.74148035 -1.7525865 1.8135002 -0.39585915
000270 09 75 5f 3e e2 3a 8f bd e6 45 de bf 2c a7 de 3f
       0.21821989 -0.06993653 -1.7365081 1.7394767
000280 54 c9 f2 3f 36 90 1f 3d 6d 5f c8 bd 75 7c 04 c0
       1.896769 0.03895589 -0.09783826 -2.0700963
000290 37 e6 9c 3e 0a 69 9b be 42 26 28 3f 93 ec c0 be
       0.3064439 -0.30353576 0.65683377 -0.37680492
0002a0 f8 09 9e 3f f8 e3 49 bd 90 1a 10 bf 5e 56 4f 3f
       1.2346792 -0.049289674 -0.5629053 0.8099116
0002b0 73 fe 3e bd be a7 00 3f cf d6 8d be 91 74 a8 bf
       -0.04662938 0.50255954 -0.27702948 -1.3160573
0002c0 15 86 85 bd eb e7 21 be e5 f1 e6 bd 61 f2 c3 3d
       -0.06519715 -0.15811126 -0.112766065 0.095677145
0002d0 2d cd fe be 31 55 66 40 50 31 37 bc d5 d2 15 3c
       -0.49765912 3.5989497 -0.011181191 0.009144505
0002e0 cf 44 cf bc 9d 63 f1 3d 98 a1 db 3f f7 0e a9 3c
       -0.025301365 0.11786578 1.715869 0.020637019
0002f0 f0 61 d3 be d3 c8 2f bf 4a 6c 4e 3e ac 4f 4a 3e
       -0.41285658 -0.6866581 0.20158496 0.19756955
000300 55 9f 14 be 4a 33 31 40 d1 ae 7a 3e 85 cb 00 3d
       -0.14513905 2.7687554 0.2448075 0.03144409
000310 55 e1 16 3f fd a8 a9 be 66 ed c1 bd f5 18 28 3d
       0.5893758 -0.3313674 -0.09469108 0.041039426
000320 fb a5 85 be 91 28 bf bd 84 e1 12 3e 7c 0e 07 3e
       -0.26103196 -0.09333909 0.1434384 0.13189119
000330 4e 3f 36 3d f7 5f 87 3d 28 cf 61 3e ba 2f 06 3e
       0.044493966 0.06610101 0.2205168 0.13104144
000340 11 55 f9 bc 20 74 1c be e5 23 11 3d 60 86 8c 3e
       -0.03043607 -0.15278673 0.035434622 0.2744627
000350 37 52 ed bd e8 5c b7 be b0 35 a2 be e8 8d 5d be
       -0.11587947 -0.3581307 -0.31681585 -0.21636164
000360 7c a2 81 3d 0d 25 38 c0 ce 57 a1 3d 06 17 e8 3d
       0.063298196 -2.8772614 0.078780755 0.11332516
000370 62 e0 96 be 14 a6 79 40 04 15 ee bf 68 15 b7 40
       -0.29468066 3.9007616 -1.8600163 5.721363
000380 03 6a 34 40 ae 86 aa 3d 24 16 53 3d ec 7b 58 40
       2.8189704 0.08326469 0.051534787 3.3825636
000390 18 e9 01 bc 2f 92 07 3e d7 c1 ee bd d6 cb 12 be
       -0.007929109 0.13239358 -0.11658066 -0.1433557
0003a0 c5 64 ef bf a8 a6 9b 3d d7 01 12 3e cc 84 33 c0
       -1.8702627 0.076001465 0.14258514 -2.8049803
0003b0 0e e3 99 3d 30 f3 b8 bc 9b 23 c4 3d d2 9c aa be
       0.0751401 -0.022576898 0.09577104 -0.3332277
0003c0 fc dc 24 3d 43 64 aa 3c ae 32 32 bf 08 94 9e bd
       0.04024981 0.020799762 -0.6960858 -0.077430785
0003d0 10 89 0c 40 81 42 69 bf c2 d4 4f bd 67 7f a1 bd
       2.1958656 -0.911171 -0.05074001 -0.07885628
0003e0 19 de 8c bd d9 da 17 3e dc ef b7 3f 19 ab 4d be
       -0.06878299 0.14829578 1.4370074 -0.200848
0003f0 e9 b9 9e 3e be a0 10 40 4f 00 ad be d1 fa 07 bd
       0.31001213 2.259811 -0.33789298 -0.03319818

hh/lateral/W f4 [256, 64]
000000 98 8f f8 3e 66 a4 0f c0 51 24 4c 40 5b 4a ff c0
       0.48547053 -2.244409 3.1897166 -7.9778266
000010 34 3b ed 3f b3 a7 c1 3f 70 46 ad bf dc 99 ab bf
       1.8533692 1.5129303 -1.3537121 -1.3406329
000020 10 30 8c bf 89 00 21 3f c1 0b aa be 13 f3 0f c0
       -1.0952168 0.6289144 -0.33212093 -2.249211
000030 9b 4c e1 bf e9 d1 b1 3f 5a 0a 3a c0 28 3c 3d bf
       -1.7601503 1.3892184 -2.9068818 -0.73919916
000040 b6 55 8d bf a4 cc 2d 40 00 28 10 c0 2d 41 1a bf
       -1.1041782 2.7156153 -2.2524414 -0.602557
000050 6b 97 9b 3f b7 72 25 40 67 30 bc bf 5f 33 05 be
       1.2155584 2.5851266 -1.4702271 -0.13007878
000060 95 16 58 bf a2 3a a2 40 9d 5c 87 3f f9 0f 5b bf
       -0.8440946 5.0696573 1.0575138 -0.8557125
000070 42 40 56 3e 23 98 7d 3f 4a 64 ea bf 74 96 5c bf
       0.2092295 0.9906027 -1.8311856 -0.86167073
000080 9e 75 b1 3f f5 02 cf bf 40 8b 20 bf eb 73 f6 be
       1.3864019 -1.6172777 -0.6271248 -0.48135313
000090 d1 5f d6 3f ed 66 fc 3e eb ad 00 c0 3a 92 ca bf
       1.6747991 0.49297276 -2.010615 -1.5825875
0000a0 c5 70 b3 be fe c8 c8 3d d1 65 91 bf 57 f1 bf 3f
       -0.35046974 0.09803961 -1.1359197 1.4995526
0000b0 74 85 12 c0 4f 08 6d 3e f0 17 1a c1 6a bb 28 3e
       -2.2893953 0.231477 -9.630844 0.16477743
0000c0 b2 25 f3 be 41 98 c7 be 12 56 25 bf 07 26 40 bf
       -0.47489697 -0.38983348 -0.6458446 -0.75058025
0000d0 6d ad 45 bf d0 4f 3e bd a0 ea 54 bf 16 9a 13 40
       -0.7721775 -0.046462834 -0.8317051 2.3062797
0000e0 8f 63 81 3e fb cf 0b 40 f8 1d ac bd 04 87 13 40
       0.2527127 2.1845691 -0.084041536 2.3051157
0000f0 81 d3 b8 40 3e 63 85 c0 57 b1 4d 3f 30 61 29 40
       5.7758183 -4.1683645 0.80348724 2.6465569
000100 f3 5f 1e 3e 9a 1e 94 40 ff 57 96 c0 05 5c 14 40
       0.15466289 4.6287355 -4.6982417 2.3181164
000110 3f fb 13 3f 97 35 de bf 4c bb 52 be a5 35 00 c0
       0.57805246 -1.7360104 -0.2057926 -2.0032742
000120 80 a0 7a 40 b2 60 60 bf 03 8d 90 40 4d 26 e0 be
       3.9160461 -0.87647545 4.5172133 -0.4377922
000130 60 63 f0 bf 3e ee 98 40 37 ea ef 3f 4e bd 91 bf
       -1.8780327 4.7790823 1.8743352 -1.1385896
000140 99 b6 f5 3f 81 ef aa 3f 19 33 85 3f 76 44 29 40
       1.9196349 1.3354341 1.0406219 2.6448035
000150 68 00 af 3f cc f8 7b c0 2e 71 72 3e c3 80 53 bf
       1.3671999 -3.9370604 0.23675987 -0.8261835
000160 fa 6d 1f 3f 49 8a 36 40 9d 95 e4 3f fc 5c 46 3f
       0.62277186 2.8521903 1.7858158 0.7748563
000170 d3 58 b5 bf ef 2f 3b c0 fd d5 1a bd 56 87 97 3f
       -1.4167732 -2.9248006 -0.03780173 1.1838176
000180 fc 06 6b 3d 87 11 80 c0 25 79 d0 3f d8 24 86 3f
       0.057379708 -4.0021396 1.628697 1.0479994
000190 b3 7d a2 c0 52 a8 f8 3c 98 6c 31 40 9a 06 3c 3f
       -5.077844 0.030353699 2.772253 0.73447573
0001a0 36 f8 f9 be 28 74 51 bf e8 b0 f4 bf f5 5c 6a bf
       -0.48822182 -0.81817865 -1.9116488 -0.9154809
0001b0 f5 db 1a c0 9e cc ae c0 76 3a 15 40 a5 fe 0f bf
       -2.419675 -5.4624777 2.3316932 -0.5624793
0001c0 59 3e 04 3f 3b 5c 75 bf 2b 20 85 c0 ce 32 d9 be
       0.51657635 -0.9584386 -4.1601768 -0.42421573
0001d0 dc 55 1c bf 1a f0 4c 3e 3a 83 7f 40 61 28 80 40
       -0.6106851 0.20013466 3.9923844 4.004929
0001e0 de 98 b9 bf 47 52 fc bf 44 3e 13 bf 06 f0 0a c0
       -1.4499776 -1.9712609 -0.57516885 -2.1708999
0001f0 79 e8 58 40 77 43 91 bf 8e 41 1f bf 1b 63 33 bf
       3.389189 -1.1348714 -0.62209404 -0.700731
000200 53 c0 16 3f df 0c ce 40 86 7f cc 3d 5b 08 ba 3f
       0.58887213 6.439071 0.09985261 1.45338
000210 20 86 97 40 b4 23 e3 3f 02 5d 6e 40 b8 c1 6f c0
       4.7351227 1.7745271 3.7244267 -3.7461987
000220 ae dd 97 c0 96 16 40 40 2f d1 e1 3f 95 88 20 40
       -4.7458105 3.0013785 1.7641963 2.5083363
000230 29 32 27 c0 14 c3 a6 c0 f1 72 89 bf 99 07 02 40
       -2.6124365 -5.2113132 -1.0738202 2.0317137
000240 93 03 b3 40 ae 59 82 40 37 37 ef c0 1a 46 6a 3f
       5.5941863 4.073447 -7.47549 0.91513216
000250 cc 3c 0d bf ee 77 33 3e 30 94 dd 3f b1 cd 5e c0
       -0.55170894 0.17526218 1.7310848 -3.4813044
000260 58 83 99 bf 81 72 77 3e 56 f5 a4 3f 57 5e cd be
       -1.1993208 0.24164774 1.288737 -0.40111038
000270 3d 40 24 3f 5e c0 32 40 1c 48 08 40 f5 03 74 3f
       0.6416052 2.7929912 2.1294012 0.9531854
000280 89 eb 85 3f d9 e3 11 c0 17 77 79 be a3 87 8c 3e
       1.0462505 -2.2795317 -0.24361835 0.27447233
000290 34 5b ef 3f 7b 4e ca bf 54 f2 37 bf 58 db 93 3d
       1.8699708 -1.58052 -0.7185414 0.07219571
0002a0 9e 67 98 be 0e 83 4d 3f d7 26 6f 40 92 2e 70 c0
       -0.29766554 0.802781 3.7367456 -3.7528424
0002b0 f7 f2 4d c0 76 ca d0 be da c4 61 bf e9 7a 8d 3f
       -3.2179544 -0.40779465 -0.88190997 1.1053134
0002c0 48 a1 ca bf b9 81 05 40 9c 95 1b 40 90 c2 8f bf
       -1.5830469 2.0860426 2.4310064 -1.1231251
0002d0 63 23 ef 3e 5e c3 49 3f 75 df 56 c0 2b d5 ef be
       0.46706685 0.7881373 -3.3573887 -0.46842322
0002e0 c4 5a f0 bf 10 0f a2 c0 20 a5 dd 40 c2 9b 06 c0
       -1.87777 -5.0643387 6.926407 -2.1032567
0002f0 b6 27 37 bf 22 08 a6 40 39 0e db be 13 12 1e c0
       -0.7154497 5.188493 -0.4278429 -2.4698532
000300 94 03 36 c0 e4 71 15 40 ba 5c 98 bf c0 32 51 c0
       -2.8439684 2.3350763 -1.1903298 -3.2687225
000310 b1 dc 9a 3e c8 18 a9 bf 42 a0 e6 be aa 9e 06 40
       0.302465 -1.3210688 -0.45044142 2.103434
000320 96 9c fa 3e 87 f3 3b bf 90 9c 3b 3f 17 4d ef bf
       0.4894759 -0.7341847 0.7328577 -1.8695401
000330 7e 6b 40 c0 fb 1d 81 40 a3 c0 52 c0 58 b6 a0 3f
       -3.0065608 4.0349097 -3.2930076 1.2555647
000340 d5 35 79 40 57 00 5c c0 0b 92 de bf 58 d1 18 3f
       3.8939106 -3.4375207 -1.7388319 0.59694433
000350 4e 91 e9 be 41 14 80 c0 c8 71 e6 3e 90 8f b4 c0
       -0.4561867 -4.0024724 0.45008683 -5.6425247
000360 0e c1 65 3f 74 ef 58 c0 62 49 8b bf 87 6d 30 bf
       0.89747703 -3.389615 -1.088177 -0.68917125
000370 c0 72 c4 3e 04 80 07 40 b8 93 c2 bf 42 cb f9 3f
       0.38368797 2.1171885 -1.520133 1.9515154
000380 f4 98 36 40 0f d8 b8 3f ab 0b ab 3f 2f cf bb bf
       2.8530855 1.4440936 1.3362936 -1.4672602
000390 e1 f9 5c be 4e 0e 74 c0 aa 9d 38 c0 c4 69 cb 3e
       -0.21579696 -3.813373 -2.884623 0.3972913
0003a0 07 db fc bf 4d 4e 1d 40 3b 4c e5 bd fe 78 91 c0
       -1.9754342 2.457904 -0.111961804 -4.5460196
0003b0 e9 e1 20 c0 66 ba 08 c0 3a e0 ea bf d9 b7 01 c0
       -2.5137885 -2.1363769 -1.8349679 -2.0268462
0003c0 fa 21 c7 3f 77 3a 66 c0 db e0 35 c0 bb 5b 7d 3f
       1.5557244 -3.5973184 -2.841849 0.98968095
0003d0 7d e5 55 40 d8 7f 83 3f 98 57 ba bf 4e c7 4f 3e
       3.3421319 1.027339 -1.4557981 0.20290872
0003e0 c3 59 76 be 39 52 33 40 e9 fc ae bd 78 b8 a4 bd
       -0.24057679 2.8018935 -0.085443325 -0.08042997
0003f0 49 a6 4d bf 2b d7 9b c0 41 bf 45 3f a9 65 a1 3f
       -0.80331856 -4.8700156 0.77244955 1.2609149
