code/python/slip_model/8_64_1_5_10_29500_120_use_train_slip_model.npz (npz, 127262 bytes, 6 tensors)

hy/W f4 [1, 64]
00000000: 3660 043e 26ce fbbd 8e7f 573e ad67 cebd
00000010: 2ce0 be3d 2a6a 22be 2e4b 34bc 91c7 4fbd
00000020: 433a c63d 0fea 213e 40af 733d 7be2 823d
00000030: 2b82 b9bd 2fca 623d cb0e 39be fdc4 f1bd
00000040: 3d7e dabe 684a 923e 4f10 f53d 36f0 873c
00000050: 6451 75bc ccb7 75be 7f6b 11be 433a 20bd
00000060: b3cf cc3d 4a7a 273d a388 133e 573a 9f3b
00000070: 5a7c 6e3e 3237 92bd 67b7 733e d316 263e
00000080: edb2 87bd 0d1e ce3e 28c9 3c3e a225 b63e
00000090: 202b e3bd f4c8 433e 055c 1c3e 6986 04be
000000a0: 9a1c 4cbe a06d 0fbe e02c 9b3d 0f86 4a3e
000000b0: 4a41 1bbe 4900 8d3e dc58 e4bd 279e 253e
000000c0: 6c42 e2bd 6a95 a33d 0fbe 473e dc26 73bd
000000d0: 1ace 46be 8dd3 4cbe dc1b 7b3e 90cd 743e
000000e0: 6bb5 333e c89b 1f3e e337 823e 006c 9b3d
000000f0: 7049 6abd 30cd c93c 0dd4 5d3d e6f4 08be
0.12927327 -0.12295179 0.21044752 -0.10078368 0.09320101 -0.15860811 -0.011004252 -0.05072743
0.09679081 0.15811943 0.059493303 0.06390854 -0.09058031 0.0553686 -0.1807205 -0.11805151
-0.42674437 0.28572392 0.11966001 0.016594034 -0.014973018 -0.23995894 -0.14201163 -0.039118063
0.10000553 0.04088811 0.14407592 0.0048592496 0.23289624 -0.07139434 0.23800431 0.16219644
-0.06625924 0.40257302 0.1843611 0.35575587 -0.1109221 0.19119626 0.15269478 -0.12941898
-0.19932786 -0.14006662 0.075769186 0.19777702 -0.15161625 0.2753928 -0.11149761 0.16173612
-0.11047825 0.07987483 0.19506095 -0.05936323 -0.19414559 -0.20002575 0.24522346 0.23906541
0.17549674 0.1558677 0.25433263 0.07588959 -0.05719894 0.024633974 0.054157306 -0.13374671

hh/lateral/W f4 [256, 64]
00000000: cf7c 9fbf 764d 0dc0 106a c2bf 2107 55c0
00000010: 5dab e1bf 0eae 313f 9bae cd3f dca8 95c0
00000020: 7c0f 30c0 14e8 6d3e c863 b83f c20b a4be
00000030: c92b 2740 a625 01c0 2313 8dbf ecbf 0840
00000040: 4707 f6bf 4935 2140 c583 e0be e77d 0dc0
00000050: af44 9abf cfa0 4cbf 9a41 c4bf dfce 9a3e
00000060: 7ae9 b43e c485 9a3f de86 d33f b13a 1c3f
00000070: 24ed 623e 7643 8fc0 484a 483f 3b0c b33d
00000080: 576e 4fc0 cb48 e940 00eb 0940 ec45 673e
00000090: ff99 0dbe 8037 8f3d aba3 8f3e f428 2740
000000a0: 2e17 42bc badc 3640 3034 e23f ca5f 94be
000000b0: f509 c43f 2778 93bf 7b3e 28c0 4c08 bc3f
000000c0: 30bc 783f f1c4 86c0 84ca 16c0 0228 21c0
000000d0: 4e61 a6bf 2433 a4be 3435 a0bf d4bb f8bf
000000e0: 26dd 9e3f ec2b febe 639c 88bf c6e9 3f3f
000000f0: b728 2cc0 4ea3 dfbf 2f02 b3be 1de8 7340
00000100: ad9a b8bf fd2a 8a40 f637 fdbf afaf e03e
00000110: ad77 eebc e037 89be b974 8cbd fa2f 8abf
00000120: 0efd d83e bc6c 003f 3e60 63c0 452c 02c0
00000130: 367a 39c0 6595 98c0 814c db3f fecd 9a3e
00000140: 42e7 1b3f 735c ffbf 01ed 433e e784 42bf
00000150: 35b0 c340 0bcf 43bf a671 42c0 977d 1c40
00000160: 7fbd 263f b89f 48c0 7aa2 bf3f 5954 6f3f
00000170: d888 3f3e f1b4 86bf e425 94bf 80ab 8d40
00000180: e84c bbc0 3b9c 19c0 8358 81bf f885 ddbf
00000190: 75f8 823f e15a 3ac0 3c94 983f ec4e 493f
000001a0: 1d17 e13f e2ba 72c0 a5ba bcbf f3de afbf
000001b0: 4a4d 48c0 4e7a 2ac0 8a94 33bf 08ff 0440
000001c0: 642e 983f 1753 9ac0 b9cb ebbe 22f9 38bf
000001d0: 3a9b ca3f 1f0a 2fc0 4fc3 91bf 6756 0ac0
000001e0: 4184 64bf 6a6c 6abe 263a f83f 17a2 f2bf
000001f0: ea88 2140 7823 abbe f283 9ebe 95c9 97bf
00000200: 7607 243d 84d0 6640 4a8f 5ebf aa20 d43f
00000210: f5fc 1fbf 89b0 76bf 12ad c33f 2c38 5940
00000220: 7d79 2dc0 82aa 24bf f888 2340 ec37 8cbe
00000230: cb25 6fbf 4288 19be ae96 a1be 0629 65c0
00000240: 68c4 cdbf fd7e 71bf 3166 fabf 801e 1940
00000250: 06ef 9fc0 1553 863f ee4b 273e 4d8f 12c0
00000260: 472a 0dc0 03b9 9cbf 2f06 cd3e 5443 473f
00000270: 7d01 ca3e 216c ef3e 5b12 fd3f b77c a03f
00000280: 6ad9 5040 4427 2840 454c 36c0 b7c5 15c0
00000290: 3488 62c0 0e11 a6bf 7d18 7840 1575 0bbf
000002a0: 829f 9dbf 2afb 0a40 9983 2b3f f1ad a8be
000002b0: 06ed 933c 9668 b0be bb9a 45be 62f3 9c3f
000002c0: ff03 1ac0 98f8 05c0 c05f 6b3f 855c 2a3f
000002d0: 52fc 91bf 91fa 2740 ef8a 27be 387a 46be
000002e0: 34ac 413f 9f3b ea3f d50e f53f 9ee4 b83f
000002f0: 69e2 8c3d 45ec f73f 2ebb 883f fefe 27bf
00000300: 4f2f 1ac0 a954 44bf 9bdd 1740 25fc 10c0
00000310: a24a 693f 3548 a4bf 95ba c33f 2baa afbf
00000320: 2b4e 8540 9fcf 4cbf 1075 ca3f b166 1940
00000330: 3f53 d53f d5af dcbd 4fda b53c 86c2 99c0
00000340: f65a 7dbf dcfc 9d40 bd82 60c0 d11a 30c0
00000350: b2c9 f1bf e22e 8540 48eb 5b3f fd2a 343f
00000360: 32f9 5e40 82e2 38c0 e0ab 0fbf c68c ccbf
00000370: f95c 813e 8487 9bbf 2fb9 bb3d ab94 4d40
00000380: 34c5 9cbe e4df b7c0 8ef8 01c0 7529 a440
00000390: b33f d0bf 1007 e3be 5b06 7a3e 2420 98c0
000003a0: 7646 c0bf 1c66 adc0 03c7 58bf 0241 213d
000003b0: 2db2 853f ce40 febf fef2 fbbe c3c1 ca3f
000003c0: cdc6 0d40 69d0 eb3e 4b1a fabf 4c73 4940
000003d0: 47e0 ddbe 7095 1540 57fd d63f 2111 2d3f
000003e0: 3c4c 13c0 6418 0440 5629 9e3e 8ed7 93bf
000003f0: 64a1 0a40 19a8 cd3e 2a35 8fbe b427 92c0
-1.2459964 -2.2078528 -1.5188618 -3.32856 -1.7630421 0.6940621 1.606891 -4.6768627
-2.750945 0.23233062 1.4405451 -0.3204022 2.6120474 -2.0179229 -1.1021465 2.136714
-1.9220971 2.5188773 -0.43850532 -2.2108095 -1.205221 -0.79932874 -1.533252 0.30235955
0.35334378 1.2072072 1.6525533 0.61027056 0.22160774 -4.476985 0.78238344 0.08742567
-3.2411096 7.290136 2.1549683 0.22585267 -0.13828276 0.06993008 0.28054556 2.6118746
-0.011846347 2.857222 1.7672176 -0.2897933 1.5315539 -1.1521043 -2.6288135 1.4690032
0.9716215 -4.2115407 -2.3561106 -2.518067 -1.2998445 -0.32070267 -1.2516236 -1.943232
1.2411239 -0.49642885 -1.0672725 0.74966085 -2.689985 -1.7471712 -0.34962603 3.811042
-1.4422203 4.3177476 -1.9782703 0.43884036 -0.0291098 -0.26800442 -0.068582006 -1.0795891
0.42380565 0.50165915 -3.5527492 -2.033952 -2.8980842 -4.7682366 1.7132722 0.30235285
0.60899746 -1.9950088 0.19133379 -0.7598404 6.1152596 -0.764878 -3.0381866 2.4451654
0.651329 -3.1347485 1.4971459 0.9348808 0.18704545 -1.0523969 -1.1574063 4.427185
-5.853138 -2.4001606 -1.0105137 -1.7306509 1.0232073 -2.9117968 1.1920238 0.7863605
1.7585179 -3.7926564 -1.4744459 -1.3739914 -3.1297174 -2.663715 -0.7014853 2.0780659
1.1889157 -4.822643 -0.46053866 -0.72255147 1.5828621 -2.7349927 -1.1387728 -2.1615236
-0.89264303 -0.22892919 1.9392745 -1.8955716 2.5239816 -0.33425498 -0.3096004 -1.1858393
0.040046178 3.6064768 -0.8693739 1.6572468 -0.62495357 -0.9636312 1.5287192 3.3940535
-2.71054 -0.64322674 2.555235 -0.27386415 -0.9341704 -0.14993384 -0.31560272 -3.5806289
-1.6075563 -0.94334394 -1.9562436 2.3924866 -4.9979277 1.0494105 0.16337559 -2.2899964
-2.2057054 -1.2243961 0.4004378 0.7783711 0.3945426 0.46762183 1.9771227 1.253806
3.26327 2.6273966 -2.8484051 -2.3401926 -3.5395632 -1.2973955 3.8764946 -0.5447553
-1.2314303 2.1715798 0.6699768 -0.32945207 0.018057358 -0.34454793 -0.19297306 1.2261775
-2.406494 -2.093298 0.9194298 0.66547424 -1.1405127 2.6246684 -0.16361593 -0.1938256
0.75653386 1.8299445 1.9145151 1.4444768 0.06879122 1.9368979 1.0682123 -0.6562346
-2.4091375 -0.7669168 2.3729007 -2.2653897 0.91129506 -1.2834536 1.5291315 -1.3723806
4.165792 -0.80004305 1.5816975 2.3968928 1.666603 -0.10775725 0.022198824 -4.8049955
-0.9896692 4.9371166 -3.5079796 -2.7516367 -1.8889678 4.161973 0.85905886 0.70378095
3.4839597 -2.888825 -0.56121635 -1.5980461 0.25266245 -1.2150731 0.0916618 3.212199
-0.30619204 -5.7460804 -2.0307956 5.1300607 -1.626944 -0.44341326 0.24416487 -4.7539234
-1.5021503 -5.4187145 -0.8467867 0.039368637 1.0445 -1.9863527 -0.49208826 1.5840381
2.2152588 0.46057442 -1.9539274 3.1476622 -0.43335173 2.337246 1.6796063 0.6760426
-2.301528 2.0639887 0.30890912 -1.1550157 2.1661005 0.4016731 -0.27970248 -4.5673466

hh/upward/W f4 [256, 64]
00000000: c247 5dc0 b85c 5e3e 78d9 873d f0b2 60be
00000010: 0da6 19bd 09b4 203e 42dc 81be 3463 febd
00000020: fdd1 31be 07fb 683f b160 803e 9a36 b0bd
00000030: 66f2 163f 3c9c e13e 5a1f 4abe 931b 5640
00000040: 01cc e7bc 162b 40be 1af7 883e 18d0 5fbe
00000050: 4ee2 a43e 0781 afbe 51db dd3f 5609 14bf
00000060: 2f0a 38be e317 b9bd 1b7d 4cbe 2428 0dbf
00000070: c410 05bd b561 2f3d 0881 533e 4cd3 023f
00000080: f92c d9bd 4b85 bd3e 101a ec3e 369c 29c0
00000090: 40e4 5dbe c32d 3e3e f600 b5bf 281c 6abe
000000a0: 5230 36be aa53 42be 1528 e53e 3716 8fbd
000000b0: 3e32 24bf 22c4 0cbe 466a 9fbe 7e73 b43e
000000c0: 8f72 44bf 3c45 623e 4354 c1bd a657 70be
000000d0: 0b1e 133f 343b 70bc 4bdb 003f 4211 b8bc
000000e0: 810b df3c f1df 13be 5b41 d23e f17f 91be
000000f0: 5f86 103f 3ed1 89be cc33 95bc c340 e53f
00000100: 9583 c6bf 4468 84bb c1bc efbd dec8 b13c
00000110: e5a1 12bd 002f 1e3e 6e7d 133e c35f 4c3e
00000120: c35c 69bc 090e 8bbe aa97 073e 49d6 e53d
00000130: 12cf 543f 6694 2cbe cdb9 64be e65b 4240
00000140: 5d90 ed3c e858 503e cb70 09bd 92f5 a33e
00000150: 8773 213e 0991 243e 3022 9e3f afb1 1cbd
00000160: 8b5a 18be f76e c13e ebfc 9ebb 09c8 88bf
00000170: ee59 98be 1117 b2bd 1de3 0abe a247 543f
00000180: d7be d43c 165d 21be c9eb 8d3d 8ab2 b5bf
00000190: e5e8 73bc 67ba f43d 83a4 d8bf 679c 77be
000001a0: c9d0 a6be 9348 c1be 9239 a9bd 0c55 ed3c
000001b0: 6d4c b7be 6ac6 95be 6b95 25be d5ad cbbd
000001c0: 593e debd 7216 04bd 5e97 923d 9072 ddbb
000001d0: dc8e 203f 658f f3bd 6eea a73e 3408 64be
000001e0: 252e e03d 2912 5a3e a1aa 133f c518 0ebf
000001f0: 19c0 7ebe 65fe f73d d46a 2fbd 28d8 9a3f
00000200: 14ec 133f 54bc b63d 8d07 983e 7ffb 4fbe
00000210: 13bc 6e3e a8b7 63be f122 873e 5e1d be3e
00000220: d6aa 5b3e 1b05 d8bd 599c 8bbe 5b5c a5be
00000230: 916b d6be 01cd 11bc bbb2 2d3f b60a 5abf
00000240: a15e d1bf 0ff6 453e 07b5 d3be 67f4 893d
00000250: 7c8c 7abe 36ab 823e 9990 6dbf 3d0b 8b3f
00000260: d8a4 143e b3a7 71bf f91a 1abd 7504 a5be
00000270: 2840 a6bc 5eb7 fb3d ba53 223e 2b1e 91be
00000280: fa4f ce3c 3c1f fabd 5236 133d 9d02 533f
00000290: eee9 833e 7292 dc3d f6a4 db3e 7e9b 4d3e
000002a0: 6ede 7c3e f3e8 853f 98a2 71bf 46c9 af3e
000002b0: 6f24 6b3f 9c2b 803e f75a 953e 3113 133f
000002c0: fbc5 d53f 8fcb 04be c0e3 5fbe 636f 5abe
000002d0: a303 52bf 1ede ff3d a4b3 c33c 263f 89bd
000002e0: a863 2cbe a108 ecbc 5655 8fbd 640f 903f
000002f0: b2b9 0d3e 6924 0e3d 4ec1 50bc 6ca0 263f
00000300: 6ef5 213f 3f3c 32bd 7724 6bbc 601d ec3d
00000310: 8940 363e 6081 a23e 0a9a 81bd 6c94 073f
00000320: 7dec 84bd 0740 98bf 4c39 fb3b 3803 823f
00000330: cf70 783e f654 91bd a5cf 403f 5b25 343f
00000340: 8c09 20bf 4640 b9bd fffd ce3d 9a04 42bf
00000350: 625b 2d3f c943 2c3e 72e8 1f3f 4148 ccbf
00000360: e68f 263f dae3 8c3f 4608 533e b02a 3bc0
00000370: 0e75 69be 0f2c 163f ffa8 1fbe bfd9 01c0
00000380: 7781 ae3d 28d5 9b3d 8bde 323e 80ba e1be
00000390: 102c 39bf 9937 2f3d 5f88 29c0 ab47 efbd
000003a0: 1660 1dbf f5ae 54bf fe96 52be a53f 963e
000003b0: 3971 ebbf 5950 1bbe 0892 973e 40cd 3b3f
000003c0: 8301 bdbe 277b 993e cde7 103f 23dc 813e
000003d0: 9da0 17be 957e 2c3e 8ff9 9dbe a794 bdbd
000003e0: e45a 6abd 9cc2 62be 8d66 fe3f ede7 c4bf
000003f0: 4a53 a4be 52e1 5abe e3f4 2fbc 6fdf 2bbd
-3.4575047 0.21715057 0.06633276 -0.21943259 -0.037511874 0.15693678 -0.25363356 -0.12421265
-0.1736526 0.9100804 0.2507377 -0.086041644 0.5896362 0.4406451 -0.19738522 3.345433
-0.028295519 -0.18766436 0.26751024 -0.21856725 0.32203907 -0.34278128 1.7332555 -0.57826746
-0.17972635 -0.09037759 -0.19969599 -0.55139375 -0.032486692 0.04281779 0.2065469 0.51103663
-0.10604281 0.37015757 0.46113634 -2.6501594 -0.21669102 0.18572144 -1.4140918 -0.22862303
-0.1779187 -0.18977228 0.44757143 -0.06986659 -0.64139163 -0.13746694 -0.31135768 0.35244364
-0.767373 0.22096723 -0.094399 -0.23470935 0.57467717 -0.014662553 0.50334615 -0.022469167
0.027227165 -0.14440896 0.41065487 -0.28417924 0.56455034 -0.26917452 -0.018213175 1.7910389
-1.5508906 -0.0040407497 -0.11705924 0.021702226 -0.035798926 0.15447617 0.14403316 0.19958405
-0.0142433075 -0.27159145 0.13241449 0.11222512 0.83128464 -0.16853485 -0.22336502 3.036859
0.028999502 0.20346415 -0.033554833 0.32023293 0.15766726 0.16070952 1.2354183 -0.03825539
-0.1487829 0.37779972 -0.0048519275 -1.0686046 -0.2975611 -0.08695806 -0.135632 0.82921803
0.025969906 -0.15758166 0.06929738 -1.4195111 -0.014887069 0.11949616 -1.6925205 -0.24180757
-0.32581165 -0.37750682 -0.08262934 0.028971218 -0.35800496 -0.2925294 -0.1617028 -0.09945265
-0.108517356 -0.032247968 0.07157777 -0.0067580417 0.62717986 -0.11892585 0.32796043 -0.22268754
0.10946301 0.2129599 0.57682234 -0.55506545 -0.24877967 0.12109069 -0.04282649 1.2097216
0.577821 0.089226395 0.2969326 -0.20310782 0.23313932 -0.22238028 0.26393846 0.3713178
0.21451887 -0.10547849 -0.2726772 -0.32297024 -0.41878942 -0.008898974 0.67850846 -0.85172594
-1.6357003 0.19332145 -0.4134905 0.06736069 -0.24467653 0.2552125 -0.92798764 1.0862805
0.14516008 -0.94396514 -0.03762338 -0.32229963 -0.020294264 0.12290834 0.15852252 -0.2834333
0.02518462 -0.12212989 0.035940476 0.8242586 0.25764412 0.1077012 0.42899293 0.20078847
0.24694225 1.0461715 -0.94388723 0.34333247 0.9185247 0.2503327 0.29170963 0.5745116
1.6701044 -0.12968276 -0.21864223 -0.21331553 -0.820368 0.12493537 0.02388937 -0.06701498
-0.16834891 -0.028812708 -0.069986984 1.1254697 0.13840368 0.034702692 -0.0127414 0.65088534
0.6326512 -0.043514486 -0.014351956 0.1152904 0.17798056 0.3173933 -0.06328209 0.5296085
-0.06490419 -1.189454 0.0076667424 1.0157232 0.24261783 -0.07096283 0.7531684 0.703695
-0.6251457 -0.09045462 0.1010704 -0.7578827 0.67717564 0.16822733 0.6246406 -1.595955
0.6506332 1.1007035 0.20608625 -2.9244804 -0.22798559 0.5866098 -0.1559181 -2.0289152
0.08520787 0.07609016 0.17467706 -0.440876 -0.7233286 0.04277763 -2.6489484 -0.116835915
-0.6147474 -0.83079463 -0.20565411 0.29345432 -1.8393928 -0.15167369 0.296036 0.7336006
-0.36915216 0.2997677 0.566037 0.25363263 -0.14807363 0.16845162 -0.3085446 -0.09256869
-0.057215586 -0.2214455 1.9875046 -1.5383278 -0.32094795 -0.21375015 -0.010739538 -0.04196113

hh/upward/b f4 [256]
00000000: 6dba 57bf db98 fbbf 0292 b93f c150 c23f
00000010: 4e5d ffbc e42b 153f b03d 31be 260c 8ebf
00000020: a758 9140 1957 92bf a74d 9dbd 7b76 bbbe
00000030: 9aee 5d3f ddd1 133f 5989 9bbf 3a34 83bf
00000040: d3e1 3c3d 1871 14bf 3865 76bf 0270 883f
00000050: 7197 22c0 ff4b abbf d97d 82bf cee2 f7bf
00000060: 5925 233d aa2a 233f ace1 6ebe 0a62 d03e
00000070: 188e 053f e3b6 b0bf b783 afbf 37a0 19bf
00000080: 0304 343e d0d7 f7bf 4890 893f bf4c e13f
00000090: 85de 36c0 51f9 ff3e 059d 1fbf 33b6 ae3e
000000a0: 4e99 a6bd e778 8e3e 46c8 7dbf 19b6 1d3d
000000b0: df46 8d3f 742f babf 28ef 743f f920 6d3f
000000c0: fca6 b0be 2488 dcbf fc01 aebf e70d a5be
000000d0: ca88 cf3f 6cc7 273f 9e8f d7bf e59a c23f
000000e0: f0a9 2a40 e44c 63bf 00d6 0cc0 feb7 fcbf
000000f0: a198 0840 2076 21bf 2f08 30bf 06b8 a2bf
00000100: bf09 83c0 9181 fe3f 18a4 7fbf 3552 433f
00000110: 6df0 53be a088 8ebf 1ce8 c0be beb1 513e
00000120: ac08 283f 3e65 e2be dc35 c43f 15e3 54bf
00000130: 6b95 5640 a629 9a3f 429d edbc 7c39 d93e
00000140: ef0e f13f 78e1 79bf 0d2a a03f 4bc7 8ebf
00000150: ee00 b23f eece fbbf cc31 bfbf 0089 d0bf
00000160: 9b3d fd3d ac3f 1fbe 6d26 553e a8cd 8bbf
00000170: 6bd1 cd3f 1789 0d3f 3d5b b4be cc22 1c40
00000180: dd12 e2bf 3d49 9dbf ae9e 813f a332 57bf
00000190: 89df aebf d607 89bd 1fff b5bf 7a1f be3e
000001a0: 66e4 9b3f eca5 38be a65c 303f 6d33 d9be
000001b0: 58fd acbf f91c c83b 0dd1 f33f 5ec1 b2bf
000001c0: 2b24 a8be 9f6e 93c0 0240 aebe 18f8 27bf
000001d0: 2d2a cd3f d288 f2bf ad83 ad3f 16bf 0abe
000001e0: 1e58 bd3f 39f6 bd3d abb2 c9be 5e5d 0dbf
000001f0: 0f55 4dc0 cc8b c5bf 8d5c f9be 6258 c4bf
00000200: 4e00 88bf da26 cbbf bb3d 323f 92e0 37be
00000210: 8dc1 af3f b776 5bc0 07f5 86bf e2d8 75c0
00000220: 246a 813f 5c46 4ebf b4d3 9e3e 7e42 bdbf
00000230: 9b68 bb3e 5128 47c0 d4f6 f2be 0d7a 0ebf
00000240: b11c acbe 607b fb3e 1a2f 1bbf 009d 03bf
00000250: 03e0 57c0 4204 23c0 0bc3 1dbf 913a 8bbf
00000260: df77 ad3f ae7c 1f3f 2c8d ed3e 72f6 cebf
00000270: 3572 373f 5a09 efbf 5684 a5bf 5858 e0bf
00000280: 3843 6cbc c271 12c0 76ee 46bf 0964 3840
00000290: 73ce a13f 1833 723d b95f dcbe fcf4 27bf
000002a0: 437f f7be 7bff 4ebf b182 253f 1753 573f
000002b0: e2d9 1c3d c034 0ac0 4947 03bf f2bf aebf
000002c0: 33ee 1dc0 5e71 793f a6d8 ebbe 613f 323f
000002d0: 626a a83e 38b6 10c0 f6e1 1f3f 2c1f 36be
000002e0: 838e ffbf d888 13c0 6c56 a33e f7e3 c4be
000002f0: 81c2 5a3f af40 dabf 605b c8bf 4f0e 49bf
00000300: 2bf6 8fc0 fe15 1d40 6d31 2740 d41e a3bf
00000310: db7c 81bf fe90 0cc0 744c c5bf cb1f 79bf
00000320: dc40 a03f f116 43be fc26 1ebf b0fa 85bf
00000330: ea1a da3e 9cf5 bf3f 713d 093f a921 203f
00000340: c4e9 febe f846 3fc0 94c6 c5bf 84f5 a03d
00000350: d483 e7bf 91ca a1bf 3e00 85bf 6b43 02c0
00000360: 5f00 0a40 332b 66c0 111f 953f 633c 78bf
00000370: 1a3a 1640 6e05 83bf 7b5a 0d3f bffe 23bf
00000380: b2fc 0c40 c8ae 92bf efd2 83bf da2d 343d
00000390: 3d6e 373f 48b3 a3be 8fa8 08bf 660f 383e
000003a0: 6610 d8bf 122a 10bf e990 5abf 3c11 c63e
000003b0: 88e7 f8bf 6b04 30c0 080e a93e 540f 65bf
000003c0: 14cd 153f 4a9b 93bf ae0b b93f 0f6f 11bf
000003d0: 031d fdbf 5fde 0fc0 91a5 d5be 8a03 933e
000003e0: 6936 a53f e8c4 f33f c5ec 3d3f ade5 83bf
000003f0: dc14 58c0 9029 cfbe 85c0 0a3f 3b46 98bf
-0.8426884 -1.9656023 1.4497683 1.5180894 -0.03117242 0.58270097 -0.17308688 -1.1097457
4.542072 -1.143283 -0.07680827 -0.3661383 0.866922 0.577421 -1.215129 -1.0250313
0.0461138 -0.5798507 -0.962482 1.0659182 -2.5404932 -1.3382567 -1.0194656 -1.936609
0.03983054 0.63736975 -0.23328274 0.40699798 0.5216994 -1.3805813 -1.3712071 -0.60010093
0.17579655 -1.9362736 1.0747156 1.7601546 -2.8573315 0.499949 -0.6234897 0.34123382
-0.08134709 0.27826616 -0.9913372 0.03850374 1.1037253 -1.4545732 0.95677423 0.9262844
-0.345024 -1.7229047 -1.3594356 -0.3223717 1.621362 0.6553867 -1.6840703 1.520352
2.6666222 -0.887892 -2.2005615 -1.974365 2.1343157 -0.6307087 -0.6876249 -1.271241
-4.0949397 1.988329 -0.9985976 0.7629731 -0.20697184 -1.1135445 -0.37677085 0.2047796
0.6563823 -0.44217867 1.5328937 -0.83159 3.3528697 1.204396 -0.02900565 0.4242667
1.8832682 -0.97609663 1.2512833 -1.1154569 1.3906534 -1.9672525 -1.4937072 -1.6291809
0.12365266 -0.15551633 0.2081544 -1.0922136 1.6079534 0.5528731 -0.3522586 2.4396238
-1.7662007 -1.2287976 1.012655 -0.8406164 -1.3661968 -0.06690948 -1.4218482 0.3713339
1.2179077 -0.18032044 0.6889137 -0.42422047 -1.3514814 0.0061069694 1.9048172 -1.3965261
-0.32840094 -4.6072536 -0.3403321 -0.65612936 1.6028496 -1.8948004 1.3555809 -0.13549456
1.4792516 0.09275479 -0.39394125 -0.5522059 -3.2083166 -1.5433288 -0.48703423 -1.5339472
-1.0625093 -1.5871232 0.69625443 -0.1795676 1.3730942 -3.4291208 -1.0543526 -3.8413625
1.0110517 -0.8057611 0.31020892 -1.4785917 0.36603245 -3.1118357 -0.4745394 -0.55654985
-0.3361564 0.49117565 -0.60618746 -0.5141144 -3.3730476 -2.5471349 -0.61625737 -1.0877248
1.3552207 0.6229962 0.46396768 -1.6168959 0.7165864 -1.8674729 -1.2931011 -1.752696
-0.014420323 -2.2881932 -0.7770761 2.8811057 1.2641128 0.059130758 -0.4304178 -0.6560819
-0.4833928 -0.8085858 0.64652544 0.8411116 0.038293727 -2.1594696 -0.5128065 -1.3652327
-2.4676635 0.9743861 -0.46063727 0.6962796 0.32893664 -2.2611217 0.62454164 -0.17785329
-1.9965366 -2.3052273 0.31901872 -0.38455173 0.8545304 -1.705099 -1.5652885 -0.7853746
-4.4988 2.4544673 2.6123917 -1.2743783 -1.0116228 -2.1963496 -1.5413957 -0.9731414
1.2519794 -0.1905172 -0.61778235 -1.0467129 0.4259866 1.4996829 0.5360938 0.6255136
-0.49787724 -2.9887066 -1.5451226 0.078593284 -1.8087106 -1.2639943 -1.0390699 -2.0353649
2.1562726 -3.5963867 1.1650106 -0.9696714 2.3472962 -1.0236032 0.5521619 -0.64060587
2.2029233 -1.1459589 -1.0298747 0.04398904 0.71652585 -0.31972718 -0.533822 0.17974624
-1.6880004 -0.56314194 -0.85377365 0.38685024 -1.9445658 -2.7502697 0.33018517 -0.89476514
0.5851605 -1.1531765 1.4456689 -0.56810087 -1.9774479 -2.2479475 -0.4172788 0.28713638
1.290723 1.9044466 0.74189407 -1.0304466 -3.3762732 -0.40461397 0.5420001 -1.1896433

xh/W f4 [64, 8]
00000000: 5885 44bf 9778 d4bf c539 36bf cf30 ddbf
00000010: 97f4 56bf eeea 753e 7e2b 39c0 d611 88c0
00000020: 423a adbc beb0 973d 4c47 1d3e a818 67bd
00000030: 8c38 73bf 9cb1 80bf 8181 cf3f f80a d83d
00000040: 7e6e bcbb f8ac 06bd 439d 8cbe 9b10 633e
00000050: 6a63 3340 c74f fc3f c43f 97c0 d8a5 41c0
00000060: 5f4e 67bd d426 48bd 719a 10be fb5d 9f3d
00000070: 9e08 03bf 3b56 ee3d 5578 823e 6849 5f3f
00000080: 3327 c0ba 8509 aebc 204e 113d d37c 99bc
00000090: 142f cb3f bf3c a13f e847 3bc0 46bd 52c0
000000a0: bb6f a4bc a303 123d 7f5f 1a3f 878b 01bf
000000b0: 28ed 4abf 73e0 8abe 8117 2340 2cd3 3840
000000c0: 24f9 d4bc a329 06bd 6c04 c63d d7f1 9cbd
000000d0: fae4 e2bd 8af7 073f 4dcd 60bf 2c6e 2e3f
000000e0: 9e13 8dbd d96e 91bc b690 26bc 9715 bf3c
000000f0: 01a1 523f fd48 20be 9681 22be 7590 c43e
00000100: dc8a 35bd ada4 233d ad3b 92bc 3ccc edbc
00000110: ff4c 22bf e19e 34bf dd09 bc3f 8962 5b40
00000120: a0b6 203f 9537 97bd 852b fabe b80a 2a3f
00000130: ba45 8d3e 5d5f 853f 5937 cd3a 544b ff3f
00000140: 94c3 b5bc ee4e 60bd 1cfb 2c3d c37d 52bd
00000150: e6ca 083e 074c c8be 5a16 c63e 54e4 b73f
00000160: 30b1 86bb 3cd1 4fbd 5d83 ee3b e39d 1f3d
00000170: a6a9 993f c9d8 1d3f aa49 24bf 0192 a6be
00000180: ed29 c1be 7154 1d3f b364 7c40 3bb3 4d40
00000190: 2773 0cbf 737c 98bf d8f7 edbe 8eba 403f
000001a0: b201 6eba 8a85 dfbc 81d6 b7bc 8c23 6f3d
000001b0: 1e4d 673f 4bcd 523f da3b 15bf d0df 083f
000001c0: 02d1 adbc 00e8 8c3c 8e39 7a3d 0509 11be
000001d0: 2fc3 9c3f 0b69 0a40 ffac 46c0 cccb b03f
000001e0: c4be 1ebf 7daa 3940 d356 4f3f 7a60 cb3e
000001f0: b72c 31bf 0a70 45bd e98e b33f 2ecd e73f
00000200: dc6e 6fbf 76b7 99be d85a 30bf 1f2c 7b3f
00000210: 1091 85bf 236b 1abf dd85 26bf ccd1 d13e
00000220: 9347 b6bc 93f3 803c 3f3e 9e3c 2554 693d
00000230: 4fb5 dbbe 21a3 08be 70ee 0140 b9e4 eb3f
00000240: 9aac 86bc 1f62 06bc 105e 923e d344 95be
00000250: a425 80bf 7d72 603e d588 8a3f f02f fd3f
00000260: d037 53bc 280a 813c 719a c63c 67f9 c63b
00000270: 4f3b 11be 6472 29be f13b 7e3d b249 93be
00000280: 5b06 973b 1cfa f43c 632d c83e f389 bcbe
00000290: 3468 89bf 07f5 eabf 3df0 1d40 6cbc 6740
000002a0: 8042 e33b c92d ec3a b3a7 cabc c5ff b93c
000002b0: 2806 19bf 454f c1be adea b8be 4b45 a1bf
000002c0: f684 81be 6093 273f 05b8 bd3f 73b1 03be
000002d0: d0c8 7abe eadc c03e 7113 18be 437f 15bf
000002e0: fa3a 13bd 02fa 0cbd b60d 18c0 a117 1d40
000002f0: ae5a 49bf 9bc9 8abf 363c 5b40 c988 8f40
00000300: 0cbf d3b9 7daa 6c3d 5c52 833e c1a0 babe
00000310: 1c8e 4bbf 80ea 733f b12d a1bf 23c7 e3bf
00000320: a488 b93c ebaf 27bd ce31 fc3f c706 07c0
00000330: 39a8 683f a465 7a3f 63df 79c0 a2bf 7cc0
00000340: 7f53 afbc 2d68 003d e39f 4abc 48ff d6bc
00000350: 6251 2ebf 76bc 3dbe 89bb 71bf a9f1 9a3b
00000360: 99e5 563e 9caf 53bd 2adf 25c0 9e5b 2840
00000370: 0248 833f d242 1840 cda6 46c0 202a 92c0
00000380: 6856 763c cd34 a5bc a081 e0bc 7a66 92bc
00000390: 2908 883f 401f 0940 1ef2 dfbf de16 b8bf
000003a0: 570a f73a 2f6a 24bd c225 a7bd c952 253d
000003b0: 78e1 a63e 7789 0c40 9115 25bf 7e18 693e
000003c0: 6b3c 3f3c e4b2 783a 9e80 a8be 212c 9f3e
000003d0: 8f67 6f3f 5af3 d13e 96db cdbd 7b40 36bf
000003e0: 959b 99bf a893 32c0 71d9 563f c38e 0440
000003f0: a0d0 5f3f 4dbc 953e 9ed4 93bd 6f3c 1240
-0.76765966 -1.6599301 -0.711819 -1.728052 -0.83966964 0.240154 -2.8932796 -4.2521772
-0.021145944 0.07406758 0.15359229 -0.05642 -0.9500816 -1.0054202 1.6211396 0.10548967
-0.0057504764 -0.0328798 -0.2746373 0.22174303 2.8029428 1.9711846 -4.726534 -3.0257473
-0.056471225 -0.048865154 -0.14121415 0.07781597 -0.51185024 0.11637541 0.2548243 0.87221384
-0.001466012 -0.021244774 0.035474896 -0.018736279 1.5873742 1.2596663 -2.9262638 -3.2928023
-0.020072808 0.035648 0.60301965 -0.50603527 -0.7926812 -0.27124366 2.5483096 2.887889
-0.025997706 -0.03275455 0.09668812 -0.07663315 -0.1107883 0.5311209 -0.87813264 0.6813686
-0.06888507 -0.017753052 -0.010166338 0.023325725 0.8227692 -0.15652843 -0.15869746 0.38391462
-0.04432188 0.03995197 -0.017850721 -0.02902805 -0.63398737 -0.7055493 1.469051 3.427889
0.62778664 -0.07383648 -0.48861328 0.66422606 0.2759226 1.0419728 0.0015656754 1.9944863
-0.022187985 -0.054762773 0.042231664 -0.051389467 0.1335865 -0.39120504 0.38688928 1.4366555
-0.004110478 -0.05073665 0.0072788433 0.038968932 1.2004898 0.6165891 -0.641749 -0.32533267
-0.377273 0.6145697 3.9436462 3.2140644 -0.5486321 -1.1912979 -0.46478152 0.7528466
-0.0009079232 -0.027285356 -0.02244115 0.05838351 0.90352046 0.823445 -0.5829445 0.5346651
-0.021217827 0.01720047 0.061090045 -0.14163597 1.2247065 2.1626613 -3.1043088 1.3812194
-0.62009835 2.9010308 0.8099186 0.39722043 -0.69208854 -0.048202552 1.4027988 1.8109491
-0.93528533 -0.30022782 -0.68888617 0.981142 -1.0434895 -0.6031973 -0.6504801 0.40980375
-0.022250926 0.015741145 0.01931679 0.056965012 -0.42911765 -0.13343479 2.030178 1.8429176
-0.016439725 -0.008202105 0.2858739 -0.2915407 -1.0011487 0.21918674 1.0823008 1.9780254
-0.012891725 0.015751913 0.024243565 0.0060722115 -0.1418278 -0.16547543 0.062068883 -0.28767163
0.004608912 0.029904418 0.39097127 -0.36823997 -1.0734925 -1.8356026 2.467788 3.6208754
0.0069354177 0.0018019016 -0.024738168 0.022704968 -0.5977502 -0.3775579 -0.36116543 -1.2599272
-0.25296754 0.6545925 1.4821783 -0.1286066 -0.24490666 0.37668544 -0.14851166 -0.5839731
-0.035944916 -0.034418114 -2.3758368 2.4545672 -0.7865399 -1.0842775 3.42555 4.4854474
-0.00040387397 0.057779778 0.25648773 -0.3645077 -0.79513717 0.95279694 -1.2592069 -1.7795147
0.022648163 -0.040939253 1.9702699 -2.1097887 0.9088169 0.9781134 -3.9042594 -3.9491963
-0.021402119 0.03134935 -0.0123672215 -0.026244774 -0.6809293 -0.18528923 -0.9442678 0.004728515
0.20986022 -0.051681146 -2.5917459 2.6305919 1.025635 2.3790784 -3.1039307 -4.567642
0.015035249 -0.020166779 -0.02740556 -0.01787113 1.062749 2.1425323 -1.7495763 -1.4381979
0.0018847686 -0.040140327 -0.081614986 0.040362153 0.32593894 2.1958902 -0.6448603 0.2276325
0.01167212 0.0009487106 -0.32910627 0.31088355 0.9351739 0.41005975 -0.10051648 -0.7119214
-1.2000605 -2.7902622 0.8392554 2.0712135 0.8742771 0.29245225 -0.07218288 2.2849386

xh/b f4 [64]
00000000: 336b 0fbf 7d69 bdbd 6b57 39bf ce6b 253e
00000010: f749 64bf 1296 853f 5117 02ba f0fd 3a3e
00000020: 582e 603f 5d4b 1b3e 1aeb c63e f778 403e
00000030: 9660 913e 7578 e53e 4d66 d93e 9c38 613f
00000040: f4f0 c23e 1828 543f d7ae 0d3f 5221 d0bd
00000050: b59e 473f 226a 20bf c6e6 853e d976 af3f
00000060: e5e6 42bf 8b1d babf c2dd e9be 57e1 a6bf
00000070: cbcd e23c 06d6 0a3f 74d8 2c3e c26f 7c3d
00000080: 5e3b 05bf 3135 ee3d aba9 da3f 7f1c 0fbf
00000090: c819 85bf 043f f13e afd2 c5bf 7435 97bf
000000a0: 1398 e23d 86b1 a73f a695 593f 10e8 343f
000000b0: 27fa b5bd 254f 0ebf e230 aabf d078 a93f
000000c0: d602 9fbe 685f e4be d2f7 91bf 5a21 8ebe
000000d0: 7fa6 803f 162e 9dbc 6990 853f 7256 b03e
000000e0: b7bc 433f 6f97 d0be 3d8c 973f 0f23 9d3f
000000f0: 6d70 0540 fb63 b1bf 669d 703c 11a3 9a3f
-0.5602295 -0.09248636 -0.72399014 0.16154405 -0.8917536 1.0436423 -0.0004962581 0.18260932
0.87570715 0.15165468 0.38851243 0.18796144 0.28394002 0.44818464 0.42460862 0.87977004
0.38074458 0.8287368 0.5534491 -0.10162605 0.7797654 -0.62661946 0.2615263 1.3708144
-0.7613357 -1.4540266 -0.45677 -1.3037518 0.02768602 0.54232824 0.16879445 0.061630018
-0.5204371 0.11631239 1.7083029 -0.55902857 -1.0398493 0.4711839 -1.545492 -1.1813188
0.11064162 1.3101051 0.8499397 0.706666 -0.088856034 -0.55589515 -1.3296168 1.3239994
-0.3105685 -0.4460404 -1.1403754 -0.2775982 1.005081 -0.019187015 1.0434695 0.34440953
0.7645983 -0.40740535 1.1839672 1.2276324 2.084987 -1.3858637 0.014685964 1.2081014
