code/python/slip_model/8_64_1_5_10_29500_40_use_train_slip_model.npz (npz, 127028 bytes, 6 tensors)

hy/W f4 [1, 64]
000000 58 68 05 3e 88 e1 3e be 0d 3e 15 3e 02 6a a3 bd
       0.13028085 -0.18640721 0.14574452 -0.07979204
000010 69 cf 04 3e ab 03 4a be a9 d8 32 3c 36 d0 ad bd
       0.12969746 -0.19727962 0.010915914 -0.08486979
000020 08 f4 e4 3d cf b3 03 3e 9e ef 8f 3d 2e 55 6c 3d
       0.11179358 0.1286156 0.07028125 0.05769842
000030 b4 e8 72 bd 14 cd 84 3d 49 06 34 be 66 77 2d be
       -0.059303954 0.06484428 -0.17580523 -0.16940078
000040 c9 77 ef be 70 1c 9a 3e 05 59 9c 3d 1b ee 1d 3c
       -0.46771076 0.3009982 0.07634167 0.009639288
000050 14 3b 40 3a bf 17 17 be 8a bc 23 be f4 d9 85 b8
       0.0007333022 -0.14755152 -0.1598989 -6.382531e-05
000060 78 67 86 3d e9 c8 4c ba a5 8e f9 3d df d9 58 3c
       0.06562704 -0.00078119204 0.121854104 0.013235538
000070 d7 e7 66 3e f0 cd 86 bd 80 44 7a 3e 2b 0c 07 3e
       0.22549377 -0.06582248 0.24440193 0.13188235
000080 0f 1b 4e bd b5 ea c9 3e 6d c2 34 3e bf 98 c0 3e
       -0.050318774 0.3943688 0.17652293 0.37616536
000090 81 d3 6d bd 85 8b 3f 3e 86 64 f7 3d 89 45 f7 bd
       -0.058063034 0.18705566 0.1207972 -0.1207381
0000a0 8f 43 30 be 36 ee 2a be 3c c0 5c 3d 9b fa 4f 3e
       -0.17213272 -0.16692433 0.053894266 0.20310442
0000b0 e0 fa 1f be 56 64 78 3e d4 16 06 be 3f 87 f1 3d
       -0.15623045 0.24257025 -0.13094646 0.11793374
0000c0 06 23 a5 bd 7b a2 13 3c e0 c1 26 3e 45 e6 8d bd
       -0.08063321 0.009010906 0.16284895 -0.06928686
0000d0 f4 7b 52 be 4e f5 72 be e8 55 62 3e a9 2d 68 3e
       -0.20555097 -0.23726389 0.22103083 0.22673668
0000e0 aa 3e 81 3e 22 fb 2f 3e 68 cc 77 3e f7 f8 bf 3d
       0.2524312 0.17185643 0.24199069 0.09373658
0000f0 5d 42 53 bd 67 b3 c1 3c b2 a8 98 3d 45 81 a5 bd
       -0.05157696 0.023645116 0.07454051 -0.08081297

hh/lateral/W f4 [256, 64]
000000 fd 50 6c bf ba 2b 20 bf 17 1e 48 be 71 e5 1c c0
       -0.9231108 -0.6256672 -0.19542728 -2.451504
000010 41 86 a8 bf 33 b3 13 3f e8 83 2d 3f 97 1a 14 c0
       -1.3165971 0.5769531 0.677794 -2.314123
000020 1b c0 e4 bf 0d 07 53 3e 60 a7 95 3f 94 54 c7 bd
       -1.7871126 0.20608158 1.1691704 -0.09732929
000030 b4 61 e5 3f 59 1a fb bf cf 6e 1c bf 97 2b 95 3f
       1.7920442 -1.9617416 -0.6110658 1.1653928
000040 65 f6 46 3e aa 11 58 3f e4 98 e1 be 84 4f d8 bf
       0.1942993 0.84401953 -0.4406196 -1.6899266
000050 38 f3 99 bf 2a cd 43 3f e0 bd 73 bf e4 1f 72 3f
       -1.202735 0.7648493 -0.952116 0.9457991
000060 8b 39 71 3e 65 df 89 3f 6b 12 f7 3d 2e 51 04 3f
       0.23557107 1.07713 0.1206406 0.5168637
000070 6d b5 cc be ec 68 e2 bf 9f be 82 bf 49 e2 29 3e
       -0.39982167 -1.768827 -1.0214423 0.16590227
000080 68 4c 1c c0 8c ad 06 40 47 d1 10 40 50 b6 00 3f
       -2.4421635 2.1043425 2.2627733 0.50278187
000090 33 cc e4 bd 8f ed 84 3f 0f 01 09 bf 28 d5 db 3f
       -0.111717604 1.0384997 -0.5351724 1.7174425
0000a0 ca 3b c8 be 71 26 f0 3f 26 3e b8 3f 9d c0 f0 bd
       -0.39108115 1.8761731 1.4393966 -0.11755488
0000b0 90 d7 22 3f 97 be 69 bf ba 2d a6 bf a0 53 75 3f
       0.6361017 -0.9130644 -1.2982705 0.95830727
0000c0 11 bc 5a 3f d8 53 0d c0 62 a7 ac bf 4f 4f 07 c0
       0.85443217 -2.2082424 -1.3488581 -2.1142156
0000d0 a8 1a b1 bf 89 b0 00 bf 47 17 f4 bf b7 41 cc bf
       -1.383626 -0.5026937 -1.9069604 -1.5957555
0000e0 b0 69 96 3e f1 1b df bd 35 46 51 bf 3b 92 6b 3f
       0.29377508 -0.10894001 -0.8174775 0.92020005
0000f0 9e a1 c8 bf 9b eb b2 bf ce aa f8 be fb dc 1e 40
       -1.5674322 -1.3978151 -0.48567814 2.4822376
000100 21 89 ad bf 15 d5 58 40 de b1 e2 bf dc 74 8c 3e
       -1.3557473 3.3880055 -1.7710531 0.27432907
000110 b4 56 09 bf 77 0f 80 be f7 d1 a8 be a4 ba 01 c0
       -0.53647923 -0.250118 -0.3297269 -2.0270166
000120 74 4d 1c 3f 66 d3 64 bf 39 9f 02 c0 37 dd cb bf
       0.61055684 -0.8938507 -2.0409682 -1.5926884
000130 9d c8 43 bf 9f 0e 46 c0 4f 66 a0 3f ac e2 6b be
       -0.76477987 -3.0946424 1.2531222 -0.23035687
000140 e6 20 0a 3f e2 70 02 bf 1c 31 c3 3e ae 6a e2 be
       0.5395645 -0.50953496 0.38123405 -0.44222015
000150 3d 27 94 40 90 5d d1 bd 01 32 0d c0 47 9c d8 3f
       4.62979 -0.10222924 -2.206177 1.6922692
000160 ff 31 c4 be 67 5e ab bf 97 91 3d 40 32 2c 73 3f
       -0.38319394 -1.3388184 2.962011 0.9498931
000170 91 96 1a 3f 8b fe 33 bf 53 91 e3 3d f3 56 49 40
       0.60385996 -0.70310277 0.11111703 3.145932
000180 c4 39 5e c0 4d 57 92 3e eb 42 7f bf ee ef 0d bf
       -3.4722757 0.2858223 -0.99711484 -0.5544423
000190 c4 a6 44 3d 1a bd 25 c0 69 35 b2 3f fd ff 4f bf
       0.048010603 -2.5896668 1.392255 -0.8124998
0001a0 57 6c 84 3f 23 8e 35 c0 88 2a 77 bf 46 00 1d c0
       1.0345563 -2.8368003 -0.9654927 -2.4531417
0001b0 e1 42 ce bf 60 94 55 bf a9 a5 40 be 7d 27 ca 3f
       -1.611416 -0.8342953 -0.18813194 1.5793301
0001c0 03 22 08 3f 31 6a 43 c0 b5 85 e0 be c0 a6 ad be
       0.531769 -3.0533564 -0.4385201 -0.33916283
0001d0 72 6f 7f 3f a3 dc 09 bf f2 4e 57 bf ef b5 97 bf
       0.9977943 -0.5385229 -0.84104836 -1.1852397
0001e0 5c a0 81 3f 36 f5 fc bd 2e 76 02 40 b2 73 89 be
       1.0127063 -0.12351458 2.038463 -0.2684608
0001f0 6b 3c fb 3f 10 54 10 3f fd 11 86 be 56 f4 53 bf
       1.9627813 0.5637827 -0.261856 -0.827947
000200 e1 55 ec bc 07 91 10 3f c8 da 4f 3e 17 13 00 40
       -0.028849544 0.56471294 0.20298302 2.0011652
000210 f6 c5 06 be 19 08 0f bf 63 ea b9 3f 9c 1e 60 3f
       -0.13161454 -0.5587173 1.4524654 0.87546706
000220 4b a8 11 c0 74 dc a0 bf 4b 13 f3 3f 78 28 11 3e
       -2.2758968 -1.2567277 1.8990263 0.14175594
000230 45 67 d2 3e fa 7d 22 3f 0f b1 a5 be 37 ab 81 c0
       0.41094413 0.63473475 -0.32361647 -4.0521502
000240 83 5e 91 bf ba ab 1e bf 9c 0c 99 bf 57 37 5c 3f
       -1.1356968 -0.61980784 -1.1956973 0.8602194
000250 14 6e 8b c0 69 f2 db be 2b b9 80 3f 55 58 29 c0
       -4.3571873 -0.42958382 1.0056509 -2.6460164
000260 e8 98 0d c0 19 7c 9a bf d8 10 68 3f c1 36 f2 bd
       -2.2124577 -1.2069122 0.906507 -0.1182685
000270 a4 0e 0e 40 92 92 6c be 79 06 5f 3e 6a 46 ac 3f
       2.2196436 -0.23102787 0.21779813 1.3458989
000280 62 bd 5a 40 2c 72 04 40 84 e8 25 bf 30 d8 01 3e
       3.417809 2.0694685 -0.64807916 0.12680125
000290 ea 9c d1 bf 50 ca 10 3f a3 fc bc 3f cf eb 91 bf
       -1.6376011 0.56558704 1.4764599 -1.1400088
0002a0 ee ec c7 bf 0d 7d 27 40 77 95 45 be 9a 4f d3 be
       -1.561918 2.6170075 -0.19295298 -0.4127167
0002b0 18 44 89 be e6 df 61 bf f9 cd 11 3d a2 2e 45 3f
       -0.26809764 -0.88232267 0.03559682 0.7702428
0002c0 e5 f9 d1 bf a2 a1 00 c0 52 a2 95 3d ef 06 bc 3e
       -1.6404387 -2.0098653 0.07306351 0.3672404
0002d0 fe 9c 32 c0 2d ec 48 3f db e3 aa 3e d4 8e 78 bf
       -2.790832 0.78485376 0.33376965 -0.9709294
0002e0 32 c9 4e bf 36 c6 96 3e a8 7c a3 3f f8 a8 86 3f
       -0.8077575 0.29448098 1.2772417 1.0520315
0002f0 3f 54 79 3f 64 62 08 40 33 b1 7a bf 50 de 33 3f
       0.97394174 2.1310053 -0.97926635 0.70261097
000300 28 22 49 c0 eb ee 12 40 f6 b0 54 40 21 c3 2f bf
       -3.1427097 2.2958324 3.3233008 -0.6865712
000310 68 6b 74 3f a8 7f 1b bf 4b c4 72 3f 92 5f cc bf
       0.9547639 -0.6074166 0.9483077 -1.5966666
000320 16 a7 28 40 c7 96 68 bf ea 40 b4 3f 72 1d 0e 40
       2.635198 -0.9085507 1.408231 2.2205472
000330 86 ce 84 40 e5 13 05 c0 01 67 a2 bf 1d 70 eb bf
       4.1502104 -2.0793393 -1.2687684 -1.8393589
000340 9b cc 90 bf a8 47 97 3f 0c af 69 c0 1a b0 e8 bf
       -1.1312441 1.1818743 -3.651309 -1.8178742
000350 27 76 2f bf a3 e3 70 40 36 60 b2 3f 05 30 c2 be
       -0.6853966 3.7638938 1.3935611 -0.3792726
000360 b5 fd 58 40 a0 c6 47 c0 a1 90 8f bf 0e 0f 9d bf
       3.390485 -3.121498 -1.1216012 -1.2270219
000370 bb f3 b7 3e db 60 af bf 6d db c1 3f e9 14 50 3f
       0.3592814 -1.3701433 1.5145088 0.81281906
000380 4d 18 47 be 6a b3 71 c0 e4 72 34 c0 62 91 ec 3f
       -0.19442864 -3.7765756 -2.8195124 1.8481867
000390 a7 8f a4 bd c6 c9 0e 3e 0c 8a 37 3f 95 90 80 c0
       -0.08035212 0.13944158 0.7169502 -4.017649
0003a0 c9 ba 0b 3f 9a 25 ba c0 71 d2 8e be 81 df 3a bf
       0.54581887 -5.81709 -0.2789493 -0.7299729
0003b0 06 9e e8 3f 90 ce f6 3e 98 dd 74 bf 47 b3 4b 3f
       1.8173225 0.4820447 -0.95650625 0.7957043
0003c0 67 a7 22 3e 05 71 0a 3f 69 70 e2 3e 00 de b6 3f
       0.15884171 0.54078704 0.44226387 1.4286499
0003d0 2e 7d c9 3e f5 2f d2 3f 33 a9 18 40 80 be 8f 3f
       0.39353317 1.6420885 2.385327 1.1230011
0003e0 3b 3d 06 c0 21 8e 0b 40 42 86 12 be 65 82 62 3f
       -2.0974872 2.1805499 -0.14309028 0.88480216
0003f0 fd 3f 69 3f ab dc 87 3e 9c 75 c4 3e 90 c4 0c c0
       0.91113263 0.26535544 0.3837098 -2.1994972

hh/upward/W f4 [256, 64]
000000 84 f8 c5 bf df f6 96 3e 0c bc 47 3e f3 8e 03 be
       -1.5466466 0.29485223 0.19505328 -0.128475
000010 1b 5c 84 be 3c 94 77 3e 5d 6a 00 3e 26 4e d1 bc
       -0.2585152 0.2417764 0.12540574 -0.02554996
000020 3d 9a 86 3e 40 bd 2d 3f 05 81 d9 bd c9 23 f6 bc
       0.2628955 0.678669 -0.10620312 -0.03004636
000030 b0 c9 73 3d 4d c4 a5 bd e4 b3 8f be 15 7b 2f 40
       0.059518516 -0.08094082 -0.28066933 2.7418873
000040 9b e3 74 bd 01 97 1d 40 ed 45 56 3f ff b8 57 3e
       -0.059787374 2.4623415 0.8370045 0.21066664
000050 73 8d 85 bd 6e 8a 20 bf e7 ca b2 3f d2 f4 9c be
       -0.0652112 -0.62711227 1.3968171 -0.30655533
000060 a6 76 e9 3e 91 4d 38 3c 2c 7b f5 b9 a5 d2 8b be
       0.45598334 0.011248962 -0.00046821812 -0.27309147
000070 3d e0 97 3e 51 4a 99 bc 0e e3 8e bd 3d b4 b8 3e
       0.29663268 -0.018712195 -0.06976901 0.3607501
000080 8c 7c 30 bd de 7e e4 bd f5 28 a5 3e f6 ca 0e c0
       -0.043087527 -0.111570105 0.3225781 -2.2311378
000090 8b 6a f6 bd 66 6e 37 3f 46 64 0a c0 13 18 9d bf
       -0.1203204 0.7165283 -2.1623702 -1.2272972
0000a0 58 98 a6 3e e1 d1 94 be 95 54 86 3e 5d c8 9e 3e
       0.32538104 -0.29066375 0.26236406 0.3101224
0000b0 15 5c 07 bf ec f5 4a ba f4 e2 9d be 8c 43 72 3e
       -0.5287488 -0.00077423337 -0.30837214 0.2365858
0000c0 fa 2c cc be 39 9b 96 3d 94 d4 90 bf 89 95 26 bd
       -0.39878064 0.07353825 -1.1314874 -0.04066995
0000d0 b6 59 46 3e 7d 52 26 3e 79 3a 3c bd 99 00 2e 3e
       0.1937016 0.16242404 -0.0459542 0.16992415
0000e0 79 19 17 3d 05 82 5a be 65 e8 d1 3d bf d8 de be
       0.036889527 -0.21338661 0.10249404 -0.4352474
0000f0 f1 95 35 3e 29 29 0b be ff f5 a4 3e d9 c6 86 3f
       0.1773298 -0.1358992 0.3221893 1.0529433
000100 0f 02 6f bf 32 6e 01 be e9 76 ac 3d bb 6a 83 be
       -0.93362516 -0.12639692 0.08421118 -0.25667366
000110 df 3b d0 bd a5 20 57 3f 3b c3 0e 3e f3 52 c3 3d
       -0.101676695 0.84034187 0.13941662 0.09537306
000120 3a 06 89 bd 5c b0 a1 bd e8 e8 83 3b 18 f7 86 be
       -0.06690641 -0.07894966 0.0040255673 -0.26360393
000130 07 c4 f6 3e 05 80 25 bc a3 15 1d bd 61 52 03 40
       0.48196432 -0.010101323 -0.038350713 2.051903
000140 ef 53 8a 3e b8 14 c8 3f 63 59 f8 3e 34 ec f7 bb
       0.2701716 1.5631323 0.48505697 -0.0075659994
000150 8e a4 d8 bd 06 f7 29 bf 6e a5 90 3f 01 74 8b 3e
       -0.10578261 -0.6639255 1.1300485 0.2723694
000160 9e 10 e1 3c f6 a3 45 3e 6a fb 3e be b0 d6 68 bf
       0.027473744 0.19300827 -0.18650594 -0.9095259
000170 a3 44 3a 3e ee 55 0a 3e 8e f8 08 be 37 fb ca 3e
       0.18190245 0.13509342 -0.13376066 0.39644787
000180 75 32 63 3e 98 32 a6 bd 43 b1 de bd 48 33 b4 bf
       0.22187217 -0.08115119 -0.10873654 -1.407815
000190 aa a3 c4 3c 56 4f 6d 3f e5 79 14 c0 49 d6 4a bf
       0.024003822 0.9269918 -2.3199399 -0.79233223
0001a0 d3 54 3a be a4 4d 17 be 3f c6 70 3e b1 3f 83 3e
       -0.1819642 -0.14775711 0.23513125 0.2563453
0001b0 89 cc d7 be ba 7e 34 be 0f 0f 85 3d ce 8c 39 be
       -0.42148235 -0.17626467 0.06497013 -0.18120119
0001c0 e2 c4 ae be 97 27 27 3e 85 26 3e bf be 0c b6 bb
       -0.34134585 0.16323696 -0.74277526 -0.005555718
0001d0 33 18 a3 3e 67 d4 d6 3d da 72 fe be 1f 39 95 3e
       0.318544 0.10489731 -0.49697 0.29145142
0001e0 bb 2b f6 3e fa e2 bc be de 1a b1 3e 8a c0 a2 be
       0.4808024 -0.3689192 0.3459081 -0.3178752
0001f0 bd 02 ab be 29 97 33 3e de fd 1a 3f d6 7e 2f 3f
       -0.33400527 0.17538132 0.6054362 0.6855291
000200 67 37 02 3f 05 ba 41 bd 7a 13 84 bf 89 81 b2 3e
       0.5086579 -0.047296543 -1.0318444 0.34864452
000210 03 d8 b5 be 1f 41 6d bf de ed 38 bf 84 d4 a6 be
       -0.35516366 -0.9267749 -0.72237957 -0.32584012
000220 c9 f0 29 be fb 39 b0 bc 59 30 06 3e 0d 1d af 3e
       -0.16595758 -0.021512022 0.1310438 0.3420185
000230 51 9f 89 be 9f 7a c0 be 22 67 03 bf 50 9d 03 bf
       -0.2687936 -0.37593552 -0.51329243 -0.51411915
000240 5a 05 5d bf f9 91 06 bf 40 85 f7 be 84 68 bc 3d
       -0.8633629 -0.52566487 -0.4834385 0.09199622
000250 c1 87 90 3e 9c bc 47 3f da 06 55 bf 2b 9f a6 3f
       0.28228572 0.7802217 -0.8321358 1.3017324
000260 14 f6 b6 be ba 5d aa bf 48 d1 c8 be f5 94 be be
       -0.35734618 -1.3309853 -0.3922217 -0.3722302
000270 9a 30 83 be bf 0d 4f 3d 65 a4 21 3f 29 5f a3 be
       -0.25623018 0.05055022 0.6314147 -0.3190854
000280 c0 c0 13 bf 5e fc 04 3d ce 1d aa bc 4a f3 32 3f
       -0.5771599 0.03246724 -0.020766165 0.6990248
000290 b0 44 f3 be 63 b9 6f bf 87 b6 ba be ec 0f 8b 3d
       -0.47513342 -0.9364225 -0.36467382 0.06790146
0002a0 9c 58 10 3e d4 d0 a8 3f e6 9e ec be 35 e8 79 bf
       0.14096302 1.3188729 -0.4621498 -0.97619945
0002b0 a9 29 eb 3e 2e f6 45 3e 82 70 3c be 86 19 0c 3e
       0.45930222 0.19332191 -0.18402293 0.13681611
0002c0 20 5f cb 3f 8b 6f 61 bf 67 32 8e 3e 08 1c 15 be
       1.5888405 -0.88060826 0.2777283 -0.14561474
0002d0 86 3f b0 be ca d4 af bf 07 a5 b6 3e 24 b1 95 be
       -0.34423465 -1.3736813 0.3567278 -0.2923671
0002e0 c2 2f 12 be 4c d6 1c 3f 49 93 05 3f e4 71 c9 3f
       -0.1427603 0.6126449 0.52177864 1.5737882
0002f0 57 6f 12 3f dc 23 8d be e5 ce 08 be 5f b3 e1 3d
       0.5720114 -0.2756642 -0.13360174 0.110205404
000300 fa b0 9e 3e 04 3f 95 3f 37 08 ae be 84 22 52 3e
       0.30994397 1.1659856 -0.33990642 0.20520979
000310 ec 1b 5c 3e 47 bb 98 3e be ed ff bb eb cd 48 bf
       0.21495026 0.2983038 -0.0078103235 -0.78439206
000320 d4 b5 43 be ae 44 32 bf 43 bd 25 be 0f 42 4f 3e
       -0.1911233 -0.69636047 -0.16185479 0.20240043
000330 ab d1 38 3e a1 26 9e bd 64 76 12 3f bd 80 52 3e
       0.18048732 -0.07722212 0.572119 0.20556922
000340 25 e9 65 bf 69 25 73 be 76 68 39 3f dd 7e 8b 3e
       -0.89808875 -0.2374474 0.7242502 0.27245227
000350 b5 43 56 3e 3e 72 f0 3d 8a 26 8a 3e db 2c 70 bf
       0.20924266 0.1174054 0.26982528 -0.93818444
000360 a4 1d 77 3e a9 82 77 3e 2f f4 1e bf 54 b5 83 bf
       0.24132401 0.24170937 -0.62091345 -1.0289712
000370 35 d5 ab 3e d7 fc 07 be 92 e7 66 bd 5c b8 d3 bf
       0.33561102 -0.13280044 -0.056373186 -1.6540637
000380 dd 1d ca be e7 42 dd be 03 be 46 bd ae 77 ca be
       -0.3947591 -0.43215105 -0.048521053 -0.39544433
000390 c5 24 3b bf 05 ba 91 3e 20 f3 42 bf de 5b 00 3e
       -0.7310298 0.28462234 -0.7615223 0.12535045
0003a0 4c 15 8b be 40 ec 38 3e 4b c5 0f be bf 2c 63 be
       -0.27164686 0.18058872 -0.14040105 -0.22185038
0003b0 36 57 f2 be 4c 3a 87 3d 5a 07 a2 3e 84 69 27 be
       -0.47332162 0.06602916 0.31646234 -0.16348845
0003c0 cb ce 88 3e ee de fb 3d 38 86 8b 3e e1 85 8e be
       0.2672027 0.1229838 0.27250838 -0.27836516
0003d0 fe 03 96 be bc 8d 55 bc f4 f2 fd be cc 79 31 3d
       -0.2929992 -0.01303428 -0.4959942 0.043329045
0003e0 7a 88 df bf 23 89 1b 3e 96 ac 0c 3f 99 88 cb be
       -1.7463524 0.15189032 0.54950845 -0.39752653
0003f0 34 88 c3 be 01 d7 58 3e b1 81 aa 3d 6e 98 64 bd
       -0.38189852 0.21175767 0.08325518 -0.05580943

hh/upward/b f4 [256]
000000 f1 3c d9 be 96 2f 4f bf ac 23 a9 3f 79 b2 9c 3f
       -0.42429307 -0.80931985 1.3214011 1.2241966
000010 9a 0b 1f 3c 28 c6 68 3e 32 f4 22 3e e2 1f 07 bf
       0.009707356 0.2273184 0.15913466 -0.52783024
000020 42 c2 22 40 0e 5a d4 be d8 d4 09 3f e9 17 ec be
       2.5431066 -0.41474956 0.538404 -0.46111992
000030 16 4e 16 3f df b5 e5 3e a9 aa ec be b2 6f de be
       0.587129 0.4486532 -0.46223953 -0.43444592
000040 ce e7 86 3c 34 9c 39 be b6 12 21 3e 17 1d d1 3e
       0.016467955 -0.18125993 0.15729794 0.40842506
000050 5d eb f0 bf e6 d2 de be b9 b1 95 3d f6 fb 5f bf
       -1.8821827 -0.43520278 0.073092885 -0.87493837
000060 fd 21 0e bd fe 9d bf 3e 7a 9c 01 3f d6 82 2c bb
       -0.034700383 0.37425226 0.5062939 -0.0026323101
000070 7c b0 dc 3d 99 0e 25 bf 3a 98 7d 3d d4 6a 38 be
       0.10775849 -0.644754 0.061912753 -0.18009502
000080 8b 8f be 3e 43 ee 89 bf 6d 59 61 3f 7f 74 90 3f
       0.3721889 -1.0775837 0.8802708 1.1285552
000090 fb 96 a0 bf 20 3d 3c 3e 46 19 d5 3d 6c 8c c7 3d
       -1.2546076 0.18382692 0.10405211 0.0974358
0000a0 30 cf cc 3d 25 ed 9b 3e e3 97 84 3d 3f c0 2e bd
       0.100004554 0.30454364 0.064742826 -0.04266381
0000b0 39 0f 00 3f f3 86 5b bf ed f5 8a 3f 08 c7 36 3f
       0.5002323 -0.8575279 1.08563 0.7139745
0000c0 82 09 d1 be 7e d4 31 bf e9 68 f0 bc 0b 1a 5b be
       -0.40827566 -0.6946486 -0.0293469 -0.21396653
0000d0 c8 cf 30 3f ae 7d 07 3f 82 09 e0 be 2f f6 47 3f
       0.6906705 0.52926147 -0.43757254 0.7811002
0000e0 10 42 a7 3f aa 1f 12 bf 9f 39 ba be 88 5e 7a bf
       1.3067036 -0.57079566 -0.36372086 -0.97800493
0000f0 f9 7c a2 3f 13 1d ef be 18 92 ae be 10 35 15 bf
       1.2694389 -0.4670187 -0.34095836 -0.5828409
000100 ff e4 fc bf f6 f7 c5 3f 63 93 63 3e e4 e4 34 3f
       -1.9757384 1.5466297 0.22224192 0.7066176
000110 95 9b 38 be 0e c3 21 bf dd 31 9f 3d 2e 4d 4a be
       -0.180281 -0.63188255 0.077731825 -0.19756004
000120 32 df 25 3f 46 e7 e5 bd 60 69 71 3f 1a f5 0b bf
       0.64793694 -0.112257525 0.94301414 -0.5467087
000130 16 99 de 3f df 26 38 3f 62 d8 33 3f aa c4 6f 3e
       1.7390468 0.7193431 0.7025205 0.23414865
000140 77 2c 96 3f 73 1a ef be 98 44 9b 3f 20 8e 0b bf
       1.173232 -0.46699867 1.2130308 -0.5451374
000150 02 ad d3 3e 60 7f a0 bf 47 32 c3 3d 84 98 86 bf
       0.41342932 -1.2538872 0.09531074 -1.0515294
000160 eb a8 5b 3b 2f 4b 92 be 75 90 f4 3e 3f 99 61 bf
       0.003351743 -0.28572986 0.47766462 -0.8812446
000170 62 e3 04 3f 2b 93 5f 3e 9b 36 e2 3d c4 da cf 3f
       0.5190946 0.21833484 0.110455714 1.6238637
000180 b3 02 93 bf 8b 49 69 bf 7f be 0a 3f 70 7a be be
       -1.1485199 -0.9112784 0.54196924 -0.37202787
000190 ef db 5a bf 63 56 8e be d1 32 21 be b2 20 87 be
       -0.8549184 -0.27800283 -0.15742041 -0.26392132
0001a0 3f 70 c9 3e 9e 33 a8 bc bd 7d a4 3e f6 26 5d be
       0.3934345 -0.020532425 0.3212718 -0.21596894
0001b0 38 64 83 bf 79 1a c6 bd b1 f7 d3 3f 7f 68 3d bf
       -1.0264959 -0.09673018 1.6559964 -0.73987573
0001c0 8b 7d ed 3d f8 ba 2d c0 a0 76 a6 3e 92 00 2f bf
       0.11596211 -2.7145367 0.3251238 -0.68360245
0001d0 8d bb 34 3f 5a 02 92 bf 39 a2 b2 3f 88 0c 6f 3e
       0.7059868 -1.1406968 1.3955756 0.23344624
0001e0 a2 07 33 3f 14 4e 1d bd 8e 24 64 ba 0f 20 d1 be
       0.6993352 -0.03840454 -0.0008702957 -0.4084477
0001f0 c4 9b ce bf 77 a0 74 bf 63 fc 13 bd 73 cf 08 bf
       -1.6141286 -0.9555735 -0.036129367 -0.5344154
000200 8e e7 9e be cf e7 6b bf b1 e6 52 3f 63 60 ad 3e
       -0.31036037 -0.92150587 0.8238326 0.338626
000210 35 65 42 3f 32 52 1d c0 07 31 46 be a4 04 21 c0
       0.7593568 -2.4581418 -0.1935464 -2.5159082
000220 ae b9 48 3e 9d 14 a2 be 3e b2 3e 3f 3c fb 2c be
       0.19602081 -0.31656352 0.74490726 -0.16892713
000230 72 8a 06 3e c1 9f 05 c0 5f 8f b4 3b 4c 19 83 be
       0.1313875 -2.0878756 0.005510255 -0.25605237
000240 5c cb 91 be 93 78 74 3e 30 5d 0f 3f 91 49 9e be
       -0.28475463 0.2387412 0.5600157 -0.30915502
000250 ad e5 f0 bf 16 4c ea bf 1c 02 a1 3d 27 c7 ef be
       -1.8820091 -1.830447 0.078617305 -0.4683163
000260 eb 1a 81 3f 64 d9 2c 3f e7 3d 86 3e 59 20 ed be
       1.008634 0.6751921 0.26219103 -0.46313742
000270 44 e5 58 3e 72 76 78 bf a5 a0 98 be 2c b3 9e bf
       0.21181208 -0.97055733 -0.29810062 -1.2398429
000280 f5 44 2b be cd 43 8c bf 3d 00 f5 3e 3e 73 e5 3f
       -0.16725524 -1.0958191 0.47851744 1.7925794
000290 04 d7 d5 3e e8 75 c1 bd 29 c6 8d 3e 71 cc c1 be
       0.41765606 -0.09446317 0.27690247 -0.3785129
0002a0 f2 3a 81 be 7a 83 73 be 5e 94 6d 3f f1 e8 0f 3f
       -0.25240284 -0.23780623 0.92804515 0.56214815
0002b0 ef d0 91 3e 4e c5 c2 bf a9 91 80 3e fb b9 94 bf
       0.28479716 -1.5216463 0.2511113 -1.1619257
0002c0 65 21 bb bf 9d d8 28 3f 4b 18 31 3f e7 37 97 3e
       -1.4619566 0.65955526 0.69177693 0.29534838
0002d0 4e 1a e8 3d b9 4f 42 bf 53 a0 5b 3f 1c 73 c0 3d
       0.11333142 -0.759029 0.8579151 0.09396955
0002e0 61 5f 12 bf dc 80 b3 bf 9a 48 6e 3f 74 f7 1d bf
       -0.57176787 -1.40237 0.9307953 -0.6170571
0002f0 cd eb a4 3e ca 6e 7a bf 7b 76 cb bd e8 0a fe be
       0.32211152 -0.978253 -0.09934708 -0.49617696
000300 97 3f e2 bf 50 cf df 3f a0 12 09 40 38 95 9f be
       -1.7675656 1.7485142 2.1417618 -0.31168532
000310 8a a9 e4 be ba 4c a3 bf 8d 64 a2 be 6d bc 2f bf
       -0.44660598 -1.275779 -0.3171734 -0.6864689
000320 72 50 42 3f ae a3 94 bd 77 23 cd 3d 43 6c 83 be
       0.75904 -0.07257782 0.1001653 -0.25668535
000330 66 d0 de 3e 2e b5 13 3f da 52 19 3f 06 ec 1d be
       0.4351837 0.57698333 0.59892046 -0.15422067
000340 c2 b9 c8 be a8 2d ad bf 9f 20 b6 be 42 d2 1a 3e
       -0.39204222 -1.3529558 -0.35571763 0.1511927
000350 a6 6b 02 bf 42 b1 8f bf ea 74 98 be df 2c 88 bf
       -0.5094551 -1.122597 -0.29776698 -1.0638694
000360 46 1d 58 3f e7 67 09 c0 7b ca 79 3f fb 5f 38 bf
       0.8441967 -2.1469667 0.97574586 -0.72021455
000370 36 4d a6 3f b7 41 10 bf 4a 66 32 3f bf f5 77 be
       1.2992313 -0.5635027 0.6968733 -0.24214838
000380 46 a8 89 3f e7 cc 58 bf 17 51 3b 3e 35 2c 80 3d
       1.0754478 -0.84687656 0.18292652 0.06258432
000390 44 9c fc 3e 17 64 43 be 6d f4 e3 bd 87 69 97 3e
       0.4933797 -0.1908115 -0.11130605 0.29572698
0003a0 fd a8 12 bf 88 bf 20 bf 9b 0b 6a 3d 0b c5 4a be
       -0.57289106 -0.62792253 0.057139974 -0.19801728
0003b0 86 44 61 bf 94 ae b6 bf d8 14 10 3f 7f 91 df be
       -0.87995183 -1.4272027 0.56281805 -0.43665692
0003c0 c1 b0 6e 3e 5b 54 3b bf b0 d0 af 3f 37 39 2f be
       0.23309614 -0.7317559 1.3735561 -0.1711167
0003d0 cc 6b 96 bf c9 df 79 bf 72 4d 73 3e 77 65 d1 3e
       -1.1751647 -0.97607094 0.23760012 0.40897724
0003e0 89 19 66 3f 1f a7 9b 3f b3 16 91 3f 1a 21 d2 be
       0.89882714 1.2160376 1.1335052 -0.4104088
0003f0 0a ec 9f bf d1 f2 c3 be 50 9c 96 3f cb 02 43 bf
       -1.2493908 -0.38271192 1.1766453 -0.76176137

xh/W f4 [64, 8]
000000 53 6a b3 be a6 93 03 bf 84 ed cf bd b2 4d 8f bf
       -0.35042056 -0.5139717 -0.101527244 -1.1195586
000010 24 9e 21 bf 32 07 b5 3e 39 49 f6 bf 0e 73 47 c0
       -0.6313193 0.35357052 -1.9241096 -3.1163974
000020 2d 2b 07 3f ca 6c 39 3f 16 7b 15 3f 1d 75 a2 be
       0.52800256 0.72431624 0.5839094 -0.31729975
000030 66 1d 14 bf 12 2a 4c bf d5 5b 7a 3f 8a 31 64 bb
       -0.5785736 -0.79751694 0.97796375 -0.0034819567
000040 e0 26 60 3c 4f 79 1c 3d 51 72 dc be 9b 80 cb 3e
       0.0136811435 0.038201626 -0.43055966 0.39746556
000050 29 fe e7 3f af 55 7e 3f 7d 61 3e c0 25 ce ef bf
       1.8124439 0.9934949 -2.9747002 -1.8734785
000060 23 87 5d 3b 29 f7 1a bd a2 aa a3 bf 77 dc ad 3f
       0.0033802472 -0.037833367 -1.2786448 1.3582906
000070 3a 09 99 be fa cf ea 3d b4 45 12 3e f7 5e 20 3f
       -0.29889852 0.1146545 0.14284402 0.62644905
000080 a1 87 66 3c 78 7a 1f 3c fb 3f 89 3d 25 c7 17 be
       0.014070422 0.009733789 0.067016564 -0.14822061
000090 f4 f0 7f 3f 66 55 33 3f 83 2a 04 c0 e1 80 14 c0
       0.9997704 0.7005218 -2.0650947 -2.3203661
0000a0 bb fe 13 bf c3 5f 81 3e ce b5 00 3f 9b a7 0d bf
       -0.5781056 0.25268373 0.5027741 -0.5533387
0000b0 c3 57 49 bf 68 37 12 bf bb 70 b1 3f e4 99 c7 3f
       -0.7864954 -0.57115793 1.3862528 1.5593839
0000c0 11 7c 72 bb f9 b9 97 3b fe dd a3 3e 6d 14 c1 be
       -0.003700022 0.004630324 0.32005304 -0.37710896
0000d0 cc 93 a7 bd d5 49 9a 3e 65 09 10 bf fa 00 b2 3e
       -0.08182487 0.30134454 -0.56264335 0.3476637
0000e0 7f 1c 2d bf 98 77 b4 be 80 d3 8d be 04 3a b7 3d
       -0.67621607 -0.35247493 -0.27700424 0.089466125
0000f0 c9 7b a5 3e a4 74 a6 be 06 7c 9d be 02 dc df 3d
       0.32321003 -0.32510865 -0.30758685 0.10930635
000100 5c de 4a bc 28 0b a8 3b 8d 57 d0 3d b8 80 dd bd
       -0.012382116 0.005128283 0.10172949 -0.10815567
000110 d4 2c cc be b9 2d 0d bf 38 99 85 3f ba a1 21 40
       -0.3987795 -0.5514789 1.0437384 2.525496
000120 18 7e 3b 3f ef ca 23 be 6a 86 87 bd 61 65 83 3f
       0.7323928 -0.15995382 -0.06617434 1.0265313
000130 0e b3 af 3e 70 80 7d 3f 2d c6 a9 3d 9f 2f e6 3f
       0.34316295 0.99024105 0.08289752 1.7983283
000140 3c 40 98 bc 2c a9 01 bc a8 93 36 3c 43 aa 1b bd
       -0.018585317 -0.007913869 0.011143602 -0.03800417
000150 33 67 0e 3e 58 73 80 be 3b 19 bf 3e 1e ce 8e 3f
       0.13906555 -0.25088 0.37323937 1.1156652
000160 09 1f 9c bc 2a d2 d1 3c 0e 25 8b bd 17 90 07 3e
       -0.019057767 0.02561291 -0.06794177 0.1323856
000170 53 ed 52 3f 44 33 ad 3e 86 4a b5 be ba 2c 28 be
       0.8239338 0.33828175 -0.3540842 -0.16423312
000180 3c e5 a2 be 4c d0 89 3e 09 50 43 40 8c 63 07 40
       -0.31815517 0.2691673 3.05176 2.1154509
000190 01 21 b3 be 33 c5 9d bf 4c 3e 06 bf 69 d8 10 3f
       -0.34986117 -1.2325805 -0.5243881 0.56580216
0001a0 7e ca 66 3a 75 a1 4b 3c 4f bb 0f bf 61 f0 0f 3f
       0.00088039774 0.012428631 -0.56145185 0.56226164
0001b0 14 d7 2f 3f ea ba ba 3e f8 15 9f be ff 75 e4 3e
       0.6868756 0.3647073 -0.31071448 0.44621274
0001c0 20 1c a5 3c 1b f5 5f bc 36 8c 83 3d d6 c9 4f bd
       0.020155013 -0.013669278 0.064232275 -0.050729595
0001d0 50 97 47 3f f2 f8 87 3f 72 c1 f9 bf ba 55 7e 3f
       0.7796526 1.0622847 -1.951216 0.9934956
0001e0 0b 2b 07 bf 4a d6 0d 40 b3 ea 08 3f 25 af 31 3f
       -0.52800053 2.2162042 0.5348312 0.69407874
0001f0 4c 31 05 bf b0 56 b0 3c 97 c1 ae 3f 48 c8 db 3f
       -0.52028346 0.02152571 1.3652829 1.7170496
000200 df 33 8f bf d1 3f 38 bf 24 61 2f bf 13 a3 6a 3f
       -1.1187705 -0.71972376 -0.685076 0.9165508
000210 6b 95 6d bf 99 fb 03 bf 50 0e f0 be 0e 93 9b 3e
       -0.9280612 -0.5155578 -0.4688592 0.3038563
000220 15 d8 ca 3d 39 4b 66 3f 3c b3 c0 3e 96 66 41 3f
       0.099044956 0.8995853 0.37636745 0.7554716
000230 4b 79 19 be f9 a9 5f 3d 6a 4f de 3f 66 e2 cc 3f
       -0.14987676 0.054605458 1.7367985 1.6006591
000240 b0 f9 b1 be e0 60 03 3f 05 c4 4d 3f a5 2e 35 bf
       -0.3476081 0.51319695 0.8037723 -0.707743
000250 5e c6 71 bf 38 bd f1 bd d3 bc 0d 3f 1a b6 9a 3f
       -0.9444331 -0.11803669 0.5536625 1.2086823
000260 f9 79 59 bc 74 1c 07 3d 90 fa 99 3e a8 df cd be
       -0.013273709 0.03298612 0.30073977 -0.402097
000270 b0 b9 87 bd dd f5 69 bc 8d 0d 4c 3d 7e 94 47 be
       -0.06627214 -0.01427981 0.04981761 -0.19490239
000280 09 46 02 bd c9 57 2c bc be 91 78 3f 3c 5b 7e bf
       -0.031805072 -0.0105189765 0.97097385 -0.9935796
000290 80 f8 1a bf b8 80 9a bf 9e d1 c5 3f 79 dc 22 40
       -0.6053543 -1.2070532 1.5454595 2.5447066
0002a0 cb 73 a9 bc 45 f5 03 bd c8 d3 41 3d 85 b8 c9 bd
       -0.020685097 -0.03221633 0.04732111 -0.098496474
0002b0 b2 f3 b3 be ea 40 24 be a6 06 a6 be b4 d3 77 bf
       -0.35146862 -0.16040388 -0.32426947 -0.9680741
0002c0 04 6a a6 be 52 3e 98 3f f9 17 ac 3f 26 98 03 3f
       -0.32502759 1.1894019 1.3444816 0.51404035
0002d0 13 a5 67 be c9 7f 47 3d b9 1d bd 3d ae 56 a8 be
       -0.22621565 0.04870585 0.09234185 -0.3287863
0002e0 eb 41 f4 ba 4c 14 78 bd fa 65 c3 bf a0 eb c7 3f
       -0.0018635368 -0.06056623 -1.5265496 1.5618782
0002f0 28 4e db be f7 3e 34 bf bb 45 fc 3f b8 da 3e 40
       -0.42833066 -0.70408577 1.970878 2.9820995
000300 f4 a2 a3 3e fe 3a 01 3f 89 61 a1 3f e9 20 7c bc
       0.3196026 0.5048064 1.260789 -0.015388706
000310 f3 b8 12 bf 3e 05 33 3f e3 12 44 bf bc ae ac bf
       -0.5731346 0.69929874 -0.7659132 -1.3490825
000320 2c 1c be 3c 6c ba b1 bc c4 5c b1 3f cd 1f ba bf
       0.023206793 -0.021695338 1.3856435 -1.4540955
000330 51 ab 08 3f 6d 45 24 3f df ec 0f c0 6d 3a 1a c0
       0.5338641 0.64168435 -2.2488325 -2.409816
000340 7f c8 80 bc 8a 58 14 ba 6c b0 ef be 02 e3 f4 3e
       -0.015720604 -0.00056589453 -0.46814287 0.47829443
000350 d8 16 c4 be c4 96 37 bd a7 ab 3a bf 2f 0a 8d bd
       -0.38298678 -0.044821516 -0.7291817 -0.06886708
000360 b4 06 e7 3d 7e 53 40 3d 2a 3f c4 bf 8e 22 d0 3f
       0.112805754 0.046954624 -1.5331776 1.6260545
000370 49 f9 11 3f 9d 32 e6 3f ad b6 dd bf 22 ca 4f c0
       0.57021004 1.7984196 -1.7321373 -3.2467122
000380 b9 ed f2 3c f1 1a 6c 3d 49 58 81 be 60 d8 94 3e
       0.02965437 0.05764288 -0.2526267 0.2907133
000390 c9 7b 05 3f 1e 06 9e 3f 88 c4 92 bf b6 3b 8c bf
       0.52142006 1.2345617 -1.1466227 -1.0955722
0003a0 02 ea d7 3c 71 91 a0 3c 15 4c 25 bf b8 da 27 3f
       0.0263567 0.019600602 -0.64569217 0.65568113
0003b0 43 fa 20 3e 24 a7 a6 3f 36 f7 b8 be 77 31 b7 3d
       0.15720467 1.3019757 -0.36126107 0.089449815
0003c0 65 43 3c 3c 05 be 1f 3c a0 14 dd bf 6a 9a e5 3f
       0.0114906775 0.009749894 -1.7271919 1.7937748
0003d0 2c 61 26 3f c4 f8 9d 3e a4 d9 ef bd d3 dd 03 bf
       0.6499202 0.30853856 -0.117114335 -0.5151035
0003e0 40 69 25 bf e6 b7 de bf ce 09 10 3e 16 da c5 3f
       -0.64613724 -1.7399871 0.1406624 1.545718
0003f0 3f 6b 45 3f 31 45 a8 3e 0c 22 21 3e 50 0f 06 40
       0.7711677 0.3286529 0.15735644 2.0946846

xh/b f4 [64]
000000 96 cc 27 bf 62 6a cd bd b8 a3 ff be 0d 39 1c 3e
       -0.6554655 -0.100300565 -0.49929595 0.15256138
000010 1c dc 27 bf cf 69 73 3f ca c5 38 3d 3f 5c ac 3e
       -0.65570235 0.95083326 0.0451105 0.33664128
000020 44 94 24 3f 6e 73 91 bd fb 4b 98 3e 0e 7d c5 3d
       0.64288735 -0.071020946 0.29745468 0.09642993
000030 1b 3d 58 3e 09 eb 9d 3e 35 40 8a 3e 19 e7 21 3f
       0.2111706 0.3084338 0.2700211 0.6324325
000040 53 5e 96 3e 25 47 01 3f 26 32 17 3f cc d6 c3 bd
       0.2936884 0.5049918 0.59060895 -0.09562454
000050 79 7b 17 3f 39 30 f0 be 8f 11 8f 3e 18 3b 4f 3f
       0.5917278 -0.4691179 0.27943084 0.80949545
000060 19 65 15 bf c0 9d 5c bf 7b 1f 81 be d0 a2 3d bf
       -0.5835739 -0.8617821 -0.2521933 -0.7407656
000070 23 7e b0 bd 93 95 b1 3e 9a 03 25 3d 6e d0 4f 3c
       -0.08617809 0.3468443 0.040286638 0.012683971
000080 fd c8 ed be 0e 1e 6d be 4f 9c 84 3f d9 9e eb be
       -0.46442404 -0.23155996 1.0360202 -0.4601963
000090 e4 b6 33 bf 67 51 f6 3e da 8b 6a bf cb 33 2e bf
       -0.70200944 0.4810898 -0.91619647 -0.6804778
0000a0 71 e8 01 bd 78 07 4c 3f 9f 87 2f 3f d8 b9 18 3f
       -0.031715814 0.79698896 0.68566316 0.59658575
0000b0 d8 54 53 3c 78 0b ff be da 46 61 bf 4d 23 6c 3f
       0.012898646 -0.49813437 -0.87998736 0.92241365
0000c0 5a 5a bf be 37 72 cf be 69 55 27 bf 7c 85 8e be
       -0.3737362 -0.40516827 -0.653647 -0.27836215
0000d0 25 85 02 3f 12 76 5c 3e 67 a2 48 3f bd 2f 6e 3e
       0.5098441 0.21529415 0.78372806 0.23260398
0000e0 de 39 c3 3e b4 4a e5 bd b1 31 29 3f 24 18 47 3f
       0.38130087 -0.11195889 0.6609145 0.7777121
0000f0 f3 da 97 3f a9 e8 65 bf 55 66 2e 3e 4c 2d 5c 3f
       1.1863693 -0.89808136 0.17031224 0.8600662
