code/python/slip_model/8_64_1_5_10_29500_250_use_train_slip_model.npz (npz, 127372 bytes, 6 tensors)

hy/W f4 [1, 64]
0.15407489 -0.1268041 0.23505214 -0.09786067 0.09618422 -0.188806 -0.029752476 -0.06284165
0.11994393 0.162752 0.10217758 0.045825362 -0.07303615 0.10387245 -0.20705238 -0.11560046
-0.3792427 0.2955482 0.08468398 -0.01573656 -0.019712148 -0.25988448 -0.1362214 0.003495947
0.117024176 0.026412252 0.14985149 -0.009065501 0.2108331 -0.07732543 0.19832745 0.155819
-0.11288346 0.35176834 0.17839253 0.38565326 -0.071985565 0.23040998 0.13873613 -0.12939155
-0.16601689 -0.12917128 0.071614765 0.18642037 -0.16568808 0.22638763 -0.12280392 0.15064386
-0.10818397 0.09699655 0.2134824 -0.06597398 -0.20876248 -0.21992211 0.18830721 0.21285032
0.18574521 0.1427496 0.25089684 0.10369439 -0.050557006 0.08112845 0.08670049 -0.08963875
00000000: cfc5 1d3e efd8 01be 82b1 703e 2d6b c8bd
00000010: 3bfc c43d 5c56 41be 77bb f3bc 1fb3 80bd
00000020: 2aa5 f53d 76a8 263e 7b42 d13d 60b3 3b3d
00000030: fa93 95bd 14bb d43d 8a05 54be efbf ecbd
00000040: 192c c2be 1852 973e cb6e ad3d f5e9 80bc
00000050: 5f7b a1bc 940f 85be 9f7d 0bbe 421c 653b
00000060: 5faa ef3d 825e d83c ab72 193e 7887 14bc
00000070: a2e4 573e cc5c 9ebd 5a16 4b3e 048f 1f3e
00000080: 722f e7bd fb1a b43e 88ac 363e 5874 c53e
00000090: 2b6d 93bd 98f0 6b3e d810 0e3e 387f 04be
000000a0: 5500 2abe 7a45 04be c3aa 923d fbe4 3e3e
000000b0: 23aa 29be 29d2 673e 9f80 fbbd 6242 1a3e
000000c0: 8f8f ddbd 21a6 c63d 219b 5a3e 5e1d 87bd
000000d0: d5c5 55be 4333 61be 9bd3 403e 6ff5 593e
000000e0: fe33 3e3e f32c 123e 8d75 803e b95d d43d
000000f0: dd14 4fbd ac26 a63d 0790 b13d 8594 b7bd

hh/lateral/W f4 [256, 64]
-2.210207 -2.5177622 -1.7709771 -2.9096808 -2.3971455 0.12159134 2.184046 -5.4455233
-1.3061743 0.715891 2.279772 -0.6523225 2.3352354 -2.352518 -2.0654764 1.2453305
-5.207672 1.8105934 -0.6196647 -1.9794905 -1.0435096 -4.471211 -1.9061621 0.15628065
1.8097669 1.317543 1.9440495 1.5561354 1.5744333 -5.277891 0.85634214 0.3902006
-4.6568217 5.63903 2.532741 0.65065837 0.18640457 -0.3731001 -0.8788267 3.388916
0.6755198 2.1832824 1.4936347 -0.51004696 1.4174674 -1.9942658 -3.737759 1.4258502
1.4158102 -5.959166 -2.3445337 -2.8804934 -1.2998657 -0.2416625 -2.148578 -2.6286721
-0.58233917 -1.599457 -2.0269783 1.7304547 -3.3965006 -2.929987 -0.119431876 3.994348
-1.1616749 4.108036 -2.5112774 0.72719616 -0.12998188 -0.45911765 0.22418481 -0.4323946
1.4398358 0.96162206 -4.0333304 -2.202307 -3.0147033 -5.3693924 2.650843 -0.61149853
0.053147115 -2.1244104 -1.1886686 -0.45957604 5.908533 0.24291028 -2.803525 2.5923226
1.2026185 -3.5976746 1.5212249 1.4161205 1.2547064 0.49817106 -2.3719394 6.1025553
-7.1365027 -1.9223284 -1.419699 -3.6441028 0.80370706 -4.0001063 1.9332011 1.7499629
2.8053195 -3.704391 -2.0182874 0.53246737 -2.833145 -2.0425932 -0.8606016 2.2358243
1.3078783 -6.9053006 -0.076716974 -0.65172386 1.5144054 -2.0310917 -0.87596273 -2.167987
-1.1215966 0.012383126 1.989746 -0.3336128 2.4064872 -1.2240254 0.6268644 -1.2062161
0.2679404 5.0289664 0.43118617 -0.33041912 -0.9839329 -0.2764841 2.1847754 3.390636
-3.6238823 0.553094 3.6801364 -0.1499686 -2.34384 -1.1670579 -0.042250037 -3.7125022
2.7682078 2.149703 -2.6023457 2.7652352 -5.5760574 1.1069354 0.11930031 -1.6373838
-1.4350612 1.267513 2.0533736 1.9748855 1.6738706 1.6378325 1.7304846 0.7431472
-0.15155096 -0.72941554 -4.7069836 -6.795849 -5.284294 3.0430589 6.0078998 0.24299194
-2.6018033 1.0223148 1.8142054 0.35720995 0.11750014 -0.38779792 -0.83262414 -0.0059559057
-4.7131324 -2.4898686 0.8317705 0.44753498 -0.991888 3.5464752 -0.3117859 2.4627113
0.9305493 2.6578596 1.637395 3.9429677 0.17961922 3.5365055 1.0602175 -0.42717004
-1.2405154 -1.974345 2.1732638 -2.7502725 0.6075744 -1.2561065 0.55505455 -1.5932417
2.3466332 -0.63474596 3.4735174 1.2941123 -1.2870516 1.1022407 -2.2889435 -6.343759
0.28649807 5.826777 -3.613718 -3.1532485 -1.32217 2.1431036 0.3308507 0.14473125
1.927409 -2.4400485 -1.7643652 -2.1778445 0.80843365 -0.64061844 0.3090318 4.6226387
0.18992256 -7.8965573 -1.7918018 1.1472659 -1.2286695 -1.4051026 -0.33166873 -5.8218102
-0.9088239 -6.314687 -0.9499893 0.938166 1.3065618 -2.688543 -0.86131877 2.103622
3.8899853 -0.801815 -1.7096746 2.2102013 -0.17952974 4.033814 0.31060353 1.8582749
-0.5497391 2.1601002 -1.0811355 -1.8924336 2.8010967 1.7339907 -1.6330783 -5.540174
00000000: 0874 0dc0 0423 21c0 61af e2bf 3638 3ac0
00000010: d56a 19c0 e104 f93d 69c7 0b40 ba41 aec0
00000020: b830 a7bf a244 373f c9e7 1140 9bfe 26bf
00000030: 7f74 1540 a88f 16c0 c430 04c0 fd66 9f3f
00000040: 40a5 a6c0 86c1 e73f 59a2 1ebf f25f fdbf
00000050: b991 85bf 2914 8fc0 1ffd f3bf 0908 203e
00000060: 71a6 e73f 40a5 a83f 9dd6 f83f 722f c73f
00000070: 0887 c93f 7ce4 a8c0 3d39 5b3f 5fc8 c73e
00000080: af04 95c0 ef72 b440 6e18 2240 8c91 263f
00000090: d7e0 3e3e fa06 bfbe c9fa 60bf 00e4 5840
000000a0: deee 2c3f e6ba 0b40 6c2f bf3f 7092 02bf
000000b0: 926f b53f 1a44 ffbf 7237 6fc0 4282 b63f
000000c0: 4539 b53f 7db1 bec0 d70c 16c0 015a 38c0
000000d0: 0062 a6bf 6076 77be 4d82 09c0 2a3c 28c0
000000e0: 2e14 15bf 02bb ccbf 03ba 01c0 8a7f dd3f
000000f0: 4460 59c0 e884 3bc0 b398 f4bd 66a3 7f40
00000100: c3b1 94bf 0875 8340 c5b8 20c0 8729 3a3f
00000110: f819 05be 7811 ebbe b490 653e d362 ddbe
00000120: 8a4c b83f dd2c 763f 0b11 81c0 99f2 0cc0
00000130: e6f0 40c0 10d2 abc0 69a7 2940 2b8b 1cbf
00000140: cab0 593d 57f6 07c0 4b26 98bf 8d4d ebbe
00000150: b412 bd40 79bd 783e f46c 33c0 9de8 2540
00000160: 67ef 993f 4d40 66c0 7fb7 c23f 7043 b53f
00000170: 389a a03f 4710 ff3e dbcd 17c0 2248 c340
00000180: 3b5e e4c0 db0e f6bf b2b8 b5bf fb38 69c0
00000190: bfbf 4d3f df00 80c0 2273 f73f c9fe df3f
000001a0: 5b8a 3340 be14 6dc0 9f2b 01c0 c84f 083f
000001b0: 3f52 35c0 d9b9 02c0 6350 5cbf bf17 0f40
000001c0: 8e68 a73f 39f8 dcc0 ca1d 9dbd 60d7 26bf
000001d0: 09d8 c13f 68fd 01c0 183f 60bf 4dc0 0ac0
000001e0: 7a90 8fbf 98e2 4a3c ffaf fe3f 4ccf aabe
000001f0: e303 1a40 ddac 9cbf 2f7a 203f 4a65 9abf
00000200: 7c2f 893e 4bed a040 6fc4 dc3e b22c a9be
00000210: 07e3 7bbf 538f 8dbe 5cd3 0b40 2e00 5940
00000220: b0ed 67c0 9297 0d3f 5b87 6b40 5e91 19be
00000230: 7901 16c0 2762 95bf 600e 2dbd a399 6dc0
00000240: 512a 3140 bc94 0940 d58c 26c0 9df9 3040
00000250: 106f b2c0 0fb0 8d3f b953 f43d cb95 d1bf
00000260: 16b0 b7bf de3d a23f 796a 0340 0cc9 fc3f
00000270: 6441 d63f 7fa4 d13f 8580 dd3f e53e 3e3f
00000280: 2d30 1bbe faba 3abf 9c9f 96c0 9877 d9c0
00000290: f018 a9c0 7ac1 4240 b740 c040 e1d2 783e
000002a0: f283 26c0 36db 823f e237 e83f 39e4 b63e
000002b0: eaa3 f03d 738d c6be db26 55bf c229 c3bb
000002c0: fbd1 96c0 025a 1fc0 e9ee 543f 4e23 e53e
000002d0: 5fec 7dbf 73f9 6240 67a2 9fbe 109d 1d40
000002e0: 7b38 6e3f 5f1a 2a40 2996 d13f 9559 7c40
000002f0: 1aee 373e 1b56 6240 35b5 873f 08b6 dabe
00000300: 35c9 9ebf 56b7 fcbf c116 0b40 7704 30c0
00000310: ff89 1b3f 19c8 a0bf 0e18 0e3f 58ef cbbf
00000320: 3d2f 1640 b67e 22bf 1c4e 5e40 79a5 a53f
00000330: 1bbe a4bf 3916 8d3f 0d7e 12c0 1300 cbc0
00000340: e0af 923e f574 ba40 2847 67c0 d3ce 49c0
00000350: de3c a9bf 9c28 0940 4365 a93e 6e34 143e
00000360: 57b5 f63f c129 1cc0 b8d6 e1bf ce61 0bc0
00000370: 82f5 4e3f 92ff 23bf 6b39 9e3e a8ec 9340
00000380: 0f7b 423e 99b0 fcc0 c359 e5bf 9cd9 923f
00000390: 0b45 9dbf 67da b3bf 7cd0 a9be 454c bac0
000003a0: afa8 68bf ea11 cac0 8032 73bf a62b 703f
000003b0: 6b3d a73f 1711 2cc0 637f 5cbf bea1 0640
000003c0: 85f5 7840 bf43 4dbf 9ed6 dabf f073 0d40
000003d0: a5d6 37be 0115 8140 6d07 9f3e f4db ed3f
000003e0: b4bb 0cbf 153f 0a40 a662 8abf 443b f2bf
000003f0: 2b45 3340 68f3 dd3f b608 d1bf 1b49 b1c0

hh/upward/W f4 [256, 64]
-4.6341505 0.2733748 -0.110388376 -0.03857899 -0.047113042 0.060201727 -0.04888637 0.50546044
0.067690186 -0.3331251 0.24057856 -0.099039294 1.7180855 -0.07910413 0.12991378 3.6785889
0.16676264 0.036590636 -0.25824243 0.256795 -0.004545095 -0.22260635 -0.16033371 -0.60938954
-0.04255896 -0.07227226 0.06363695 -0.95084226 -0.17783609 -0.118861765 -0.013491243 0.73417735
0.2075333 0.05978684 0.14279804 -2.724515 -0.20696001 -0.056691986 -1.7221147 -0.07900471
-0.04791094 0.19757438 0.37026483 0.13750334 -0.69323844 -0.20055121 -0.13890912 0.3208934
-0.39260244 -0.3416166 -0.18835874 0.044089366 1.4705724 0.095844716 -0.00013903728 -0.013700338
-0.18548982 -0.6209947 0.94836664 -0.3641757 0.40473068 -0.09728341 -0.04164664 3.0274076
-1.5448507 -0.21808212 -0.085481815 0.15071614 0.03611141 0.34273028 -0.29731813 -0.29574654
-0.0808732 0.006664445 0.058382835 -0.3681448 1.3061819 -0.071997225 -0.46512285 3.2672877
0.1465554 0.24739972 0.079108156 -0.037528705 -0.018278064 0.036048487 0.31432444 -0.26020432
-0.05313337 0.4991959 0.14486155 -1.3089429 -0.09688027 0.043548528 0.032783106 0.95356566
0.15663628 0.028827991 0.046487447 -0.91991836 -0.058521267 -0.21497282 -0.81000906 -0.089756995
-0.41009092 -0.47807413 -0.25729555 0.39071053 -0.2874763 0.09581819 0.11027734 0.09613622
0.005620954 0.16391936 -0.16511096 0.04509945 0.44753975 -0.06059263 0.035980284 -0.24045114
-0.0120765185 0.14598477 0.46029344 -0.55326265 -0.39932618 -0.17011067 0.0033641635 1.9831642
0.458016 0.01704571 -1.3465406 0.5468879 -0.48251957 0.43295535 0.5501518 0.62637925
0.64150465 0.009327171 0.19481896 0.037928894 -0.9571312 -0.14452358 -1.020565 -1.5297347
-0.52464765 -0.09726803 -0.28313887 0.52438843 0.7932951 0.31448406 -0.14345634 1.404814
-0.39406005 -1.1864314 -0.29255372 0.41697088 -0.33722982 -0.4724046 0.11012684 -0.23158048
-0.6082019 0.3409004 0.22113588 0.8774078 -0.35349798 0.5561612 1.3878744 0.010515834
0.5290009 1.3502567 -0.5594242 -0.027431777 0.429155 -0.7553852 -0.08230235 -0.35882515
-0.326622 -0.62904507 -0.649089 -0.60299766 -1.3286245 0.29747656 -0.14749943 0.12659997
-0.079951376 0.5870758 -0.1993906 1.1854631 0.034553103 -0.4798098 0.67663425 0.40330058
0.9654168 0.09158335 0.2582481 0.353286 -0.34667653 0.17102054 0.08521341 0.49580863
-0.09438004 0.023848867 -0.07380501 0.92511433 0.6656882 0.0052856547 0.83572835 1.2844398
-0.11322892 -0.69386 0.08759123 -0.34709653 -0.091452725 -0.27903226 0.015753832 -0.95059645
0.007907393 0.41114166 0.1463873 -3.2895088 0.33792892 0.34412196 -0.5712322 -2.3912523
-0.21471994 0.008481965 0.13662256 -0.71247244 -0.5012267 0.17409724 -2.956813 -0.47888523
0.2671518 -0.39668253 -0.69035953 0.39118823 -2.1338723 0.11826959 -0.07516537 0.2060561
-0.48304358 -0.053209994 -0.09942976 -0.1672435 -0.09424813 -0.057700366 -0.24314009 0.049500983
-0.021871645 0.14970857 0.81464213 -1.2425765 0.7548081 -0.12313425 -0.10282024 -0.0730796
00000000: f64a 94c0 c8f7 8b3e 4d13 e2bd 0105 1ebd
00000010: 9bf9 40bd 1696 763d 133d 48bd db65 013f
00000020: 27a1 8a3d 608f aabe 3a5a 763e 1dd5 cabd
00000030: 3aea db3f 5901 a2bd 1e08 053e 006e 6b40
00000040: d3c3 2a3e 10e0 153d 5a38 84be a27a 833e
00000050: 05ef 94bb ebf2 63be 852e 24be f400 1cbf
00000060: 4e52 2ebd 7b03 94bd 1754 823d 666a 73bf
00000070: aa1a 36be cc6d f3bd 600a 5dbc 0cf3 3b3f
00000080: 9c83 543e 0ce3 743d a639 123e 745e 2ec0
00000090: 53ed 53be db35 68bd 416e dcbf 39cd a1bd
000000a0: 433e 44bd f050 4a3e 5a93 bd3e adcd 0c3e
000000b0: 1378 31bf 4c5d 4dbe 313e 0ebe 244c a43e
000000c0: 3003 c9be 5fe8 aebe 1de1 40be 0d97 343d
000000d0: b73b bc3f 3c4a c43d 89ca 11b9 6277 60bc
000000e0: 0bf1 3dbe 82f9 1ebf 28c8 723f 3d75 babe
000000f0: dc38 cf3e 863c c7bd ab95 2abd 0cc1 4140
00000100: abbd c5bf eb50 5fbe 1711 afbd 5555 1a3e
00000110: 8fe9 133d 587a af3e 153a 98be 176c 97be
00000120: d9a0 a5bd 6b61 da3b d722 6f3d 7a7d bcbe
00000130: f830 a73f 4873 93bd 9524 eebe 3e1b 5140
00000140: 9e12 163e 5a56 7d3e 7503 a23d b3b7 19bd
00000150: e1bb 95bc 94a7 133d 22ef a03e 8039 85be
00000160: 60a2 59bd 9b96 ff3e 9656 143e 718b a7bf
00000170: 2a69 c6bd f15f 323d 9447 063d e11c 743f
00000180: 4365 203e ae28 ec3c 9f69 3e3d c57f 6bbf
00000190: ffb3 6fbd d621 5cbe c15c 4fbf 84d2 b7bd
000001a0: 70f7 d1be 22c6 f4be 3ebc 83be 360b c83e
000001b0: 1830 93be 543c c43d 16d9 e13d 11e3 c43d
000001c0: fb2f b83b 7ada 273e d912 29be 33ba 383d
000001d0: ee23 e53e fa2f 78bd 1060 133d d338 76be
000001e0: 97dc 45bc 087d 153e 95ab eb3e 9fa2 0dbf
000001f0: 7b74 ccbe 7e31 2ebe 4c79 5c3b 53d8 fd3f
00000200: 1381 ea3e 72a3 8b3c 715b acbf d800 0c3f
00000210: ce0c f7be 53ac dd3e c0d6 0c3f 645a 203f
00000220: a639 243f fed0 183c 9f7e 473e 545b 1b3d
00000230: 8d06 75bf fdfd 13be e0a1 82bf 59ce c3bf
00000240: 4f4f 06bf 7634 c7bd 94f7 90be 523e 063f
00000250: 6315 4b3f 0e04 a13e 38e6 12be f2d0 b33f
00000260: 3dc2 c9be fcdc 97bf 9ac9 95be 357d d53e
00000270: 63a9 acbe 04df f1be 2e8a e13d 6f23 6dbe
00000280: 1fb3 1bbf 7f8a ae3e 7271 623e cc9d 603f
00000290: b0fd b4be 9560 0e3f dea5 b13f 9b4a 2c3c
000002a0: 9a6c 073f 36d5 ac3f 6d36 0fbf 9bb8 e0bc
000002b0: 34ba db3e ed60 41bf 228e a8bd eeb7 b7be
000002c0: 003b a7be 1909 21bf b22a 26bf 0e5e 1abf
000002d0: 5e10 aabf d94e 983e 170a 17be 6ca3 013e
000002e0: 8cbd a3bd 9a4a 163f 0d2d 4cbe 41bd 973f
000002f0: 8e87 0d3d a1a9 f5be e737 2d3f 6a7d ce3e
00000300: 8e25 773f 0d90 bb3d 1839 843e e7e1 b43e
00000310: 967f b1be 0220 2f3e 5e84 ae3d a1da fd3e
00000320: 534a c1bd b35e c33c 1527 97bd 4bd4 6c3f
00000330: 8b6a 2a3f 4933 ad3b 4bf2 553f 8668 a43f
00000340: 90e4 e7bd cfa0 31bf 0863 b33d a3b6 b1be
00000350: 914b bbbd 51dd 8ebe 2e0e 813c 4a5a 73bf
00000360: 038e 013c 2981 d23e 8de6 153e 5087 52c0
00000370: 0505 ad3e c130 b03e 463c 12bf 470a 19c0
00000380: 8bdf 5bbe f1f7 0a3c c9e6 0b3e 9864 36bf
00000390: 6550 00bf 8c46 323e 6d3c 3dc0 7230 f5be
000003a0: 1fc8 883e f919 cbbe 67bb 30bf d349 c83e
000003b0: 5d91 08c0 5437 f23d 4df0 99bd 5f00 533e
000003c0: 7d51 f7be b9f2 59bd d4a1 cbbd e141 2bbe
000003d0: 2a05 c1bd 3857 6cbd b7f9 78be 8bc1 4a3d
000003e0: 2a2c b3bc 344d 193e 638c 503f bf0c 9fbf
000003f0: 1b3b 413f cf2d fcbd 6b93 d2bd c2aa 95bd

hh/upward/b f4 [256]
-0.7780185 -3.0698342 2.0731587 1.783285 -0.23940103 1.6317748 -1.6451005 -1.4285959
6.4258237 -1.7121948 -2.2511456 -0.8708884 2.1664906 1.8309119 -2.8706734 -2.1475255
-0.8196519 -1.1258565 -2.529487 1.3172534 -3.8893335 -1.8748214 -2.9854763 -2.7718186
0.61240554 0.7837195 -1.0703452 0.71111786 0.3149692 -2.4504163 -2.4242582 -0.78607494
-0.40401164 -2.6730793 1.5277216 2.2030935 -5.1662726 1.1579522 -1.7608098 1.0106726
-0.30970013 0.3872353 -2.6389375 0.09445165 1.3047798 -1.53157 1.2031533 0.83840674
-0.19136001 -2.869252 -2.2716544 0.016740037 2.620864 0.8018107 -3.3035676 1.7415152
3.4275386 -1.9384279 -5.7345805 -2.9798834 3.6239247 -0.48660442 -2.0519521 -1.7611982
-7.6406054 1.9979542 -3.8017592 0.9889906 -0.57533485 -2.0530252 -0.8149133 0.9374783
0.8372444 -0.44148198 1.2341077 -1.074989 5.627569 1.217414 -1.837657 0.6452103
3.5986023 -1.8778281 0.65296876 -2.1693761 3.1713586 -3.0312579 -3.6893172 -2.527817
0.23690465 0.101459466 -1.2539064 -1.8460916 2.4360797 0.85171914 -0.9995991 3.8080263
-3.7447124 -1.9201502 0.61312395 -0.9524463 -1.7837951 0.2998069 -3.39109 0.38000193
1.0120732 -0.29852986 1.1665553 -1.2448114 -1.7380488 -0.10921348 3.5448034 -1.926272
-1.6002941 -7.0524426 -1.1944481 -1.966742 2.5353627 -2.474621 1.1564603 -1.0737363
2.428662 0.084756576 -1.4332497 -0.67879295 -6.031486 -2.231663 -0.6866566 -2.7905397
-1.9027709 -2.196667 0.52045715 -0.9738514 1.8648087 -4.532137 -2.004911 -6.0044956
1.0652885 -1.4464302 -0.7396022 -3.6472027 1.6512713 -4.128499 -1.2338543 -1.186912
-0.41190118 0.5490575 -2.277727 -1.0616915 -5.826681 -3.3858833 -1.673632 -1.4587677
2.4996424 1.2234938 -0.081139944 -2.4695752 0.18031554 -3.0052476 -2.6752672 -3.4754097
-0.44166303 -3.916398 -1.934593 4.718844 1.8990753 0.24572444 -0.88483024 -1.3250004
-0.6551327 -1.1392459 0.6340056 1.2879949 0.37146837 -3.3724725 -1.240267 -2.6147397
-3.3327963 1.160193 -1.817942 0.8464585 1.1576853 -4.668629 0.35167322 -0.50283587
-3.134423 -2.8758116 -1.3112313 -0.4777458 1.6039574 -2.6080031 -3.601252 -1.4276099
-7.4455953 2.5371783 3.8844168 -2.7776465 -1.195002 -3.7131689 -2.804507 -1.4509192
2.422898 -0.47826165 -2.012157 -1.0581069 0.9978417 2.6420836 0.8657565 0.9776093
-0.603922 -4.197289 -4.1793656 -0.012130256 -3.0579605 -1.5053468 -1.165223 -3.170073
4.2786455 -5.247887 -0.25217167 -1.2261719 4.19898 -0.5294098 0.13374782 -1.2796254
4.824916 -2.3438942 -2.8886921 0.27912062 1.4719317 -0.71530503 -0.04931385 0.2156682
-3.1574175 -0.9116666 -2.1916678 -0.0193921 -2.8460464 -4.6094823 -0.36855468 -1.3320076
0.5359067 -1.2549382 0.9536847 -1.0095496 -3.1685152 -2.7476232 -0.81621313 0.25572607
2.2365468 3.3369339 0.6426985 -1.3337033 -5.974495 0.6501819 0.65568334 -1.7639148
00000000: 382c 47bf 2a78 44c0 a2ae 0440 af42 e43f
00000010: 8b25 75be ffdd d03f a792 d2bf 3bdc b6bf
00000020: 59a0 cd40 3329 dbbf c512 10c0 8bf2 5ebf
00000030: c8a7 0a40 525b ea3f 1db9 37c0 0f71 09c0
00000040: b5d4 51bf 111c 90bf 1de3 21c0 c29b a83f
00000050: d7ea 78c0 26fa efbf 0b12 3fc0 7a65 31c0
00000060: 9cc6 1c3f d7a1 483f 1201 89bf d20b 363f
00000070: a543 a13e 9fd3 1cc0 0c27 1bc0 353c 49bf
00000080: 9dda cebe bb13 2bc0 628c c33f 7cff 0c40
00000090: 1b52 a5c0 c737 943f 3762 e1bf b85d 813f
000000a0: 0491 9ebe b543 c63e 5ae4 28c0 de6f c13d
000000b0: 0603 a73f 7c0a c4bf ed00 9a3f d3a1 563f
000000c0: e1f3 43be d3a1 37c0 c962 11c0 6722 893c
000000d0: 3cbc 2740 7743 4d3f a76d 53c0 f8e9 de3f
000000e0: cb5c 5b40 681e f8bf af81 b7c0 69b6 3ec0
000000f0: 62ee 6740 3724 f9be 2f53 03c0 f16e e1bf
00000100: d77f f4c0 f7bc ff3f 0650 73c0 7d2e 7d3f
00000110: 2549 13bf c464 03c0 289e 50bf 94fe 6f3f
00000120: a655 563f ed09 e2be 3ef7 9d3f 3d99 89bf
00000130: 0c15 b440 39d4 9b3f 5838 ebbf 812c 253f
00000140: 804f 6640 ac5c f0bf f628 273f 0fd7 0ac0
00000150: 8af7 4a40 2100 42c0 c61d 6cc0 c1c7 21c0
00000160: 2297 723e fbc9 cf3d 0180 a0bf bb4c ecbf
00000170: bbe8 1b40 440a 5a3f bae5 7fbf b4b6 7340
00000180: 5ea9 6fc0 7bc7 f5bf b1f5 1c3f 85d3 73bf
00000190: 6653 e4bf 4a80 993e 9e07 59c0 9d8f c23e
000001a0: 9d8b 813f e8d8 98be af51 953f fb55 9fbf
000001b0: 6278 debf 51ab dfbd 0fde 6240 1590 f6bf
000001c0: 70d6 ccbf 9cad e1c0 ade3 98bf 34be fbbf
000001d0: 6243 2240 3160 1ec0 e406 943f 3170 89bf
000001e0: 336f 1b40 db94 ad3d ba74 b7bf 60c5 2dbf
000001f0: ef01 c1c0 91d3 0ec0 bac8 2fbf 3498 32c0
00000200: ff8d f3bf 3196 0cc0 ae3c 053f 534e 79bf
00000210: 0db2 ee3f 4407 91c0 7650 00c0 d424 c0c0
00000220: 605b 883f a024 b9bf 9256 3dbf c56b 69c0
00000230: dc5c d33f aa1c 84c0 f0ee 9dbf bbec 97bf
00000240: b6e4 d2be 088f 0c3f 47c6 11c0 82e5 87bf
00000250: 2c74 bac0 50b2 58c0 9339 d6bf e6b8 babf
00000260: 24fa 1f40 729b 9c3f b32c a6bd 850d 1ec0
00000270: a3a4 383e fa55 40c0 9437 2bc0 1d6d 5ec0
00000280: a821 e2be 44a6 7ac0 bea0 f7bf c500 9740
00000290: e614 f33f 309f 7b3e 3c84 62bf 9d99 a9bf
000002a0: c7b6 27bf cfd2 91bf 314e 223f 04dd a43f
000002b0: 1a31 be3e 97d6 57c0 12c1 9ebf e557 27c0
000002c0: 894c 55c0 3481 943f 53b2 e8bf 81b1 583f
000002d0: 082f 943f 6965 95c0 830e b43e dab9 00bf
000002e0: 639a 48c0 4c0d 38c0 6dd6 a7bf 199b f4be
000002f0: 7a4e cd3f 86e9 26c0 ea7a 66c0 ecbb b6bf
00000300: 5142 eec0 2161 2240 499a 7840 f6c4 31c0
00000310: d3f5 98bf 8fa4 6dc0 0b7d 33c0 b8b7 b9bf
00000320: c310 1b40 b6de f4be 2ec7 00c0 0c70 87bf
00000330: 8e72 7f3f e617 2940 38a2 5d3f 9a44 7a3f
00000340: a29a 1abf 3150 86c0 5dbd 85c0 fbbd 46bc
00000350: a0b5 43c0 34af c0bf 0726 95bf 7ae2 4ac0
00000360: aaea 8840 b1ee a7c0 a51c 81be 33f3 9cbf
00000370: 0b5e 8640 6787 07bf 30f5 083e c4ca a3bf
00000380: b665 9a40 5d02 16c0 55e0 38c0 e6e8 8e3e
00000390: 4268 bc3f 3b1e 37bf 52fd 49bd 20d8 5c3e
000003a0: 2113 4ac0 fb62 69bf 4944 0cc0 2edc 9ebc
000003b0: a025 36c0 e180 93c0 33b3 bcbe 3a7f aabf
000003c0: 2e31 093f d1a1 a0bf ae24 743f ec38 81bf
000003d0: f4c8 4ac0 0fd9 2fc0 58f3 50bf 87ee 823e
000003e0: 9523 0f40 5390 5540 e487 243f cab6 aabf
000003f0: 102f bfc0 5272 263f ddda 273f f6c7 e1bf

xh/W f4 [64, 8]
-1.0532272 -2.0665696 -1.3135706 -2.0572984 -0.91851366 0.23429847 -3.2993371 -4.7504015
0.0077200187 -0.013779138 0.004183043 -0.09582676 -1.2614406 -1.6522733 2.144683 -0.09353143
0.026278075 -0.007156419 0.02941645 0.02247587 3.9889407 3.3894947 -6.16907 -3.9019537
-0.019495802 -0.03338642 -0.0037805801 0.0055021453 -0.91789985 0.02145382 0.16373277 0.9409143
-0.0056368555 -0.01913588 0.06999795 0.07168203 2.257059 1.894175 -3.1633584 -3.8143299
-0.007995542 -0.061094295 0.015316376 0.1059035 -1.1176449 -0.464319 2.6457458 3.2521644
-0.031667136 0.039764736 -0.015933273 0.03706995 -0.30316418 0.781706 -1.3590672 0.92648983
0.006544108 0.09346873 -0.033616304 -0.018182816 1.0120748 -0.15475565 -0.40579534 0.39912584
-0.022875197 -0.0082883015 -0.032841656 0.06073365 -0.99479055 -1.0890776 1.3170305 3.9467413
0.021558983 -0.06365036 -0.06768536 0.16843748 -0.13202134 0.97926605 -0.7746578 2.1216328
-0.00014171698 0.004341235 -0.07406259 0.00259007 0.049084146 -0.51453984 0.121719785 1.6603819
-0.005532856 -0.005181916 0.054329433 0.04985937 1.6225861 0.94374156 -0.8369792 -0.4296649
-0.74371576 1.4554178 4.1241674 3.472826 -0.99632066 -1.2457885 -0.5310441 0.69012064
0.01696269 -0.0027763455 -0.038272206 -0.02126807 1.1864133 1.2978717 -0.9681935 0.5737894
0.028686691 -0.024058055 0.05137954 -0.00017528288 1.6429489 3.477459 -4.222059 1.9968203
-0.68004084 2.4391124 1.3303423 -0.09055831 -0.95506793 -0.17072557 1.0958087 1.360054
-0.8279326 0.11406831 -0.4642904 1.1051595 -1.3595436 -0.8001042 -0.5603852 0.51257783
-0.006112465 -0.058093764 0.03336433 0.029786881 -0.63399154 -0.2844984 2.024723 1.9249456
-0.017824851 -0.052736476 0.035468604 -0.027872004 -1.3308307 0.31214038 0.94054615 2.3606079
0.01473536 -0.00731853 -0.15058865 0.03025248 -0.16700625 -0.26628286 0.13238665 -0.25511393
-0.007163791 0.022708714 -0.06723818 0.030297993 -1.6764218 -2.7114332 2.6167538 4.204193
-0.009190188 -0.021213483 0.008231148 -0.009402744 -0.8266637 -0.61265075 -0.0019139978 -1.3773258
-0.008048432 -0.0693417 0.22942634 -0.16893785 -0.01637116 1.0726749 -0.013377562 -0.6627872
-0.058493502 -0.05760627 -3.128746 3.2463384 -1.3003495 -1.5483031 4.804875 6.2263618
0.0017420113 0.006728414 -0.060744494 -0.009206416 -1.0673411 1.2263132 -1.241312 -1.7912359
0.0019998169 -0.0069388114 2.130852 -2.2671762 1.3097993 1.4184738 -5.4636145 -5.5830035
0.025789006 -0.018206758 0.022487858 -0.07067771 -1.0236837 -0.192515 -1.013522 0.23398687
0.31130096 -0.29136673 -3.7806792 3.4968224 1.5246506 3.0876245 -4.3969007 -5.7981076
-0.021875832 0.008505762 0.023547025 -0.07958766 1.4956226 3.0489564 -2.078917 -1.6737792
0.016341958 -0.03167392 -0.056054696 0.09103314 0.561597 3.2296743 -1.0208172 0.40136406
-0.005626281 -0.013313201 0.06257968 0.06128199 1.2938017 0.64915025 -0.062747 -0.9095371
-1.6322281 -3.198501 1.191112 1.7795666 0.5944318 -0.15637343 -0.8036202 2.089951
00000000: 26d0 86bf ad42 04c0 1523 a8bf c7aa 03c0
00000010: b623 6bbf f0eb 6f3e 5728 53c0 4a03 98c0
00000020: 36f8 fc3b e5c1 61bc e811 893b d240 c4bd
00000030: e376 a1bf b17d d3bf 7c42 0940 688d bfbd
00000040: 1e45 d73c 6580 eabb c4fa f03c 511f b83c
00000050: ce4a 7f40 7bed 5840 0569 c5c0 9cb9 79c0
00000060: a9b5 9fbc 33c0 08bd 9cc3 77bb 574b b43b
00000070: 7cfb 6abf ecbf af3c 90a9 273e c2df 703f
00000080: 5fb5 b8bb d9c2 9cbc 165b 8f3d 07ce 923d
00000090: a873 1040 5474 f23f 7774 4ac0 fb1d 74c0
000000a0: bcff 02bc 033e 7abd 8af1 7a3c efe3 d83d
000000b0: fd0e 8fbf 38bb edbe e653 2940 7623 5040
000000c0: 66b5 01bd 59e0 223d 7f86 82bc a9d6 173d
000000d0: 5638 9bbe e21d 483f eaf5 adbf 702e 6d3f
000000e0: f56f d63b 896c bf3d 40b1 09bd 21f4 94bc
000000f0: ab8b 813f 4478 1ebe 68c4 cfbe 395a cc3e
00000100: c464 bbbc a8cb 07bc f984 06bd d9c3 783d
00000110: 98aa 7ebf e566 8bbf 7594 a83f 6997 7c40
00000120: 779c b03c 1f5b 82bd 9f9e 8abd e07a 2c3e
00000130: 9a30 07be 2eb1 7a3f f94f 46bf d5c8 0740
00000140: dd99 14b9 eb40 8e3b 21ae 97bd 2abe 293b
00000150: 750c 493d e2b8 03bf 3948 f93d 6587 d43f
00000160: f64c b5bb 10cd a9bb 8a88 5e3d 5739 4c3d
00000170: e7b0 cf3f 0c99 713f 4544 56bf 0afd dbbe
00000180: 2864 3ebf 214b ba3f 2ef9 8340 c842 5e40
00000190: df0e 7fbf ff75 9fbf 82f2 07bf bfab 303f
000001a0: 57f5 8a3c 59f3 35bb 51c3 1cbd 603a aebc
000001b0: 64dc 973f a920 a63f 87db 77bf dde3 123f
000001c0: 5a00 eb3c 6615 c5bc 5a73 523d 24cc 37b9
000001d0: 264c d23f b08e 5e40 1b1b 87c0 cf97 ff3f
000001e0: 2817 2ebf 6b1a 1c40 a848 aa3f a376 b9bd
000001f0: 557f 74bf afd2 2ebe 7643 8c3f 4016 ae3f
00000200: 64f3 53bf a59c e93d 79b7 edbe de75 8d3f
00000210: 8605 aebf a1d3 4cbf 6875 0fbf 4d38 033f
00000220: 134b c8bb baf3 6dbd 09a9 083d 9e03 f43c
00000230: 454d 22bf c6a9 91be 1095 0140 9e64 f63f
00000240: 6c05 92bc 3402 58bd 8747 113d d453 e4bc
00000250: a958 aabf ddd0 9f3e a2c7 703f 3314 1740
00000260: 946c 713c 48d0 efbb e933 1abe 0dd4 f73c
00000270: b003 2bbe 3a56 88be 5e90 073e 4b9e 82be
00000280: 3cbe eabb a007 ba3c 2cb4 89bd 7f33 f83c
00000290: fd94 d6bf 1f88 2dc0 e578 2740 c088 8640
000002a0: 7192 16bc e6c7 adbc f0db 063c f70d 1abc
000002b0: 3ba0 53bf aed6 1cbf 1cdf faba 364c b0bf
000002c0: 92dd 03bc 0503 8ebd bdee 6a3e 0bfe 2cbe
000002d0: d01c 86bc 694d 893f 902d 5bbc 6cac 29bf
000002e0: e296 6fbd 8df4 6bbd 603d 48c0 02c4 4f40
000002f0: da71 a6bf cc2e c6bf 89c1 9940 5b3e c740
00000300: 3354 e43a 077a dc3b 38cf 78bd 82d6 16bc
00000310: a29e 88bf d5f7 9c3f 50e3 9ebf 3847 e5bf
00000320: 5c0f 033b f85e e3bb e15f 0840 6a19 11c0
00000330: 81a7 a73f 8d90 b53f eed5 aec0 f7a7 b2c0
00000340: 7743 d33c 5726 95bc 7538 b83c 7abf 90bd
00000350: 1108 83bf a722 45be 17bb 81bf 419a 6f3e
00000360: d762 9f3e 052e 95be a6f6 71c0 f0cb 5f40
00000370: c027 c33f a49b 4540 69b3 8cc0 198a b9c0
00000380: f234 b3bc c05b 0b3c b1e5 c03c dbfe a2bd
00000390: 9070 bf3f 1a22 4340 fa0c 05c0 663e d6bf
000003a0: 92df 853c 83bc 01bd 9c99 65bd 956f ba3d
000003b0: d2c4 0f3f fcb2 4e40 23aa 82bf 977f cd3e
000003c0: aa5c b8bb 9d1f 5abc c629 803d d302 7b3d
000003d0: 4b9b a53f b62e 263f 8081 80bd 6cd7 68bf
000003e0: daec d0bf 3eb4 4cc0 5c76 983f d7c8 e33f
000003f0: af2c 183f 5b20 20be 0eba 4dbf c2c1 0540

xh/b f4 [64]
-0.47276998 -0.22760688 -0.6826404 0.06949669 -0.6983904 1.0122354 0.004234475 0.26948762
0.7985462 0.56079155 0.33651718 0.33303675 0.41004375 0.53487563 0.74412376 1.2159536
0.37723204 0.7393888 0.50291795 -0.13596028 0.6303697 -0.7688588 0.10309063 1.8674055
-0.69566864 -2.0857549 -0.39811525 -1.7920398 0.18309775 0.76609814 0.22863781 0.42962193
-0.3651374 0.007118916 2.1257627 -0.5871193 -1.0566424 0.36972648 -2.0865526 -1.2089099
0.35873732 1.7742171 0.5475148 0.67057455 -0.121291526 -0.37888122 -1.5456473 1.4149464
-0.1033524 -0.32631522 -1.2030696 -0.15533847 1.4725121 -0.039926227 1.0231661 0.43640894
0.8392481 -0.6703089 1.6022416 1.7076318 3.0124578 -1.4100548 -0.13136403 1.1828668
00000000: e80e f2be c711 69be 85c1 2ebf 4854 8e3d
00000010: b7c9 32bf ee90 813f 5ac1 8a3b 48fa 893e
00000020: 866d 4c3f 0990 0f3f fb4b ac3e cb83 aa3e
00000030: 41f1 d13e 9ced 083f e57e 3e3f 5ea4 9b3f
00000040: 8f24 c13e 9648 3d3f 3bbf 003f 2c39 0bbe
00000050: e95f 213f eed3 44bf 2e21 d33d 2507 ef3f
00000060: 5717 32bf 027d 05c0 c3d5 cbbe 8f61 e5bf
00000070: fa7d 3b3e 021f 443f 0820 6a3e 68f7 db3e
00000080: 4af3 babe cc45 e93b 7f0c 0840 734d 16bf
00000090: 0f40 87bf ca4c bd3e 148a 05c0 8fbd 9abf
000000a0: 6bac b73e 8c19 e33f ee29 0c3f c6aa 2b3f
000000b0: b167 f8bd b8fc c1be c5d7 c5bf f71c b53f
000000c0: 6caa d3bd ca12 a7be 2ffe 99bf 0c11 1fbe
000000d0: 477b bc3f af89 23bd 1bf7 823f fe70 df3e
000000e0: f7d8 563f 5d99 2bbf 4116 cd3f ae93 da3f
000000f0: 1ccc 4040 ad7c b4bf 4b84 06be 2e68 973f
