code/python/slip_model/8_64_1_5_10_4950_150_use_train_slip_model.npz (npz, 127069 bytes, 6 tensors)

hy/W f4 [1, 64]
-0.26107764 0.10245436 0.23958202 0.22521378 0.19876507 0.18356757 0.28024 -0.17591974
-0.30637085 -0.24771054 0.17021948 0.3109476 0.27039927 0.19234477 0.34573865 0.17671901
-0.14208126 0.15512739 0.23255202 -0.24876136 -0.15872484 0.22318631 -0.1186511 -0.05061339
-0.118697606 -0.04293381 0.1631387 0.081522025 -0.2170977 0.058121763 0.20413795 0.078038
-0.08920449 -0.054651182 -0.24479365 -0.38712898 0.3598935 0.269209 0.1721279 0.3319455
0.17996638 0.28995216 0.15591435 0.20866051 -0.028187511 0.20122261 0.46278268 0.074618414
-0.1358044 0.33830833 -0.15102746 0.082566224 -0.25919798 -0.20967594 -0.2592713 -0.26841733
0.25946176 -0.25587833 -0.028228166 0.12335274 0.17247036 0.1245317 -0.09957121 -0.17149471
00000000: f8ab 85be 97d3 d13d fd54 753e 719e 663e
00000010: 1289 4b3e 23f9 3b3e 9e7b 8f3e 4e24 34be
00000020: a4dc 9cbe d5a7 7dbe 044e 2e3e 8634 9f3e
00000030: c671 8a3e 07f6 443e a804 b13e d4f5 343e
00000040: c07d 11be b7d9 1e3e 1e22 6e3e 4cbb 7ebe
00000050: c488 22be f48a 643e 59ff f2bd fc4f 4fbd
00000060: bb17 f3bd 5ddb 2fbd d50d 273e 05f5 a63d
00000070: dc4e 5ebe 1611 6e3d 8a09 513e 63d2 9f3d
00000080: d8b0 b6bd ebd9 5fbd 30ab 7abe c535 c6be
00000090: f643 b83e c3d5 893e 4c42 303e c3f4 a93e
000000a0: 1b49 383e 9c74 943e 03a8 1f3e 1aab 553e
000000b0: 7fe9 e6bc 4d0d 4e3e daf1 ec3e 8ad1 983d
000000c0: 4f10 0bbe c036 ad3e f1a6 1abe 7b18 a93d
000000d0: 99b5 84be 4ab5 56be 35bf 84be ff6d 89be
000000e0: 2cd8 843e 7c02 83be c13e e7bc 5da0 fc3d
000000f0: 129c 303e 7a0a ff3d feeb cbbd 4f9c 2fbe

xh/b f4 [64]
0.23957773 0.366565 -0.32725534 -0.88211983 -0.23429963 -0.4163664 0.22704409 -0.43882015
-0.37496307 0.5247665 -0.3594089 0.5111024 0.3091743 -0.22881882 -0.4749477 -0.14450723
-0.88189185 -0.8692649 0.33908433 0.18015242 -0.3455401 0.9715433 0.053479914 -0.056893904
-0.011968854 -0.25730935 -0.25631526 0.13216722 -0.17924385 -0.6586095 -0.7541228 0.43554297
0.15403047 -0.21367899 -0.27308112 -1.5118674 -0.21804571 0.5990222 0.35152712 0.018285787
-0.3962288 -0.6997308 0.2591644 1.1057216 -0.021234702 0.18535468 0.049395442 0.59309244
-0.23437645 0.29661685 0.45499423 -0.52427125 -0.8910754 1.4832206 0.51272404 1.107187
-0.24842915 -0.38693908 0.98719406 0.3737073 0.27715346 -0.013354285 -0.7210311 -0.48047107
00000000: dd53 753e 68ae bb3e 038e a7be 9bd2 61bf
00000010: 3eec 6fbe fa2d d5be 3f7e 683e 09ad e0be
00000020: 29fb bfbe 1957 063f 7104 b8be 9bd7 023f
00000030: 184c 9e3e 7b4f 6abe 582c f3be b4f9 13be
00000040: aac3 61bf 2588 5ebf 769c ad3e e079 383e
00000050: a2ea b0be 10b7 783f c10d 5b3d 9509 69bd
00000060: 0319 44bc 0dbe 83be c13b 83be d856 073e
00000070: b38b 37be a29a 28bf 310e 41bf 7dff de3e
00000080: 2aba 1d3e aace 5abe 4ad1 8bbe df84 c1bf
00000090: 6047 5fbe 8559 193f 5dfb b33e 13cc 953c
000000a0: 80de cabe 8f21 33bf 32b1 843e 4988 8d3f
000000b0: 66f4 adbc 9ecd 3d3e e052 4a3d e8d4 173f
000000c0: 6100 70be 2ade 973e 01f5 e83e a436 06bf
000000d0: 841d 64bf 2cda bd3f e241 033f 4eb8 8d3f
000000e0: 3664 7ebe e11c c6be c0b8 7c3f 9056 bf3e
000000f0: 0fe7 8d3e eecb 5abc 7f95 38bf 4e00 f6be

xh/W f4 [64, 8]
0.0122307595 0.0021975816 -0.044813283 0.05388241 0.6479294 -0.42007363 0.35636118 -0.024643494
-0.32269305 1.8170141 0.07366012 0.22250554 0.10371416 0.0040759733 0.13837463 -0.046114385
0.016442379 -0.02191805 -0.118461765 0.0913481 0.0557522 -0.27380338 0.095911264 -0.71976656
0.012058311 -0.0041535725 0.17150794 -0.22761199 0.28812015 -0.18244776 -1.282738 -1.1412805
1.0999696 0.6434838 -1.3502909 -1.328964 -0.21212165 0.26716733 0.2225907 0.13425523
0.98266864 -0.0028146193 0.6936571 -0.6130585 1.275399 1.1466105 0.85948205 1.2577331
-0.25939652 -0.07736098 0.8547186 -0.10205987 -0.011411168 -0.568611 0.084864005 0.21019983
0.0073411386 -0.00576673 -1.3376352 1.2888763 -0.13695547 -1.0859833 0.019545639 0.044972304
-0.0053387755 -0.008500191 -0.0028889228 -0.0020159327 0.0037503538 -0.30058104 -0.2740542 -0.4120569
-0.007829783 0.013258615 0.07282352 -0.06060924 0.13375998 0.013723556 0.33492824 0.87610257
0.1531262 0.002811809 1.6551381 -0.4755639 0.11163051 -0.42635375 -0.012740359 -0.122123644
0.0012016257 0.017329058 0.03761007 0.020412605 0.72144663 0.15796791 0.69679224 -0.31109694
0.21195005 -0.04899995 1.2917755 -1.694656 -0.3757628 0.5096551 0.96925086 0.94981384
-0.00042872428 -0.0105471555 0.3493416 -0.36660665 -0.17875001 -0.8046223 0.5832197 -0.1981624
0.009025383 -0.01682289 -0.026419561 -0.026414271 -0.45644173 -0.035449814 -0.2416458 -0.51202893
0.04473663 -0.00888123 -0.8004165 0.869282 -0.13369341 0.15348592 -0.093313485 -0.010346358
0.0051124967 -0.011305338 0.1133406 -0.15820658 -0.40148687 -0.7911244 -0.41830066 -0.70810765
-0.0044028526 0.002673505 -1.1605412 1.1251048 -0.15964384 0.12528849 -1.0529984 -1.1274128
-0.023803841 -0.016727736 0.41112056 -0.39599258 -0.17782173 0.37252682 0.5697111 0.23925675
-0.0028507262 0.00036066165 -0.52674866 0.5428973 0.29281417 -0.09851613 0.26005483 0.01719721
0.60577965 -0.028989293 0.3109637 0.38472205 0.49522734 0.33328998 0.903655 0.57726896
0.0035638334 0.026696218 -0.2704109 0.3392311 0.94628966 1.2690266 0.24374126 0.029183509
-0.00912721 0.001956214 -0.12953414 0.14216667 -0.17442782 0.7308861 -0.41858998 0.06668835
-0.021549638 -0.60926604 0.12890178 -2.6134608 0.25556123 0.69866925 -0.13790323 -0.4217119
-0.14418854 0.15274124 -0.6835001 0.8820859 -0.42146677 0.0599886 0.11355911 -0.7534393
0.37011993 0.14965193 2.963771 0.11523456 0.09165162 -0.42563665 0.20397349 -0.10781678
0.20180884 -0.114406586 -1.1655288 -2.9596515 0.83180785 0.690156 0.5298968 0.195003
-0.009494169 -0.0050537656 -0.2812197 0.29845032 -0.07391238 -0.3834508 0.9953383 -0.21748702
0.0031922457 0.008780926 0.08586882 -0.10533706 -0.13740641 -0.24561901 -0.052569754 -0.089907065
0.017412247 0.012175861 -2.4480832 2.4941623 -0.68009037 -0.7967658 0.14911483 -0.21276946
0.0029022011 -0.017924214 2.187169 -2.1470604 -0.051856678 -0.58065104 0.14273043 -1.5074525
0.00084213424 0.03457411 -3.0314565 2.8454947 0.1893766 0.4440121 0.21039301 0.47426635
00000000: 8663 483c 4d05 103b 228e 37bd cdb3 5c3d
00000010: b3de 253f e413 d7be f974 b63e 27e1 c9bc
00000020: 0638 a5be eb93 e83f 1edb 963d 7ed8 633e
00000030: 1768 d43d be8f 853b 14b2 0d3e 70e2 3cbd
00000040: 2bb2 863c 7b8d b3bc 159c f2bd b614 bb3d
00000050: 6b5c 643d f52f 8cbe 206d c43d 9f42 38bf
00000060: 3990 453c b11a 88bb c79f 2f3e 1e13 69be
00000070: 7c84 933e 96d3 3abe c230 a4bf 7b15 92bf
00000080: cecb 8c3f 5bbb 243f 55d6 acbf 7e1b aabf
00000090: 6b36 59be 28ca 883e d1ee 633e 347a 093e
000000a0: 2c90 7b3f 7a75 38bb 8393 313f 67f1 1cbf
000000b0: 4640 a33f 22c4 923f 0407 5c3f 66fd a03f
000000c0: 9fcf 84be 6f6f 9ebd d7ce 5a3f c404 d1bd
000000d0: e8f5 3abc 7e90 11bf 2ecd ad3d a03e 573e
000000e0: ef8d f03b d6f6 bcbb a137 abbf e6f9 a43f
000000f0: 0e3e 0cbe 8001 8bbf 2d1e a03c e134 383d
00000100: e5f0 aebb 6344 0bbc 1554 3dbb bd1d 04bb
00000110: 7fc8 753b c2e5 99be d550 8cbe 1ff9 d2be
00000120: 7d48 00bc a93a 593c 7f24 953d 6541 78bd
00000130: 60f8 083e c4d8 603c b77b ab3e 4248 603f
00000140: 1dcd 1c3e 5446 383b 91db d33f 1d7d f3be
00000150: 899e e43d 0a4b dabe f0bc 50bc f61b fabd
00000160: de7f 9d3a abf5 8d3c 040d 1a3d 5638 a73c
00000170: bab0 383f 57c2 213e fa60 323f 1948 9fbe
00000180: 6f09 593e 2cb4 48bd e658 a53f 7dea d8bf
00000190: fb63 c0be c278 023f d320 783f 0027 733f
000001a0: 66c6 e0b9 facd 2cbc e7dc b23e deb3 bbbe
000001b0: 3e0a 37be bafb 4dbf e34d 153f 16eb 4abe
000001c0: 33df 133c 28d0 89bc d66d d8bc be62 d8bc
000001d0: bbb2 e9be d333 11bd ff71 77be 5414 03bf
000001e0: c23d 373d 9482 11bc 19e8 4cbf 4489 5e3f
000001f0: ede6 08be 6a2b 1d3e 241b bfbd c583 29bc
00000200: bb86 a73b 063a 39bc 1e1f e83d e800 22be
00000210: b08f cdbe 2187 4abf 812b d6be 8b46 35bf
00000220: ce45 90bb f935 2f3b 9d8c 94bf 6f03 903f
00000230: ad79 23be a04b 003e a7c8 86bf 104f 90bf
00000240: 4600 c3bc 9b08 89bc 657e d23e 8abf cabe
00000250: e616 36be d6bb be3e 96d8 113f b9ff 743e
00000260: 40d3 3abb 3017 bd39 00d9 06bf 51fb 0a3f
00000270: bdeb 953e d3c2 c9bd e825 853e 2ae1 8c3c
00000280: 6014 1b3f f47a edbc a236 9f3e 4afa c43e
00000290: 708e fd3e fca4 aa3e ef55 673f e6c7 133f
000002a0: 348f 693b 07b2 da3c 4c73 8abe b3af ad3e
000002b0: 0a40 723f 776f a23f 4f97 793e 4112 ef3c
000002c0: 4b8a 15bc d333 003b 99a4 04be 2494 113e
000002d0: 359d 32be 5a1b 3b3f 6d51 d6be e793 883d
000002e0: de88 b0bc dcf8 1bbf d4fe 033e f142 27c0
000002f0: ecd8 823e fddb 323f 8136 0dbe 9fea d7be
00000300: 29a6 13be 3368 1c3e ddf9 2ebf 62d0 613f
00000310: 7eca d7be 9bb6 753d ae91 e83d 66e1 40bf
00000320: 5c80 bd3e 5b3e 193e 6dae 3d40 1900 ec3d
00000330: d8b3 bb3d 0ced d9be 6dde 503e 0bcf dcbd
00000340: faa6 4e3e 004e eabd 0c30 95bf ee6a 3dc0
00000350: 5cf1 543f 10ae 303f 51a7 073f deae 473e
00000360: 6e8d 1bbc 0f9a a5bb 07fc 8fbe 7bce 983e
00000370: 605f 97bd aa53 c4be 7ece 7e3f ebb4 5ebe
00000380: ff34 513b dfdd 0f3c fedb af3d f5ba d7bd
00000390: 44b4 0cbe 8d83 7bbe 6253 57bd 3221 b8bd
000003a0: 21a4 8e3c 437d 473c 65ad 1cc0 5ba0 1f40
000003b0: 671a 2ebf d8f8 4bbf 8fb1 183e 3de0 59be
000003c0: db32 3e3b cdd5 92bc 94fa 0b40 7069 09c0
000003d0: ab67 54bd 8ca5 14bf ed27 123e 34f4 c0bf
000003e0: acc2 5c3a 959d 0d3d 6203 42c0 961c 3640
000003f0: f0eb 413e 8e55 e33e 4471 573e 0ad3 f23e

hh/upward/b f4 [256]
-0.83640826 0.10838657 0.14231344 -0.5108286 1.2601501 0.36224887 0.12634964 1.409221
-0.047989015 -0.263143 0.31903794 0.80382717 1.261802 -0.35497114 0.51516825 -0.35098273
1.0133884 0.78902715 1.0414283 0.9455261 -0.5077508 0.894109 0.6862257 -0.609489
0.30274937 -0.13433246 -0.011752377 0.39850914 -1.1544755 0.44292226 0.8974988 -0.20133887
0.5736037 -0.5996792 -0.066517554 -0.8981504 -2.0268793 1.1514875 1.9550068 -0.79303205
0.6743755 0.4938189 0.12223233 0.2675378 -0.46227095 0.50535434 0.4456961 -0.77623653
0.27247584 0.47217095 0.88003385 -0.28638965 0.30451536 0.29936296 0.62692714 0.1997001
0.7146257 0.80399764 -0.0010764422 0.16492368 0.9351283 -0.9805574 0.82930607 0.53023744
-0.72484255 0.8124416 0.596294 0.5477347 0.58197 -0.96356636 1.2586143 0.10601731
0.71582574 -0.48276585 0.7433842 0.09248313 -0.8535784 1.989808 1.44727 0.09792701
-1.1344086 2.050836 1.3128182 -0.33707508 -0.20415996 -0.83860797 0.8917668 0.672125
-0.44492388 0.01646102 0.93157405 0.785095 -0.07469186 -1.3704991 -0.07709983 0.54575294
-0.62759876 0.2971905 0.9671291 0.55942726 -1.3591944 1.5140786 0.9135523 -0.23524605
-0.23937608 -0.14453378 0.45663077 0.08135342 0.45105255 0.329667 0.2788479 0.5103271
-0.13748269 0.38381556 1.0034075 0.13987629 -0.9527538 0.4200794 0.6137755 -0.2766064
-0.01014169 0.692698 0.92226994 -0.11142004 -0.41106138 0.9973818 0.6713618 1.1007421
0.7428113 -0.1559099 0.05037966 -1.1877261 -0.7602325 0.5043955 1.0347698 0.096330546
0.7115487 -1.312622 0.26469123 -0.06603959 -0.7375155 -0.0041257064 0.7393348 0.10504206
0.27747598 -0.121331 0.76023006 0.301121 0.19987829 -0.26470804 0.26752207 0.61013603
-0.4546612 -0.18572453 0.42594412 -0.17603186 2.5874434 1.1642673 2.2354217 0.11190591
0.8386218 0.6246689 0.5088116 0.6263048 1.1627711 -0.10091675 0.262888 -0.16645497
0.14674345 2.0314121 0.5863663 0.13384692 0.14272395 -0.25081435 0.41437814 0.19217949
-0.09568609 0.29081714 0.6826692 -0.4487878 1.3609275 0.1395039 0.19463481 -0.46581322
-0.71105355 0.020765342 -0.014526717 -0.56996596 -0.97481984 0.39744592 0.9274787 0.21386133
-0.17766114 0.68233985 0.16419329 0.8617598 0.22712499 -0.48245478 0.22522524 -0.5351006
-1.0727131 0.0065113576 0.0947037 -1.0347271 0.6744785 1.4639726 0.63846946 -0.04143047
-0.36584914 -0.21895778 -0.3865421 -0.054986764 -0.82507277 0.37608507 0.60744625 0.16045238
-0.61301196 1.3194362 1.2556928 -0.058401495 -1.0469983 0.18866597 0.13360803 0.043219756
0.9869776 0.9985097 0.75486344 0.0279833 -0.9658826 0.43399587 -0.3695452 -0.5713856
0.9046191 1.1916418 0.9476163 0.790411 -0.9453807 -0.0577025 1.0853335 -0.5583404
1.0679139 -1.0924947 -0.2234602 0.09121157 -0.5762789 0.40535766 0.066338874 0.33054608
0.2878753 -0.2015458 0.65541226 0.44891506 -0.7514362 0.8605499 -0.084774725 0.2400397
00000000: da1e 56bf c7f9 dd3d 9dba 113e aac5 02bf
00000010: 994c a13f af78 b93e cd61 013e 5b61 b43f
00000020: 2190 44bd aeba 86be f158 a33e 9ec7 4d3f
00000030: ba82 a13f c7be b5be 11e2 033f 02b4 b3be
00000040: b6b6 813f affd 493f 864d 853f 000e 723f
00000050: f5fb 01bf 54e4 643f 7dac 2f3f 7907 1cbf
00000060: f701 9b3e 738e 09be 0b8d 40bc 6409 cc3e
00000070: dac5 93bf b5c6 e23e 7bc2 653f c72b 4ebe
00000080: b1d7 123f 9384 19bf 5b3a 88bd 2fed 65bf
00000090: 64b8 01c0 f163 933f aa3d fa3f 2604 4bbf
000000a0: dfa3 2c3f d5d5 fc3e f254 fa3d b7fa 883e
000000b0: c7ae ecbe e75e 013f 4732 e43e 70b7 46bf
000000c0: f481 8b3e 64c0 f13e e649 613f aaa1 92be
000000d0: 70e9 9b3e 1a46 993e 4c7e 203f 2f7e 4c3e
000000e0: b6f1 363f cad2 4d3f 6817 8dba c1e1 283e
000000f0: 9164 6f3f cf05 7bbf 674d 543f a4bd 073f
00000100: 488f 39bf 2cfc 4f3f b9a6 183f 5738 0c3f
00000110: fcfb 143f 49ac 76bf 461a a13f 9a1f d93d
00000120: 5b40 373f 162d f7be 6d4e 3e3f cc67 bd3d
00000130: 1d84 5abf 07b2 fe3f 2540 b93f f58d c83d
00000140: 4d34 91bf e640 0340 6d0a a83f 1b95 acbe
00000150: 4f0f 51be 03af 56bf d44a 643f 6210 2c3f
00000160: 10cd e3be 43d9 863c a37b 6e3f fcfb 483f
00000170: 0cf8 98bd 846c afbf 84e6 9dbd 77b6 0b3f
00000180: 50aa 20bf 5a29 983e c695 773f a036 0f3f
00000190: 15fa adbf 54cd c13f 90de 693f 57e4 70be
000001a0: 011f 75be aa00 14be 82cb e93e 9f9c a63d
000001b0: 5cf0 e63e 1dca a83e 27c5 8e3e cca4 023f
000001c0: 43c8 0cbe 7983 c43e a86f 803f bb3b 0f3e
000001d0: ace7 73bf a614 d73e 6420 1d3f 5b9f 8dbe
000001e0: 5529 26bc a854 313f e219 6c3f 3130 e4bd
000001f0: a376 d2be 6a54 7f3f 5ede 2b3f 1ee5 8c3f
00000200: e228 3e3f d8a6 1fbe e75a 4e3d 6907 98bf
00000210: 999e 42bf 1020 013f 5673 843f f348 c53d
00000220: 0e28 363f ff03 a8bf 9c85 873e c43f 87bd
00000230: d1cd 3cbf ef30 87bb 0c45 3d3f 4b20 d73d
00000240: 5511 8e3e 637c f8bd 709e 423f 882c 9a3e
00000250: e5ac 4c3e d087 87be a7f8 883e e031 1c3f
00000260: 5ac9 e8be 922e 3ebe 5915 da3e b241 34be
00000270: ac98 2540 b606 953f 2611 0f40 ed2e e53d
00000280: ebaf 563f 4dea 1f3f 7a41 023f 8355 203f
00000290: afd5 943f 71ad cebd 4299 863e 2c73 2abe
000002a0: ea43 163e a802 0240 1a1c 163f 2b0f 093e
000002b0: 3a26 123e bd6a 80be 5f29 d43e b3ca 443e
000002c0: 12f7 c3bd fce5 943e 69c3 2e3f 84c7 e5be
000002d0: df32 ae3f 1cda 0e3e 594e 473e 127f eebe
000002e0: 9b07 36bf 141c aa3c 7801 6ebc 4ae9 11bf
000002f0: cb8d 79bf 087e cb3e 3e6f 6d3f 77fe 5a3e
00000300: cdec 35be d3ad 2e3f 4922 283e 4a9c 5c3f
00000310: 7493 683e 5004 f7be 72a1 663e 5afc 08bf
00000320: aa4e 89bf 3a5d d53b 03f4 c13d f071 84bf
00000330: 9faa 2c3f 7463 bb3f bc72 233f ffb2 29bd
00000340: 9450 bbbe 7836 60be d9e8 c5be cd39 61bd
00000350: f837 53bf 398e c03e 9981 1b3f a14d 243e
00000360: 5aee 1cbf 49e3 a83f 8bba a03f 6836 6fbd
00000370: 0a04 86bf a731 413e 8bd0 083e 3307 313d
00000380: 90aa 7c3f 559e 7f3f bb3e 413f 3c3d e53c
00000390: 1544 77bf b534 de3e 0735 bdbe 5446 12bf
000003a0: 1e95 673f b887 983f fb96 723f 6058 4a3f
000003b0: 7804 72bf 7559 6cbd 35ec 8a3f 65ef 0ebf
000003c0: 67b1 883f ded6 8bbf c0d2 64be 22cd ba3d
000003d0: 0487 13bf 0a8b cf3e addc 873d 563d a93e
000003e0: 6464 933e 0662 4ebe 19c9 273f 32d8 e53e
000003f0: 1f5e 40bf 004d 5c3f 5f9e adbd f8cc 753e

hh/upward/W f4 [256, 64]
0.19835916 0.04387667 0.05874871 0.08481042 -0.09534597 1.2713779 -0.094209015 0.09468431
0.079992294 -0.012047639 0.41807067 0.0070666755 0.5587118 -0.029952036 -0.034494195 -0.17297211
0.199087 0.005517771 0.033934616 -0.077984914 0.5637383 -0.10051053 -0.06378596 -0.32988438
-0.12393213 0.9082663 0.43159983 -0.039127685 -0.008691425 -0.24980135 0.09642862 -0.28248855
-0.23556235 0.002941669 0.11020095 -0.15683438 -0.39457253 -0.6264018 -0.053100385 0.016901402
0.026590113 0.1445444 -0.03864893 0.13577947 -0.0018951151 -0.13534108 0.27071103 -1.0258138
1.0759901 -0.03766961 -0.3048373 0.6769251 -0.13878407 -0.048236348 -0.035520297 -0.06300839
0.1261794 0.1499606 -0.12057999 0.008934907 -0.39438128 0.5725588 -0.008223013 0.47319588
0.090254486 -0.25876617 0.08468653 -0.052953504 -0.031913362 -0.24788289 -0.43005612 -0.14912939
0.024327692 0.07124251 -0.4408482 0.23506212 0.12246461 0.09796572 -0.19548976 -0.09803155
-0.07945163 -0.1881957 0.080663785 -0.22419079 -0.4852773 0.21407752 -0.24918547 0.08624564
-0.12816632 -0.66319036 -0.08201257 -0.019295216 0.20895909 -0.30805713 0.0137875145 0.23929477
0.19667874 0.021530354 -0.0048344755 -0.8273708 -0.1774618 0.31116676 0.19423945 -0.013678554
0.021182112 -0.06800423 0.06533227 0.73691255 -0.15373607 -0.073667794 0.2994944 0.24889974
-0.1368767 -0.047599204 -0.23193358 -0.14204599 -0.20539553 0.5278374 0.27400786 0.293047
-0.10376293 -0.17851275 0.24811754 -0.1297219 -0.1672102 -0.322264 -0.04351328 0.080028675
0.08448785 -0.35619205 0.04516388 -0.13902505 -0.45744675 0.22879185 0.36781678 0.2578598
-0.12632312 0.14050071 -0.6562156 0.23764975 0.49545285 -0.11394339 -0.16163428 -0.04535501
-0.14899395 -0.30698404 -0.15606686 0.39226365 0.029154414 0.3743547 0.31213734 1.3190522
-0.85597426 -1.8293382 0.9821729 0.115956426 0.12776542 -0.20459764 -0.5270653 0.9536808
0.95627904 -0.06683493 0.08648495 -0.77552164 -1.1677235 0.890449 -0.0476312 0.13747223
-0.23076254 -0.16115701 0.23086302 0.35192293 0.19324969 0.1563921 0.9115824 -0.64153194
-0.66070926 0.055650845 0.029339427 -0.22139859 -0.37230113 0.9476217 0.02744733 0.16261354
0.47724283 -0.03473709 0.43740788 -0.23797652 -0.06983919 -0.45907485 -0.40150246 0.26156178
0.26096472 1.1600568 -0.04176271 0.22745535 0.58806777 -0.37787804 -0.8889587 0.95892066
0.012438955 -0.34937555 -2.4318953 -0.22199744 -0.7388516 0.11947504 0.030594919 0.2792347
0.16152196 0.89170134 -0.31389585 0.009329018 -0.3569413 -0.4312911 0.14162613 -0.57924247
1.0436924 -3.0047224 1.1300913 0.01968022 0.08629486 2.8284037 -2.5077677 4.594175
1.8831941 -0.15321134 -0.05518948 2.3556976 -0.9121136 0.17263207 -0.26411393 0.91460556
-0.90346193 0.189847 -0.0017772663 -2.5967016 0.045970105 -0.045337595 -0.08849394 -0.21825776
-0.24993394 -0.19784226 -0.6867539 0.07917411 1.4856235 0.64284503 -0.18300693 -0.27292058
-1.4982903 0.10212146 1.6896639 1.4877857 -0.28028917 0.96000504 0.34433895 0.22010241
00000000: aa1e 4b3e 06b8 333d 7da2 703d 16b1 ad3d
00000010: bf44 c3bd 83bc a23f a8f0 c0bd d9e9 c13d
00000020: 00d3 a33d 7663 45bc 5c0d d63e 928f e73b
00000030: bd07 0f3f f95d f5bc c949 0dbd 9a1f 31be
00000040: 76dd 4b3e 6bce b43b 06ff 0a3d 8eb6 9fbd
00000050: 2751 103f 77d8 cdbd 37a2 82bd 9be6 a8be
00000060: 21d0 fdbd 2484 683f a7fa dc3e 5a44 20bd
00000070: 7b66 0ebc edcb 7fbe 5e7c c53d 57a2 90be
00000080: 4237 71be 04c9 403b 09b1 e13d 3199 20be
00000090: 6905 cabe de5b 20bf ca7f 59bd cf74 8a3c
000000a0: 82d3 d93c 7203 143e 574e 1ebd c609 0b3e
000000b0: 8365 f8ba da96 0abe a39a 8a3e de4d 83bf
000000c0: 0bba 893f 734b 1abd a213 9cbe f74a 2d3f
000000d0: 691d 0ebe 7a93 45bd bb7d 11bd 8b0a 81bd
000000e0: 2c35 013e 468f 193e a4f2 f6bd b763 123c
000000f0: 58ec c9be 3793 123f d1b9 06bc bb46 f23e
00000100: 58d7 b83d 007d 84be 2270 ad3d c6e5 58bd
00000110: 96b7 02bd 03d5 7dbe 5130 dcbe 60b5 18be
00000120: de4a c73c 98e7 913d dbb6 e1be 20b4 703e
00000130: bace fa3d 40a2 c83d 782e 48be c4c4 c8bd
00000140: 89b7 a2bd 60b6 40be 0e33 a53d 4592 65be
00000150: 4476 f8be 2337 5b3e 7a2a 7fbe 8ea1 b03d
00000160: 083e 03be d8c6 29bf 35f6 a7bd 0011 9ebc
00000170: 5ff9 553e aab9 9dbe 07e5 613c b009 753e
00000180: 2766 493e 6d60 b03c 856a 9ebb 93ce 53bf
00000190: 8cb8 35be 4051 9f3e b5e6 463e 041c 60bc
000001a0: 1c86 ad3c cd45 8bbd edcc 853d 4da6 3c3f
000001b0: fd6c 1dbe 24df 96bd 5457 993e 93df 7e3e
000001c0: 6829 0cbe 62f7 42bd ff7f 6dbe 8174 11be
000001d0: 3553 52be 5a20 073f c24a 8c3e 420a 963e
000001e0: a981 d4bd 0ccc 36be 8612 7e3e d1d5 04be
000001f0: 2739 2bbe c9ff a4be fb3a 32bd 13e6 a33d
00000200: f707 ad3d ce5e b6be c3fd 383d 955c 0ebe
00000210: 7636 eabe 6948 6a3e 7b52 bc3e 3306 843e
00000220: d95a 01be 6bdf 0f3e bffd 27bf 755a 733e
00000230: ffab fd3e 275b e9bd 7583 25be 2dc6 39bd
00000240: df91 18be 032d 9dbe fecf 1fbe c8d6 c83e
00000250: 3dd5 ee3c 6bab bf3e 77d0 9f3e b4d6 a83f
00000260: 2121 5bbf c127 eabf af6f 7b3f 907a ed3d
00000270: f0d4 023e 0b82 51be c0ed 06bf 6d24 743f
00000280: b4ce 743f c0e0 88bd 051f b13d 9688 46bf
00000290: f777 95bf 77f4 633f ef18 43bd 85c5 0c3e
000002a0: 044d 6cbe 5806 25be 5b67 6c3e 3e2f b43e
000002b0: 3fe3 453e 4025 203e 775d 693f 703b 24bf
000002c0: 3e24 29bf 24f2 633d 3d59 f03c 50b6 62be
000002d0: 419e bebe 5697 723f 39d9 e03c 2a84 263e
000002e0: 2c59 f43e 7b48 0ebd edf3 df3e 1eb0 73be
000002f0: d907 8fbd dc0b ebbe bb91 cdbe 6deb 853e
00000300: 2b9d 853e be7c 943f 600f 2bbd 0eea 683e
00000310: 9c8b 163f 3b79 c1be cc92 63bf d37b 753f
00000320: c2cc 4b3c 5ae1 b2be 2ca4 1bc0 4c53 63be
00000330: 6125 3dbf 54af f43d 32a2 fa3c daf7 8e3e
00000340: 0366 253e 8a46 643f f5b6 a0be bdd8 183c
00000350: 03c1 b6be 30d2 dcbe 7106 113e 3c49 14bf
00000360: b697 853f 5f4d 40c0 d5a6 903f 6a38 a13c
00000370: 5cbb b03d 9104 3540 447f 20c0 7b03 9340
00000380: 810c f13f 6fe3 1cbe 5d0e 62bd c0c3 1640
00000390: 4780 69bf 76c6 303e f139 87be 9723 6a3f
000003a0: 4849 67bf 4167 423e 29f3 e8ba 5c30 26c0
000003b0: 264b 3c3d eab3 39bd 503c b5bd f67e 5fbe
000003c0: afee 7fbe 2997 4abe 1bcf 2fbf 0926 a23d
000003d0: e928 be3f 7e91 243f 2b66 3bbe 3fbc 8bbe
000003e0: fac7 bfbf 0e25 d13d e846 d83f c36f be3f
000003f0: 1082 8fbe e4c2 753f 324d b03e 8762 613e

hh/lateral/W f4 [256, 64]
0.48179847 -1.4081149 2.9864557 -4.5010147 0.67602426 0.6358438 -0.7733346 -1.1332473
-0.57992715 0.31557927 -0.015154928 -0.95679265 0.015754344 1.2099822 -1.873418 -0.5608529
-1.1039134 2.0303712 -0.53090465 -0.11452409 0.099979706 1.9837148 -0.83722883 1.0875572
-0.30025667 2.2481947 1.1657283 -0.13023452 0.21255867 0.4321912 -0.9004051 -1.3265998
0.89456826 -1.1796373 -0.47037736 -0.16865018 0.7123679 0.063307345 -0.5185566 -0.39050874
0.15864575 0.17556167 -0.9126851 0.80290776 -1.2721028 0.2639877 -3.1373181 0.09652709
-0.20337999 -0.046003353 -0.9894876 -0.2636354 -0.7211068 0.07565695 -1.0908427 1.830788
0.64622384 1.246989 0.08292402 1.4207538 3.9578984 -1.6801685 0.18702456 1.8251932
-0.36434534 1.9539042 -2.1615403 -0.15923245 0.8070985 -0.7071892 -1.2851316 -0.3629476
2.1014097 -0.04132936 2.4644153 -1.7258857 -1.2638931 2.1499271 -0.78687745 -0.47559035
2.0385504 0.40974513 -1.3581039 1.7315259 1.7002816 -2.8479836 -0.26689142 0.9458103
0.32306352 -0.6263581 1.3374746 0.07808097 -0.91801053 -2.1766417 -0.56220734 1.0169415
0.52786416 -3.090831 1.4830146 0.9370901 -1.8298168 -0.2951739 0.79416937 1.2788333
-1.1204737 -0.6276498 -0.5324876 -0.014273559 -1.4359118 -5.108994 0.30088073 -0.14190377
-0.064830154 -0.21212633 -2.3290162 -0.19906856 -1.0953957 -1.0610574 2.5472844 1.7657014
-0.07233359 -0.36998737 -0.10621514 -0.7195059 1.8261828 -0.69501024 -0.8627349 -0.12469157
0.71306676 3.1115031 -2.034433 2.6111276 1.1487331 0.09804327 0.35624295 -1.3940542
0.25997767 1.0965635 2.0517564 1.8084588 -4.0942464 -4.430153 -0.87539065 2.0484433
3.7180984 2.666628 -2.17305 -0.42375258 -0.1969352 -1.1196867 0.56141245 1.109408
-0.2572569 0.6613149 1.7349805 0.41134098 -0.27711612 1.8800938 1.5476962 -0.47847432
1.0975926 -0.8796807 -0.18073952 0.56799245 0.024351425 -0.8826092 -0.06759237 0.58961415
-0.34795767 -0.15734927 1.6348703 -2.833573 -4.0398083 0.34040758 0.4761663 0.448091
1.2344209 0.33771226 1.1053132 -1.4663402 1.4925344 -0.49610925 -1.5014236 -0.10912057
-0.02345177 -4.530297 2.865431 1.0639603 -0.55262524 2.338216 -0.6944487 -0.62272424
-1.6137667 1.2384325 -1.2512263 -0.6483383 0.79085785 -0.0983301 -0.49083835 0.43896928
0.376465 0.08841357 0.27592877 -1.4226307 -3.1465428 2.836762 -1.6661876 1.3113188
1.2211478 -2.757045 -1.682517 -0.28640118 0.011876083 -1.9088852 0.4688835 -2.3996305
1.8399078 -0.3380232 -0.059673656 -0.60941327 0.27148855 1.8953978 -0.7907826 0.894137
2.5155807 0.6594942 1.7151129 -1.0523083 1.0897461 -2.4297414 -2.7655997 0.1670349
-2.0694485 0.8487271 0.07828111 -3.0621283 -2.2535923 0.59309095 -2.174101 -1.0719224
1.0038263 -3.1673284 -2.195598 1.2266586 2.0148892 0.963774 -0.017546872 0.48166236
-0.38082784 2.1082366 -0.25838476 0.10030182 -0.9673542 -3.4775825 1.3713144 0.21923126
00000000: 4aae f63e 1c3d b4bf 1722 3f40 5008 90c0
00000010: ed0f 2d3f a9c6 223f 42f9 45bf 3f0e 91bf
00000020: 1b76 14bf 9b93 a13e 604c 78bc 5df0 74bf
00000030: 410f 813c b2e0 9a3f 29cc efbf 0e94 0fbf
00000040: 094d 8dbf 9af1 0140 5ee9 07bf 9b8b eabd
00000050: 29c2 cc3d 5eea fd3f a154 56bf 1335 8b3f
00000060: 3ebb 99be 6ce2 0f40 9636 953f 335c 05be
00000070: fba8 593e 2a48 dd3e f380 66bf 06ce a9bf
00000080: 6d02 653f 5bfe 96bf 4dd5 f0be a2b2 2cbe
00000090: be5d 363f 48a7 813d 20c0 04bf c3f0 c7be
000000a0: 0874 223e 70c6 333e bba5 69bf 5d8b 4d3f
000000b0: 44d4 a2bf 6529 873e d2c9 48c0 ffaf c53d
000000c0: d842 50be 036e 3cbd 0f4f 7dbf 38fb 86be
000000d0: 759a 38bf 08f2 9a3d bca0 8bbf 4357 ea3f
000000e0: ed6e 253f 569d 9f3f 12d4 a93d 43db b53f
000000f0: 354e 7d40 c30f d7bf 5e83 3f3e ee9f e93f
00000100: 798b babe 8819 fa3f ad56 0ac0 d50d 23be
00000110: 029e 4e3f 5a0a 35bf 317f a4bf 45d4 b9be
00000120: 7f7d 0640 fa48 29bd fbb8 1d40 d3e9 dcbf
00000130: 40c7 a1bf 6898 0940 cd70 49bf 9480 f3be
00000140: 9c77 0240 1dca d13e 59d6 adbf a4a2 dd3f
00000150: d4a2 d93f 5d45 36c0 fea5 88be a020 723f
00000160: 9568 a53e 0159 20bf 5e32 ab3f eae8 9f3d
00000170: bd02 6bbf 194e 0bc0 d2ec 0fbf 242b 823f
00000180: 1b22 073f 2dd0 45c0 6cd3 bd3f 23e5 6f3f
00000190: 7037 eabf 0921 97be af4e 4b3f cfb0 a33f
000001a0: af6b 8fbf a8ad 20bf 1b51 08bf a5db 69bc
000001b0: f5cb b7bf e17c a3c0 0a0d 9a3e 394f 11be
000001c0: acc5 84bd a537 59be 9a0e 15c0 a1d8 4bbe
000001d0: ed35 8cbf bbd0 87bf b506 2340 8102 e23f
000001e0: a223 94bd fc6e bdbe 5387 d9bd 8a31 38bf
000001f0: 5cc0 e93f 31ec 31bf 32dc 5cbf 4b5e ffbd
00000200: 8b8b 363f de22 4740 2634 02c0 b71c 2740
00000210: b009 933f e9ca c83d 7a65 b63e 5e70 b2bf
00000220: cb1b 853e 315c 8c3f fa4f 0340 947b e73f
00000230: 1104 83c0 d0c3 8dc0 9a19 60bf b219 0340
00000240: 53f5 6d40 08aa 2a40 4013 0bc0 19f6 d8be
00000250: 62a9 49be e551 8fbf bab8 0f3f 1501 8e3f
00000260: 2db7 83be ef4b 293f d713 de3f 499b d23e
00000270: 2ae2 8dbe eaa6 f03f e91a c63f 96fa f4be
00000280: ea7d 8c3f c132 61bf c813 39be f467 113f
00000290: a47c c73c adf2 61bf de6d 8abd f4f0 163f
000002a0: 8227 b2be 2b20 21be 6e43 d13f 4359 35c0
000002b0: 1c46 81c0 e749 ae3e 12cc f33e 2f6c e53e
000002c0: 8101 9e3f 9fe8 ac3e e77a 8d3f 09b1 bbbf
000002d0: 5e0b bf3f 0802 febe a62e c0bf 9b7a dfbd
000002e0: ed1d c0bc 31f8 90c0 3963 3740 da2f 883f
000002f0: d978 0dbf 55a5 1540 64c7 31bf db6a 1fbf
00000300: e88f cebf f584 9e3f 2f28 a0bf 80f9 25bf
00000310: a975 4a3f 4b61 c9bd 2a4f fbbe 95c0 e03e
00000320: 05c0 c03e 2c12 b53d 8946 8d3e c318 b6bf
00000330: f560 49c0 828d 3540 a345 d5bf 4bd9 a73f
00000340: 924e 9c3f 6d73 30c0 b85c d7bf 2da3 92be
00000350: e793 423c 5a56 f4bf 8011 f03e 8c93 19c0
00000360: 1982 eb3f 6011 adbe 5d6c 74bd 8202 1cbf
00000370: 8c00 8b3e 659c f23f ba70 4abf 2ae6 643f
00000380: 46ff 2040 9dd4 283f d288 db3f 0ab2 86bf
00000390: cd7c 8b3f e280 1bc0 96ff 30c0 320b 2b3e
000003a0: d871 04c0 2e46 593f d951 a03d e9f9 43c0
000003b0: db3a 10c0 cfd4 173f 7924 0bc0 c134 89bf
000003c0: 617d 803f 82b5 4ac0 ad84 0cc0 2603 9d3f
000003d0: f2f3 0040 e5b9 763f 75be 8fbc 739c f63e
000003e0: defb c2be 59ed 0640 024b 84be 0a6b cd3d
000003f0: 86a4 77bf b690 5ec0 3b87 af3f 297e 603e
